models/dumps/IntTower_v2.pth (torch, 427382 bytes, 15 tensors)

user_tower.fc.0.weight f4 [256, 11]
0	0x3de0fbeb	0.109855495
1	0x3e2de685	0.16982467
2	0x3c9e89d3	0.01935283
3	0xbce40e52	-0.02783886
4	0x3e867d2f	0.26267383
5	0xbe81f91a	-0.25385362
6	0xbd210d3b	-0.03931926
7	0x3e388ccf	0.18022464
8	0xbe02f1bc	-0.12787527
9	0xbde73a47	-0.112904124
10	0xbdb5a9b3	-0.08870258
11	0x3db37406	0.08762364
12	0xbe061e82	-0.13097575
13	0x3e3669ec	0.17813843
14	0xbe7fcd87	-0.24980746
15	0x3e135cda	0.14390889
16	0x3d5b4877	0.053535905
17	0x3dcae4e1	0.099069364
18	0x3e5d3a8c	0.21604365
19	0xbde133e0	-0.109962225
20	0xbb99fd55	-0.004699389
21	0x3da87d4f	0.08227026
22	0xbd8b96ec	-0.068158954
23	0xbcc8a5a9	-0.024493055
24	0x3cbe3002	0.023216251
25	0xbe399f96	-0.18127283
26	0xbe32ff9c	-0.1748032
27	0x3e1b9d80	0.151968
28	0x3e20caa5	0.15702303
29	0x3d945d07	0.07244306
30	0x3e2ee41e	0.17079207
31	0xb8ab16ff	-8.158199e-05
32	0xbb80970e	-0.003924257
33	0xbe4f5fef	-0.2025144
34	0xbe81f799	-0.25384215
35	0xbdaac86e	-0.0833901
36	0x3dcba6c4	0.099439174
37	0x3e05bec1	0.13061048
38	0xbe795491	-0.24348666
39	0x3e2e3624	0.1701284
40	0x3a298b76	0.00064676197
41	0xb80fea09	-3.431182e-05
42	0x3b3a0ff3	0.0028390854
43	0x3d00aa69	0.031412516
44	0x3d97e972	0.07417573
45	0xbe041b70	-0.12901092
46	0x3e6ef0b3	0.23334007
47	0xbe215c05	-0.15757759
48	0x3e475e39	0.19469537
49	0xbd38599e	-0.04500734
50	0x3e8167be	0.25274462
51	0x3b0535d2	0.002032627
52	0x3c0313ba	0.008000309
53	0xbe78c2e6	-0.24293098
54	0xbe2a1208	-0.16608441
55	0x3d6bace1	0.057537917
56	0x3db259d1	0.08708537
57	0xbe2166e6	-0.15761909
58	0xbe35de98	-0.17760694
59	0x3e35f092	0.17767552
60	0xbb93de10	-0.004512556
61	0xbe5eda5e	-0.21762988
62	0xbe881a91	-0.2658277
63	0x3e260784	0.16213804
64	0xbd2ac481	-0.041691307
65	0x3da1cbd6	0.07900207
66	0xbe1afe6c	-0.15136117
67	0x3e8442da	0.25832254
68	0xbe7cce5e	-0.24688098
69	0x3db34eaf	0.08755242
70	0x3e32b672	0.1745241
71	0xbe650ec7	-0.22368918
72	0x3d2c0c2d	0.0420038
73	0xbe298975	-0.16556342
74	0xbe64c95c	-0.22342438
75	0x3b36b9a2	0.0027881642
76	0xbd8aea00	-0.06782913
77	0x3e225a12	0.15854672
78	0x3da42a34	0.08015862
79	0xbe613c75	-0.21995719
80	0x3c83a450	0.016069561
81	0x3e5e4f0f	0.21709846
82	0x3dc98002	0.09838869
83	0x3e793b71	0.24339081
84	0x3d015d0b	0.031582873
85	0x3dbeeb3e	0.09322213
86	0x3e30ceae	0.17266342
87	0xbde3a5b7	-0.11115592
88	0xbe2bc797	-0.16775356
89	0x3cf8d71a	0.030376006
90	0x3d91e6d5	0.07124106
91	0xbd9aa002	-0.0755005
92	0xbe621440	-0.22078037
93	0x3e86ec98	0.26352382
94	0x3e14b53f	0.14522265
95	0x3d5277cc	0.05138378
96	0x3da523b4	0.080634505
97	0x3e1f5810	0.15560937
98	0xbd50ddc0	-0.050992727
99	0xbd99acf6	-0.07503693
100	0x3d2d60f8	0.042328805
101	0xbd5bff0a	-0.05371002
102	0x3e847a33	0.2587448
103	0xbe43a712	-0.19106701
104	0xbe97c9b2	-0.2964607
105	0x3ce27356	0.027642887
106	0x3e8117de	0.25213522
107	0xbe8a617a	-0.27027494
108	0xbcf5465f	-0.029940782
109	0x3e058afc	0.130413
110	0x3e39c5b8	0.1814183
111	0x3e2ffd7d	0.17186542
112	0x3e7f1a3f	0.24912356
113	0xbe3af4bb	-0.1825742
114	0x3e672b0c	0.22575015
115	0xbd63a6ab	-0.05557887
116	0x3e23ab98	0.15983427
117	0x3900b96c	0.00012276106
118	0xbe7f4df9	-0.24932088
119	0x3d759aec	0.0599622
120	0x3e832640	0.2561512
121	0xbe0755cd	-0.13216324
122	0xbd6ad006	-0.057327293
123	0x3e74f256	0.23920569
124	0x3e7a46ca	0.24441066
125	0xbe932eb2	-0.28746563
126	0x3e091754	0.13387805
127	0xbe1047c5	-0.14089878
128	0xbd423b43	-0.047419798
129	0xbdcf9493	-0.1013576
130	0xbe16f1ce	-0.14740679
131	0x3e251cbd	0.16124244
132	0x3c6b2883	0.01435292
133	0xbe8afee3	-0.27147588
134	0x3d9f5ea1	0.07781721
135	0x3d3d007e	0.046143048
136	0xbdf1cca5	-0.11806611
137	0xbe7badc8	-0.24578011
138	0xbe8abd60	-0.27097607
139	0xbe86334b	-0.26211008
140	0xba838263	-0.0010033365
141	0xbd12361e	-0.03569614
142	0xbe689c0a	-0.22715774
143	0xbe0ddefd	-0.13854595
144	0x3cc7a201	0.024369242
145	0x3e75d4b1	0.24006917
146	0x3e077742	0.13229087
147	0x3e255548	0.16145813
148	0xbe72a805	-0.23696907
149	0x3c9076e1	0.01763481
150	0x3e420f36	0.18951115
151	0xbe36e70e	-0.17861578
152	0x3e6dbe0c	0.23217028
153	0xbe80dad9	-0.25166968
154	0xbe863bd7	-0.2621753
155	0xbe8b3127	-0.27185938
156	0x3da4cbe8	0.080467045
157	0xbe803a4a	-0.2504447
158	0x3d4d7e85	0.050169487
159	0xbda64bb4	-0.08119908
160	0xbe41165b	-0.18856184
161	0x3e4c7efc	0.19970316
162	0x3e8b1c3c	0.2716998
163	0x3df1d087	0.118073516
164	0xbe5fd018	-0.21856725
165	0xbd85ade6	-0.06527309
166	0x3e900c9a	0.28134614
167	0xbdc20c7f	-0.0947504
168	0x3d7b4e44	0.061353937
169	0x3e83d54a	0.25748664
170	0xbcb6057a	-0.022219408
171	0x3dc581c5	0.09643892
172	0xbcfad48f	-0.030618934
173	0x3d9e0116	0.07715051
174	0xbc029bae	-0.007971687
175	0xbe4eeded	-0.20207949
176	0xbe2216dc	-0.15829033
177	0xbd9466e6	-0.07246189
178	0xbe719e8d	-0.23595639
179	0xbdf84b1c	-0.12123701
180	0xbe45e169	-0.19324268
181	0x3e3dbc53	0.18528871
182	0xbe5f50d8	-0.21808183
183	0x3b54d58a	0.0032475912
184	0xbe11bfca	-0.14233318
185	0xbd2075fc	-0.03917502
186	0x3cea8569	0.028628068
187	0xbe4f7b79	-0.20261945
188	0xbe850459	-0.2597988
189	0x3e1153ea	0.14192167
190	0xb975714c	-0.00023407227
191	0xbac297c1	-0.0014846252
192	0xbe017045	-0.12640484
193	0x3e7d448d	0.24733181
194	0x3e130284	0.14356428
195	0xbaf164cc	-0.0018416881
196	0xbac30b32	-0.0014880656
197	0xbd99bfb2	-0.07507266
198	0x3e4bbdc5	0.1989661
199	0x3e342077	0.1759051
200	0x3e46c4df	0.19411038
201	0xbe391903	-0.18075947
202	0x3e049461	0.12947227
203	0xbdcc69e1	-0.09981132
204	0xbe86d09b	-0.26331028
205	0xbe4e4994	-0.20145255
206	0x3e027b93	0.12742452
207	0x3e27ca6a	0.16385809
208	0x3e5854f1	0.21126153
209	0xbe42b121	-0.19012882
210	0xbdb3215c	-0.08746597
211	0x3d933ed4	0.07189718
212	0xbe2c7612	-0.16841915
213	0xbe321403	-0.17390446
214	0xbe664f23	-0.22491126
215	0x3e240b26	0.16019878
216	0x3d9bbf62	0.07604863
217	0x3df60f3e	0.12014626
218	0x3e27dd5c	0.16393036
219	0xbde39f6e	-0.11114393
220	0xbde94c00	-0.11391449
221	0x3ccf126b	0.025277337
222	0x3e70a086	0.23498735
223	0x3e0c03b1	0.13673283
224	0xbddc11fd	-0.107456185
225	0xbe813fec	-0.2524408
226	0xbe192e4c	-0.14959067
227	0x3e044fdb	0.12921087
228	0x3e464185	0.19360931
229	0x3bce216e	0.006290606
230	0xbe745e6d	-0.23864146
231	0xbe0abb40	-0.13547993
232	0xbd897f6b	-0.06713756
233	0xba55ea98	-0.00081602624
234	0x3b1b002e	0.002365123
235	0xbe188197	-0.14893185
236	0xbb071c19	-0.0020616113
237	0xbde1db5c	-0.110281676
238	0x3e2a1d38	0.16612709
239	0xbd716505	-0.05893423
240	0x3d65c94c	0.056100175
241	0x3cd6b1b2	0.026207779
242	0x3d79b1b1	0.060960475
243	0xbe6c29d3	-0.2306283
244	0x38eab2be	0.00011191283
245	0xbe1b7651	-0.15181853
246	0xbd2fd4ea	-0.04292766
247	0x3d5e4532	0.05426521
248	0xbc6d250c	-0.014474165
249	0xba9ed8f0	-0.0012119096
250	0xbdf2908d	-0.11843977
251	0xbe3b0401	-0.18263246
252	0x3e43fcde	0.1913943
253	0x3d4636d7	0.048392143
254	0x3dc7c692	0.09754671
255	0x3e221901	0.1582985

user_tower.fc.0.bias f4 [256]
0	0x3e6d551c	0.23176998
1	0x3a9951b9	0.0011697329
2	0x3d2d1a59	0.042261455
3	0x3ad492b6	0.001621804
4	0x3e276476	0.16346917
5	0x3dc86771	0.09785355
6	0xbcecf6dd	-0.028926307
7	0x3e3b011b	0.1826214
8	0x3e7a08d8	0.24417436
9	0x3e49acca	0.1969482
10	0xbe82c071	-0.25537446
11	0xbdca9e9f	-0.09893536
12	0xbe06d328	-0.13166487
13	0xbe90a6ca	-0.2825225
14	0x3e920e06	0.28526324
15	0xbd3b9bb5	-0.04580279
16	0x3e505bed	0.20347567
17	0xbe7e7db5	-0.24852641
18	0xbe5789ad	-0.21048613
19	0xbe3320be	-0.17492959
20	0xbdf1a3fb	-0.11798855
21	0xbe30cd71	-0.1726587
22	0xbe0a88d5	-0.1352876
23	0xbe8ea5ef	-0.27860972
24	0xbd36e56b	-0.044652384
25	0xbe0a299a	-0.13492432
26	0xbe85cdb9	-0.26133516
27	0x3e46a906	0.19400415
28	0xbe5fa770	-0.21841216
29	0xbe3e1454	-0.18562442
30	0xbe772c58	-0.2413801
31	0xbdb0e064	-0.08636549
32	0xbe4a974c	-0.19784278
33	0xbe4b6d57	-0.19865929
34	0xbe1b3215	-0.15155824
35	0x3e1a772b	0.15084521
36	0xbe89f8cb	-0.26947626
37	0x3dda06bd	0.106458165
38	0x3e7ecb48	0.24882233
39	0x3dd0063f	0.10157441
40	0xbd93bd74	-0.0721387
41	0xbe143a40	-0.14475346
42	0x3e8bab92	0.27279335
43	0x3d493b9e	0.04912912
44	0xbd46c669	-0.048529062
45	0xbe828c11	-0.25497487
46	0xbe19d62e	-0.1502311
47	0x3e49671a	0.19668236
48	0x3d6585c9	0.05603579
49	0xbdbaae70	-0.091153026
50	0xbe66cfd9	-0.22540225
51	0xbe665470	-0.22493148
52	0x3e731f2f	0.23742364
53	0xbe07a377	-0.1324595
54	0xbde9a5a5	-0.11408547
55	0xbe78c907	-0.24295436
56	0x3df9eb08	0.12203032
57	0x3e34e31f	0.17664765
58	0xbdec4cc4	-0.115380794
59	0x3c22452f	0.00990419
60	0x3e411907	0.18857203
61	0x3e828b76	0.25497025
62	0x3e6da601	0.23207857
63	0x3e1c076c	0.15237206
64	0x3e1b3418	0.15156591
65	0x3e04ab39	0.12955941
66	0xbda3d02d	-0.07998691
67	0x3db66aaa	0.08907063
68	0x3ccd8dde	0.025092062
69	0xbe722170	-0.23645568
70	0x3e17a390	0.14808488
71	0xbd0fe06b	-0.03512613
72	0xbe008158	-0.1254934
73	0x3e3be43b	0.18348782
74	0x3e184d4e	0.1487324
75	0x3e06934c	0.13142127
76	0xbe4a36e7	-0.19747506
77	0x3e8f3616	0.27970952
78	0xbe6b6c40	-0.22990513
79	0x3d220152	0.03955204
80	0xbe285fad	-0.16442747
81	0xbe868dbd	-0.26280013
82	0xbde9bc52	-0.114128724
83	0xbd78d783	-0.060752403
84	0xbe2eb164	-0.17059857
85	0xbd8643a9	-0.06555874
86	0x3e6fa011	0.23400904
87	0xbdadab6b	-0.08479961
88	0xbe1b011d	-0.15137143
89	0xbe458907	-0.19290553
90	0x3e25c246	0.1618739
91	0xbe89769c	-0.26848304
92	0x3e8e7a02	0.2782746
93	0x3e8b72bf	0.27235982
94	0xbde59500	-0.1121006
95	0xbe550f6f	-0.20806669
96	0xbe789f3d	-0.24279495
97	0xbe7889eb	-0.24271362
98	0xbe4eef49	-0.20208468
99	0xbe969c13	-0.2941595
100	0x3c68f1f1	0.01421784
101	0x3d8c85c7	0.068614535
102	0xbe3b3d1c	-0.1828503
103	0xbcdf18d5	-0.02723352
104	0x3d901bf9	0.07036585
105	0x3e101d9d	0.14073797
106	0x3e84339c	0.25820625
107	0xbd859084	-0.06521705
108	0x3d1a7b54	0.03771527
109	0x3d9b67cd	0.07588158
110	0xbe4ab5e3	-0.19795947
111	0xbd8ec983	-0.06972029
112	0x3d80c88e	0.06288253
113	0x3e86d264	0.2633239
114	0xbe3ec1e2	-0.18628648
115	0xbe7f10a7	-0.24908696
116	0xbcae1855	-0.021251837
117	0xbde9109e	-0.113801226
118	0xbcdfb092	-0.027305875
119	0x3e499b64	0.19688183
120	0x3cb25932	0.021771047
121	0xbe5b6015	-0.21423371
122	0xbe3e32c4	-0.18574053
123	0x3e601fd2	0.21887138
124	0xbdc08036	-0.09399454
125	0x3e20852d	0.15675803
126	0x3dbd2aa4	0.09236649
127	0xbe83cf16	-0.25743932
128	0x3e784265	0.24244078
129	0xbdca3c02	-0.09874727
130	0x3e686ade	0.22697017
131	0xbe512d52	-0.20427445
132	0x3e58c713	0.21169691
133	0x3d656ae6	0.05601015
134	0x3d981e37	0.07427638
135	0xbe4294a0	-0.19002008
136	0xbcde79a9	-0.027157621
137	0x3e31ef9b	0.17376558
138	0x3e63c05e	0.22241351
139	0xbe404a6f	-0.18778394
140	0xbe8719fa	-0.26387006
141	0xbe547827	-0.2074896
142	0xbd90560e	-0.07047664
143	0x3da5c66e	0.08094488
144	0xbe27eb8e	-0.1639845
145	0xbe801d94	-0.25022566
146	0xbe27016d	-0.16309138
147	0x3e5fe142	0.21863273
148	0x3dca1031	0.098663695
149	0x3e32c21c	0.1745686
150	0xbd661e8f	-0.056181487
151	0x3e860402	0.26174933
152	0xbe52c7b6	-0.20583996
153	0x3cc39527	0.023874832
154	0xbd394b6d	-0.045237947
155	0x3bf31dda	0.00741933
156	0xbd77dc43	-0.060512792
157	0xb9c2377b	-0.000370439
158	0x3c8d4d43	0.017248755
159	0x3e6708d0	0.22561955
160	0x3dbdf779	0.09275717
161	0x3e74783d	0.23873992
162	0xbe8b81d2	-0.27247483
163	0xbe8b121e	-0.2716226
164	0x3da51b56	0.080618545
165	0xbe0e5929	-0.139012
166	0xbe215c3f	-0.15757845
167	0xbdddd3f9	-0.10831446
168	0xbe4a1203	-0.19733433
169	0x3e02155c	0.1270346
170	0x3e78d32e	0.24299309
171	0x3e4b4a69	0.19852604
172	0xbe2215b6	-0.15828595
173	0xbe49014c	-0.19629401
174	0xbe9e0315	-0.30861726
175	0xbe322fec	-0.17401093
176	0xbe44f11b	-0.192326
177	0x3e43673a	0.19082347
178	0x3da34fb5	0.07974187
179	0x3d8478b6	0.06468336
180	0xbe5aaaaa	-0.21354166
181	0xbca326c6	-0.01991595
182	0x3e523041	0.2052622
183	0x3e307c89	0.17235006
184	0xbdc9f32a	-0.09860833
185	0xbdf05f27	-0.11736899
186	0xbd7d56bb	-0.06185029
187	0xbdb3387d	-0.08751009
188	0xbd4b33b3	-0.04960985
189	0xbe6f4678	-0.23366725
190	0xbdde33d3	-0.108497284
191	0xbca8f296	-0.020623486
192	0x3e320017	0.17382847
193	0x3d326d91	0.043561522
194	0xbe9611c3	-0.29310426
195	0xbe8a9a40	-0.27070808
196	0x3db0364f	0.086041085
197	0xbd05b5cf	-0.03264409
198	0xbb8dcd78	-0.0043274723
199	0x3e0f2458	0.13978708
200	0x3e539348	0.20661652
201	0xbdae0ad9	-0.08498163
202	0x3de28a46	0.1106153
203	0x3e4d00ed	0.20019884
204	0x3c3ed5e9	0.01164768
205	0x3e51f404	0.20503241
206	0xbdbd7795	-0.09251324
207	0xbe7afde7	-0.24510919
208	0x3e830b59	0.25594595
209	0xbd0f1466	-0.034931563
210	0xbddac01c	-0.10681173
211	0x3e8f0450	0.27932978
212	0x3e3a8b05	0.18217094
213	0xbe792822	-0.24331716
214	0xbe4af76d	-0.19820948
215	0x3b0a4532	0.0021098373
216	0x3e7f5be8	0.24937403
217	0xbe243c91	-0.16038729
218	0xbdbc4e6a	-0.09194644
219	0x3e8ee1ff	0.27906796
220	0xbe357f90	-0.17724442
221	0x3ded0f46	0.11575179
222	0x3e2e15f2	0.17000559
223	0x3e936f7f	0.28796002
224	0xbdf9fd00	-0.12206459
225	0xbdfacc14	-0.12245956
226	0x3d9bcf69	0.0760792
227	0xbe08fd8b	-0.13377969
228	0xbe872e75	-0.2640263
229	0xbdb2399d	-0.08702395
230	0xbe113ab0	-0.14182544
231	0x3b0d02dd	0.00215166
232	0x3e90a202	0.28248602
233	0x3d4801d9	0.048829887
234	0x3e00f26d	0.12592478
235	0x3d8176bd	0.06321476
236	0x3dbf0931	0.09327925
237	0xbe4d09cd	-0.2002327
238	0xbe2d1f59	-0.1690649
239	0x3d922138	0.07135242
240	0x3e76b181	0.2409115
241	0xbcda8b11	-0.02667764
242	0xbd6cb47a	-0.057789303
243	0x3de37a4b	0.1110731
244	0x3e1a2cd7	0.15056168
245	0x3e1a7092	0.15082005
246	0x3d84a010	0.06475842
247	0x3e7f372b	0.24923389
248	0xbe048538	-0.12941444
249	0x3e877c96	0.2646224
250	0xbdb0a45e	-0.086251006
251	0xbd74731e	-0.059680097
252	0xbe376923	-0.179112
253	0x3d234d7c	0.039868817
254	0x3dc15053	0.09439149
255	0xbe52a97b	-0.20572464

user_tower.fc.2.weight f4 [128, 256]
0	0x3cabb857	0.020961924
1	0x3cd54c98	0.0260375
2	0xbaf57550	-0.0018726978
3	0x3cf156af	0.02946028
4	0xbd574f50	-0.052565873
5	0x3c66bfcc	0.014083814
6	0x3b93087e	0.0044870963
7	0x3d48707e	0.048935406
8	0xbd567379	-0.052356217
9	0x3b85d5d6	0.004084329
10	0x3b9c4fd6	0.0047702594
11	0x3c79cb53	0.01524623
12	0x3b3175cd	0.0027078271
13	0x3d31aae0	0.04337585
14	0x3b12a4e8	0.0022376124
15	0x3d54e980	0.051980495
16	0x3d1c60a0	0.038178086
17	0x3ce683a7	0.028138949
18	0xbc90e758	-0.017688438
19	0xbca82e85	-0.020529995
20	0xbc5d1c79	-0.013495558
21	0xbce94c7e	-0.028478857
22	0x3cbda84a	0.023151536
23	0xbba4dd09	-0.0050312323
24	0x3c4b9f3a	0.012428099
25	0xbcad7b59	-0.02117698
26	0xbbc6aa2f	-0.006062768
27	0xbc7c6473	-0.015404808
28	0xbc3cd1f0	-0.011524662
29	0x3c824856	0.015903633
30	0x3a64222f	0.00087026035
31	0x3b23165f	0.002488516
32	0x3cb4e05d	0.022079641
33	0xbd0897da	-0.033347942
34	0xbd05fed9	-0.032713745
35	0x3d1657ab	0.0367047
36	0x3cab5a8c	0.0209172
37	0x3d5ea9cb	0.054361146
38	0x3c259cad	0.010108155
39	0xbd62e164	-0.05539073
40	0xbd847fd7	-0.06469696
41	0xbd171ec2	-0.036894567
42	0xbd07aa45	-0.033121366
43	0x3bb7661d	0.0055968896
44	0xbc8961cb	-0.016770264
45	0xbc06bb6c	-0.008223396
46	0xbd1e09ec	-0.03858368
47	0x3d328e18	0.043592542
48	0x3c46bba8	0.012129702
49	0xbd026866	-0.031837843
50	0x3cc74ffa	0.024330128
51	0x3c3e526d	0.0116163315
52	0xbb119536	-0.002221418
53	0xbcbe3a94	-0.023221292
54	0xbc97ec6d	-0.018545354
55	0x3d2ae486	0.041721843
56	0xbd455bfa	-0.04818342
57	0xbc408684	-0.011750821
58	0x3cd6644a	0.026170868
59	0xbc89f981	-0.016842606
60	0xbcf201bf	-0.029541848
61	0x3c7c8154	0.015411694
62	0xbcf492bf	-0.02985513
63	0x3ce6002f	0.02807626
64	0x3c865976	0.01640008
65	0xbd6d96a7	-0.058005
66	0xbc5f04bd	-0.01361197
67	0x3aacb35d	0.0013176013
68	0xbcfbf41f	-0.030756054
69	0xbd1ffa21	-0.0390569
70	0xbd033a74	-0.032038167
71	0xbcca5428	-0.024698332
72	0xbbde5b09	-0.0067857546
73	0xbd30359c	-0.043019876
74	0x3d4c2b2c	0.04984586
75	0x3cd12e82	0.025534872
76	0xbc4af6a4	-0.012387905
77	0x3c884628	0.016635016
78	0x3d5b9e99	0.053618047
79	0xba5d7d26	-0.00084491295
80	0x38d24b4e	0.00010027607
81	0xbd613632	-0.054983325
82	0xbc142ff7	-0.009044639
83	0xbd0a3b87	-0.033748176
84	0xbd705f28	-0.058684498
85	0x3d584200	0.052797318
86	0xbd81b7ca	-0.06333883
87	0xbd20091b	-0.039071184
88	0x3d5eb47d	0.054371346
89	0x3aa64bca	0.0012687382
90	0xbc624e23	-0.013812575
91	0xba9557df	-0.0011393985
92	0x3d3592cb	0.044329446
93	0x38c48334	9.370447e-05
94	0x3afb63f4	0.0019179569
95	0xbd801567	-0.06254082
96	0xbbeeb69e	-0.0072849533
97	0xbc76d76c	-0.015066009
98	0xba78057c	-0.00094612665
99	0x3cb6330a	0.022241134
100	0xbb22287c	-0.002474337
101	0xbd5fac45	-0.05460765
102	0x3cbea0c7	0.023270024
103	0x3bffc68a	0.00780565
104	0x3b6f52e2	0.0036517908
105	0xbd7d5763	-0.061850917
106	0x3d1ae502	0.037816055
107	0x3c44d9ae	0.0120147895
108	0xbd4cef29	-0.05003277
109	0xbce9e0f1	-0.028549643
110	0xbd04aad6	-0.032389484
111	0xbc82bdd2	-0.015959654
112	0xbd44fbf3	-0.04809184
113	0x3d280071	0.041016046
114	0x3cac287f	0.021015404
115	0x3b8330ce	0.0040036207
116	0xbd49eed3	-0.049300026
117	0x3d2f03af	0.042728122
118	0xbd1fee67	-0.039045718
119	0x3d076fef	0.033065733
120	0x3b15a682	0.0022834842
121	0xbd222a56	-0.039591156
122	0xbcd7df81	-0.026351692
123	0xbc1bdf0d	-0.009513629
124	0xbb3dea8e	-0.0028978917
125	0x3cb8e840	0.022571683
126	0xbd046214	-0.032320097
127	0xbb33ffb4	-0.0027465643
128	0xbd5bd5b7	-0.05367061
129	0xbcb5de80	-0.022200823
130	0x3d77bcad	0.06048267
131	0xbc370d24	-0.011172567
132	0xbcace80e	-0.021106746
133	0x3d38b49e	0.045094125
134	0x3c84c0d5	0.01620523
135	0xbccb2da7	-0.024802042
136	0x3c5f311a	0.013622547
137	0xbcf88ea9	-0.030341463
138	0xbd6a32ce	-0.057177357
139	0xbc895bcb	-0.016767403
140	0xbb41922e	-0.0029536593
141	0xbc1b40f9	-0.00947594
142	0xbd3e52a8	-0.046465546
143	0xbd686118	-0.05673322
144	0xba86f63c	-0.0010296772
145	0xbc1e3b6d	-0.009657723
146	0x3b0832ba	0.0020782189
147	0x3d6b21dd	0.05740534
148	0xbc6cfbec	-0.01446436
149	0x3d0f52b8	0.034990996
150	0xbd707128	-0.058701664
151	0xbd8170bb	-0.0632033
152	0xbd3968d6	-0.045265995
153	0xbd383c20	-0.044979215
154	0x3ba47a5a	0.0050194683
155	0x3d70348a	0.058643855
156	0x3cf9d6be	0.030497905
157	0x3cd8ad13	0.026449716
158	0xbd7ca545	-0.06168105
159	0x3d62cf4b	0.05537347
160	0x3cc92fe7	0.024558974
161	0xbcdd8131	-0.027039142
162	0xbcf343a7	-0.029695345
163	0xbd111fe4	-0.035430804
164	0x3c96a87d	0.018390888
165	0xbc0a9cae	-0.008460207
166	0xbbe1a288	-0.0068858303
167	0xbd530a55	-0.051523525
168	0x3d3850cf	0.04499894
169	0xbb8ff51f	-0.0043932344
170	0x3c967d19	0.018370198
171	0xbd0979c2	-0.033563383
172	0xbd10b845	-0.035331983
173	0x3cf8c2f0	0.030366391
174	0xbd3a1d39	-0.045438025
175	0xbd0065e6	-0.031347178
176	0x3b3393c2	0.0027401303
177	0xbcbcd94d	-0.023052836
178	0xbaf2e527	-0.0018531427
179	0x3d0fa216	0.035066687
180	0xbd68fd0c	-0.05688195
181	0x3d1f8c0b	0.038951915
182	0xbd03c712	-0.03217227
183	0xbc622d3a	-0.013804728
184	0x3bb61148	0.0055562593
185	0x3c9bec76	0.019033652
186	0xbcdcb02e	-0.026939478
187	0xbceb4d58	-0.028723404
188	0xbd0d973e	-0.034568064
189	0xbba3f682	-0.0050037513
190	0xbc8ab53a	-0.016932119
191	0x3d58b351	0.052905384
192	0x3b38ff59	0.002822837
193	0x3d6bb69a	0.05754719
194	0x3d15c27a	0.03656242
195	0xbc53d688	-0.012929566
196	0xbd5debfb	-0.054180127
197	0x3c11b4d2	0.008893209
198	0xbc94170a	-0.018077392
199	0xbbc8c2ff	-0.006126761
200	0x3d70169f	0.058615323
201	0xbc18f1f0	-0.009335026
202	0x3c95b1f9	0.01827334
203	0xbd1b78bb	-0.037956934
204	0x3d252665	0.04031982
205	0x3ab46d81	0.0013765545
206	0xbc81f111	-0.01586202
207	0xbc1fec91	-0.009760992
208	0x3cd96441	0.026537063
209	0x3ca9de7c	0.020735972
210	0xbc58c9ec	-0.013231736
211	0xbb93c80e	-0.0045099324
212	0x3d17b9ad	0.03704231
213	0x3bfa2086	0.0076332716
214	0x3ab3a652	0.0013706184
215	0xbcb4d284	-0.022073038
216	0xbd6b0654	-0.05737908
217	0xbcc2a7b2	-0.023761604
218	0xbc4770a5	-0.012172853
219	0xbd490a02	-0.04908181
220	0x3b8dac8b	0.0043235472
221	0xbc511ff7	-0.012763969
222	0xbaebc69a	-0.0017988265
223	0x3cd55833	0.026043033
224	0xb9a6902c	-0.00031769404
225	0xbce89fb2	-0.028396461
226	0x3c515b12	0.0127780605
227	0x3ce19287	0.02753569
228	0x3c662e8f	0.014049186
229	0x3d4aac92	0.049480982
230	0xb9e29f25	-0.0004322465
231	0x3ab2eae0	0.001365032
232	0x3d4c9ea7	0.04995599
233	0xbc180057	-0.009277425
234	0x3c52f8e2	0.012876721
235	0x3b5fe504	0.0034163604
236	0x3b6e94e3	0.0036404661
237	0xb933a51c	-0.00017132278
238	0xbbe9e725	-0.0071381503
239	0x3d47d9bb	0.04879163
240	0xbc8ed488	-0.017435327
241	0xbd515ba7	-0.051112797
242	0x3cd4a2c8	0.025956526
243	0xbd1cef7f	-0.03831434
244	0xbcbd153b	-0.023081413
245	0xbbf879e5	-0.0075828903
246	0x3ce77d19	0.028257893
247	0xbd3b65c5	-0.045751352
248	0xbb30e6c2	-0.002699301
249	0xbc154986	-0.009111768
250	0xbd445bd2	-0.04793913
251	0x3b76785e	0.0037608366
252	0x3d069df5	0.032865483
253	0x3d1a52cc	0.037676618
254	0xbc37fdc7	-0.011229939
255	0xbd4d3df2	-0.050107904

user_tower.fc.2.bias f4 [128]
0	0x3d62dbf2	0.055385537
1	0xbcf20a5d	-0.029545957
2	0xbad912e8	-0.0016561421
3	0x3d296276	0.041353665
4	0xbd014994	-0.03156431
5	0x3c0cc479	0.008591765
6	0xbd120f3c	-0.03565906
7	0xbd171571	-0.036885682
8	0x3d6b3713	0.05742557
9	0xbd8815bc	-0.066447705
10	0xbc6655fb	-0.014058585
11	0xbc9575b7	-0.018244607
12	0x3c7ee674	0.015557874
13	0xbc3f1d8e	-0.011664761
14	0xbce8edff	-0.028433798
15	0xbd59d268	-0.053179175
16	0x3c9bf14c	0.019035958
17	0xb7766c00	-1.4687888e-05
18	0xbcca9b5d	-0.024732286
19	0xbd30482a	-0.04303757
20	0xbd183f21	-0.03716958
21	0xbd06ac94	-0.032879427
22	0xbc8f842b	-0.017519077
23	0x3d37f9fa	0.04491613
24	0xbd1576d6	-0.036490284
25	0x3a9384ed	0.0011254825
26	0xbc4682e3	-0.012116167
27	0x3d3e351d	0.04643737
28	0x3cae1cc0	0.021253943
29	0x3d18d66c	0.037313864
30	0xbc831300	-0.01600027
31	0xbcd5b9a3	-0.026089495
32	0xbb08c88e	-0.0020871493
33	0xbd792ced	-0.06083386
34	0xbd585bca	-0.052821912
35	0xbd833a61	-0.06407619
36	0xbc286e62	-0.010280224
37	0x3d6a5d9b	0.057218175
38	0xbd7d229c	-0.061800584
39	0xbb0aef24	-0.0021199668
40	0xbd2eb653	-0.042654347
41	0xbc837913	-0.016048944
42	0x3d2270e9	0.03965846
43	0xbc8159cc	-0.015789889
44	0x3d27b66b	0.04094545
45	0xbc49e72c	-0.012323182
46	0xbd174cad	-0.036938358
47	0xbd41297b	-0.0471587
48	0x3c33d1d5	0.010975321
49	0xbc827b58	-0.015927956
50	0xbd627c27	-0.055294182
51	0x3d132a03	0.035928737
52	0xbcff27aa	-0.031146843
53	0xb9a62153	-0.00031686816
54	0x3d82da50	0.06389296
55	0xb90ad806	-0.0001324118
56	0x3ce04dcb	0.027380845
57	0xbc99a6b4	-0.018756248
58	0x3c928f0b	0.017890474
59	0x3c667da8	0.014068045
60	0x3ceee1fa	0.029160488
61	0xbcd88370	-0.026429862
62	0xbb638a55	-0.0034719903
63	0xbc295957	-0.010336242
64	0xbc816204	-0.015793808
65	0xbd190bc3	-0.037364732
66	0xbc6c6e1b	-0.014430548
67	0x3cc6064f	0.02417293
68	0x3c32d0e8	0.010914065
69	0xbd128190	-0.03576809
70	0x3ce2d2d7	0.027688427
71	0x3d337091	0.043808524
72	0x3cf5583a	0.029949296
73	0xbcca6258	-0.024705097
74	0x3be9e37e	0.007137715
75	0x3cc5c927	0.024143768
76	0x3c6376e7	0.013883329
77	0xbd0ad346	-0.033892892
78	0x3c071f83	0.008247259
79	0xbd149747	-0.03627708
80	0xbd493dc3	-0.049131166
81	0xbd1ca9f2	-0.03824801
82	0xbc0e86de	-0.008699147
83	0xbc71be95	-0.014754911
84	0x3d260d33	0.04053993
85	0xbcf01693	-0.02930764
86	0x3c9d9614	0.019236602
87	0x3cc5a9b8	0.02412878
88	0x3cbeb7e2	0.023281042
89	0x3d542ef2	0.051802583
90	0x3d043f9a	0.032287218
91	0x3b5a18b3	0.0033278882
92	0xbd116b46	-0.035502695
93	0xbbb69201	-0.0055716042
94	0xbc8197f0	-0.01581952
95	0x3d015c4e	0.03158217
96	0x3ceed054	0.029152073
97	0x3d3e2bb8	0.046428412
98	0x3cc8096d	0.024418557
99	0xbca7c494	-0.020479478
100	0x3a8731a9	0.0010314482
101	0xbc795eb6	-0.015220335
102	0x3b27e17d	0.002561658
103	0xbd16058a	-0.036626376
104	0xbc99545a	-0.01871698
105	0x3be0d67b	0.0068615056
106	0x39f83719	0.00047343297
107	0x3c4b48c3	0.012407484
108	0x3c888047	0.01666273
109	0x3d71fd09	0.059079204
110	0x3cea5a7a	0.028607596
111	0x3d8071cd	0.06271706
112	0x3cfcef24	0.03087575
113	0x3c98e809	0.01866533
114	0xbc87292d	-0.016499126
115	0x3d4d8249	0.050173078
116	0xbd5aebc8	-0.053447515
117	0x3b4ef95e	0.003158174
118	0xbd6eeae3	-0.058329474
119	0xbcde8cc3	-0.02716673
120	0xbc9bec62	-0.019033615
121	0xbd328768	-0.043586165
122	0xbd298e04	-0.041395202
123	0xbbeb221c	-0.007175697
124	0xbd030648	-0.031988412
125	0x3cf77316	0.030206244
126	0xbd6568ae	-0.056008033
127	0xbc816157	-0.015793486

user_tower.fc.5.weight f4 [64, 128]
0	0xbd218e3d	-0.03944229
1	0xbdabeef2	-0.083951846
2	0xbd9d8c70	-0.07692802
3	0x3a926936	0.0011170271
4	0xbcbde262	-0.023179237
5	0x3d8e6dcd	0.069545366
6	0xbd1bcb03	-0.038035404
7	0x3d87efc8	0.066375315
8	0x3da0a81e	0.07844566
9	0x3d884375	0.066534914
10	0xbd206bfc	-0.039165482
11	0xbd8538ed	-0.06504998
12	0xbd552f07	-0.052046802
13	0x3b6aa7ef	0.0035805663
14	0xbd589c84	-0.05288364
15	0x3cb22bcf	0.021749405
16	0xbc92c07e	-0.017914053
17	0xba3adcd2	-0.00071282417
18	0xbd5adc61	-0.053432826
19	0x3c889e58	0.016677067
20	0xbdb86ba2	-0.09004904
21	0x3a998e02	0.0011715295
22	0xbce33469	-0.027734952
23	0x3d8c881e	0.068619
24	0xbc337fcc	-0.010955762
25	0xbd6a4f90	-0.057204783
26	0xbcc03d55	-0.023466745
27	0x3cb9098d	0.022587562
28	0xbcc763df	-0.024339614
29	0x3cf24c0f	0.029577283
30	0x3b84891a	0.004044664
31	0x3b4867c9	0.003057944
32	0xbd737efc	-0.059447274
33	0x3d6cf990	0.05785519
34	0xbbdcc592	-0.0067374194
35	0x3d934104	0.07190135
36	0x3bb7dce0	0.005611047
37	0xbce5c387	-0.028047336
38	0xbd978651	-0.07398666
39	0x3ce127a4	0.027484722
40	0x3dadf796	0.08494489
41	0xbd8bdca2	-0.06829192
42	0x3c39a337	0.011330417
43	0xbd4e2e8c	-0.05033736
44	0x3bfa123b	0.007631568
45	0xbd90d4be	-0.07071827
46	0xbdb6bf81	-0.08923245
47	0xbcb45d0e	-0.022017028
48	0x3d06926c	0.032854483
49	0x3d29b62b	0.041433495
50	0xbd6e6d79	-0.05820987
51	0xbcbb753f	-0.022883056
52	0x3d304899	0.043037985
53	0x3c59675c	0.013269272
54	0x3d7496e8	0.059714228
55	0xb7b97f91	-2.2113121e-05
56	0xbd599a8e	-0.05312591
57	0x3d69a959	0.057046268
58	0x3d7c92aa	0.061663307
59	0x3d7552db	0.05989347
60	0x3d6f84a5	0.05847611
61	0xbb8f09d1	-0.004365184
62	0xbd69d78d	-0.05709033
63	0xbb390e5a	-0.0028237314
64	0xbcacff30	-0.021117777
65	0xbc7704d0	-0.015076831
66	0x3d90ea6c	0.070759624
67	0xbd9ae1be	-0.07562588
68	0x3d028867	0.031868365
69	0xbc9d380a	-0.01919176
70	0xbc6a51cc	-0.014301728
71	0xbb836661	-0.0040100073
72	0xbd7a04b6	-0.06103965
73	0x3d63b337	0.055590834
74	0xbaaf3562	-0.001336735
75	0xbced790e	-0.028988387
76	0xbdb3d3d1	-0.08780635
77	0xbcf45960	-0.029827774
78	0xbd978c6d	-0.07399831
79	0x3d4d9214	0.05018814
80	0xbcd91a25	-0.026501724
81	0xbbc39f9b	-0.005969954
82	0x3cc14ceb	0.023596248
83	0xbd9b5ed2	-0.07586445
84	0xbcab69ae	-0.020924415
85	0x3d57c944	0.052682176
86	0xbda98a62	-0.082783476
87	0xbd6b9419	-0.057514284
88	0xb83aaf70	-4.4509245e-05
89	0x3d814ab1	0.063130744
90	0xbb8a3d8f	-0.004218764
91	0xbc8a4659	-0.016879248
92	0xbcd6f6a7	-0.02624066
93	0x3cd9f237	0.026604755
94	0x3d11b919	0.035576914
95	0xbd6a75df	-0.057241317
96	0x3d159c9c	0.036526307
97	0xbd016a58	-0.031595558
98	0x3cb39f3e	0.021926519
99	0x3db0cafe	0.08632468
100	0xbd5670cb	-0.05235366
101	0xbc9972f8	-0.01873158
102	0x3d1cbba5	0.03826489
103	0xbdae31bb	-0.08505579
104	0x3b23d9f2	0.0025001732
105	0xbd95d471	-0.073159106
106	0xbcb3b0a7	-0.02193482
107	0xbc92734b	-0.017877242
108	0x3c70ad69	0.014689782
109	0x3d8798e0	0.066209555
110	0xbd904f1e	-0.070463404
111	0x3d91edf6	0.071254656
112	0x3d84fc44	0.06493428
113	0xbd29ac6b	-0.041424196
114	0xbcf77757	-0.030208273
115	0xbd656721	-0.056006555
116	0x3d85330f	0.06503879
117	0xbcf0b1d8	-0.029381678
118	0x3d8bfd68	0.06835443
119	0xbd5da6e8	-0.054114252
120	0xbce8f722	-0.028438155
121	0x3d053052	0.032516785
122	0x3c9556ad	0.018229807
123	0x3d16d063	0.036819827
124	0xbcec9698	-0.028880402
125	0x38b99de8	8.8509e-05
126	0xbd720f82	-0.05909682
127	0x3805a178	3.186005e-05
128	0xbd61974e	-0.055075936
129	0xbce00135	-0.027344326
130	0xbd87a5d9	-0.0662343
131	0xbcd2a7b9	-0.025714742
132	0x3a83969a	0.001003939
133	0xbd33acb9	-0.043865893
134	0x3d525e93	0.051359724
135	0x3cf71d0f	0.030165223
136	0x3c4c10f7	0.012455217
137	0x3b80d8e0	0.0039321035
138	0xbda87a9e	-0.08226512
139	0x3ca55bc7	0.020185364
140	0x3cd21a1b	0.025647214
141	0x3b2f7626	0.0026773303
142	0xbd635530	-0.055501163
143	0x3d242d94	0.04008253
144	0x3d7fa942	0.062417276
145	0xbcde80b1	-0.027160974
146	0xbb34519d	-0.0027514466
147	0x3cb8990b	0.022533914
148	0xbd663ade	-0.056208484
149	0xbd095036	-0.03352376
150	0xbd11bfed	-0.035583425
151	0x3cd184e6	0.025576066
152	0xbcc532c9	-0.024072068
153	0x3cc995c1	0.024607541
154	0xbc6bd806	-0.014394766
155	0x3d648521	0.055791024
156	0xbd7bcd46	-0.06147506
157	0xbc647dbd	-0.013945994
158	0xbd8dff03	-0.06933405
159	0x39c227fa	0.00037032348
160	0xbd9b730d	-0.075903036
161	0x3d33ea92	0.043924876
162	0x3d2a6083	0.041595947
163	0xbd22b552	-0.0397237
164	0x3d7840c0	0.060608625
165	0x3d60d1c8	0.054887563
166	0x3d176eb9	0.036970828
167	0xbb333e4b	-0.0027350362
168	0x3d619b29	0.055079613
169	0xbb8879dd	-0.004164918
170	0x3db38434	0.0876545
171	0xbca559c1	-0.0201844
172	0xbd44a6a3	-0.04801048
173	0x3d030ddd	0.031995643
174	0xbc70a9ee	-0.014688952
175	0xbd3fa836	-0.046791278
176	0xbd764a5b	-0.060129505
177	0x3c175201	0.00923586
178	0xbd91ff6b	-0.07128795
179	0x3dae1ef4	0.085019976
180	0x3c0d97f9	0.00864219
181	0xbcb43867	-0.021999551
182	0x3c91d12e	0.01779994
183	0xbd684733	-0.056708526
184	0xbd06b98c	-0.032891795
185	0xbcf29e56	-0.029616516
186	0xbd261019	-0.040542696
187	0x3c36d0cd	0.01115818
188	0x3d596233	0.053072166
189	0xbb490420	-0.0030672625
190	0xbcd9a6cc	-0.026568793
191	0x3b344363	0.0027505986
192	0xbda7bf59	-0.081907935
193	0x3d370533	0.044682693
194	0xbd007072	-0.031357236
195	0x3d950535	0.07276384
196	0xbc1bd6ef	-0.009511693
197	0x3c1031c4	0.008800928
198	0x3d2602fb	0.040530186
199	0x3d74e0d7	0.059784736
200	0xbd4f7814	-0.050651625
201	0x3c53f6ef	0.0129372915
202	0x3ca2b9c6	0.019863974
203	0x3cb4138e	0.02198198
204	0xbb91d77b	-0.004450736
205	0xbceafd2c	-0.028685175
206	0x3d67fac6	0.05663564
207	0x3d484f24	0.0489036
208	0x3d7d70e1	0.061875228
209	0x3d420591	0.04736859
210	0x3ce57027	0.02800758
211	0x3db12533	0.08649673
212	0xbce65faa	-0.028121788
213	0xbae9499a	-0.0017798424
214	0x3cdc0b9c	0.026861005
215	0x3c09c9e4	0.008409951
216	0xbd23214c	-0.039826676
217	0x3cf1b04f	0.029503016
218	0x3d9f17c0	0.07768202
219	0xbd360e8c	-0.044447467
220	0xbd76657f	-0.060155388
221	0x3d60ec0b	0.054912608
222	0x3d67f2ed	0.056628156
223	0xbd968fd5	-0.073516525
224	0xbd8e647a	-0.06952758
225	0xbcdcd3c5	-0.026956448
226	0x3d8d604d	0.069031335
227	0xbda1fcb8	-0.079095304
228	0xbb31fc90	-0.0027158596
229	0xbd5c4411	-0.05377585
230	0x3c90fff9	0.017700182
231	0xbc2a8974	-0.010408748
232	0xbd38d442	-0.0451243
233	0xbc784442	-0.015152993
234	0x3ccf1e61	0.02528304
235	0x3d8ecb6c	0.069723934
236	0xb8d5822c	-0.00010180878
237	0x3c96c546	0.018404614
238	0x3d67f511	0.056630198
239	0x3d2090a3	0.039200436
240	0x3dabe5e4	0.083934575
241	0x3ad02b9b	0.0015882136
242	0x3d0137ad	0.031547237
243	0x3d6dc53d	0.05804943
244	0x3cbc4fd6	0.022987287
245	0x3d52ff78	0.051513165
246	0x3d37e818	0.044899076
247	0x3cd0b257	0.025475664
248	0x3cce4302	0.025178436
249	0xbd9108c1	-0.07081748
250	0xbd91ca23	-0.07118633
251	0x3d030636	0.031988345
252	0x3dab65d9	0.08369035
253	0x3d100b1e	0.035166852
254	0xbd76c662	-0.060247786
255	0xbc4db0a0	-0.012554318

user_tower.fc.5.bias f4 [64]
0	0xbd012067	-0.031525042
1	0xbc6741a4	-0.014114771
2	0x3cc70dcc	0.024298571
3	0x3d8ca9bd	0.068683125
4	0x3d5792e3	0.052630316
5	0xbd12a62e	-0.035803013
6	0x3c8d2695	0.017230311
7	0xbd09391f	-0.03350174
8	0xbdbbbae0	-0.09166503
9	0xbda876df	-0.08225798
10	0x3d0a9209	0.033830676
11	0x3da34733	0.079725645
12	0x3da50882	0.08058263
13	0xbd80f783	-0.06297209
14	0x3d2602b0	0.040529907
15	0xbd90a51a	-0.070627406
16	0x3d69e0ed	0.05709927
17	0x3ce62128	0.028091982
18	0xbd9045ad	-0.070445396
19	0xbd8ab951	-0.067736275
20	0xbd81d725	-0.06339864
21	0x3b2aa80a	0.00260401
22	0xbcdb2687	-0.02675177
23	0x3c053836	0.0081310775
24	0x3d3a48c9	0.04547957
25	0x3d0dfbae	0.03466385
26	0x3cf231d7	0.029564781
27	0xbcafe104	-0.0214696
28	0xbd67b339	-0.056567404
29	0xbd051690	-0.03249222
30	0xbcf25e22	-0.029585902
31	0xbd79b1d8	-0.06096062
32	0xbd15d208	-0.036577255
33	0xbd12cb50	-0.035838425
34	0xbb9ee066	-0.0048485277
35	0xbdbb6845	-0.09150747
36	0xbda0a3f2	-0.0784377
37	0x3d5052bc	0.05086015
38	0x3d7d5287	0.061846282
39	0x3d6c63f2	0.057712503
40	0x3d978622	0.07398631
41	0xbd85f40c	-0.06540689
42	0x3dc02434	0.09381905
43	0xba2c9b14	-0.0006584388
44	0xbdac8614	-0.08424011
45	0x3d4dc706	0.05023863
46	0x3becd6d5	0.0072277584
47	0x3cbac69d	0.022799784
48	0x3d53df63	0.05172671
49	0xbd36bfc8	-0.04461649
50	0x3d7aeff0	0.06126398
51	0x3cc38371	0.023866387
52	0xbcbf00a5	-0.023315737
53	0xbd744a41	-0.059641127
54	0xbc1edbed	-0.009695989
55	0x3d6f01f2	0.058351465
56	0x3d3e6fda	0.04649339
57	0x3cc3935f	0.023873983
58	0x3ca711e5	0.020394275
59	0xbd2c4aee	-0.042063646
60	0x3d127071	0.035751764
61	0xbcb1ad41	-0.02168906
62	0x3d7d8f02	0.06190396
63	0xbcfdba07	-0.030972494

item_tower.fc.0.weight f4 [256, 12]
0	0xbac28e6e	-0.0014843473
1	0x3e569de5	0.2095867
2	0xbd1071a8	-0.03526464
3	0xbd7c9c79	-0.06167266
4	0x3da828f6	0.08210938
5	0xbe38b1ee	-0.18036625
6	0x3e150c2d	0.14555426
7	0x3e8d9459	0.27652243
8	0x3c34950c	0.011021864
9	0xbd0d0495	-0.034428198
10	0x3e15fabd	0.1464643
11	0x3d89c621	0.06727243
12	0xbd2bf1d0	-0.041978657
13	0x3e6120d9	0.21985187
14	0x3cfd94b8	0.030954704
15	0xbdfb8355	-0.12280909
16	0x3e1428a8	0.14468634
17	0x3e03d313	0.12873487
18	0x3b02bbaa	0.0019948282
19	0xbdb8d8c4	-0.0902572
20	0xbdb8ff06	-0.09033017
21	0xbe0ebf81	-0.1394024
22	0x3d9e0343	0.07715466
23	0x3e8227e4	0.2542106
24	0x3df3de70	0.11907661
25	0x3e58c78e	0.21169874
26	0xbe9578ef	-0.29193828
27	0x3e1b32ac	0.15156049
28	0x3e7f3dc4	0.24925905
29	0x3d9d2f08	0.07674986
30	0xbe5783be	-0.2104635
31	0xbcc55e39	-0.02409278
32	0xbe0e495e	-0.13895175
33	0x3e7f511f	0.24933289
34	0xbe1547b9	-0.14578141
35	0x3e023026	0.1271368
36	0x3e660db2	0.22466162
37	0x3e312970	0.17300963
38	0xbe3a8a53	-0.18216829
39	0xbe72d4ca	-0.23713985
40	0x3e9efe76	0.31053513
41	0x3e31bcef	0.17357229
42	0xbd561f41	-0.0522759
43	0xbe0f1ff9	-0.1397704
44	0xbd50e3b7	-0.050998416
45	0xbd20b727	-0.039237168
46	0x3e90f577	0.28312275
47	0xbe7af7a1	-0.24508525
48	0x3e508cfc	0.20366281
49	0x3e947aa1	0.28999808
50	0x3e1a00fb	0.15039437
51	0x3e5e3b12	0.21702221
52	0x3e8360e8	0.2565987
53	0x3e74427a	0.23853484
54	0xbe8f4df4	-0.2798916
55	0x3e4ae10d	0.19812413
56	0xbe130e2c	-0.14360875
57	0xbe0aca69	-0.13553776
58	0x3c3bb5e1	0.0114569375
59	0x3e52fc5c	0.2060408
60	0xbdcb4e89	-0.09927089
61	0xbe56c98f	-0.20975326
62	0xbd9755f8	-0.07389444
63	0x3d8e3982	0.069445625
64	0xbe5ca832	-0.21548536
65	0x3dd33986	0.10313706
66	0xbde9ed4e	-0.114222154
67	0x3b530893	0.0032201156
68	0xbe036fcb	-0.12835614
69	0xbe58c8fd	-0.21170421
70	0xbe3afc6b	-0.18260352
71	0x3e9d0371	0.30666688
72	0xbd1f820d	-0.038942385
73	0xbe3aa73d	-0.18227859
74	0x3e84e2f5	0.25954404
75	0xbd053761	-0.032523517
76	0xbdc5c403	-0.09656527
77	0xbe3bdc2a	-0.18345705
78	0x3cea13ba	0.02857386
79	0xbe33a250	-0.17542386
80	0xbd9bb256	-0.07602374
81	0xbcbf54d6	-0.023355883
82	0xbafc8e00	-0.0019268394
83	0x3dc0ec33	0.094200514
84	0x3e037bc4	0.12840182
85	0xbdde92e6	-0.108678624
86	0xbe6a8a03	-0.2290421
87	0x3d91ccc1	0.07119132
88	0xbdd0d283	-0.10196402
89	0x3e96b354	0.29433692
90	0x3e37c039	0.17944421
91	0xbddbc498	-0.10730857
92	0x3d698706	0.057013534
93	0x3e81fb9a	0.2538727
94	0x3db64c9c	0.08901331
95	0x3e8b3571	0.2718921
96	0x3e20cc2b	0.15702884
97	0x3ae98c6e	0.001781834
98	0x3e35cd91	0.17754199
99	0xbe22d0d8	-0.1589998
100	0x3dc87a53	0.097889565
101	0x3e4ec175	0.20190986
102	0x3d518ecf	0.051161584
103	0x3e8d8907	0.27643606
104	0xbe42579c	-0.18978733
105	0xbbef0334	-0.007294083
106	0xbe41c649	-0.18923296
107	0xbe79674a	-0.24355808
108	0x3e7ef695	0.24898751
109	0x3e193132	0.14960173
110	0x3dcb3d2d	0.09923778
111	0x3c61dfc5	0.013786261
112	0x3da39256	0.07986896
113	0xbe7df752	-0.24801376
114	0xbe486678	-0.19570339
115	0x3dcd2ad9	0.10017938
116	0x3e6c4b15	0.23075517
117	0x3dc076b7	0.09397643
118	0x3c51c631	0.0128036
119	0xbdf6aa56	-0.12044208
120	0xbd345542	-0.04402662
121	0x3ce61e88	0.02809073
122	0xbdbd3e18	-0.09240359
123	0xbca5331f	-0.020165978
124	0x3e48af0a	0.19598022
125	0x3e868189	0.26270702
126	0xbdfcf71d	-0.123518206
127	0xbcd86587	-0.0264156
128	0x3d42b784	0.047538295
129	0x3e0ff0d5	0.14056714
130	0x3e0f0dde	0.13970134
131	0xbe6e63a1	-0.23280193
132	0xbe298168	-0.16553271
133	0x3dade328	0.08490592
134	0xbe14e205	-0.14539345
135	0xbe110204	-0.14160925
136	0x3e7dce9c	0.24785846
137	0xbd8fe046	-0.07025199
138	0xba0f5066	-0.00054669974
139	0xbe2e74db	-0.17036764
140	0xbe057adb	-0.13035147
141	0xbe20893f	-0.15677355
142	0x3e02341f	0.12715195
143	0xbd35d457	-0.044391956
144	0xbb078d82	-0.002068371
145	0x3e49fdfe	0.19725797
146	0xbe2bd591	-0.16780688
147	0x3e3f00ac	0.186526
148	0x3de4af09	0.11166198
149	0xbe7946ea	-0.24343458
150	0x3e412709	0.18862547
151	0x3e3febe5	0.1874233
152	0x3dbc0908	0.0918141
153	0x3e2d68d2	0.16934517
154	0x3e5d303f	0.21600436
155	0xbe756e00	-0.23967743
156	0xbe59f4bb	-0.21284764
157	0x3e5fd1b6	0.21857342
158	0x3e81ce46	0.25352687
159	0x3dec4e06	0.11538319
160	0x3e804872	0.2505527
161	0xbde2e2e3	-0.110784315
162	0x3da8230a	0.08209808
163	0xbd4d7d76	-0.050168477
164	0x3e3feb9f	0.18742226
165	0x3d97e7d7	0.07417267
166	0xbe1fa931	-0.15591885
167	0xbd8c88a1	-0.068619974
168	0x3e2dec38	0.16984642
169	0xbe5d6d6a	-0.2162377
170	0xbe8ba503	-0.2727433
171	0x3da57ac4	0.08080056
172	0x3b0e2aa0	0.0021692887
173	0x3e5bfe04	0.21483618
174	0x3cbe6f83	0.023246532
175	0x3cd2eaa5	0.025746653
176	0xbc438326	-0.011933124
177	0xbe7ad102	-0.24493793
178	0xbc2c6487	-0.010522014
179	0xbd125503	-0.035725605
180	0x3a09f8de	0.00052632194
181	0x3dbe24f1	0.0928439
182	0xbe851eef	-0.26000163
183	0xbc56d682	-0.013112666
184	0x3d63dc26	0.05562987
185	0x3e4fb0c8	0.2028228
186	0x3ce82f19	0.02834277
187	0xbe4eb9c7	-0.20188056
188	0xbe29427f	-0.16529272
189	0x3e307e32	0.1723564
190	0x3dff3f5c	0.12463257
191	0x3d445fee	0.04794305
192	0xbdc62b19	-0.09676189
193	0xbd8434b8	-0.06455368
194	0xbe4fd175	-0.20294745
195	0x3e10fc11	0.14158656
196	0xbc5bf2a3	-0.013424548
197	0x3dd50dcd	0.10403023
198	0xbe51389c	-0.20431751
199	0xbe69447d	-0.22780032
200	0x3e308c01	0.17240907
201	0x38b7975c	8.754313e-05
202	0xbe424a80	-0.18973732
203	0x3e31c46a	0.17360082
204	0x3d13da04	0.036096588
205	0x3e4f6d28	0.20256484
206	0x3e9ba667	0.30400392
207	0x3de7142c	0.11283144
208	0xbd01d2f0	-0.031695306
209	0x3e976e69	0.29576424
210	0x3d1ad864	0.037804022
211	0x3dcebb1c	0.10094282
212	0x3dde6f64	0.1086109
213	0x3e7c3af1	0.2463186
214	0xbe836712	-0.25664574
215	0xbd8fe935	-0.070269026
216	0x3d4f6d26	0.0506412
217	0xbd9371ba	-0.07199426
218	0x3e250a0b	0.16117112
219	0xbd416ba0	-0.04722178
220	0x3e82b2d6	0.25527066
221	0x3e3f8c40	0.18705845
222	0xbe5a7e5d	-0.21337266
223	0x3e66a591	0.22524096
224	0x3dd7ec7e	0.10543154
225	0x3cc3b1ff	0.023888586
226	0x3d8d8844	0.06910756
227	0xbc25640e	-0.010094656
228	0x3e7d78c4	0.247531
229	0x3e479d16	0.19493517
230	0x3de748ca	0.1129318
231	0x3e1bf02b	0.15228336
232	0x3e60a0bd	0.21936317
233	0xbe5c9f96	-0.21545252
234	0x3c8e18b4	0.017345764
235	0x3e679a8a	0.22617546
236	0x3dd2b705	0.102888145
237	0x3d8167dc	0.06318638
238	0x3e24ed43	0.16106133
239	0xbe324a13	-0.1741107
240	0xbde47939	-0.11155934
241	0xbd5b3155	-0.053513844
242	0xbe16ef29	-0.1473967
243	0xbb9b0e33	-0.0047319173
244	0xbdc6d3af	-0.09708344
245	0xbb05b124	-0.0020399773
246	0x3cd23307	0.025659097
247	0xbe5bea28	-0.21476042
248	0xbd1aeee7	-0.03782549
249	0x3d5c6728	0.053809315
250	0x3de036aa	0.10947926
251	0x3dc83ed0	0.097776055
252	0xbe6c5e52	-0.23082855
253	0x3e7d823a	0.24756709
254	0xbe64956d	-0.22322626
255	0xbdb2b630	-0.08726156

item_tower.fc.0.bias f4 [256]
0	0xbd6a1a61	-0.057154063
1	0xbe717052	-0.23578003
2	0x3e216cab	0.1576411
3	0xbe7bd6bd	-0.24593635
4	0xbdd5a87f	-0.10432529
5	0x3e114745	0.14187343
6	0x3cc30708	0.023807064
7	0xbe7b791d	-0.2455792
8	0x3ded8946	0.115984485
9	0x3d453b57	0.048152294
10	0xbe13f2e6	-0.14448127
11	0x3dcebffa	0.100952104
12	0xbe8dff9d	-0.2773408
13	0x3d8d50db	0.069001876
14	0x3e4f143e	0.20222566
15	0x3d67c5fd	0.0565853
16	0xbdee8735	-0.116468824
17	0xbd6d17a0	-0.05788386
18	0x3e52f05d	0.20599504
19	0xbe56a584	-0.20961577
20	0xbe6bc9dc	-0.23026222
21	0xbe3967cf	-0.18106006
22	0x3ddfd497	0.1092922
23	0x3dcbed79	0.09957404
24	0xbe78383f	-0.24240206
25	0xbe4215c0	-0.1895361
26	0xbe5d533a	-0.2161378
27	0x3e446984	0.19180876
28	0xbd8d76d6	-0.06907432
29	0x3c3fdcb2	0.011710333
30	0xbe0a9023	-0.13531546
31	0x3d94e419	0.07270069
32	0xbe728c33	-0.23686294
33	0xbe1141c0	-0.14185238
34	0xbe8408d4	-0.25787985
35	0xbd8a0f7b	-0.06741234
36	0x3e379395	0.17927392
37	0x3e8a7a89	0.27046612
38	0x3dc17981	0.09447003
39	0xbcf845cb	-0.030306717
40	0x3d8b0a07	0.06789022
41	0x3e8ac46e	0.2710299
42	0xbda775d3	-0.0817677
43	0xbe5d68de	-0.21622035
44	0x3e5b98e9	0.2144505
45	0x3ce2190c	0.027599834
46	0x3e489405	0.19587715
47	0x3e3f15a6	0.18660602
48	0x3b662ccc	0.0035121916
49	0xbe81413d	-0.25245085
50	0xbe06f87c	-0.13180727
51	0x3e3a90a1	0.18219234
52	0x3e403071	0.18768479
53	0x3e20764e	0.1567013
54	0x3ddc992b	0.10771402
55	0xbdb810da	-0.08987589
56	0x3e8ac945	0.2710668
57	0x3cda61a0	0.02665788
58	0x3e0e4c7b	0.13896362
59	0x3d2cff2f	0.04223555
60	0xbd10a659	-0.03531489
61	0x3de29c42	0.1106496
62	0x3e31acbc	0.17351049
63	0xbd054c31	-0.032543365
64	0xbe12dafd	-0.1434135
65	0x3e69e127	0.22839795
66	0x3e363a94	0.17795783
67	0xbe23c69b	-0.1599373
68	0x3e4511ae	0.19245026
69	0x3e0daecd	0.13836212
70	0x3d29ba9e	0.041437738
71	0x3d2ba195	0.041902144
72	0x3e2688a4	0.16263062
73	0x3bdbb768	0.0067052133
74	0xbe3eaa4a	-0.18619648
75	0x3da96a9b	0.082722865
76	0x3c842792	0.01613215
77	0xbe511576	-0.20418343
78	0x3e311a1f	0.1729512
79	0xbe80f394	-0.25185835
80	0x3d550baa	0.052013077
81	0xbc648932	-0.013948726
82	0xbce4fb1d	-0.027951771
83	0x3d1ff54e	0.0390523
84	0x3e5b6f0f	0.21429084
85	0xbe693592	-0.22774342
86	0x3c62668d	0.013818395
87	0xbe0eacf2	-0.13933161
88	0x3d8bdd45	0.06829313
89	0x3d9d6529	0.076853104
90	0x3dcaa2c4	0.09894326
91	0xbe845835	-0.25848547
92	0x3d000bac	0.03126113
93	0xbcd9d875	-0.026592473
94	0x3df4eade	0.1195886
95	0x3e1e3428	0.15449584
96	0xbd1982e6	-0.03747835
97	0x3dcc0f48	0.09963852
98	0xbd2f371c	-0.042777166
99	0xbe879c17	-0.26486275
100	0xbe0b8bfb	-0.13627617
101	0x3ded3954	0.115832
102	0x3e3654cf	0.1780579
103	0xbdb6e6d6	-0.08930747
104	0x3e2e8fde	0.17047068
105	0xbda38675	-0.0798463
106	0x3c251e89	0.010078081
107	0xbe385368	-0.18000567
108	0xbd876ea1	-0.06612898
109	0xbe665851	-0.22494628
110	0xbe34887b	-0.17630188
111	0xbbbb8631	-0.005722784
112	0x3e6236da	0.22091237
113	0x3e15c22f	0.14624856
114	0xbe554ca2	-0.20830014
115	0xbdbaa771	-0.09113968
116	0xbd4bfa49	-0.049799237
117	0xbd264278	-0.040590733
118	0x3e3c8fcf	0.18414234
119	0x3e2698fd	0.16269298
120	0x3cdd351b	0.027002862
121	0x3b8b3ab4	0.0042489413
122	0xbe6f7b1a	-0.23386803
123	0x3bb0a5ce	0.005390859
124	0x3d032dfa	0.03202627
125	0xbe455d67	-0.19273911
126	0xbe4e5f20	-0.20153475
127	0xbe46eb29	-0.19425644
128	0x3bfa4cf8	0.00763857
129	0xbe6bd437	-0.23030172
130	0x3e786ff5	0.24261458
131	0xbd4007b5	-0.04688235
132	0xbe89216b	-0.26783308
133	0xbd7b70a9	-0.061386738
134	0xbe2404fe	-0.1601753
135	0xbd60617c	-0.05478047
136	0xbe8c1f45	-0.27367607
137	0xbe93aadb	-0.2884129
138	0xbe83daa0	-0.25752735
139	0x3d9dfaa2	0.0771382
140	0x3e1a00f2	0.15039423
141	0x3d86365e	0.065533385
142	0xbdd9877f	-0.10621547
143	0xbe4c1e7b	-0.19933502
144	0x3e0f911f	0.14020203
145	0x3d28bf41	0.04119802
146	0xbc3d812e	-0.011566443
147	0xbe00a06f	-0.125612
148	0x3d888f3e	0.06667946
149	0xbdd600e0	-0.10449386
150	0xbe1ed62a	-0.15511385
151	0x3de92462	0.113838926
152	0xbde55437	-0.11197703
153	0x3e5be2dc	0.21473259
154	0xbe3d87db	-0.18508856
155	0xbd5b32df	-0.05351531
156	0x3d9340bf	0.07190084
157	0xbd5c9326	-0.05385127
158	0x3e61563c	0.22005552
159	0x3e91c946	0.28473872
160	0x3e3b204f	0.18274044
161	0x3e8b6b3b	0.27230248
162	0xbb487fb8	-0.0030593704
163	0xbe6a807a	-0.22900572
164	0x3e452bf7	0.19255053
165	0xbe45fa45	-0.19333751
166	0x3e1b0d33	0.15141754
167	0xbe2487fc	-0.16067499
168	0xbe325103	-0.17413716
169	0xbe439ef1	-0.191036
170	0xbe2dfbe5	-0.16990621
171	0xbe7826c0	-0.24233532
172	0x3e444c69	0.19169773
173	0xbdc058a3	-0.09391906
174	0xbe944df7	-0.28965732
175	0xbc84d9b3	-0.016217088
176	0x3daa4bf9	0.08315272
177	0xbe590176	-0.21191964
178	0xbe8c0d88	-0.27354074
179	0xbcb545f2	-0.02212808
180	0x3e5d62a3	0.21619658
181	0x3db134b7	0.08652633
182	0xbe5fd39c	-0.21858066
183	0xbd58d0bd	-0.052933443
184	0x3e64aeaf	0.22332262
185	0x3e07cfe0	0.13262892
186	0x3d8b60eb	0.06805595
187	0x3e3e5272	0.18586138
188	0x3db0af14	0.086271435
189	0x3d5d4c4a	0.054027833
190	0x3cb43016	0.021995585
191	0xbdfbeeaf	-0.12301385
192	0x3d355fa3	0.04428066
193	0xbd9cb205	-0.07651142
194	0xbe5f1810	-0.21786523
195	0xbe7ff423	-0.24995475
196	0x3e65d3b1	0.22444035
197	0x3e1eb6ee	0.1549947
198	0xbdd6c371	-0.10486496
199	0x3d8ae379	0.06781668
200	0xbdfa69a3	-0.1222718
201	0x3e80f711	0.25188497
202	0x3d2cda99	0.04220066
203	0xbddc1f2a	-0.107481316
204	0xbd1d690c	-0.03843026
205	0x3e0d8463	0.13820033
206	0xbc49491f	-0.0122855
207	0x3e06c3a7	0.13160573
208	0x3e472976	0.1944941
209	0x3d92686f	0.071488254
210	0xbe67bd88	-0.22630894
211	0xbe3b6c73	-0.18303089
212	0x3e3bb987	0.18332492
213	0x3de21d5e	0.110407576
214	0xbe6266bd	-0.22109504
215	0xbe43d221	-0.19123127
216	0xbcaecbaa	-0.021337349
217	0x3e8a841b	0.27053913
218	0xbc1f1c3f	-0.009711324
219	0x3e771f38	0.24133003
220	0x3e843dc6	0.2582838
221	0xbe29a009	-0.16564955
222	0xbb64b838	-0.0034899842
223	0x3e981f83	0.29711542
224	0x3e07a013	0.13244657
225	0xbdde1e9a	-0.108456805
226	0xbe70c8ac	-0.2351405
227	0xbe888696	-0.2666518
228	0xbe28eb61	-0.1649604
229	0x3c45a19e	0.012062458
230	0x3dac3fe9	0.084106274
231	0x3d1b668c	0.037939593
232	0x3c236b35	0.009974291
233	0xbe5ff37f	-0.2187023
234	0xbdc36af5	-0.09541885
235	0xbe830f5b	-0.25597653
236	0x3cb481c6	0.022034537
237	0x3e83d518	0.25748515
238	0xbe83808a	-0.25684005
239	0xbe3ac603	-0.18239598
240	0x3e0b586d	0.1360795
241	0xbe759ab8	-0.23984802
242	0xbd9fd1b5	-0.0780367
243	0x3e401e5f	0.18761586
244	0xbd520184	-0.051270977
245	0xbceb2d10	-0.02870801
246	0xbe305b2e	-0.17222282
247	0xbce06541	-0.027392032
248	0xbe16b958	-0.1471914
249	0x3dcd0ec7	0.10012584
250	0x3e66bed3	0.22533731
251	0xbc020521	-0.007935793
252	0xbdfab61e	-0.12241767
253	0x3e630faa	0.22173944
254	0xbe247128	-0.1605879
255	0xbd05da7c	-0.032679066
