models/dumps/IntTower_v3.pth (torch, 427446 bytes, 15 tensors)

user_tower.fc.0.weight f4 [256, 11]
00000000: bf29 a83d 90a4 c5bd 36bf a2bd 5f07 413e
00000010: fa35 9ebd e170 e13d 5946 6c3e 9121 313d
00000020: b8cf 65be aa6f 223d 74d8 df3d 0015 e63c
00000030: 4d1f e03d 6c91 8f3e d8e5 123e c646 83be
00000040: 0f3b 8c3e ef22 89be 6655 7a3d d630 453e
00000050: 0b7f 933e da1d 47be a923 52be aa33 913d
00000060: 9113 2abe 5679 12be 1349 033e 215a 1e3e
00000070: d298 503e 4c93 2dbd dc67 64be d0ce 713e
00000080: f6f1 433e 1df2 a0bd 429c 73bd 04e7 f1bc
00000090: c9ab 663d 4e88 c2bd b932 913e 84fd 883e
000000a0: 818a 4bbe ba65 413e 8f0e 943d 0e19 32be
000000b0: f001 86bd e6d1 08be 01e5 01be 0585 30bd
000000c0: 1153 6e3d 4503 723d 9832 dcbb bf35 f93d
000000d0: 3e29 f73d 2915 bc3d 1d9d 7839 706d 54be
000000e0: 0b98 733d 68db a0bd 6072 b3bd 9581 15be
000000f0: e8cc c8bc b370 6cbe d1e6 e0bd 3088 adbd
00000100: f56e b53d a571 933d d506 b2bd 5dd6 5b3d
00000110: cdfe d3bd 12eb 3f3d a159 933d ef0c a83d
00000120: 2603 30be 768c 78be dfed e9bd 2d23 3f3e
00000130: 18c4 b8bd 08c8 6a3e 322b 97be 1b56 17be
00000140: d012 123e dd5a 1e3d 70ea 6a3e 011a 843e
00000150: 9471 ab3d acb4 0bbe 5937 073e 4f21 d83d
00000160: fe05 273d 9ab5 5dbe 02e2 03be cc26 9dbd
00000170: 6997 ecbd b2f7 2e3d 0341 813d 1df0 11be
00000180: 31df 243e 6e18 72bd 852a e8bd 60fa 9abd
00000190: eff0 c5bd 54e5 1abe 20f3 86be 386e 70be
000001a0: 5cff c7bd eb04 80be 9791 583e 1a2b d23d
000001b0: dfdc 0d3e d3cd 8c3d 69bc 03be 3065 253e
000001c0: d7f2 f0bd c3e1 7ebd 84ac 00bc 72d9 8ebe
000001d0: de3b 2bbe 729f 6a3e 65d0 613e 975a 733e
000001e0: 3f8f 4a3c c390 b03d 44bb 40bd 904d 603c
000001f0: a317 2a3d 6f17 27be 8148 e73d adf9 6abd
00000200: 8991 843e da38 6e3e 9150 1fbe 1849 253e
00000210: 382f 7a3e c24b 53be a046 163e 044b 763e
00000220: 7f7b 123e 763b eebd c8ce 8dbd d3e7 313d
00000230: 55e2 823e 8bd2 e6bd ab18 22be 2d79 7b3e
00000240: bc89 80bd 2a90 a0bd f757 98bd 95bb 963c
00000250: a2af 293e 3444 4bbe 9260 92bd 036d a4bb
00000260: b052 5d3d 601f 1cbe 7f1e c5bc ddbc 193c
00000270: 4a92 213e e11c 75be 58a3 523e b2c0 4cbe
00000280: 56e5 d6bd 5ad9 36be 739d 0c3e fb9c 623d
00000290: 6abc debd 973d 403e 9730 adbd 375e 023d
000002a0: b0b2 87bd 9e1d b6bd a754 8cbd 80c5 a7bb
000002b0: 3b5b 43be ad6a 463e 1814 793d ca61 28bd
000002c0: d70d a3bd a02d fc3c 1210 84be e092 4c3e
000002d0: ab31 463e a64a 80be 1f7c 4e3e 4aad 75be
000002e0: 97bc 6dbd f9e0 b33d 4b26 23be a6c9 2bbe
000002f0: 8e6f 803e f170 a03d f300 013e f511 1fbe
00000300: 4007 c2bc d8e7 05bc c69e 74bd ce1a de3d
00000310: 6e38 85be d41b 353e e832 eebd a574 463e
00000320: 477f c7bd 2595 1b3d 4c43 7dbd 5e1c 6bbe
00000330: ae12 f23d 4430 8c3e 5b04 edbd b67c 7a3e
00000340: 1091 ebbc 0322 b1bd 563c 613e bb11 8bbe
00000350: c35b a53d bc01 123b 6b0e 903e f11b 7f3e
00000360: f74d 213e 891d 033e 9608 7ebe adcf 52bd
00000370: 33a3 063d 92e2 98ba a2bf 84be 6585 183d
00000380: 85d9 18be 7658 183e acaa 84be e2e1 edbd
00000390: cb9d 51bd d59e 23be 7dde 553e 34c8 593e
000003a0: fe31 54be 6941 83be 53ee 053e 44a7 69be
000003b0: bcbf 313e 69b9 5abe 8c34 acbd 33a4 423c
000003c0: 1127 4fbe dfb5 67be 9145 8e3c 533f 553e
000003d0: d190 4a3e cd69 dd3d 6dea 90bb a896 7dbe
000003e0: c4e6 0dbd 2de7 2abe 3029 12be fe9f 7ebe
000003f0: 7aa6 8ebe 0e49 34bd ac77 223e 25b3 02bd
0.082110874 -0.096505284 -0.07946627 0.18850468 -0.07725139 0.11007858 0.2307371 0.043244902
-0.2244252 0.039657272 0.10929957 0.028086185 0.1094347 0.28040636 0.14345491 -0.25639933
0.27388808 -0.26784465 0.0611166 0.1925691 0.28807864 -0.19444981 -0.20521416 0.07089932
-0.16609026 -0.14304098 0.12820844 0.15464069 0.20370796 -0.0423768 -0.22305244 0.23614049
0.1913527 -0.078586794 -0.05947519 -0.029529102 0.05631617 -0.09498654 0.2835901 0.26755917
-0.19877054 0.18886462 0.07229339 -0.1739237 -0.06543338 -0.1336132 -0.12685014 -0.043095607
0.058184687 0.05908515 -0.0067198984 0.121684544 0.12068413 0.091837235 0.00023709652 -0.20744872
0.05947117 -0.078543484 -0.0876205 -0.14600213 -0.02451177 -0.23089866 -0.10981525 -0.08473241
0.08859054 0.0719941 -0.08692709 0.05367123 -0.10351334 0.04685504 0.0719483 0.08205592
-0.17188701 -0.24272332 -0.114223234 0.18665762 -0.09021777 0.22927868 -0.29525143 -0.1477894
0.14264989 0.038660873 0.22940993 0.2580109 0.08371273 -0.1364314 0.13204707 0.10553228
0.0407772 -0.21651307 -0.12879184 -0.076734155 -0.11552317 0.04271669 0.06311228 -0.14251752
0.16100766 -0.05910533 -0.11336235 -0.075672865 -0.09665095 -0.15126544 -0.26357365 -0.23479545
-0.09765503 -0.25003752 0.21149288 0.10262127 0.13853787 0.06875195 -0.12864842 0.16151881
-0.11765068 -0.062227022 -0.007853631 -0.27900273 -0.16722056 0.22912386 0.22052152 0.23765026
0.012363254 0.08621361 -0.04705359 0.013690367 0.041526448 -0.16317533 0.11293126 -0.057367016
0.25892285 0.23263875 -0.15558077 0.16141164 0.24432075 -0.20634368 0.14675379 0.24052054
0.14304923 -0.11632435 -0.06924206 0.043433975 0.25563303 -0.11270627 -0.15829723 0.24557944
-0.06276271 -0.07839997 -0.07438653 0.018399993 0.16570905 -0.19850236 -0.071473256 -0.005017878
0.054033935 -0.15246344 -0.024062393 0.009383407 0.15778461 -0.23936798 0.20570123 -0.19995382
-0.10492961 -0.1785635 0.13731937 0.05532549 -0.10875781 0.18773495 -0.084565334 0.03182813
-0.06625879 -0.08892368 -0.06852084 -0.0051199794 -0.1907777 0.19376631 0.06081018 -0.041108884
-0.07961624 0.030783474 -0.2579351 0.19977903 0.19354884 -0.25056952 0.20164536 -0.23991886
-0.05804118 0.087831445 -0.15932576 -0.16776142 0.2508511 0.07834042 0.12598018 -0.15534194
-0.023685098 -0.008172952 -0.05972173 0.10844956 -0.26019615 0.17686397 -0.11630803 0.19380434
-0.09741073 0.037984032 -0.061831757 -0.2296004 0.11819969 0.27380574 -0.11573096 0.24461636
-0.028755695 -0.08649065 0.21995673 -0.27161965 0.08074143 0.0022278866 0.28136 0.24913003
0.15752397 0.12804236 -0.24807963 -0.051467586 0.032870483 -0.0011664203 -0.25927454 0.03723659
-0.14926727 0.14877495 -0.25911462 -0.11615349 -0.051175874 -0.15978558 0.20885654 0.21267778
-0.20722196 -0.2563584 0.13079195 -0.22817713 0.17358297 -0.21359791 -0.0840846 0.011879968
-0.20229746 -0.22627972 0.017367156 0.20824938 0.19781806 0.108111955 -0.004422477 -0.24764502
-0.034643903 -0.16689749 -0.14273524 -0.2486572 -0.27861387 -0.044014983 0.15865964 -0.031909127

user_tower.fc.0.bias f4 [256]
00000000: 7595 0abe 78c8 6a3e 4fec 95be e2bb 743e
00000010: eee9 33be 80e6 c93d 8ae4 21bc e42e 853d
00000020: 54d7 78be 7043 3e3d 8453 9f3d 5f94 8d3d
00000030: 2ae0 73bd 3219 063e 7216 17be e219 fabc
00000040: fdfe 21be 3ced 97bd 6106 003e 757e ce3d
00000050: bf5c d0bd 648c efbc e880 8b3e 1318 d63d
00000060: 8d8f 8abd da09 4d3e 683b 823e 4123 483d
00000070: a20c a0bd 4b52 59be 04ac 44be 6d9f 95bd
00000080: 4969 b6bd 43d2 8e3e 7991 0c3e 136b 83be
00000090: b6d8 a2bd a639 0bbe b335 4c3e 5d54 84bd
000000a0: dbbf 19bd 4291 bf3d dee4 643d 01c1 103e
000000b0: 4107 233e 3e59 92bd 71bd cf3a ee5b 89be
000000c0: 6ba8 763d 2350 4e3e 8ba4 6dbb 0618 75be
000000d0: e60c 81be 16ed f03c 409c c43d a40d 71be
000000e0: 78fe ea3c c796 823e a539 303d b946 69be
000000f0: 85db 663e 3916 52be 7ccc 7dbd 0e28 8cbd
00000100: 6b0e 0d3e 36b8 7dbe f907 92be b1c1 80be
00000110: 49d0 443d 8f66 3e3b 877f fabd 0c39 c5bd
00000120: 02a9 06bd 6808 593e 92a4 06be d920 7f3e
00000130: ddc2 2fbd 8ace 043e 0106 123e 5d72 433e
00000140: b1f1 3b3d 3fb9 b53d 881a 723d c88b a0bd
00000150: bcca 20be 4215 3c3e 5349 b3bd f244 743e
00000160: 2711 15be 9ea8 ea3a a285 403e 448f 8ebe
00000170: c6c8 543e 1abc 73be 6638 833b 4ac0 83be
00000180: 6441 48be c3cf 64bb 2e65 093e 75f4 933e
00000190: b5a9 863e bb83 953e 1ce7 863e ba91 ae3c
000001a0: d2e7 4bbc fb1e 53be 08d5 203d 6a0a 3ebe
000001b0: e7f8 0fbe 756d fa3c 2da2 883d 1fc6 073a
000001c0: 3a1c 59be 379b 85bc 126c 793e b45a 963e
000001d0: 4bc9 2cbe c041 4d3e 4ee1 4b3e 6a4f be3a
000001e0: feb4 233d ca0f 043d fe3c 953c 98c0 683e
000001f0: 8814 4a3e 643c 3fbe 06d7 823e 54a3 863e
00000200: 14f1 043e 512a 8cbe 3907 64be 00b2 0dbe
00000210: 6610 8bbe 5fe9 413e 7620 3a3e 54bb db39
00000220: 62a8 8d3e e9fe 2d3d 50e4 0cbd a78f 6d3e
00000230: ce4c cbbc 18dc f2bd a86f 3fbe cbdf 38be
00000240: 3be4 bd3d 69bd 4fbc b8c0 733e 5653 8c3e
00000250: 153d 4d3d f0ae 2fbe c339 fbbd d778 853d
00000260: 7dca 09be 365d 2bbe 6279 d6bd 08be 7b3e
00000270: cf80 6b3e 5ac7 60bb ef2c 15be 2702 0dbe
00000280: 526e ea3c ac9d 39be 1a37 273e 14f2 abbd
00000290: 5057 b6bd f99d 9ebd efdd 233d 4b57 73be
000002a0: 06db 333e 697e 0b3d c65a 38be 10f2 8a3e
000002b0: d1e9 a83d d9e8 14bd 1fb9 8bbe bf48 513d
000002c0: f148 92be 56c0 293e d217 ea3d 27a6 453e
000002d0: 44e6 b53c 535e 88be 41a8 3cbe 3ebc 433c
000002e0: f68a 41be 16e1 d03a 295f 4fbe 1fac 4bbe
000002f0: 45ad f73d 7911 113d 45e1 5a3e 4ac0 d0bd
00000300: 19be 883e 156d 773e df97 9fbd a47b 27be
00000310: 22eb d3bd a82d 0fbe 9d90 0e3d cdb9 58be
00000320: 01c3 283e 3f68 973e 6428 013e af22 963e
00000330: 1e6f 58bd ce03 e63c e32d 923e 3985 4f3e
00000340: 7a1e 43be 17da 10be 47b2 4cbe d039 e13d
00000350: 9f30 e43d 6708 8d3c 0a59 463e 3cab 39be
00000360: f16c fabd 772a b33d c7b9 87be d150 2a3e
00000370: 2615 933d c949 08bc d3ea 2a3c 3e59 1f3e
00000380: 39c7 74be 9f7e b53c e285 7abe ae51 36be
00000390: f987 f2bd 7c0e 8abe 9234 ca3b d782 2abd
000003a0: 5832 843e acdd 88be 1074 073e 5465 8e3c
000003b0: a605 973e d915 4b3e 0c6b 6f3e 4f75 7dbe
000003c0: f136 9fbd 7f2f 8ebe 7500 7a3e d90c 213d
000003d0: 5810 87bd 7398 f9bd 9d66 80be f69e 263e
000003e0: 00f3 d4bd 5cd6 81be 128e 1e3e aedc 093d
000003f0: 43c4 9d3b 94e9 55bd 2ac8 873e 2c3a 56bc
-0.13533576 0.22928035 -0.29281852 0.23899797 -0.17569706 0.098584175 -0.009881148 0.06503084
-0.24300891 0.046451032 0.07779601 0.06913065 -0.05953995 0.13095549 -0.14754656 -0.03052992
-0.15819927 -0.07418296 0.12502433 0.100827135 -0.1017394 -0.029241748 0.27246785 0.104538105
-0.067656614 0.2002329 0.25435948 0.048861746 -0.078149095 -0.21222799 -0.19206244 -0.07305799
-0.089068 0.27894792 0.13727368 -0.2566763 -0.079514906 -0.1359621 0.1994236 -0.064614035
-0.037536483 0.093538776 0.055882327 0.14136125 0.15920736 -0.07145928 0.0015849305 -0.2682795
0.06021921 0.20147757 -0.0036261405 -0.23934945 -0.25205153 0.029409926 0.09600115 -0.2354036
0.028685793 0.2550566 0.043023724 -0.22780885 0.22544678 -0.2051629 -0.06196259 -0.06843577
0.13775031 -0.24777302 -0.28521708 -0.25147775 0.0480502 0.002905283 -0.12231355 -0.096300215
-0.032876022 0.21194613 -0.13148716 0.24914874 -0.042910445 0.12969413 0.14260103 0.19086595
0.04588479 0.088732235 0.059107333 -0.07839161 -0.15702337 0.18367484 -0.0875422 0.23854426
-0.14557324 0.0017903035 0.18800977 -0.27843678 0.20779714 -0.23802224 0.004004526 -0.25732642
-0.19556195 -0.0034913875 0.13417503 0.28897443 0.2630135 0.29202065 0.26348197 0.021309722
-0.012445407 -0.20617287 0.039265662 -0.1855866 -0.14059792 0.030569771 0.066715576 0.00051793637
-0.21202174 -0.016309364 0.24357632 0.29366076 -0.16873662 0.20044613 0.19910166 0.0014519517
0.03996753 0.03224162 0.01821756 0.22729719 0.19734395 -0.18675381 0.25554675 0.26296484
0.12982589 -0.27376035 -0.2226838 -0.13837433 -0.2716095 0.1893668 0.18176445 0.00041910505
0.27667528 0.04247943 -0.034397423 0.2319933 -0.024816897 -0.11858386 -0.18694937 -0.1805412
0.09272047 -0.012679436 0.23803985 0.2740733 0.05010708 -0.17156577 -0.122668765 0.06517189
-0.1345615 -0.16734776 -0.10472371 0.2458421 0.22998355 -0.003429851 -0.14567922 -0.13770352
0.028617058 -0.18126553 0.16329613 -0.08395782 -0.08903372 -0.07744975 0.040006574 -0.23763768
0.1756402 0.0340561 -0.18003377 0.27137804 0.08247722 -0.036354873 -0.27289674 0.051094767
-0.28571275 0.16577277 0.114303246 0.19301663 0.022204526 -0.26634464 -0.18423559 0.011946736
-0.18900666 0.0015936221 -0.20251144 -0.19889878 0.120935954 0.035417054 0.21374996 -0.10192926
0.26707533 0.24162705 -0.07792639 -0.16355759 -0.103475824 -0.1398226 0.034805883 -0.21164627
0.16480638 0.2957172 0.12613064 0.29323336 -0.052840345 0.028077986 0.28550634 0.20265664
-0.19054595 -0.14145695 -0.19989882 0.10997355 0.11142086 0.01721592 0.19369903 -0.18131727
-0.1222781 0.08748334 -0.26508924 0.16632392 0.07181768 -0.008318373 0.010431963 0.15561387
-0.23904122 0.022155104 -0.24465135 -0.17804596 -0.11842341 -0.26964176 0.0061708177 -0.041628685
0.2581966 -0.26731622 0.13227868 0.017382301 0.29496497 0.19832553 0.23380679 -0.24751781
-0.07774151 -0.27770612 0.24414237 0.039318893 -0.06594914 -0.121872805 -0.25078288 0.16271576
-0.10397911 -0.25358856 0.15483883 0.033657722 0.004814656 -0.05222471 0.265199 -0.013075393

user_tower.fc.3.weight f4 [128, 256]
00000000: 5cba ba3b 5f5f 963d 3c4b 5d3c 021b 953c
00000010: 6677 61bd 48e9 003d 559e 6dbc 33e0 283d
00000020: df76 81bc b855 263d c60c 6b3d 9a4d 153b
00000030: d8b1 6c3d 7acd e03c 599a 9c3c 5edc 7abb
00000040: 31ac febc f093 afbc 5600 ebbc 0bdd 413d
00000050: 5ece 0abd 27a8 9cbc 6fdf 743c 1324 673d
00000060: 07c0 0cbd 73e3 f7bc 3eea f43b 8594 eb3a
00000070: 64f1 45bd c404 483d d4a3 79bd dc4b 81bd
00000080: bdad afbc 1510 3cbc c40b 243c bea9 2d3d
00000090: 7b90 603d e0ca 26bb b3eb 7cbd d576 a4bc
000000a0: 9d9b 243c 1463 f73b c4fb 173d eb17 233d
000000b0: a4fe 7a3d 1ed7 21bd 5784 593d 2629 43bc
000000c0: b071 17bb 9396 b73c 8ca0 4dbd 8d6c 1bbc
000000d0: 901b 0b3c ba9d 3e3d f4a4 33bd 0338 2b3c
000000e0: e8af 213d f4df ae3c c204 893d 2ac7 acbc
000000f0: 26e6 98bc 1912 0f3c bc5f 2f3d 1825 1f3d
00000100: 2cf0 d0bc a0d6 223d baf5 7cbd e120 18bc
00000110: 0882 8d3b 2821 7b3d 1910 213d a283 a73c
00000120: 36bb aa3c c6f5 6fbc dde0 233d 8801 cabb
00000130: b886 963d 24e9 86bb 346d 12bc beb8 30bd
00000140: 6d12 39bd 81d3 623a 0987 f8bc 0d19 7abc
00000150: d72d 033d 7689 3dbd 6dd0 42bd 08c0 30bd
00000160: c62e 33bb 9f1e 0a3d aec7 2c3d 72f2 123d
00000170: c088 a5bc 593f 7dbc 1865 33bd 03dc 823d
00000180: b5f1 823c 75ee 54bd a3f5 1cbc 5c05 683d
00000190: ce01 8b3c 921e 073d 0be9 1ebd ea9a a13c
000001a0: 0a02 2e3d df5b 853b 9dc7 a53c ca90 71bc
000001b0: 360e 073d b917 c7bc e469 f33c 8637 bdbc
000001c0: 8d53 063d 31ee 0dbd fdad 383d 33d3 36bd
000001d0: 2b23 453d 71c7 bfbc 53f6 c8bc 8092 4bbc
000001e0: af7d 9d3c 65e9 2c3d ece9 943d 0384 cd3c
000001f0: 66ed 24bd ca9c 1bbd 9bca 723c c817 663d
00000200: 4e13 883d 4750 59bd 6c58 743d 4daf d23b
00000210: 7e7e cd3c 9bff 5fbb 0c02 093d 78af a73c
00000220: 6cff febb 3613 593d e947 033d ea00 3a3c
00000230: 98c7 e0ba 3308 fabc 4339 df3c e5b1 33bd
00000240: 0cd9 763c 0a16 4d3d 9e57 52bc abdf 8bbc
00000250: a28c 203d 5a18 2bbc 9932 323d 48e1 9e3c
00000260: 9386 053c 8053 073d 6888 163b e13f 083d
00000270: 2f6a 0b3c 3c6a 24bd 60c0 163d f425 8a3a
00000280: 987f cebc fce7 e5bc 29d4 233d af90 533c
00000290: d014 4dbc c808 43bb fe65 1abd de85 9a3b
000002a0: 422d 45bc d4dc 44bd 1bd9 23bd 6050 753d
000002b0: de03 2f3c 8bc5 b7bc 66d9 563a e6fc 27bc
000002c0: 272b 5f3c 0491 373c b376 103d d500 313c
000002d0: 80f1 7dbc d19e 0c3d 593e 88bd 8f3a 603d
000002e0: 362f 01bd 6097 cfbc a393 66bd 4298 593b
000002f0: ee4b b5bc 55be 6a3c 7e24 dcbc 507d 01bc
00000300: 73e3 d23c 6026 0b3d 62e1 223c bafe 0cba
00000310: 0dda e7bc b249 343c 2e00 3e3d 07ea c3bc
00000320: a8b1 28bd 58a1 793d 424c 333b 8cd9 9abb
00000330: 5139 273d c5ab 7fbc 3c6d fa3b 1fe3 d93c
00000340: 59ed 8dbc 2c86 5abb 85f2 193d 781d 2dbd
00000350: 739e 90bc 20e4 9cbc 67e0 6e3d 7240 c73b
00000360: 55c6 54bd 3612 883d 7bb4 30bc a6bb 733d
00000370: 8e3e 98bc 7101 ac3c cda6 e53c d894 45bb
00000380: 16d1 8ebc 0eb3 87bc e38a 2f3d a135 c73c
00000390: 8d69 d8bb 28bc 4bbd 8e03 c03c bb91 823d
000003a0: fd9a 493c d2ce 02bc 2d5c 7bbc d4d7 303c
000003b0: 74a4 c63c 70ff 59bb 5a67 d0bb 7d14 a0bc
000003c0: 1e44 6a3d ea2a fab9 154e 093d 22c9 ccbc
000003d0: 2341 2ebc 8f84 733d edce 0c3c 5232 5ebc
000003e0: 81ec 54bd b1d3 e1bc 823c 5c3d 585b 40bd
000003f0: 4610 193c b672 42bc 8043 993c 053a cd3b
0.0056984853 0.07342409 0.013506707 0.018201355 -0.055045508 0.031472474 -0.014503081 0.041229438
-0.015803752 0.04060909 0.05738523 0.002278185 0.057786793 0.027441729 0.019116567 -0.0038278322
-0.031087967 -0.021432847 -0.028686684 0.047329944 -0.033888213 -0.01912315 0.014945849 0.056430887
-0.03436282 -0.030259823 0.007474213 0.001797334 -0.04832591 0.04883267 -0.060947254 -0.06313297
-0.02144515 -0.011478444 0.010012571 0.042398207 0.054825287 -0.0025450513 -0.061748218 -0.020076195
0.010046867 0.007549653 0.037105337 0.03981773 0.061278 -0.039511792 0.053104725 -0.011911666
-0.0023108535 0.022410667 -0.050201938 -0.00948633 0.008490458 0.04653714 -0.043858483 0.010450366
0.039474398 0.021347024 0.066903606 -0.021091063 -0.01866443 0.008732342 0.04281591 0.038853735
-0.025505148 0.039755464 -0.06175778 -0.009285183 0.0043184794 0.061310917 0.039321993 0.02044851
0.020841222 -0.014645999 0.04000937 -0.0061647333 0.07349914 -0.004117148 -0.008937169 -0.043144934
-0.045183588 0.00086527324 -0.030337827 -0.015264762 0.03202614 -0.04627367 -0.04756205 -0.043151885
-0.0027341112 0.03372061 0.042182617 0.035875745 -0.020206809 -0.015456998 -0.043797582 0.0638962
0.015984396 -0.051985223 -0.009580049 0.056645736 0.016968634 0.03298814 -0.038796466 0.01972719
0.042482413 0.00406979 0.020236785 -0.014743993 0.032972537 -0.024303304 0.029713579 -0.023097765
0.032794524 -0.034650985 0.045087803 -0.04463501 0.048129242 -0.02341053 -0.024531519 -0.012425065
0.01922497 0.04221477 0.072711796 0.025087362 -0.040265463 -0.037991323 0.014818813 0.056175023
0.06644307 -0.053055074 0.05965464 0.006429589 0.02508473 -0.0034179452 0.033449218 0.020469412
-0.0077819135 0.052996837 0.032051 0.011352757 -0.0017149327 -0.030521488 0.027248984 -0.043870825
0.015066396 0.050069846 -0.012838272 -0.017074427 0.039196618 -0.010442818 0.043505285 0.019394532
0.008149761 0.033038616 0.0022969488 0.033264045 0.008509203 -0.040140375 0.036804557 0.0010539875
-0.025207326 -0.02806472 0.039997254 0.012912913 -0.012517169 -0.0029759873 -0.037694924 0.0047156652
-0.012034716 -0.04806216 -0.04000197 0.059891105 0.010682074 -0.022433063 0.0008195847 -0.010253167
0.013621128 0.011204008 0.03526945 0.010803421 -0.015499473 0.034331147 -0.06652517 0.054743346
-0.031539164 -0.025340736 -0.05629314 0.0033202325 -0.022130933 0.014327605 -0.02687287 -0.007903412
0.025743222 0.033972144 0.009941431 -0.00053785334 -0.028302217 0.011003898 0.04638689 -0.023915304
-0.04118505 0.060944885 0.0027358686 -0.0047256406 0.040826146 -0.015604918 0.0076424163 0.026597558
-0.01732509 -0.0033344133 0.0375848 -0.04226443 -0.01765368 -0.019151747 0.058319476 0.0060806805
-0.051946957 0.066440985 -0.010785217 0.059505127 -0.018584516 0.020996781 0.028033638 -0.0030148532
-0.017433684 -0.016564872 0.042857062 0.024317564 -0.0066043795 -0.049739987 0.023439195 0.06375452
0.0123050185 -0.00798388 -0.015341801 0.010793645 0.02424834 -0.0033263825 -0.0063599767 -0.01954102
0.057193868 -0.0004771569 0.03352173 -0.024998251 -0.010635647 0.05945259 0.008594257 -0.013561802
-0.05198336 -0.027566763 0.053768642 -0.046962112 0.009342259 -0.0118681695 0.018708944 0.00626302

user_tower.fc.3.bias f4 [128]
00000000: c4c7 cc3b c2f0 fd3c 8b94 983c 797a 843c
00000010: 15f4 f8bc 2de6 8fbd aa68 1e3d 8323 933a
00000020: 6717 4fbc 0eb7 16bd ec8a bb3a bda8 28bd
00000030: 5ff8 33bd eb26 8dbd 2dbb 2c3c b684 9ebc
00000040: 0298 2d3c e645 6a3c 9ea5 9dbc f28c 4cbd
00000050: a21a 943c 6ae4 64bd b6e1 ccbc 5d2d 1bbd
00000060: c935 eebc af7d 6c3c 239e 60bd 748f 3c3d
00000070: adee 993c 87dc 133d 746e 6abd 1dba a9bc
00000080: 20ae fe3c be1c 8ebd c2f2 5a3d b5a5 e1bc
00000090: 847d 6abd 47ff 8bbd 3452 40bd 8881 2dbd
000000a0: 5184 3dbc 5019 95bc 2aa2 773d a011 a43a
000000b0: 212f 1c3d 9d7f 32bd 48cf 1fbb 23ac 983c
000000c0: 6aaf c33b 6295 193d 856a 293d e30d f0bc
000000d0: fdf0 a33c 43dc 1abd d847 173d 1506 cb3c
000000e0: 8a88 17bd 827b cfbb 0c67 89bc 8297 da3c
000000f0: 8320 5abc ba06 813c f176 8dbd 0e0d 57bc
00000100: 3560 be3c 82f5 6abb b25c 5abd 35b8 a73c
00000110: c8c7 2e3d 7391 1cbb e208 933c f3cf 4e3d
00000120: 43a1 f93c 4bc4 0cbc a488 b53a 4a83 e2bb
00000130: 3410 4cbd 4329 5e3d e2e7 5f3c 825d 1d3d
00000140: 4e9a 733d 0265 e6bc d518 f2bc e023 32bd
00000150: a85d 44bd de6b fe3c 5ca3 fd3c 1d39 9f3c
00000160: 3e00 55bb bd2c 183d 19da df3c bf5b 12bd
00000170: 8390 d13c ea9e 5f3d f554 b13c adfb 8fbd
00000180: a317 023d d434 22bd 39bd 2cbd 5d2e 5dbd
00000190: 0043 553c 49e8 0b3d e249 6c3d 6839 00bd
000001a0: c0ae f439 9bb0 f1bc 07ab 1d3d b472 febb
000001b0: 63f0 ddbc cfb8 64bd 582f df3c 75d3 2abd
000001c0: e0f0 3f3d c7b8 033c f814 5a3d dad5 acbc
000001d0: dea0 6d3d cfea f53c cd66 ffbc 11c1 56bc
000001e0: 7415 59bd cd45 3d3b d4cd 29bd 8940 063c
000001f0: 4953 a13c a4d9 d93c 6a70 56bc 17a5 0fbd
0.0062494 0.030998591 0.018625518 0.01617168 -0.030389825 -0.070263244 0.038674034 0.0011225793
-0.012639857 -0.03679567 0.001430837 -0.041176546 -0.043938037 -0.06892189 0.010542673 -0.01935039
0.0105953235 0.014298892 -0.019244011 -0.049939103 0.018079106 -0.055881895 -0.025009971 -0.03788506
-0.029078381 0.014434262 -0.05483831 0.046035245 0.018790567 0.036098983 -0.057234243 -0.020718629
0.031088889 -0.06939076 0.05345417 -0.027544836 -0.057248607 -0.068358 -0.046953395 -0.04235986
-0.011567191 -0.018200547 0.060457386 0.001251746 0.038130883 -0.043578733 -0.0024385024 0.018636769
0.0059718387 0.03749598 0.04136135 -0.029303497 0.020012373 -0.037807714 0.03693375 0.024783174
-0.03699545 -0.006331862 -0.01677277 0.026683573 -0.013313415 0.015750278 -0.06907452 -0.013125671
0.023239234 -0.00358519 -0.053311057 0.020473579 0.042670995 -0.0023890405 0.017948572 0.050491285
0.030472403 -0.008591722 0.0013849926 -0.0069126235 -0.04982014 0.05423857 0.013666125 0.038419254
0.05947333 -0.028124336 -0.029552856 -0.043491244 -0.04794088 0.031057294 0.030961685 0.019436413
-0.0032501365 0.03715204 0.027325677 -0.035732027 0.025581604 0.05459491 0.021646956 -0.07030425
0.031760823 -0.039601162 -0.042172644 -0.053999294 0.013016462 0.03415707 0.057687648 -0.031304747
0.00046669506 -0.029503157 0.038493183 -0.0077651385 -0.027092164 -0.05584031 0.027244255 -0.041705567
0.046860576 0.00803966 0.053242654 -0.021098066 0.058014743 0.030019192 -0.031176949 -0.013107554
-0.052998975 0.0028880716 -0.04145606 0.008194097 0.019693034 0.026593037 -0.013088325 -0.03506955

user_tower.fc.6.weight f4 [64, 128]
00000000: 4a0b 4f3d da47 05bd e0cf 86bd d1f9 02bd
00000010: 844d 9bbc 69df 883d 611e 643c 9020 e3bb
00000020: 3a44 3a3d 7b67 933d 685c 763c f0af 98bd
00000030: e790 613d 883b a7bc aaaf 32bc d88e a13c
00000040: ee07 443d 7639 5d3b ec05 04bd 0beb 8b3d
00000050: 2d6e 603c 7d49 6bbd e534 1d3d 9722 a3bd
00000060: 63b5 8f3d c0bb 68bd a3db 88bd 1568 993d
00000070: 1922 733d c547 9c3d ffb5 853c 33b5 123d
00000080: 816d e63c fb29 3abd 52de c73c 3dc6 dc3c
00000090: d6bd 62bd 0801 a4bb 7cb3 3fbc 0ea2 e63c
000000a0: aa3a aabd 4e3d ffbb 1f0f 91bd a7b0 b93c
000000b0: e263 a2bd 3128 54bd 7d52 d0bc e48d 14bd
000000c0: 9426 00bc 8720 19bc fac2 b3bd 6474 973c
000000d0: afa9 a1bc affa 9b3d 9722 a63d d86a a43d
000000e0: d231 eabc dd95 5e3d e396 743d 0ed3 a63a
000000f0: 77c4 9abd b1b6 183d 04c8 043c 594f 9d3d
00000100: d81d f63c 6296 8b3d 8718 c5bd aa71 8abd
00000110: e801 943d 65e4 c3bd 2e84 b5bd fbd4 0c3d
00000120: 6994 99bb bd3f 873d b970 bdbc 07e5 a6bc
00000130: fb3f 3b3d 81e0 893d e8f8 093d cde5 863d
00000140: 4d7f 8cbd 76c6 abbb 4676 653d a184 83bd
00000150: 5a9d 98bb 2a6a 6f3d 5802 1abd 480e 36bd
00000160: 0fcd 09bc d317 bdbd ed7b 86bd 187f 383d
00000170: 6667 4abc 3283 a6bd 3a6e 3a3d e0a4 66bd
00000180: ff01 983c 2dbb 913d 2308 9abd f1c8 44bc
00000190: 6ccb 19bd 74bd 8d3c b2d6 2f3d a633 283d
000001a0: 209b c03c 2ce9 8fb9 2c98 203d 51fc 4fbd
000001b0: b0a5 bb3d de50 19bd bd26 70bd 29ea c1bc
000001c0: c10f 20bd db93 ef3c 9dfe 963c 86d2 f73c
000001d0: bae8 453d efb7 49bc c9c8 e73c f8fc a33c
000001e0: fc87 59bd ac30 e13c a221 f5bc d75e a73c
000001f0: 110e ee3b 8db8 d73c 13cb 9cbd ad53 c13c
00000200: 92fa 593d 07c5 8c3c 488a 9abd d92d 8d3d
00000210: 35d9 b73c d5d3 3cbd 31a2 853d ded3 cd3b
00000220: 0324 78bd 0a4b c53c e5c6 1cbc 065f 623d
00000230: 054c 82bc 8caf 94bd 6f9e 0cbc eff6 17bd
00000240: 79d2 d4bc 9cd8 99bd 77eb e1bc 0b67 bebc
00000250: 7c67 6fbd 99e1 0dbd ace6 843d d6c9 a5bd
00000260: d247 423c 2344 813d 94ef bebc 305b 4dbc
00000270: eacf babd 2bdd 593d b802 343d fe4c 9a3b
00000280: d07b 41bb da52 4e3d 361b 97bd d6e1 743d
00000290: a64a 0ebd 70a2 febb 09f6 87ba e61c f6bc
000002a0: e9c6 9c3d b5c4 5d3c 8ff6 b83d 0788 78bd
000002b0: 281a 423d e39a 73bc ead7 d13c 1370 0bbd
000002c0: 3b2c 66bd 95eb a3bd 438c 893d 3ff2 82bd
000002d0: 944b 98bd fc0e c6bc 6511 663d b910 f9bc
000002e0: fb35 f63c d540 39ba f593 3f3c 81ba 89bb
000002f0: e208 43bd f621 e43c 0cee a63d f933 6b3a
00000300: 6107 93bc 77d7 f63b 55cd a13d 674a f5bc
00000310: 87f2 9a3c ecc8 20bc 607a 413c 7c85 8bbd
00000320: 18c9 d8bc 5191 4c3d 9b55 7bbd 85bd 6c3d
00000330: 511d 763d 30ab 29bc eae1 20bd a601 f8bc
00000340: 4af1 a83d 3318 af3c eecb 6f3d 415f 8cbc
00000350: a029 2c3c e98d 07bc 8fad 85bd 8a55 43bd
00000360: 5a41 813d cc0a 79bd 4729 0f3c 2b71 693c
00000370: 0e3e a7bc b239 473d 4432 33bd 0fe6 c03d
00000380: 5c2a c43d d86a 4ebd 1677 3e3d 74df 8c3d
00000390: 6221 863d 52e9 923c 8883 4d3c 94b6 3ebc
000003a0: 5f2d 51bd 911b 913d 98e6 9d3d d242 613d
000003b0: 031e 18bd 7837 6b3d ea85 fcbc 2974 673d
000003c0: de2a ccbb 6c3b ac3c af5e 50bd 6a89 6cbd
000003d0: 47be 9f3d c03e 90bd 23b5 05bc 8969 18bd
000003e0: c0ed 993c 180e 053d 4ec2 5a3d b258 84bc
000003f0: cebf 17bc f301 e43b 224c 0bbd 6230 d63c
0.050547875 -0.032539226 -0.06582618 -0.031976525 -0.01895786 0.06683237 0.0139232585 -0.006931372
0.045475222 0.07197472 0.01503668 -0.074554324 0.05506983 -0.020414129 -0.010906139 0.019721434
0.047859125 0.0033756173 -0.03223221 0.0683194 0.013698143 -0.05744313 0.038380522 -0.07965582
0.07017019 -0.056819677 -0.066825174 0.07490555 0.05935869 0.076308765 0.016322134 0.035817336
0.028128387 -0.045450192 0.024398003 0.026949996 -0.055356823 -0.0050050057 -0.011700507 0.028153446
-0.083119705 -0.0077892905 -0.07082962 0.022667242 -0.079292074 -0.051796142 -0.025429958 -0.03626813
-0.007821698 -0.009346134 -0.08777423 0.018488117 -0.019734232 0.076161735 0.08112066 0.08028191
-0.02858821 0.05434214 0.05971421 0.0012727694 -0.07557004 0.037283603 0.008104328 0.0768115
0.030043527 0.068157926 -0.09623819 -0.06759961 0.07226926 -0.09565047 -0.08863102 0.0343828
-0.0046868813 0.06603954 -0.02312504 -0.02037288 0.045715313 0.06732274 0.03368464 0.065868
-0.06860218 -0.0052421642 0.056020997 -0.06421781 -0.0046574296 0.058450855 -0.03759989 -0.044447213
-0.008410706 -0.0923306 -0.06566606 0.04504308 -0.012353754 -0.08130492 0.045515276 -0.05630958
0.01855564 0.07115779 -0.07521083 -0.012010799 -0.037547514 0.017302252 0.04292936 0.04106488
0.02351147 -0.00027448812 0.039207622 -0.050777737 0.09162462 -0.037430637 -0.058630694 -0.023671227
-0.039077524 0.029245308 0.018431956 0.030251753 0.04831765 -0.01231192 0.028293984 0.020018086
-0.0531082 0.027489029 -0.029923264 0.020430965 0.0072648604 0.026333118 -0.07655921 0.02359947
0.053217478 0.017183794 -0.07545906 0.0689351 0.02244244 -0.046100456 0.06525076 0.00628136
-0.06058122 0.024083633 -0.0095689045 0.055266403 -0.01590539 -0.072600454 -0.008582695 -0.03710073
-0.025979267 -0.07512018 -0.027578099 -0.023242494 -0.0584483 -0.034638975 0.0648931 -0.08095138
0.011857944 0.06311824 -0.0233076 -0.012533948 -0.09121688 0.053189438 0.043947905 0.004708885
-0.002952326 0.050371982 -0.07378237 0.059785686 -0.03473916 -0.007770829 -0.0010373007 -0.030043077
0.076551266 0.013535668 0.09031402 -0.0606766 0.047388226 -0.014868471 0.025615651 -0.03404243
-0.056194525 -0.08003918 0.06716206 -0.06393861 -0.074362904 -0.024177067 0.056168932 -0.030403482
0.030055037 -0.00070668507 0.011692991 -0.004203141 -0.047615893 0.027848225 0.081508726 0.0008972283
-0.017947854 0.0075330096 0.07900492 -0.029942704 0.018914474 -0.0098135285 0.011808962 -0.068125695
-0.026463076 0.049943272 -0.061360937 0.057797927 0.060086552 -0.010355756 -0.03927795 -0.030274224
0.08249147 0.021373844 0.058544092 -0.017135264 0.010507971 -0.00827358 -0.06527244 -0.047689
0.06311293 -0.060801312 0.008737869 0.014248173 -0.020415332 0.048639007 -0.04374911 0.0941888
0.09578392 -0.050394863 0.046500288 0.06878558 0.06549336 0.017933521 0.0125435665 -0.01164021
-0.05106866 0.07085336 0.07709998 0.054995365 -0.037137996 0.057425946 -0.030825574 0.056507263
-0.006230696 0.021024428 -0.050871547 -0.057748236 0.077999644 -0.070432186 -0.008160862 -0.03721002
0.018790126 0.032484144 0.05340796 -0.016155574 -0.009262038 0.00695824 -0.034008153 0.026146118

user_tower.fc.6.bias f4 [64]
00000000: 6ecc 9b3b c3e5 30bd 4b51 fcbc 458a e83c
00000010: 2473 063d c2e3 9f3c e92d ac3c dc36 26bd
00000020: e0d5 a53b 27f1 8b3b f039 a03b dd5c f13c
00000030: 36e2 9fbd ee4d a2bc 1a67 44bd 0e8e 3fbd
00000040: 7c12 6cbd be6e 4dba e6cd 09bc d8c3 0ebd
00000050: da2a 303d 79e0 a6bd baba 81bd 58da 41bc
00000060: 6369 93bc 1c84 60bc 7787 6abd 0b40 98ba
00000070: 4227 123d bc38 013d b47a 533d 1053 8d3c
00000080: 75d4 1dbd 4cf4 b9bd e37e f43c 8b1c 23bc
00000090: 64bb 88bd e773 893d 7c5f 19bd dbe0 273d
000000a0: 35c9 6e3d 7613 9b3d 0861 f2bc 6cff 35bc
000000b0: 797a 3e3c bf34 ab3d a3bb b9bc b9ed f93c
000000c0: 30e1 ed3c cf91 be3c ff59 143d d157 b7bc
000000d0: b0a4 fd3c 7a00 de3c 307e 0abd 6d29 01bc
000000e0: 512a b5bb 8ed4 4cbd 8801 aa3d 420a 843d
000000f0: 7417 5cbb 2a57 fa3c 24d5 633d ccc8 7abd
0.0047545945 -0.043187868 -0.030800482 0.028386245 0.03282465 0.019517783 0.021017985 -0.04057966
0.0050608963 0.004270691 0.004889719 0.029463226 -0.07806818 -0.01981255 -0.047949888 -0.046766333
-0.057634816 -0.0007836631 -0.008410906 -0.03485474 0.043009616 -0.081482835 -0.063344434 -0.011831842
-0.017994588 -0.013703372 -0.057258096 -0.0011615766 0.03568197 0.031548247 0.05163069 0.017251521
-0.038532693 -0.09079799 0.02984566 -0.009955536 -0.06676367 0.0671156 -0.037444577 0.040985923
0.058297355 0.07572071 -0.029587284 -0.011108261 0.011625879 0.0835967 -0.02267248 0.030508863
0.029038042 0.023262886 0.03621864 -0.022380741 0.030962318 0.027099837 -0.033811748 -0.007883412
-0.005528726 -0.050007395 0.08301073 0.06447269 -0.0033583315 0.030559141 0.05562319 -0.06122665

item_tower.fc.0.weight f4 [256, 12]
00000000: 4822 c43d fbe4 0b3e 2d76 e3bd 5b10 6bbd
00000010: 19e8 30bd eb72 2cbe 6b39 383e f4fd d1bd
00000020: 3839 0cbe 606e a2bd 74e6 60be a03b 8b3c
00000030: 42ca 07bb 32bc febd 1a10 2c3e 3a8e e93d
00000040: 2393 2b3e 752f 73be 1598 dc3d a8e8 0b3d
00000050: af7c 363e 513d 803e 2143 50be d688 7e3e
00000060: 7963 11bd e547 5dbe f82d 95be 6d84 6abe
00000070: 9bde 92be ee1e 253e 1ec5 df3d de77 533e
00000080: 2c68 013e 80ef 89be f05a 793e 8a48 843e
00000090: a2a9 e6ba 1742 bc3d 9a90 b33d 307c 32be
000000a0: 847b 5d3e f7d7 e5bd d3c1 bb3d 6287 6fbe
000000b0: 45c6 81be f20b e43d d64d 83be d5b2 f73d
000000c0: eaab 523d 2dcf 9d3e cf6a a53c c4e0 3d3d
000000d0: ac69 fbbd cd50 84bd 67c0 173e fcc3 af3d
000000e0: 1707 643e e401 073e 1643 663e 5cea 20bd
000000f0: 7281 6f3e 1e4c aebd c61c 223e e22a 9abd
00000100: 725a c53d 3d30 29be 811c 6dbd 5cb8 8f3e
00000110: f101 203d 5d0f 3a3d 5a46 d5bc 8b0a 163d
00000120: f7d8 243e 9235 d83d 347c e7bd 0145 39be
00000130: 5581 733e d882 51bc 0987 89be 4ecf 03be
00000140: c9a1 29be 1a43 84be e1c4 14be 4ef2 823e
00000150: b94d c6bd 6938 d0bd 4fc1 043e 2a55 23bd
00000160: e63e fcbd 34c1 d6bd 7399 95be 54f7 7ebe
00000170: db40 5dbd 7eac 33be 6d81 39be 4fca 89be
00000180: d11b 443e 9e6b 78be 6c41 213d ffa1 593e
00000190: 9424 32be a944 09be 32ce 583e 67a7 8f3d
000001a0: 8701 8f3e 05a2 423e 45e8 3cbe 08c0 663e
000001b0: 4e95 813e 7c10 c8bd e091 963e 6fc7 313d
000001c0: 366e a5bc dfe3 17be 74e8 df3d 0a4f 8e3e
000001d0: b981 8e3e 936d be3d 348b a3bd 7839 59be
000001e0: 4373 23bd 60be ab3b 1ba3 0abc 8dd4 94bc
000001f0: a39a 81bc b83f 1abe 3342 753d 7bc1 36be
00000200: 0749 f9bd 5bfa 2fbe 6694 973c 396e 483d
00000210: 2ba3 d3bd 05ec 47bd 24c7 833e 2bff 193e
00000220: 0fa2 1f3e de45 4f3e 0aa1 013e 5284 4d3e
00000230: 3668 c53d 80a0 2e3e 8707 25bd 717f 8abd
00000240: b2d7 3ebd cd0c 1a3e 5390 84be 5f91 23bd
00000250: 7983 45be 48d1 d03d a3b8 4bbe 0b6d 7f3e
00000260: 179c 803e f063 793d 4f18 933e d79d 7ebe
00000270: 6ea3 7dbe 9293 13be 3f04 7cbe 15dd 2fbe
00000280: ea99 76bd b8de 8abd aabd 70be af58 44be
00000290: 1ec9 dabc 0778 b7bd 86de eabd ebbb 1dbd
000002a0: 5154 0abc a3ff 13be 06b4 223e afc7 e3bd
000002b0: cc48 893d 8a3f 3b3e 0da5 44be 17d1 a7bd
000002c0: 0b00 273e 5be9 92bc 62ab 48be 630e b0bd
000002d0: 8d36 183e 4d30 3b3e 1794 b93d f2f5 ba3c
000002e0: b98b be3d 422f 8e3e 91ff 8cbc 2f42 843e
000002f0: 05b8 c6bd 0108 1a3e 6162 143e d43c 24bc
00000300: 9745 1e3c d41e 5e3e aea3 82be ebd1 6cbd
00000310: 4094 6fbe aee6 6abe c445 0fbe 4b1d 32be
00000320: b128 353e fe75 543e 87f1 6abd a3ea 8ebe
00000330: ef4c 313e 469a 0bbe 47e3 fbbd 76a0 75be
00000340: 9e2e d9bd 6b66 f7bd 946a 313e da9a dd3d
00000350: 38b8 69be ce08 f23d 3ba3 263d 9d36 543e
00000360: e836 333e e4f9 863e 7739 8e3d eda0 75be
00000370: 071e 8c3e 0401 8ebd 42b0 093e 750c 0e3e
00000380: 23e4 943e ad8c 453d 69bc 92bd 8523 883e
00000390: 3e45 073e f575 7bbe c6c8 46be 5b60 62be
000003a0: 039e 8dbe 40ce 05be a928 8abe 593f 503e
000003b0: 54a3 bf3d 774f 4a3d 100d bb3c 8586 433e
000003c0: e6d7 7f3c 9d4d 1fbe f340 edba 2086 fe3c
000003d0: 1fcf 553d f33f 893e f146 5a3e ea6c 02be
000003e0: 31d9 743e 1f62 c4bc d4f6 f4bc c4a9 4c3e
000003f0: 7bfd 043b 4488 6bbe e1db 2a3e 5a01 86be
0.09576851 0.13661568 -0.111065246 -0.057388645 -0.043190096 -0.16840713 0.17990653 -0.10253516
-0.13693702 -0.079312086 -0.21962911 0.016996205 -0.002071992 -0.12438239 0.16803017 0.11404081
0.16755347 -0.23748572 0.10771195 0.034157425 0.17821 0.2504678 -0.20338108 0.24856886
-0.035495255 -0.21609457 -0.29136634 -0.22902079 -0.2868546 0.1612508 0.10926269 0.20651194
0.12637395 -0.26940536 0.24351096 0.25836593 -0.0017598162 0.09192293 0.08767815 -0.17430186
0.21629149 -0.11222833 0.091678284 -0.23391488 -0.2534658 0.11135091 -0.25645322 0.120946564
0.05143348 0.30822125 0.020192532 0.04635693 -0.12276015 -0.06460724 0.1481949 0.08582303
0.2226833 0.13184315 0.22486529 -0.039286003 0.23389223 -0.08510612 0.15831289 -0.075277105
0.09636392 -0.16522308 -0.05788851 0.28070343 0.03906435 0.045424808 -0.026034523 0.03663115
0.1609839 0.10557093 -0.11302987 -0.18092729 0.23779805 -0.012787543 -0.26860836 -0.12872049
-0.16565622 -0.25832444 -0.14528228 0.2557549 -0.09682793 -0.101670094 0.12964366 -0.03987614
-0.123166844 -0.10486069 -0.29218635 -0.24899036 -0.05401693 -0.1754627 -0.18115778 -0.26912162
0.19151236 -0.24259803 0.03936903 0.21253203 -0.17396766 -0.13405098 0.21172407 0.07014351
0.27930853 0.19007118 -0.18447979 0.22534192 0.25309223 -0.09768769 0.2940817 0.043403085
-0.020194154 -0.1483302 0.10933009 0.27794677 0.27833346 0.092982434 -0.07985535 -0.21213329
-0.039904844 0.0052412003 -0.008461739 -0.018167758 -0.015820807 -0.1506337 0.059877586 -0.17847244
-0.12172132 -0.17185347 0.01850338 0.04893324 -0.10333856 -0.04880907 0.2573787 0.15038745
0.15589164 0.20241496 0.12659088 0.20070007 0.09639017 0.17053413 -0.04029038 -0.06762589
-0.04659242 0.15043946 -0.2589136 -0.03993356 -0.19288434 0.10196167 -0.19894652 0.2494394
0.25119087 0.060886323 0.28729483 -0.24864899 -0.24769375 -0.14411762 -0.24610995 -0.1717418
-0.060205378 -0.067807615 -0.23509851 -0.19174455 -0.026707228 -0.0895844 -0.11468224 -0.03850929
-0.008442954 -0.14452986 0.15888986 -0.11122071 0.06703338 0.18285957 -0.19203587 -0.081941776
0.1630861 -0.017933538 -0.19596627 -0.08596494 0.1486456 0.18280144 0.09061449 0.022822354
0.09303994 0.2777043 -0.017211707 0.25831744 -0.09703068 0.15042116 0.14490654 -0.010024268
0.009660146 0.21691447 -0.25515503 -0.05781738 -0.23396397 -0.2293956 -0.13991457 -0.17393987
0.17691304 0.20748135 -0.057359245 -0.2791339 0.17314504 -0.1363307 -0.12299209 -0.23986992
-0.10604595 -0.120800816 0.17325813 0.10820551 -0.2282418 0.118180856 0.040683012 0.20723958
0.17501414 0.26362526 0.06944554 -0.2398717 0.2736666 -0.069337875 0.13446143 0.1387194
0.29080305 0.048229862 -0.07164843 0.265896 0.13210008 -0.24556716 -0.19412526 -0.22107069
-0.27659616 -0.1306696 -0.26984146 0.20336665 0.09357324 0.04939219 0.022833377 0.19094284
0.015615439 -0.15556951 -0.0018101021 0.031069815 0.05219948 0.26806602 0.21316124 -0.1273686
0.23910977 -0.023972569 -0.029902853 0.19986635 0.0020292688 -0.230012 0.1668544 -0.26172906

item_tower.fc.0.bias f4 [256]
00000000: a7bb f53c efa3 af3d 981a 3a3e 0eb0 883e
00000010: 2371 75be 4a5a e73d 20d2 6dbe 1286 67be
00000020: a350 9abc 55d2 7e3e 27e8 de3d 07c3 55be
00000030: 3f82 41bd 9dc8 df3d ca40 16be 3fc5 8a3e
00000040: 42f6 d73d 15ca 7ebe 9916 1c3d c5ad 82bd
00000050: 31be b53d 55af a73d 0262 24be 0a2e 45be
00000060: 9666 a9bc dafc 2fbe 03dc ebbd e442 bfbc
00000070: 1bfa 83bd c127 60bc b01e a13d 5b4f 413d
00000080: 4247 3dbe b4b3 6f3e 311a 29be ff9a 423e
00000090: 4a89 0abe 5523 f7bd 3104 2e3e c0f1 e53d
000000a0: b4c7 eb3d 9b69 913e 92ab 5c3e 00d4 f0ba
000000b0: aafd 983e 967b fd3d 195c 00be 0147 373e
000000c0: e8e8 de3d e876 e4bd 2134 463e 0393 20be
000000d0: 1cf7 383e 8d1d dabc 5531 363e ac0a d83c
000000e0: 91be 043e 6ebb 1a3e 9e65 df3d a344 51be
000000f0: df55 2bbd 8d21 403d 2018 ee3c 91c5 703e
00000100: 2165 0ebe 8caa babd 3fb2 133d 4c1f cbbd
00000110: c522 90bd 4732 0cbc 5da1 ab3c 6f70 25bd
00000120: 7d37 1b3d 2eb0 843e f40c db3d 9c8d 7e3d
00000130: fdbd 843e b87b 8bbe a7c0 253e 0c63 753e
00000140: f20e f1bd ec60 64bd f21c dc3d 400f 393e
00000150: 35a6 673e f056 d73d b597 62be 5daa 413e
00000160: cb51 8a3e eedb 74be 455b a4bd ff3a 3c3e
00000170: 4f64 58be 10e1 d5bd 647e 763e b5e0 3b3e
00000180: 5f01 4bbe 8a57 563e bcc5 293d 04d3 8abd
00000190: edef 293e b6ae 25be 6de1 87bc fadb 61be
000001a0: 1678 ffbd aa14 9c3d 8feb ea3d 974f 793d
000001b0: 8854 8c3e c26f 86be d8dc 8b3e 42d3 343e
000001c0: 24bb b4bd 093c f83c b5f1 913d 590a 8e3e
000001d0: 8d8a 433e 52bb 623e 8991 31bd bc4a 693d
000001e0: d5c7 8bbc ee75 80be 8787 92bc 14a6 f6bc
000001f0: 31e0 c73d d8ad c9bd ed28 473e 1710 de3d
00000200: bbf2 a23c e551 633e c38a 963d b6b7 50be
00000210: a8b7 703e 772f eb3d 864c 313e f29f 763e
00000220: abb2 353e 0368 0c3d 4149 09be 0470 783e
00000230: 3b1b 79bd 59df 953d e160 f43d fe76 93bb
00000240: f8da 103e 2a08 9abd 7b4b 853e 5654 3abe
00000250: ba0f 3dbe 788f 98bc bdb4 383e ca87 25be
00000260: e1bf 323e 2091 583d fa24 99be 62f2 b23d
00000270: e0a9 343e ad77 a9bd 0cc2 793e 018f 143e
00000280: 73b5 1a3e b63d 613e 7137 613e e2db 623d
00000290: 856f 37be 27e0 013e e31c 66be f5be 8a3c
000002a0: 8b0a 1a3e cda5 54bc 9ffa 8bbd c84b 503e
000002b0: 8357 dd3d 86c2 84be 98f0 6c3e 0308 40be
000002c0: 1004 bb3d f112 e33d ee5e f3bd ce95 783e
000002d0: 7c4c 5bbe 78a5 f1bd 43b4 c03c 58d9 313e
000002e0: fe46 753e ee6a 2dbe d40d 0bbe 7a2b 3fbc
000002f0: 08f7 893d 5a29 473d eef3 823e 9c0a 29be
00000300: 40e1 8c3e 5fa7 5dbe e3a8 2bbe 4eb8 6a3e
00000310: a85c 433e f448 0abd 9837 6dbe 8d1b 4f3d
00000320: f3f7 9a3d bbcd fc3d 5370 6d3e 9ca9 82bd
00000330: 8f11 7fbe 72ad babd 4510 883e 9ef1 86bd
00000340: f87f 6d3e 6e74 6ebd 459c 073e a32b 19be
00000350: be3a babd 41e3 223d b177 de3d 1864 3e3d
00000360: e2dd 88be 22a3 483e ee8c 92be f577 063e
00000370: 9770 39be 6510 053e 791f 91bb 22df 3abd
00000380: 29db 093d 80d3 493d 6d81 4d3e 26dd 87bd
00000390: e67e 3dbc 7490 7f3e a244 29be 5102 873e
000003a0: 678d 70be 0ed1 173d 0966 82be 1ae3 42be
000003b0: a5e8 e23d 5556 d1bd b46b 933e a3a0 973d
000003c0: b41c 6bbe 3ee5 2ebe a9cc 963e 27b7 033e
000003d0: 24ba 55be 239e 3abd f867 0dbe a302 4ebe
000003e0: c7fb 98bc 02b8 04bb 2bfa 273e 4cd2 ddbd
000003f0: b91d 4cbe 13cd d8bd 0b2f 04be ea83 18be
0.029996706 0.0857619 0.18174207 0.2669682 -0.2396894 0.11296518 -0.23224688 -0.22609738
-0.018837279 0.24884923 0.10884123 -0.20875178 -0.047243353 0.10926936 -0.14673153 0.27103612
0.10545017 -0.24881776 0.03810749 -0.063808 0.08874167 0.08187739 -0.16053012 -0.19255844
-0.0206788 -0.17186299 -0.11516573 -0.023347326 -0.06444188 -0.013681353 0.07867181 0.04719482
-0.18484214 0.23408395 -0.16513897 0.19004439 -0.13528934 -0.12067286 0.16993786 0.11227751
0.115127 0.28400883 0.21549824 -0.0018373728 0.2988103 0.12377088 -0.12535132 0.1789818
0.10884267 -0.11155492 0.19355823 -0.1568108 0.18063015 -0.026625419 0.17792256 0.026372276
0.1296332 0.15110561 0.10908054 -0.20436339 -0.04182994 0.046906997 0.029064238 0.23512866
-0.13905765 -0.091145605 0.03605866 -0.09918079 -0.07037882 -0.008556909 0.020950967 -0.04039043
0.037894715 0.25915664 0.1069583 0.062146768 0.259262 -0.27242827 0.16186772 0.23963565
-0.11770429 -0.055756494 0.107477084 0.18072224 0.22621997 0.10514629 -0.22128184 0.18912645
0.27015528 -0.23912022 -0.08025221 0.1838188 -0.21132015 -0.10443318 0.24071652 0.18347438
-0.19824742 0.20931831 0.04144834 -0.06778529 0.1659543 -0.16179928 -0.016586984 -0.2205657
-0.124740764 0.07621129 0.114707105 0.06086692 0.27408242 -0.2625714 0.27316928 0.17658713
-0.08824757 0.030302064 0.0712618 0.2774227 0.19095822 0.2214177 -0.043351684 0.056956038
-0.01706306 -0.25089973 -0.01788689 -0.03010849 0.09759558 -0.09847611 0.19449206 0.10842913
0.019891134 0.22199209 0.073506854 -0.2038258 0.2350756 0.114836626 0.17314348 0.24084452
0.17743938 0.03427888 -0.1340685 0.2426148 -0.060816985 0.07317991 0.11932541 -0.004500269
0.1414603 -0.075210884 0.2603415 -0.18196234 -0.1846303 -0.018623099 0.18037696 -0.1616508
0.17456008 0.052872777 -0.29911023 0.08737637 0.17642927 -0.082747795 0.2439043 0.14507677
0.1510828 0.21996197 0.21993805 0.055385478 -0.17913635 0.12683164 -0.22471957 0.016936759
0.15043084 -0.012978983 -0.068349116 0.20341408 0.10807707 -0.2592966 0.23138654 -0.18753056
0.09131634 0.11087597 -0.11883341 0.24275896 -0.21415895 -0.11799139 0.023523455 0.17368066
0.23952863 -0.16935322 -0.13579494 -0.01166808 0.067365706 0.04862342 0.2557673 -0.16507953
0.27515602 -0.21645878 -0.16763644 0.22921869 0.19078314 -0.03376098 -0.23165739 0.050563384
0.07566824 0.123439275 0.2318738 -0.06380007 -0.24909042 -0.09115113 0.26574913 -0.065890536
0.23193347 -0.058216505 0.13243206 -0.14958052 -0.090932354 0.039767507 0.10862673 0.046482176
-0.26731783 0.1959348 -0.28623146 0.13131697 -0.18109356 0.12994535 -0.0044288007 -0.045622952
0.033656273 0.049273968 0.20068903 -0.066339776 -0.0115658995 0.24957448 -0.16530088 0.26368955
-0.2349144 0.037064604 -0.25468472 -0.19031945 0.1107953 -0.10221545 0.28793108 0.07403686
-0.22960168 -0.17079636 0.29453018 0.12862836 -0.20871788 -0.045560967 -0.13809192 -0.20118193
-0.018674744 -0.0020251279 0.16404025 -0.108311266 -0.19933213 -0.1058599 -0.1290857 -0.14894071

item_tower.fc.3.weight f4 [128, 256]
00000000: ecd7 023c ab9b 703c a022 53bc 46a9 7fbd
00000010: d920 35bd ac4c 90bc c31d 253c 7003 d93c
00000020: 3dfd 9ebc 455d fcbc c06a 543a 7734 2f3d
00000030: 146e 243c cc28 4a3d 0c79 11bd 09aa 3c3d
00000040: 5493 aa3c e045 0bbd 65e4 023d 6a80 a6bc
00000050: 60c3 2b3d cacb c7bc 7ce9 00bd 10b9 b23c
00000060: 1a70 1c3d 91a2 e73c 42e0 063d 4d69 033d
00000070: 5951 6c3c 4204 953c 74e0 d03b 978d 2d3d
00000080: 1097 233c b8ec 2dbd d688 e53a a469 bc3c
00000090: f666 4cbc 52e3 7abd 89fb 35bd 1747 df3a
000000a0: 6418 1fbc 1bf9 96bc d71c 433d 3652 a0bc
000000b0: dae2 92bc f66c 0d3d 3da6 ec3c a4b7 9a3b
000000c0: 86b1 303d 1561 793c dafb 1b3c 95c9 12bd
000000d0: 6120 d23b 70f2 1dbb 4c52 0c3c 6e65 89bd
000000e0: 9a79 813c 9f62 af3c 6727 85bd 3d75 943c
000000f0: ad7f 143d abe1 403b d85f 2d3d 415e 3f3c
00000100: 74bc 3ebc 16aa b03c 5a7d 12bd 002e c6bc
00000110: d871 e4bc 0e5e 66bd cb90 73bd 27d3 53bc
00000120: 48f4 42bd 8ec5 cbbc c099 2a3d 1f50 4fbb
00000130: dfab 3d3c 6abe 8b3c a1ab 533c 8556 53bc
00000140: 2202 89bc 2da1 313d bef9 21bd ad66 913c
00000150: 6629 393c d474 f0bc 2bbf ae3c 618a 20bd
00000160: 8f90 f8bb 0af7 cb3b 1f6b 0f3d ae30 2e3c
00000170: 75fd d53c e91e deba addf 60bd ae28 723d
00000180: d854 163d 7fff 4cbd 93c7 dfbc 076c 2cbd
00000190: d1e7 6bbd bb80 653c bb88 18bd 3d65 0bbd
000001a0: a05b 193b 02cc 6abd b934 01bd b665 6dbc
000001b0: d799 133c bed1 533c 87c1 fdbc de1b 3abc
000001c0: 4feb 36bd 824b 883b 6500 8fbc ea59 1ebc
000001d0: a82e aa3c 59e9 273d e58d ad3a c221 723c
000001e0: e513 c4bb ece8 8ebb 6e72 8f3c c8e8 20bd
000001f0: 0024 e23b 9720 2d3d 4e75 2a3d f8d1 bd3c
00000200: 889d 6c3c ac4c 2f3d ee6a 003d 36c2 33bd
00000210: 7c11 5e3c d607 4f3c 1e07 1fbd 47fc b73c
00000220: 3d16 d1bc 9de5 b63c 3800 903c 5e38 20bc
00000230: b0e8 56bd 96a9 4a3d 8d8c 86bd d6d5 dc39
00000240: d6fb 9b3c dbc7 063d ff8a 7abc 62d7 673b
00000250: e3f7 743c 5f4f afbc db9b 43bd b902 d83c
00000260: f645 c6bb 792d fe3c dd84 d7bb 8db4 cbbc
00000270: c2b5 87bc be3d 63bb dd16 1dbc 6a0f e43c
00000280: 4718 69bd 748b 233c e911 15bd 1087 6ebd
00000290: ac14 32bb 7ec9 073d 498e 1c3c 5bbc 6b3c
000002a0: 0aab 15bd 2040 48bc 8a74 a2bb 28c9 c73c
000002b0: 8887 dcbc 970f 753c 8c10 34bd 8cf9 033a
000002c0: 5bfa 25bd aea1 8b3c 0ec8 03bc 3223 85bd
000002d0: f120 293d 4568 0dbd fd10 063d c37f 6bbc
000002e0: f6af 83bd 4c37 9839 366e afbc e22b fb3a
000002f0: 2550 bfbc 9405 843b 22e8 603c 3f6e 72bd
00000300: 1ecb 163d 9fb4 f5bb a8ca d1bc f66a eabc
00000310: b8e1 14bd 58c6 143d aaa7 b9bc c24f fb3c
00000320: 809d e6bc 77a0 c43c d66a ebbc 5117 293d
00000330: c752 293d cfcb 6abd a9eb a0bc 02ae fe3c
00000340: 881c 0c3d aaa4 973c 83e1 4ebd 7c36 c53c
00000350: 6286 e8bc c8eb 43bc 429e 00bd 8429 19bd
00000360: 08b5 7bbc 3435 ebbc 9ade 01bb acb1 0c3d
00000370: 3000 3cbd 399c de3c b42b 05bd 8d18 37bd
00000380: c1a5 28bd 1ce3 dfbc 9b0f 8b3b 3b27 963c
00000390: 9b48 343d ef1a 053d 9e2a 11bd 0814 dd3c
000003a0: bc91 a0bc 16b0 19bd bd69 b23c 208e 1abd
000003b0: cfb8 de3c c873 343d 3ac8 febc 0020 a739
000003c0: 8b4a 223d 786a ae3c 548d 4a3d ac46 14bd
000003d0: 06cf b2bc 307b 17bd 9d81 bb3b 0edd 3b3b
000003e0: e98b 903c 38ee a3ba e8f2 bdbb b1aa 933c
000003f0: f663 28bd 39c6 86bc 3921 c4ba cf91 1b3d
0.00798605 0.014685552 -0.012886673 -0.06241729 -0.04422078 -0.017614685 0.0100778965 0.026490897
-0.019407863 -0.030806193 0.0008103065 0.042774644 0.01003601 0.049355313 -0.03551583 0.046060596
0.020822205 -0.034002185 0.031956095 -0.020324904 0.04193437 -0.024389166 -0.031472668 0.02181676
0.038192846 0.02827576 0.032928713 0.032082845 0.014423692 0.018190507 0.006374413 0.04237136
0.009984747 -0.04246208 0.0017512094 0.022999592 -0.01247572 -0.061251946 -0.044429336 0.0017034736
-0.009710405 -0.01842933 0.047634926 -0.019570451 -0.017930437 0.03452774 0.028887862 0.0047215987
0.04313805 0.0152209 0.009520495 -0.035836775 0.0064125513 -0.0024100803 0.008564543 -0.06708799
0.015805054 0.02140933 -0.06501656 0.01812231 0.036254574 0.0029431384 0.04232773 0.011680187
-0.01164161 0.021565478 -0.035764076 -0.024191856 -0.027886316 -0.05624204 -0.059464257 -0.012928761
-0.047596246 -0.024874475 0.041650534 -0.003163345 0.011576622 0.01705857 0.0129193375 -0.012899046
-0.01672465 0.0433666 -0.039544813 0.017749155 0.011301374 -0.029352583 0.02133139 -0.03919447
-0.007585592 0.0062245177 0.035014268 0.010631723 0.026121834 -0.0016946468 -0.054900814 0.059120826
0.036702007 -0.050048348 -0.027316844 -0.04209521 -0.057594124 0.0140077425 -0.03723977 -0.034032095
0.002340056 -0.057323463 -0.03154442 -0.014489582 0.009008846 0.012928424 -0.03097607 -0.011359183
-0.044658 0.004159392 -0.017456243 -0.009664992 0.0207742 0.040994022 0.001324114 0.014778556
-0.005983817 -0.0043612625 0.017510619 -0.039284497 0.006901264 0.04226741 0.041615777 0.02317141
0.014441855 0.04279773 0.031351976 -0.043886386 0.013553973 0.012636146 -0.038825147 0.022459162
-0.0255233 0.022326285 0.01757823 -0.009779064 -0.052468 0.049478136 -0.06569777 0.0004212099
0.019040983 0.03290544 -0.015291928 0.003537618 0.014951679 -0.021400152 -0.047756057 0.026368486
-0.0060508205 0.031027542 -0.006577118 -0.024866367 -0.016566161 -0.0034674252 -0.009587971 0.027839381
-0.05690792 0.009981979 -0.036394034 -0.058234274 -0.0027172966 0.033151142 0.009555408 0.014388169
-0.03654007 -0.01222232 -0.00495774 0.024387911 -0.026920095 0.01495733 -0.043961093 0.0005034439
-0.04052196 0.017044868 -0.008043302 -0.065008536 0.04129118 -0.034523267 0.032731045 -0.0143737225
-0.06430046 0.000290329 -0.021414857 0.0019162858 -0.023353646 0.0040289853 0.01372722 -0.05918717
0.0368148 -0.0074983384 -0.02560933 -0.028615456 -0.036348075 0.036321968 -0.022662956 0.03067768
-0.028151274 0.024002297 -0.028737467 0.041282002 0.04133871 -0.057323273 -0.019643622 0.031088833
0.034206897 0.018511135 -0.050508033 0.024073832 -0.028384391 -0.01195807 -0.031400926 -0.037393108
-0.015362985 -0.028711893 -0.0019816519 0.03434913 -0.045898616 0.027174102 -0.03251238 -0.044701148
-0.0411737 -0.027329974 0.0042438037 0.018329253 0.044014554 0.03249639 -0.035441034 0.02698709
-0.019600742 -0.037521444 0.021778936 -0.037733197 0.027187733 0.04405573 -0.031101335 0.00031876564
0.03962187 0.021291003 0.049451187 -0.03620021 -0.021827232 -0.036982715 0.005722238 0.0028665694
0.01764484 -0.0012506908 -0.005796779 0.018025728 -0.041110955 -0.016451942 -0.0014963514 0.03798085
