models/dumps/IntTower_v1.pth (torch, 150194 bytes, 11 tensors)

user_tower.fc.0.weight f4 [128, 11]
0	0x3db877e2	0.09007241
1	0x3e891232	0.26771694
2	0x3dae2fe3	0.085052274
3	0x3e825494	0.25455153
4	0x3e1c7ac0	0.152812
5	0xbea16359	-0.3152111
6	0x3e779d07	0.24180995
7	0xbe9d1eea	-0.30687648
8	0xbe94f861	-0.29095748
9	0x3df98af5	0.12184707
10	0x3d7249bd	0.059152354
11	0x3e55054f	0.20802806
12	0xbe251894	-0.16122657
13	0xbe83377c	-0.2562827
14	0x3be9b337	0.00713196
15	0x3e33cccd	0.17558594
16	0x3e49b49c	0.19697803
17	0x3e82319c	0.25428474
18	0x3c722f45	0.014781778
19	0x3e214fdd	0.15753122
20	0xbe07d67f	-0.13265418
21	0xbe0bf7f1	-0.13668801
22	0xbbdfaa1e	-0.0068256995
23	0xbde3e489	-0.11127574
24	0x3deb32dc	0.1148431
25	0xbe50cfec	-0.20391816
26	0x3e8c36d9	0.27385595
27	0xbe012307	-0.12611018
28	0xbe317f29	-0.17333664
29	0xbe35bcea	-0.17747846
30	0x3de5a74b	0.11213549
31	0x3dab295c	0.08357498
32	0x3d469c6a	0.04848901
33	0xbdba805b	-0.09106513
34	0xbe03e83d	-0.1288156
35	0x3d795620	0.06087315
36	0x3cb697c0	0.022289157
37	0x3d6f9b52	0.058497734
38	0xbe0e0965	-0.13870771
39	0xbdd65c3c	-0.10466811
40	0xbe7a0d74	-0.24419194
41	0x3e51f01d	0.20501752
42	0xbde1ee7e	-0.11031817
43	0xbe05bc6e	-0.13060161
44	0xbd32c596	-0.043645464
45	0x3c4be6a1	0.012445123
46	0xbe2f3359	-0.17109431
47	0xbd4fd798	-0.050742716
48	0x3e1d177a	0.15340987
49	0xbd6fbebe	-0.058531515
50	0x3e7b76b8	0.24557006
51	0x3e0cbcbd	0.13743873
52	0xbc258637	-0.0101028
53	0xbe79ac45	-0.24382122
54	0xbe2640dd	-0.16235681
55	0xbe74cf08	-0.23907101
56	0x3cd84fb8	0.0264052
57	0x3e942dee	0.28941292
58	0x3ca77c12	0.020444904
59	0x3e01c28c	0.1267187
60	0xbe64086d	-0.22268839
61	0xbe806c6a	-0.25082713
62	0x3de0bc58	0.10973424
63	0x3ca2009a	0.019775677
64	0xbdb18a5f	-0.0866897
65	0x3e2d6e95	0.16936715
66	0xbe1bc987	-0.15213595
67	0xbc99da41	-0.01878083
68	0x3e26ba6d	0.16282053
69	0xbdb25b82	-0.0870886
70	0x3e497d0f	0.19676612
71	0xbe291e98	-0.16515577
72	0xbe5c1837	-0.21493612
73	0x3b122991	0.0022302608
74	0x3e688d2f	0.22710107
75	0xbe87cc18	-0.265229
76	0x3e7cfe29	0.2470633
77	0xbe79bbce	-0.24388048
78	0x3c482f36	0.012218287
79	0x3e070523	0.13185553
80	0x3ce71464	0.028207965
81	0x3c0d7c70	0.008635625
82	0xbe56c5d5	-0.20973904
83	0xbe0f5187	-0.13995944
84	0xbe45c0f7	-0.19311891
85	0xbcf76d6d	-0.030203545
86	0xbe74afcb	-0.23895185
87	0xb9aa6107	-0.00032497218
88	0xbe8ced20	-0.27524662
89	0x3e71c5ea	0.23610654
90	0xbd8ba995	-0.068194546
91	0xbde20f5f	-0.11038088
92	0x3dcd9dd4	0.10039869
93	0xbe95e3e7	-0.29275438
94	0xbe14c8e1	-0.14529754
95	0x3e397a51	0.18113066
96	0x3e38cca1	0.1804681
97	0xbd8a67fb	-0.06758114
98	0x3d751ece	0.05984383
99	0xbd3890a6	-0.045059822
100	0xbe26c288	-0.16285145
101	0x3e8aacd6	0.27084988
102	0xbe3fc9d1	-0.1872933
103	0x3e608f07	0.2192956
104	0x3e27f5c3	0.16402344
105	0xbde03e7e	-0.109494194
106	0xbdcca091	-0.09991563
107	0xbdfa10eb	-0.12210258
108	0xbe5d0da4	-0.21587235
109	0xbe540340	-0.20704365
110	0xbe114c8f	-0.14189361
111	0x3d12b29f	0.035814878
112	0x3e3f5ae8	0.18687022
113	0xbe5940fd	-0.21216197
114	0x3e992483	0.2991067
115	0xbe1bf529	-0.1523024
116	0x3e8873b4	0.26650774
117	0xbe8c05b8	-0.27348113
118	0xbe109466	-0.1411911
119	0x3da4cbed	0.08046708
120	0x3e384760	0.17995977
121	0x3dcbdb3d	0.09953926
122	0x3e8e8983	0.27839288
123	0xbe818041	-0.25293162
124	0xbe5f49c3	-0.21805482
125	0x3cba6c7a	0.022756804
126	0xbe6f8ef9	-0.23394383
127	0xbd8b0f97	-0.06790083
128	0xbd234df3	-0.03986926
129	0x3daec36f	0.0853337
130	0x3e4b434b	0.19849889
131	0xbde73bd0	-0.11290705
132	0x3d74a5f1	0.059728567
133	0x3e81f461	0.2538176
134	0xbdf406f3	-0.11915388
135	0xbe808810	-0.25103807
136	0x3e07d6ea	0.13265577
137	0x3e96a9e7	0.294265
138	0x3e811763	0.25213155
139	0x3e1201d7	0.14258514
140	0xbe63cf64	-0.22247082
141	0x3e4f3efd	0.20238872
142	0xbdfb5fd7	-0.122741394
143	0x3e68257e	0.22670552
144	0xbe49ecf2	-0.19719294
145	0x3e46cd8d	0.19414349
146	0xbe0da325	-0.13831766
147	0xbe8199a9	-0.25312546
148	0xbe7e2c83	-0.24821667
149	0xbe4fdc79	-0.20298947
150	0x3b33ea8b	0.002745303
151	0xbdb996f2	-0.09061994
152	0xb9c1bed7	-0.00036954015
153	0xbe47010d	-0.19433995
154	0x3e3823e6	0.17982444
155	0xbcea1e67	-0.02857895
156	0xbdb912ad	-0.09036765
157	0xbe691d4d	-0.22765084
158	0x3ce4452a	0.027865011
159	0xbe655012	-0.22393826
160	0xbe1a5266	-0.15070495
161	0xbe51f426	-0.20503291
162	0x3c8e8162	0.017395679
163	0x3a9c0142	0.001190223
164	0x3dfc677c	0.123244256
165	0xbe9d52a7	-0.3072712
166	0xbe1d9e13	-0.15392332
167	0x3e754b5d	0.2395453
168	0x3d30787b	0.04308365
169	0xbd703dfc	-0.058652863
170	0x3d8c19bd	0.06840847
171	0xbe86f204	-0.26356518
172	0xbe839cfc	-0.25705707
173	0xbd209d17	-0.039212313
174	0x3dd68e5f	0.10476374
175	0x3e7c8c29	0.24662842
176	0xbd803c37	-0.06261485
177	0xbe1e5af7	-0.15464388
178	0x3df0dad1	0.11760486
179	0x3bb2259f	0.0054366137
180	0x3ce51ba9	0.027967291
181	0xbe9bde8e	-0.30443233
182	0xbe58086b	-0.21096961
183	0xbcda813d	-0.026672954
184	0x3ce125e8	0.027483895
185	0x3e29486c	0.16531533
186	0x3e298171	0.16553284
187	0x3e2a328d	0.16620846
188	0xbe3bd131	-0.18341519
189	0x3e3da16f	0.18518613
190	0x3e866fa6	0.26257056
191	0x3e2b4dc4	0.16728884
192	0x3dbf5e2b	0.09344133
193	0xbd9a4cef	-0.07534205
194	0xbdba315f	-0.09091448
195	0xbe193c79	-0.14964475
196	0xbe35b024	-0.17742974
197	0x3e69dd29	0.22838272
198	0x3d51d162	0.051225074
199	0x3e4757b0	0.19467044
200	0x3e5de699	0.21669997
201	0x3d09f0c4	0.033676878
202	0xbdb0488c	-0.08607587
203	0x3e067fbb	0.13134663
204	0x3d961bbd	0.073295094
205	0x3e7bca3a	0.24588862
206	0xbe87774b	-0.264582
207	0x3df6f026	0.120575234
208	0x3994c362	0.0002837433
209	0x3d802834	0.06257668
210	0x3e04a043	0.1295176
211	0xbe70d5dd	-0.23519082
212	0xbe0e419d	-0.13892217
213	0xbe7b9075	-0.24566825
214	0xbe00b3a7	-0.12568532
215	0x3df26759	0.11836118
216	0xbdd80f3d	-0.105497815
217	0x3e55cb75	0.20878394
218	0x3e92cf06	0.2867357
219	0xbd8c661c	-0.06855413
220	0xbe389712	-0.18026379
221	0xbe7e0cd5	-0.24809583
222	0xbdd2b57b	-0.10288521
223	0xbe40c09a	-0.18823472
224	0xbda85ac9	-0.08220441
225	0xbe80ce82	-0.25157553
226	0xbd18bf34	-0.03729172
227	0xbb1a5863	-0.0023551218
228	0xbe128486	-0.14308366
229	0x3da55a6e	0.08073889
230	0xbdf37d20	-0.118891
231	0x3e47cbe7	0.19511376
232	0x3e623bb1	0.22093083
233	0x3e06e5ff	0.13173674
234	0xbd3faa96	-0.046793543
235	0x3dafa28b	0.085759245
236	0xbe8303c5	-0.25588813
237	0x3e726a07	0.23673259
238	0xbde0db46	-0.10979323
239	0xbe44b2d3	-0.19208841
240	0x3da1d5f6	0.07902138
241	0x3e98106d	0.29700032
242	0x3e40186f	0.1875932
243	0x3e216a29	0.15763153
244	0x3ddea598	0.10871428
245	0x3e751ca6	0.2393671
246	0xbe286349	-0.16444124
247	0x3e887a28	0.26655698
248	0x3d7666c3	0.060156595
249	0xbd306b1c	-0.043070897
250	0x3e3533c2	0.17695525
251	0x3e95ec92	0.2928205
252	0x3e690c26	0.2275854
253	0xbde75046	-0.11294608
254	0xbe84c911	-0.25934651
255	0xbe7cc9f9	-0.24686421

user_tower.fc.0.bias f4 [128]
0	0xbd4d7c8d	-0.05016761
1	0x3e2ae6bd	0.16689582
2	0x3e2878bb	0.16452305
3	0x3e4daa9c	0.20084614
4	0xbda5fbcd	-0.08104668
5	0xbe57cecf	-0.21074985
6	0x3e22e8b9	0.15909089
7	0x3c7e0eba	0.015506441
8	0x3d7431e7	0.059617903
9	0xbd157c00	-0.03649521
10	0x3e50bc57	0.20384346
11	0x3d7722ab	0.060335796
12	0x3df4c0c4	0.119508296
13	0xbdf8fa1d	-0.1215708
14	0x3e0e015a	0.13867703
15	0x3e8209b3	0.25398025
16	0x3da713dc	0.08158085
17	0xbe654e83	-0.22393231
18	0x3d3e4897	0.046455946
19	0x3e937b8b	0.28805193
20	0xbd2e58e2	-0.042565234
21	0xbd487198	-0.048936456
22	0xbe2c9ddc	-0.16857094
23	0xbdddb680	-0.10825825
24	0xbcd0f3d4	-0.025506891
25	0xbe22a76c	-0.15884179
26	0x3d27b284	0.04094173
27	0x3e908a24	0.28230393
28	0x3e423618	0.18965948
29	0x3e826721	0.25469306
30	0xbe758187	-0.23975192
31	0x3e66b464	0.22529751
32	0xbe8265d0	-0.25468302
33	0x3df25498	0.11832541
34	0xbd5523f2	-0.052036233
35	0x3cab9d79	0.020949112
36	0xbd0de089	-0.03463796
37	0xbe8c4935	-0.27399603
38	0x3e648356	0.22315726
39	0xbe69e27d	-0.22840305
40	0x3e184ad0	0.14872289
41	0xbdc115ed	-0.0942801
42	0xbe099f8d	-0.1343977
43	0xbb12bab6	-0.002238912
44	0x3e803f87	0.25048468
45	0x3dba21a2	0.09088446
46	0xbe2bb6e8	-0.16768992
47	0x3e7b8989	0.24564184
48	0xbe8828a5	-0.2659351
49	0x3e8dd496	0.27701253
50	0x3d93d78e	0.07218848
51	0xbd93ab6f	-0.07210433
52	0xbd531317	-0.051531877
53	0xbe22a3b1	-0.15882756
54	0x3d13c429	0.036075745
55	0xbe660e7e	-0.22466466
56	0xbe4bc291	-0.1989844
57	0x3e3f7b49	0.18699373
58	0x3d82b1da	0.06381579
59	0x3e64988c	0.22323817
60	0x3e672611	0.22573115
61	0xbe7737c5	-0.24142368
62	0x3e390dfe	0.18071744
63	0xbe23d551	-0.15999343
64	0xbe30a912	-0.17251995
65	0xbe64dbd7	-0.22349487
66	0xbdc48d8d	-0.09597311
67	0x3da28a77	0.07936566
68	0xbd381a32	-0.044946857
69	0xbdbc4872	-0.09193505
70	0xbe312c59	-0.17302074
71	0xbdfb7281	-0.12277699
72	0x3e907e4e	0.28221363
73	0xbce533f3	-0.027978873
74	0x3e1f379a	0.15548554
75	0x3e85a82b	0.26104864
76	0x3da2a174	0.07940951
77	0xbd92bfa7	-0.07165461
78	0x3e78993c	0.24277204
79	0x3e35a76f	0.17739652
80	0x3d44c130	0.0480358
81	0x3d432ef0	0.047652185
82	0xbe5884f4	-0.21144468
83	0xbe52b3a1	-0.20576335
84	0x3e90c0c4	0.28272069
85	0xbc95dca6	-0.01829369
86	0xbd25a940	-0.040444613
87	0xbd50139e	-0.05079996
88	0x3d97dd04	0.07415202
89	0xbb532b66	-0.0032221912
90	0xbda85224	-0.08218792
91	0xbe6bebc2	-0.23039153
92	0xbc7e16fa	-0.015508408
93	0x3dadd987	0.08488756
94	0xbe80fbad	-0.25192013
95	0x3dc471ba	0.09592004
96	0xbdee0ae0	-0.11623168
97	0xbcb74968	-0.02237387
98	0x3e0e480c	0.13894671
99	0x3ded0aa4	0.11574295
100	0xbe87c041	-0.26513866
101	0xbe390c0d	-0.18071003
102	0x3e1fdb2b	0.1561095
103	0x3e29aeee	0.16570637
104	0x3e388df1	0.18022896
105	0x3da5aa88	0.08089167
106	0xbe39d03d	-0.18145843
107	0x3e3cafb7	0.18426405
108	0x38872e3c	6.4459135e-05
109	0xbdb01b49	-0.08598954
110	0x3e2cae64	0.168634
111	0xbe0dbd73	-0.138418
112	0x3e8d9d5f	0.27659127
113	0x3e5d17d7	0.21591125
114	0x3e546d65	0.20744856
115	0x3e9b62e6	0.3034889
116	0x3e2b92a1	0.16755153
117	0x3e762a9e	0.24039695
118	0xbd4a19bc	-0.04934095
119	0xbd88b3be	-0.06674908
120	0x3e058375	0.13038428
121	0x3c5ec4a4	0.0135966875
122	0xbe437f82	-0.19091609
123	0xbe6f5951	-0.23373915
124	0xbe223867	-0.15841828
125	0x3e5799ff	0.21054839
126	0xbd86ea62	-0.06587674
127	0x3e8be203	0.2732087

user_tower.fc.3.weight f4 [64, 128]
0	0xbdb6905d	-0.08914254
1	0x3d9589ff	0.07301711
2	0xbda41194	-0.08011165
3	0x3c691612	0.014226453
4	0xbd8fab88	-0.07015139
5	0x3c113a96	0.008864066
6	0xbd1faa11	-0.038980547
7	0xbac1b5e3	-0.0014778938
8	0xbd656263	-0.056002032
9	0xbd6d92a8	-0.05800119
10	0xbca63630	-0.02028951
11	0xbd04336e	-0.03227561
12	0xbda0443d	-0.078255154
13	0x3c766105	0.01503778
14	0x3d92d162	0.07168843
15	0xbd8bb083	-0.06820776
16	0xb9e3768c	-0.00043385138
17	0xbd72af89	-0.059249435
18	0xbd0f9ccc	-0.035061643
19	0x3cdc7e33	0.026915645
20	0xbd5db994	-0.05413206
21	0xbd90bd7c	-0.07067391
22	0x3d79bcbc	0.060971007
23	0x3c9ab1f4	0.018883683
24	0xbd114004	-0.03546144
25	0x3c1d2a5a	0.009592617
26	0x3a776438	0.0009437236
27	0x3cb21965	0.021740625
28	0x3c240745	0.010011499
29	0xbd3efbd6	-0.04662689
30	0xbc3c5426	-0.011494672
31	0xbda2606d	-0.07928548
32	0x3cb0f5f1	0.021601649
33	0x3d7db2cf	0.061938103
34	0x3d9a0766	0.075209424
35	0x3d85f214	0.06540313
36	0x3d13e6a0	0.036108613
37	0x3d72bf6c	0.059264585
38	0x3cc1998d	0.023632789
39	0x3a83c344	0.00100527
40	0x3d8bc345	0.06824354
41	0x3c93d744	0.018046983
42	0xbd605cdd	-0.05477606
43	0x3d1eaa45	0.0387366
44	0x3d1e6f0c	0.03868012
45	0x3d8054da	0.06266184
46	0x3d54f886	0.051994823
47	0x3cd3eb31	0.025868984
48	0x3ca7d018	0.020484969
49	0x3d9065ad	0.07050643
50	0x3d752f30	0.059859455
51	0xbd0f80e0	-0.035035014
52	0x3d24962d	0.04018228
53	0xbd24fae7	-0.04027834
54	0xbd667292	-0.056261607
55	0xbd32f82c	-0.043693706
56	0x3caa7f9d	0.020812804
57	0x3cf51123	0.029915398
58	0x3ce19cab	0.027540525
59	0x3d825679	0.063641496
60	0xbd193e67	-0.037413027
61	0x3cddf9ab	0.02709659
62	0xbdb5d38a	-0.088782385
63	0xbb27e298	-0.0025617238
64	0x3d15c699	0.03656635
65	0xbb340fca	-0.0027475231
66	0x3c40cd20	0.011767656
67	0xbdb27146	-0.087130114
68	0x3d80d7fd	0.062911965
69	0x3c9b3fe6	0.018951368
70	0x3c00a0fc	0.007850882
71	0xbd82177a	-0.06352134
72	0x3d6880de	0.056763522
73	0xbd32a58b	-0.043614905
74	0x3c991923	0.018688744
75	0xbdb291ec	-0.08719239
76	0x3d4c144c	0.049824044
77	0xbac2dc3b	-0.0014866659
78	0x3d4a1b3d	0.049342383
79	0x3d212e01	0.039350513
80	0xbb567034	-0.0032720687
81	0xbd4fbf4a	-0.050719537
82	0xbd50f0ec	-0.05101101
83	0x39ade84b	0.00033170203
84	0xbb38c03c	-0.0028190752
85	0x3d7452ba	0.059649207
86	0xb9396412	-0.00017680254
87	0x3d4ba2ba	0.049715735
88	0x3d966be3	0.073447965
89	0x3d762ac8	0.060099393
90	0x3cad6ddd	0.021170551
91	0x3a481bd0	0.0007633539
92	0xbcc6f242	-0.02428544
93	0xbcde7799	-0.027156638
94	0x3cc8e4bd	0.024523133
95	0x3d32c42e	0.043644123
96	0x3d421e0f	0.047391947
97	0x3d8724fc	0.06598851
98	0xbd655812	-0.055992194
99	0x3b3f5695	0.0029195894
100	0x3a2c8a94	0.0006581929
101	0xbd065543	-0.032796156
102	0x3d3bc422	0.045841344
103	0xbc819c42	-0.01582158
104	0xbd141469	-0.036152277
105	0xbce486b3	-0.02789626
106	0xbd51626d	-0.051119257
107	0x3ca3b279	0.019982563
108	0xbc78f11f	-0.0151942065
109	0x3ca01613	0.019541776
110	0xbd0851ac	-0.033281013
111	0xbae5f952	-0.0017545617
112	0xbd853aae	-0.06505333
113	0xbd815800	-0.06315613
114	0x3d800ff7	0.06253045
115	0xbcaedab3	-0.021344518
116	0x3c2f97ae	0.010717316
117	0x3d973f17	0.0738508
118	0xbdad5e30	-0.084652305
119	0xbc8c36cb	-0.017115971
120	0x3d94d49b	0.07267114
121	0xbdb216e0	-0.08695769
122	0xbc8ac708	-0.016940609
123	0x3d4d68bf	0.05014872
124	0x3d60b7be	0.05486273
125	0x3d47e01c	0.04879771
126	0x3d087412	0.03331382
127	0x3d81409d	0.06311152
128	0x3d94d975	0.07268039
129	0x3cb6088c	0.022220872
130	0xbd2cda06	-0.04220011
131	0xbd5070ee	-0.05088895
132	0xbd2033eb	-0.039112013
133	0x3d22d966	0.03975811
134	0xbc98168e	-0.018565442
135	0xbd24e58a	-0.040257968
136	0x3d14e6b8	0.036352843
137	0x3c9eb336	0.019372564
138	0x3c1e8ae6	0.009676671
139	0xbd150bb2	-0.036388107
140	0xbd929ac5	-0.07158426
141	0xbc1d701b	-0.009609248
142	0xbcf93642	-0.03042138
143	0x3d5c52ff	0.05379009
144	0x3ce48c69	0.027898984
145	0x3d9a5320	0.07535386
146	0x3d3f57da	0.04671464
147	0xbd89a63b	-0.06721159
148	0x3cb607ad	0.022220457
149	0x3d01f99e	0.031732194
150	0x3d9e1a60	0.077198744
151	0x3d8513a0	0.06497884
152	0x3d0162a2	0.031588204
153	0xbb4f4e18	-0.003163224
154	0xbda10dae	-0.07863937
155	0xbdaf802e	-0.0856937
156	0x3d9d7c86	0.076897666
157	0xbd37ec42	-0.044903047
158	0xbd4a058e	-0.049321704
159	0x3d014afa	0.031565644
160	0xbb0cec2c	-0.0021503074
161	0xbd262e4f	-0.040571507
162	0xbd9f715d	-0.07785294
163	0xbda71816	-0.08158891
164	0xbd0a6cf2	-0.033795305
165	0x3d73334d	0.059375096
166	0xbd37efbb	-0.04490636
167	0xbb0a341f	-0.0021088195
168	0x3d72b4da	0.059254505
169	0xbd020016	-0.031738363
170	0xbd65a135	-0.056061942
171	0xbd9f869d	-0.07789347
172	0x3bb2286e	0.0054369485
173	0xbd8add2f	-0.06780469
174	0xbd68ab77	-0.056804147
175	0xbc8a1c71	-0.016859265
176	0xbce75626	-0.028239321
177	0x3d674652	0.056463547
178	0xb9d59149	-0.00040734772
179	0x3d6726f7	0.056433644
180	0x3d172b45	0.0369065
181	0xb90eefdc	-0.0001363153
182	0x3d1a5d91	0.037686888
183	0xbcf95682	-0.030436758
184	0xbd313c16	-0.043270193
185	0x3ce45aa3	0.02787525
186	0xbd641fe9	-0.055694494
187	0x3cca75f9	0.024714457
188	0x3d025d13	0.031827044
189	0xbccbd0b3	-0.024879789
190	0xbcb589bb	-0.022160402
191	0x3d0db609	0.03459743
192	0x3ca2f760	0.019893348
193	0xbcd49d05	-0.025953779
194	0x3d7b8f4e	0.061415963
195	0xbc979c54	-0.01850716
196	0xbb058137	-0.0020371208
197	0x3cb1f33a	0.021722425
198	0xbd9091cd	-0.07059059
199	0xbdbfd9da	-0.09367724
200	0xbc2e1c05	-0.010626798
201	0x3d828fe1	0.06375099
202	0xbae72eac	-0.0017637811
203	0xbd5ca1f1	-0.053865377
204	0x3d8a0946	0.0674005
205	0xbc24c108	-0.010055788
206	0xbc5eb795	-0.013593574
207	0xbd91dd1c	-0.071222514
208	0xbc14ab30	-0.009074017
209	0xbd5d1627	-0.053976204
210	0xbb6d6ac8	-0.0036226977
211	0x3d57cb3f	0.052684065
212	0xbd435230	-0.047685802
213	0x3d8080d9	0.06274576
214	0x39cf43c4	0.00039532606
215	0x39d24c96	0.00040111382
216	0x3ccc3624	0.02492816
217	0xbc1d8861	-0.009615035
218	0xbd8834a0	-0.066506624
219	0x3cc3e574	0.023913123
220	0x3d81b795	0.063338436
221	0xbdaa7917	-0.08323877
222	0x3b17adc0	0.0023144335
223	0xbd8ff64f	-0.070294015
224	0x3d8e3c1b	0.06945058
225	0x3d8fba23	0.07017925
226	0x39d4a5da	0.0004055936
227	0x3d87d07f	0.06631564
228	0xb88b9fd3	-6.657806e-05
229	0x3c931c9c	0.017957978
230	0xbd764824	-0.060127392
231	0xbcf71519	-0.030161427
232	0xbd9692aa	-0.07352193
233	0xbd5cfb7d	-0.053950775
234	0xbd9386ed	-0.072034694
235	0xbd81ba15	-0.063343205
236	0x3d35f6de	0.044424884
237	0xbd5a0b6a	-0.05323354
238	0xbd9f6ed8	-0.07784814
239	0xbd4be8b7	-0.04978248
240	0x3cc7a2b1	0.02436957
241	0xbda225ac	-0.079173416
242	0x3b24ecfe	0.0025165672
243	0x3c1799d7	0.009252987
244	0xbb9d9334	-0.0048088077
245	0x3ce6b6b5	0.028163293
246	0xbdaabd7b	-0.08336922
247	0xbad3c6c8	-0.0016157264
248	0x3d2457a2	0.040122636
249	0x3d8759c2	0.06608917
250	0xbd03d21a	-0.03218279
251	0x3c8a32a7	0.016869856
252	0xb997a6af	-0.00028925153
253	0xbd4dcc8e	-0.050243907
254	0x3c432eba	0.011912996
255	0x3cc7f45a	0.024408508

user_tower.fc.3.bias f4 [64]
0	0xbdb3877f	-0.08766078
1	0xbdacb4de	-0.08432935
2	0x3c534956	0.012895903
3	0xbc8351e3	-0.016030258
4	0xbbe4d9ee	-0.006983987
5	0xbda0c2e4	-0.078496724
6	0x3d94c514	0.07264152
7	0x3af36910	0.001857074
8	0xbcfc3251	-0.030785711
9	0xbc443264	-0.011974905
10	0x3d216cb6	0.039410315
11	0xbd18b183	-0.037278663
12	0x3c09b856	0.0084057655
13	0xbc7fa31e	-0.015602855
14	0xbc724e55	-0.014789184
15	0xbd8e12a6	-0.06937151
16	0xbd89bf63	-0.06725957
17	0x3d116f14	0.035506323
18	0x3d890d9a	0.066920474
19	0xbbfdb92d	-0.007743022
20	0x3d952f3a	0.072843984
21	0xbc69dc29	-0.014273682
22	0xbcb37d54	-0.021910347
23	0xbc15ee74	-0.00915109
24	0xbd99bba5	-0.075064935
25	0x3d4030e3	0.046921622
26	0xbd342c7c	-0.043987736
27	0xbc777c00	-0.0151052475
28	0xbd3970df	-0.045273658
29	0xbc37ef05	-0.01122642
30	0xbd92de85	-0.071713485
31	0xbd06ad54	-0.032880142
32	0x3d905ccb	0.07048949
33	0x3d0b8739	0.034064505
34	0x3d9a06c1	0.075208195
35	0x3d4ea9d4	0.05045493
36	0xbcb228d4	-0.021747984
37	0xbd7a4bed	-0.061107565
38	0x3d910fc3	0.070830844
39	0xbcf29247	-0.029610766
40	0x3cb99551	0.022654207
41	0x3cf25e04	0.029585846
42	0x3da41b78	0.08013052
43	0xbd9089c6	-0.07057528
44	0x3d2441bf	0.040101763
45	0xbcdc4e00	-0.026892662
46	0xbd97ed87	-0.074183516
47	0xbcf0356d	-0.02932235
48	0x3aee9011	0.0018200894
49	0x3ccbae47	0.024863375
50	0x3cb9ef82	0.022697214
51	0xba968de8	-0.0011486383
52	0x3c529d0c	0.012854826
53	0xbd7b01ce	-0.061281018
54	0x3d16ead4	0.036845043
55	0x3d504a4d	0.05085211
56	0xbd560a62	-0.052255996
57	0x3d80e322	0.06293322
58	0xbcd68511	-0.026186498
59	0xbd4e6124	-0.05038561
60	0xbca3b342	-0.019982938
61	0xbc2e4ab2	-0.010637926
62	0x3d8c214f	0.068422906
63	0xbbb950df	-0.0056553925

item_tower.fc.0.weight f4 [128, 12]
0	0xbbdf55b0	-0.0068156347
1	0x3d3bb006	0.045822166
2	0xbc6cdef8	-0.014457457
3	0xbe2e24e3	-0.17006259
4	0x3e210007	0.15722667
5	0xbe57f26d	-0.21088572
6	0xbd22f6bd	-0.03978609
7	0xbe2d6e5e	-0.16936633
8	0xbb600dd1	-0.0034187923
9	0xbe23f4be	-0.1601133
10	0xbe387c73	-0.18016224
11	0x3e565303	0.20930104
12	0xbe1282d6	-0.14307722
13	0x3e78481f	0.24246262
14	0x3b037cac	0.0020063324
15	0x3ddd7cec	0.108148426
16	0xbe0c3cb2	-0.13695028
17	0x3d481a53	0.04885323
18	0xbe562bc4	-0.20915133
19	0xbe0b562a	-0.13607088
20	0xbd6d50b6	-0.0579383
21	0x3ce8eea8	0.028434113
22	0x3e60a653	0.21938448
23	0xbe085db1	-0.1331699
24	0x3d9dabf9	0.07698817
25	0xbde51782	-0.111861244
26	0xbd93c5d0	-0.07215464
27	0xbdc9a143	-0.09845211
28	0x3e0fc5b9	0.14040269
29	0x3e54a9c5	0.20767887
30	0x3e3b1398	0.18269193
31	0xbe160572	-0.14650515
32	0xbe3b6d25	-0.18303354
33	0x3d9e8c03	0.07741549
34	0xbcd1aa4c	-0.0255939
35	0x3c3dfcda	0.011595929
36	0xbe3c04bc	-0.18361181
37	0xbe6c5f50	-0.23083234
38	0x3e0a65e8	0.13515437
39	0x3e56c5fe	0.20973966
40	0x3e685cd7	0.22691666
41	0x3e5886dd	0.21145196
42	0x3e295594	0.16536552
43	0x3e236f6b	0.15960471
44	0x3e8aa06c	0.27075517
45	0xbe74b676	-0.23897728
46	0xbe31badd	-0.17356439
47	0xbe84029f	-0.2578325
48	0xbe61546b	-0.22004859
49	0x3e77807b	0.24170105
50	0x3e76040f	0.24024986
51	0x3e60b44d	0.2194378
52	0x3c787179	0.015163773
53	0x3d8ce66d	0.06879888
54	0x3c33adbc	0.0109667145
55	0x3e14b168	0.145208
56	0xbe36757e	-0.17818257
57	0x3e84742e	0.25869888
58	0xbe4c2a43	-0.19937997
59	0xbe43c945	-0.19119747
60	0x3ce9f305	0.028558264
61	0xbe2a401a	-0.16626015
62	0x3e21319b	0.15741579
63	0x3e6f7b29	0.23386826
64	0xbe83913c	-0.25696743
65	0xbe5219bd	-0.20517631
66	0xbda046f7	-0.078260355
67	0xbe58a255	-0.21155675
68	0x3dbcd888	0.092209876
69	0xbcbe2f07	-0.023215784
70	0x3c3e913f	0.011631309
71	0x3e13ef18	0.14446676
72	0xbce0b5f4	-0.027430512
73	0xbe3c848b	-0.18409936
74	0x3e7070bc	0.23480505
75	0x3b838b1b	0.0040143854
76	0x37602848	1.3360819e-05
77	0x3e717021	0.2357793
78	0xbc90e691	-0.017688068
79	0xbd87a2ca	-0.066228464
80	0xbe0b3f6b	-0.13598411
81	0xbe32ed9e	-0.17473456
82	0xbd045e59	-0.03231654
83	0x3e64c57f	0.22340964
84	0xbd2651d0	-0.040605366
85	0x3e125ab1	0.14292409
86	0xbdfbecf3	-0.12301054
87	0xbcaabcc5	-0.020841965
88	0xbe3cd057	-0.1843885
89	0xb999adeb	-0.00029312013
90	0xbcc3217e	-0.023819681
91	0x3c7c5984	0.015402202
92	0xbb2cd458	-0.0026371684
93	0xbe67746b	-0.22603004
94	0xbe8216a1	-0.2540789
95	0xbde0a473	-0.10968866
96	0xbe821489	-0.25406292
97	0x3e4b0e3a	0.19829646
98	0x3dac24eb	0.08405479
99	0xbe2c1809	-0.16806044
100	0x3e9c0271	0.30470613
101	0x3e8b0c02	0.271576
102	0x3e09c314	0.13453323
103	0x3d5154ab	0.051106136
104	0x3e37e014	0.17956573
105	0x3df2d69b	0.11857339
106	0x3e935e96	0.287831
107	0xbd8ce662	-0.068798795
108	0x3e3d2326	0.1847044
109	0x3e5d9d1d	0.21641965
110	0xbe6f1bcc	-0.23350447
111	0xbe655b5e	-0.22398135
112	0x3dc9b552	0.09849037
113	0x3d8aba99	0.06773872
114	0xbe5c17f5	-0.21493514
115	0xbd29973d	-0.041403998
116	0xbe1e18bc	-0.15439123
117	0x3e425c9d	0.18980642
118	0x3e4fee80	0.20305824
119	0x3e09aa2f	0.13443826
120	0x3dd6eed0	0.104947686
121	0x3e9c32b8	0.30507445
122	0x3c9deb6d	0.019277299
123	0x3e204522	0.15651372
124	0x3d81612d	0.06317363
125	0x3e167122	0.14691594
126	0x3e402806	0.18765268
127	0xbe23aa12	-0.15982845
128	0xbc4b45da	-0.012406791
129	0x3de7cc3e	0.11318253
130	0x3e9206fe	0.2852096
131	0xbe6bc28d	-0.23023434
132	0xbe804e7d	-0.25059882
133	0xbe2553c1	-0.16145231
134	0xbe8bbd73	-0.27292976
135	0x3e12bd6e	0.14330074
136	0xbb7f554a	-0.0038960748
137	0x3e6e31bc	0.2326116
138	0x3d0c8471	0.034305993
139	0x3e3cbfa4	0.1843248
140	0xbe4e3e7a	-0.2014102
141	0xbdac969c	-0.08427164
142	0x3db4fbc8	0.08837086
143	0x3d5aae50	0.053388894
144	0x3d0d88cf	0.0345543
145	0xbdc18095	-0.09448353
146	0x3e35676e	0.17715237
147	0xbd208bba	-0.039195754
148	0xbe4819e9	-0.19541134
149	0xbe43d924	-0.19125801
150	0x3e2657b4	0.16244394
151	0x3e85a08b	0.26099047
152	0x3e9f4ad3	0.31111774
153	0x3e5113a1	0.20417644
154	0x3e508637	0.20363699
155	0x3d92962d	0.0715755
156	0x3e5a1053	0.2129529
157	0x3e444744	0.1916781
158	0xbddbdb89	-0.107352324
159	0x3df74682	0.12073995
160	0x3e8825bf	0.26591298
161	0xbdb5aa0a	-0.08870323
162	0x3e8b7389	0.27236584
163	0xbe8689df	-0.26277062
164	0xbe0ec3a6	-0.13941821
165	0x3e763d41	0.24046804
166	0xbdde5838	-0.1085667
167	0x3e3f3a5e	0.18674609
168	0x3e60dc11	0.21958949
169	0xbe809726	-0.25115317
170	0x3cd3c610	0.02585128
171	0xbe02ada8	-0.12761557
172	0x3e2054e5	0.15657385
173	0x3e2effbd	0.17089744
174	0xbde1fe5d	-0.11034844
175	0x3dc1fb57	0.094717674
176	0x3e4c6673	0.19960956
177	0x3d01bbd3	0.031673264
178	0x3de1054a	0.10987337
179	0xbda4bf63	-0.080443166
180	0xbcd16c7b	-0.025564423
181	0xbe0bac8d	-0.13640042
182	0xbe0c3b04	-0.13694388
183	0x3d9e7776	0.07737629
184	0x3dafb06e	0.08578573
185	0x3e4aafcb	0.19793622
186	0x3d9b8b7a	0.075949624
187	0xbd9d796a	-0.076891735
188	0x3c2b27fc	0.010446545
189	0xbe5f4895	-0.21805032
190	0x3dda0762	0.106459394
191	0xbdbafb79	-0.09129996
192	0xbe70aa9e	-0.23502585
193	0xbdb9bd72	-0.09069337
194	0x3e8b0d95	0.271588
195	0x3e46a1dc	0.19397682
196	0x3e83756b	0.2567552
197	0xbd9ad30a	-0.07559784
198	0x3c575024	0.013141666
199	0xbe2ad1f6	-0.16681656
200	0xbd285c1f	-0.04110348
201	0x3e3a51a1	0.18195201
202	0x3e66bf80	0.22533989
203	0xbd7c1b28	-0.061549336
204	0xbd702c50	-0.05863601
205	0x3ddf67d7	0.10908478
206	0xbe4c3a0d	-0.1994402
207	0x3ca16aea	0.0197043
208	0x3e6dcbd4	0.23222286
209	0xbd37cf9c	-0.044875726
210	0x3dc8ed31	0.09810866
211	0xbe6fde57	-0.2342466
212	0x3e7ccbda	0.24687138
213	0x3e4e96b7	0.2017468
214	0xbe5f5970	-0.21811461
215	0x3e2b4143	0.16724114
216	0xbe114750	-0.1418736
217	0x3dbdbd3e	0.09264611
218	0x3d18d7ea	0.037315287
219	0x3de2ef85	0.11080841
220	0x3e727d74	0.23680669
221	0x3e4cb689	0.19991507
222	0x3dcdbe63	0.10046079
223	0x3e3e5c74	0.18589956
224	0x3dceaaca	0.10091169
225	0x3d7ae352	0.061251946
226	0x3d9b2c9e	0.075768694
227	0x3e1455c4	0.14485842
228	0x3cec4215	0.028840104
229	0x3e5e5b99	0.21714629
230	0x3b2c6af9	0.0026308878
231	0xbdec9f8a	-0.11553867
232	0xbe508f26	-0.20367107
233	0xbdcff633	-0.10154381
234	0xbddc79ee	-0.10765444
235	0xbe3ac497	-0.18239056
236	0xbd2acb96	-0.04169806
237	0x3d99313f	0.07480096
238	0xbe80e6ac	-0.2517599
239	0xbe4161b2	-0.18884924
240	0x3a559045	0.0008146803
241	0xbe10994c	-0.14120978
242	0xbdcabda1	-0.0989945
243	0x3e0ca56a	0.13734975
244	0x3dd7082e	0.10499607
245	0xbd0384f0	-0.0321092
246	0xbd001e57	-0.031278934
247	0x3e0a6c83	0.13517956
248	0x3e8c8488	0.27444863
249	0x3db47ca0	0.08812833
250	0xbd85a80f	-0.06526195
251	0xbe44525e	-0.19172046
252	0xbe38013f	-0.17969225
253	0xbe62ff3d	-0.22167678
254	0xbe67d414	-0.22639495
255	0x3e2e4959	0.17020167

item_tower.fc.0.bias f4 [128]
0	0x3e85fa77	0.26167652
1	0x3dc80385	0.09766296
2	0x39b54ef2	0.0003458183
3	0x3e8c674b	0.27422556
4	0x3d7d58cb	0.061852258
5	0x3da76fe5	0.08175639
6	0xbe7729d7	-0.24137054
7	0xbd4a27c6	-0.049354337
8	0x3d16ac2c	0.03678529
9	0x3e593515	0.21211655
10	0xbe6c6fa5	-0.23089464
11	0x3d387b31	0.04503936
12	0x3e891d86	0.26780337
13	0xbdeceab7	-0.11568206
14	0x3e496cf7	0.19670473
15	0xbe640806	-0.22268686
16	0x3e81fd92	0.2538877
17	0x3dc26339	0.094915815
18	0x3e87d89a	0.2653244
19	0xbe17c1f9	-0.14820088
20	0x3d5323a7	0.051547673
21	0x3e213a43	0.15744881
22	0xbe70ba0d	-0.23508473
23	0x3e1ee090	0.15515351
24	0x3e2c5d4b	0.16832463
25	0xbded9e71	-0.11602486
26	0xbd0ece8a	-0.03486494
27	0xbde6413e	-0.11242913
28	0x3e3e0133	0.18555145
29	0xbe70282d	-0.23452826
30	0xbda9d179	-0.08291907
31	0xbd422c4f	-0.047405537
32	0xbe180592	-0.14845875
33	0x3df1e458	0.11811131
34	0x3e29db70	0.16587615
35	0xbe83550b	-0.2565082
36	0xbe6185b1	-0.22023655
37	0xbe68e6fa	-0.2274436
38	0xbdf3be8d	-0.11901579
39	0xbb3e44e7	-0.0029032768
40	0x3d2c122e	0.042009525
41	0x3dfc1bba	0.12309976
42	0x3d939316	0.07205789
43	0xbe07990d	-0.13241978
44	0x3d8c82c3	0.06860878
45	0x3d89544b	0.06705531
46	0xbe348d4b	-0.17632024
47	0x3e143882	0.14474681
48	0x3db10a28	0.08644515
49	0x3e5a8091	0.21338107
50	0x3e8bf6bc	0.2733668
51	0xbdaaa0c6	-0.08331446
52	0x3e38f803	0.18063359
53	0xbe776f64	-0.24163586
54	0x3ddd0056	0.1079108
55	0xbe00c6fd	-0.12575908
56	0xbd6811b2	-0.0566575
57	0xbe61406a	-0.21997228
58	0xbe22c9ee	-0.15897343
59	0x3e03a955	0.12857564
60	0xbe3f99bb	-0.18710987
61	0x3e89f3a4	0.26943696
62	0x3d4db5f1	0.05022234
63	0xbe749f43	-0.23888879
64	0x3d93c1d7	0.072147064
65	0x3e83bbdf	0.25729272
66	0xbe055295	-0.13019784
67	0x3e299657	0.16561256
68	0xbdfe5f8c	-0.12420568
69	0xbe63a38c	-0.22230357
70	0xbe31e4d3	-0.17372446
71	0xbe0fc6f4	-0.14040738
72	0x3e87d177	0.26526996
73	0xbe46b2b5	-0.19404109
74	0xbe68ca89	-0.22733511
75	0xbd2b9000	-0.041885376
76	0x3df2b68d	0.11851225
77	0x3b2c0454	0.0026247697
78	0xbd19f352	-0.037585564
79	0xbe1b2af9	-0.15153112
80	0xbe56204f	-0.20910762
81	0xbdd925a8	-0.106028855
82	0x3e317c91	0.17332675
83	0xbdca16c5	-0.09867624
84	0xbe3dc94f	-0.18533824
85	0x3e543d08	0.20726407
86	0xbc223a30	-0.009901568
87	0xbd7bbde9	-0.06146041
88	0xbca17f3f	-0.019713996
89	0x3e494c7a	0.1965808
90	0xbe81e56a	-0.25370342
91	0xbb307d56	-0.0026930175
92	0x3d8880a9	0.06665165
93	0xbe0bfefb	-0.13671486
94	0x3e5e5c6c	0.21714944
95	0xbddacbea	-0.10683425
96	0x3bc73d05	0.006080272
97	0xbe80e7f1	-0.25176957
98	0xbd422bec	-0.04740517
99	0x3d1bab0a	0.038004912
100	0xbe4504a5	-0.19240053
101	0x3c6fac42	0.014628472
102	0x3e399fbc	0.1812734
103	0xbd47a27f	-0.048738953
104	0x3e6bd0ee	0.23028919
105	0x3e250c7f	0.16118048
106	0x3dacfffe	0.08447264
107	0x3dccb18f	0.09994804
108	0x3e14e43a	0.14540187
109	0x3e18331a	0.14863244
110	0xbd9b3aba	-0.075795606
111	0xbe67fa33	-0.22654037
112	0xbd405763	-0.04695834
113	0xbdf2ad12	-0.11849417
114	0xbd622229	-0.05520836
115	0x3e40d3a2	0.18830732
116	0xbd7f63de	-0.0623511
117	0xbdccec34	-0.1000599
118	0x3e707dc4	0.23485476
119	0x3df3b5c4	0.118999034
120	0xbdbffdca	-0.09374578
121	0x3e0bc1b2	0.13648108
122	0xbe93600a	-0.2878421
123	0xbe23ccde	-0.1599612
124	0x3d217c78	0.039425343
125	0x3e002edc	0.12517875
126	0xbe3b1ad1	-0.18271948
127	0x3e93c410	0.2886052

item_tower.fc.3.weight f4 [64, 128]
0	0xbc86c504	-0.016451366
1	0x3d51b84e	0.051201157
2	0x3a957c92	0.0011404923
3	0x3d486a3d	0.04892944
4	0x3db9ccae	0.09072243
5	0x3db9bc12	0.09069075
6	0x3d0bb019	0.034103487
7	0x39093184	0.00013083784
8	0xbb092475	-0.002092627
9	0xbd8c93a3	-0.06864097
10	0x3d8655cf	0.065593354
11	0xbdd4da76	-0.103932306
12	0xbd8ef24b	-0.069798075
13	0x3c341bf1	0.01099299
14	0x3d6e1612	0.058126517
15	0x3cfeb49d	0.031091982
16	0x3d12f944	0.03588225
17	0x3d9edf59	0.07757444
18	0x3cc2a89d	0.023762042
19	0xbd3e3974	-0.04644151
20	0x3d991e8d	0.0747653
21	0xbd6ba42f	-0.057529625
22	0xbcb8d35f	-0.022561727
23	0x3cb3b0ec	0.021934949
24	0x3da21dc4	0.079158336
25	0x3dcb4f68	0.09927255
26	0xbd91179f	-0.070845835
27	0x3d1c6279	0.03817985
28	0x3a9aa7ac	0.0011799238
29	0x3d7a6760	0.061133742
30	0x3d1f6b19	0.038920496
31	0x3ccd8f10	0.025092632
32	0x3b2806a5	0.0025638726
33	0xbd5e8b32	-0.054331966
34	0x3d46f656	0.048574768
35	0xbd0583c9	-0.032596383
36	0x3de71fb1	0.112853415
37	0x3d9de650	0.07709944
38	0xbdceb72b	-0.1009353
39	0x3d2265f2	0.039648004
40	0x3ce76baf	0.02824959
41	0xbd2156f0	-0.03938955
42	0xbbf79090	-0.007555075
43	0x3d0e16b6	0.034689628
44	0xbd111879	-0.03542373
45	0xbd4f8b08	-0.0506697
46	0x3d6c5844	0.057701364
47	0xbc8315fd	-0.016001696
48	0xbbcc8939	-0.006241944
49	0xbad774dc	-0.0016438025
50	0x3d4de021	0.050262574
51	0xbd75e4e3	-0.060032737
52	0xbca0d878	-0.01963447
53	0x3daac4e3	0.083383344
54	0x3d48aeff	0.048995014
55	0x3d60aa16	0.054849707
56	0xbce206f7	-0.027591212
57	0x3c7cbe28	0.015426196
58	0x3d88a2aa	0.06671651
59	0x3be0f9c5	0.0068657123
60	0xbd4b8925	-0.049691338
61	0xbd85f1d7	-0.06540268
62	0xbd321caf	-0.043484386
63	0x3cacbf9d	0.021087462
64	0xbda252b0	-0.07925928
65	0x3d7cb4d5	0.061695892
66	0x3cc33dc4	0.023833163
67	0xbc3ba11d	-0.011451987
68	0xbcd1cf52	-0.025611553
69	0xbd51c0c2	-0.05120922
70	0x3dad0ef1	0.084501155
71	0x3d6e3df9	0.05816457
72	0xbdc8f5a6	-0.09812479
73	0x3df32d7d	0.118739106
74	0x3ce2c0b2	0.027679775
75	0x3d353bff	0.04424667
76	0x3c9495fb	0.018137923
77	0xbd1a5ec3	-0.037688028
78	0xbcd2cb4f	-0.02573171
79	0xbd76a660	-0.06021726
80	0x3d09448e	0.033512644
81	0x3cd6ab96	0.026204865
82	0xbd061c90	-0.032742083
83	0x3d61f3a6	0.055164002
84	0xbcba8b22	-0.022771422
85	0x3dc14b54	0.09438196
86	0x3d473d5f	0.048642512
87	0x3ca537d0	0.020168215
88	0x3daf4b1b	0.08559247
89	0x3cef3811	0.02920154
90	0x3c95b5ab	0.018275103
91	0x3d8c2ceb	0.06844505
92	0xbcd1ae76	-0.025595885
93	0x3c8111f8	0.015755638
94	0xbabbaf72	-0.0014319255
95	0x3d4972a4	0.049181595
96	0x3d1f0e43	0.03883196
97	0xbbd6204a	-0.006534611
98	0xbd158813	-0.036506724
99	0x3d154d20	0.036450505
100	0x3cd75688	0.026286379
101	0x3d7d9d39	0.061917517
102	0x3d89bb34	0.06725159
103	0x3d6ee16e	0.058320455
104	0x3c075bbc	0.008261617
105	0xbdbd28c5	-0.09236292
106	0x3ccd0017	0.025024457
107	0x3a1cd22f	0.00059822475
108	0x3cf8386f	0.030300347
109	0xbd7e8b33	-0.06214447
110	0x3d93d010	0.07217419
111	0x3d87e3d2	0.0663525
112	0xbc55538a	-0.013020406
113	0xbdb0e9ab	-0.08638319
114	0xbc931443	-0.017953997
115	0xbd248f85	-0.040175933
116	0xbcd8bb87	-0.026456608
117	0xbdbc7930	-0.09202802
118	0xbc78c54d	-0.015183759
119	0x3cc7e22c	0.02439984
120	0x3db2ba99	0.08726997
121	0x3d084ae6	0.033274554
122	0x3d7f91ce	0.06239491
123	0x3d9ddf59	0.07708616
124	0x3c0bbe08	0.008529194
125	0xbd931b71	-0.071829684
126	0x3d2d7c69	0.042354975
127	0xbd8635af	-0.06553208
128	0x3d65641e	0.056003682
129	0xbdb7a761	-0.08967472
130	0x3d894fc6	0.06704669
131	0xbbe4c030	-0.0069809183
132	0xbc5f82bb	-0.013642008
133	0xbd19d6e7	-0.037558462
134	0x3db6d9df	0.08928274
135	0xba642512	-0.00087030337
136	0x3d3a0c51	0.045421902
137	0xbc4b88eb	-0.0124227805
138	0x3d5b7916	0.053582273
139	0xbdabb6e8	-0.08384496
140	0x3d6d46fc	0.057929024
141	0x3dc0084b	0.09376582
142	0x3ca6eef8	0.020377621
143	0x3c00602e	0.007835431
144	0xbbc47efd	-0.0059965835
145	0xbce9ec14	-0.028554954
146	0x3d519942	0.05117155
147	0xbd577925	-0.052605767
148	0x3d02f5e0	0.031972766
149	0xbda92c75	-0.08260433
150	0x3d5f3794	0.054496363
151	0xbd290730	-0.04126662
152	0x3d27dcff	0.040982243
153	0xbd62badc	-0.055353984
154	0xbdc73190	-0.0972625
155	0x3cda2950	0.026631027
156	0xbc04ebd3	-0.0081128655
157	0x3d4358a4	0.047691956
158	0x3daaedf6	0.08346169
159	0xbddf6747	-0.109083705
160	0x3c8d79bb	0.01726996
161	0xbd87763d	-0.06614349
162	0x3dc1581f	0.09440636
163	0xbd0a1487	-0.033710983
164	0x3d7209ae	0.059091263
165	0x3cabe687	0.020983947
166	0x3d56281e	0.052284352
167	0xbbffdbd3	-0.0078081875
168	0xbcec1561	-0.028818788
169	0x3d3f36df	0.04668319
170	0x3d337226	0.043810032
171	0xbd9bfeb8	-0.07616943
172	0xbd669faf	-0.05630463
173	0xbc50ecca	-0.012751767
174	0xbca4e3c4	-0.020128138
175	0xbd61f4d4	-0.055165127
176	0xbd3a2499	-0.04544506
177	0xbc15912e	-0.009128852
178	0x3b0893b5	0.0020839993
179	0x3d30efc9	0.043197427
180	0x3d05cc64	0.032665625
181	0x3cd5c489	0.026094692
182	0xbb17873a	-0.0023121373
183	0x3d462f8d	0.04838519
184	0xbc3206c2	-0.010865869
185	0xbce2b08a	-0.027672071
186	0x3db91841	0.09037829
187	0xbd3f701e	-0.046737783
188	0xbddaada6	-0.10677652
189	0xbdd3c8bb	-0.10341021
190	0xbdc31931	-0.09526289
191	0x3c971e36	0.018447023
192	0x3d1db1a9	0.038499508
193	0xbc2b7cb2	-0.010466741
194	0x3c0a41c3	0.00843853
195	0xbd5452a5	-0.05183663
196	0x3c03188d	0.008001459
197	0x3de4e7bf	0.111770146
198	0x3de73d60	0.11291003
199	0x3d23df6c	0.040007994
200	0x3d61baf6	0.05510994
201	0xbd34e9fc	-0.044168457
202	0xbddd189d	-0.1079571
203	0x3b780a79	0.003784804
204	0x3ae750ba	0.001764796
205	0x37af84d0	2.0923471e-05
206	0xbc560765	-0.013063286
207	0x3b9d9413	0.0048089116
208	0x3d93f659	0.072247215
209	0xbb2052e3	-0.0024463467
210	0xbdbd8779	-0.09254355
211	0x3c4dff72	0.01257311
212	0xbd1840c2	-0.037171133
213	0xbcf28607	-0.029604925
214	0xbda45f39	-0.08025975
215	0x3c7d49dc	0.015459504
216	0x3dbecb0f	0.09316074
217	0x3c80400d	0.015655542
218	0x3da28b5b	0.07936736
219	0xbae1a46f	-0.0017215143
220	0x3d0ccdca	0.034375943
221	0xbde43638	-0.11143154
222	0x3d9b7ce6	0.07592182
223	0xba86b237	-0.0010276501
224	0x3dae9ecc	0.08526382
225	0xbd01f597	-0.031728353
226	0xbc986b99	-0.018605994
227	0x3cf1171b	0.029429963
228	0x3dca8337	0.098883085
229	0xbd7664a4	-0.060154572
230	0xbd545359	-0.0518373
231	0x3d171d86	0.03689339
232	0xbd41c128	-0.04730335
233	0xbc328877	-0.010896794
234	0x3cfcc8ed	0.030857528
235	0x3bc440c8	0.005989168
236	0x3dc96615	0.09833924
237	0x3dd0365e	0.1016662
238	0x3ca6f435	0.020380119
239	0x3dc61da6	0.09673624
240	0xbc3bd002	-0.011463167
241	0xbd6d0f7b	-0.05787609
242	0x3999e957	0.00029356286
243	0x3cfe06ca	0.031009097
244	0x3d26405b	0.040588718
245	0xbd78832b	-0.060671967
246	0x3d0334e2	0.032032855
247	0xbd84d1e9	-0.0648535
248	0x3bf61523	0.007509844
249	0x3c450961	0.012026162
250	0x3bfe4fc6	0.0077609746
251	0x3d7f1174	0.062272504
252	0x3d3891e7	0.04506102
253	0xbdc45c7e	-0.09587954
254	0xbdb342a6	-0.087529466
255	0x3d557389	0.052112136

item_tower.fc.3.bias f4 [64]
0	0x3d781e43	0.060575735
1	0xbd5b014a	-0.053468026
2	0x3daaedaf	0.08346116
3	0xbd65f476	-0.05614134
4	0x3d2a6ba9	0.04160658
5	0xbb0832db	-0.0020782265
6	0x3d10b606	0.03532984
7	0x3b5779a8	0.003287891
8	0xbd660a27	-0.056162026
9	0xbd5d2b5f	-0.05399644
10	0xbc4a8f33	-0.012363243
11	0xbd5145d1	-0.051091973
12	0xbd9d26f5	-0.07673446
13	0xbd10adb0	-0.03532189
14	0xbd1d5cf6	-0.038418733
15	0x3c819685	0.015818844
16	0xbd85770d	-0.06516848
17	0xbd8a5931	-0.06755293
18	0xbdbb039d	-0.091315486
19	0x3d312857	0.04325136
20	0x3d548556	0.05188497
21	0x3c45a48e	0.012063159
22	0xbd8bd13a	-0.06827016
23	0x3d103738	0.03520891
24	0x3d4c4ad3	0.049876045
25	0xbd9dfae5	-0.0771387
26	0xbd2d9b74	-0.04238458
27	0xbdc8ab9f	-0.09798359
28	0x3d091fd2	0.03347761
29	0x3d4e3553	0.050343823
30	0x3ce4b4a5	0.02791817
31	0xbd6011db	-0.05470453
32	0xbc1e8502	-0.009675266
33	0xbd3f2b80	-0.046672344
34	0x3d5b1611	0.05348784
35	0x3db68b82	0.08913328
36	0x3db7a804	0.08967593
37	0xbd0c1118	-0.03419599
38	0xbb4924c8	-0.003069209
39	0x3d6e8651	0.058233563
40	0x3d5e1a3b	0.054224234
41	0x3ce273c3	0.02764309
42	0xbd98ff3a	-0.074705556
43	0xbd224435	-0.03961583
44	0xbdba1847	-0.09086662
45	0xbbab8bd8	-0.0052351765
46	0x3d75347f	0.059864517
47	0xbd95df2e	-0.07317959
48	0xbce48199	-0.027893828
49	0x3c67f111	0.014156596
50	0x3d88e231	0.066837676
51	0xbd078367	-0.0330843
52	0x3cd08c26	0.025457453
53	0xbce8bd69	-0.02841063
54	0xbd9b5e9c	-0.07586405
55	0x3d6aabff	0.057292935
56	0xbd222680	-0.039587498
57	0x3b181d13	0.002321069
58	0xbc3d7b4c	-0.011565041
59	0x3cf40db8	0.029791698
60	0x3d3218b2	0.043480583
61	0xbd080d76	-0.033215962
62	0x3d8a4b26	0.06752615
63	0xbb91ad3d	-0.0044457004

interaction_layer.0.weight f4 [128, 128]
0	0xbd2e55e1	-0.04256237
1	0xbd885069	-0.06655962
2	0x3d98a9f2	0.074542895
3	0xbce38bcd	-0.027776623
4	0x3d672d80	0.056439877
5	0xbcb15319	-0.02164607
6	0x3db682d8	0.08911675
7	0x3d3f5eac	0.046721146
8	0x3d2a5f83	0.041594993
9	0xbd34ed57	-0.044171657
10	0x3da1b1ea	0.078952625
11	0xbc2f08f4	-0.010683287
12	0xba8da2a0	-0.0010805912
13	0x3d244e73	0.040113878
14	0xbda80363	-0.08203771
15	0xbc8ede7f	-0.017440079
16	0x3c82d98c	0.015972875
17	0x3b9490f6	0.0045338823
18	0x3c93a43b	0.018022647
19	0xbcc7e6f4	-0.02440212
20	0xbd17195c	-0.03688942
21	0x3d86f392	0.06589426
22	0x3cdee275	0.027207593
23	0x3d98b15b	0.07455703
24	0x3cba1da4	0.022719212
25	0xbd85c2dd	-0.06531308
26	0xbd836e09	-0.06417472
27	0x3cb36eb8	0.02190338
28	0xb9e6e3c1	-0.00044038708
29	0x3da5487c	0.08070466
30	0x3c9cc8a8	0.01913865
31	0x3d6720b1	0.05642766
32	0x3d162b35	0.0366623
33	0x3d19aa4c	0.037515923
34	0xbd0931c7	-0.033494737
35	0x3d6ba5f1	0.0575313
36	0xbdb11445	-0.08646444
37	0x3ca4653d	0.020067805
38	0x3d6f04d1	0.058354203
39	0xbd19672c	-0.037451908
40	0x3bb5e01b	0.005550397
41	0xbd609161	-0.054826144
42	0xbbd111ac	-0.0063802805
43	0xbd9a57a5	-0.07536248
44	0x3d86600f	0.065612905
45	0xbd568c70	-0.052380025
46	0xbd83e110	-0.06439412
47	0xbb332773	-0.0027336746
48	0x3da610bc	0.081086606
49	0xbb7ebe33	-0.0038870692
50	0xbd957bda	-0.072990134
51	0x3d2ff706	0.04296019
52	0x3dcc8521	0.0998633
53	0x3d2f9f8d	0.04287677
54	0x3d0f6b26	0.035014294
55	0xbb5a14ea	-0.0033276626
56	0x3c8c3f14	0.017119922
57	0x3d88dc45	0.06682638
58	0xbd417fa7	-0.04724088
59	0x3d9fcccd	0.078027345
60	0xbd24dc65	-0.040249247
61	0x3cb385c7	0.021914376
62	0x3da1b6ea	0.07896216
63	0xbca076ca	-0.019587893
64	0x3dcc917f	0.09988689
65	0xbd08f607	-0.033437755
66	0x3d4ef074	0.050522283
67	0x3d22ca05	0.039743442
68	0x3cae818a	0.021302003
69	0x3cac8ee5	0.021064231
70	0xbb9cb7ed	-0.004782668
71	0xbd08da13	-0.033411097
72	0xbd0cd2ca	-0.03438071
73	0x3b8fad57	0.0043846774
74	0x3cac7766	0.021053027
75	0x3ce8ec61	0.028433027
76	0x3d8228e0	0.063554525
77	0xbd115fd4	-0.03549178
78	0xbd4313b2	-0.047626205
79	0xbd79b0a8	-0.06095949
80	0xbd58bc7c	-0.052914128
81	0x3bf29fa8	0.0074042864
82	0xbd58e442	-0.05295206
83	0x3cc24fbe	0.023719665
84	0x3dadaa0e	0.08479701
85	0xbd3f0338	-0.04663393
86	0xbc241b18	-0.010016225
87	0xbd93a5c1	-0.072093494
88	0x3d643d93	0.055722784
89	0xbc807836	-0.015682321
90	0x3dc47acd	0.09593735
91	0x3da8a899	0.082352825
92	0x3c66ec88	0.014094479
93	0xbddcd1d1	-0.10782207
94	0x3d8b9f29	0.06817467
95	0xbd1c2f32	-0.038130946
96	0xbcfda1ed	-0.030961001
97	0xbd910cef	-0.07082545
98	0x3a919096	0.0011105712
99	0x3d55b7ab	0.052177113
100	0xbd2dd081	-0.042435173
101	0xbca5a0ed	-0.020218337
102	0x3ba965f2	0.0051696235
103	0xbda37129	-0.07980568
104	0xbd0fdad9	-0.03512082
105	0xbd86c446	-0.06580405
106	0x3dae5baa	0.08513577
107	0xbbb0c706	-0.005394819
108	0xbd265ee2	-0.04061783
109	0xbd599c2b	-0.05312745
110	0x3d9c736b	0.07639202
111	0x3cec1858	0.028820202
112	0x3d59d97c	0.053185925
113	0x3d7c9d64	0.061673537
114	0xbd91bb2f	-0.071157806
115	0xbd822491	-0.06354631
116	0xbd05d7ab	-0.03267638
117	0xbd8e6159	-0.06952161
118	0x3d872089	0.065980025
119	0x3dd9c74a	0.106337145
120	0xbd4c801d	-0.049926866
121	0x3d2699bc	0.040673956
122	0x3d179f60	0.037017226
123	0x3ba1807c	0.0049286466
124	0xbc870063	-0.016479677
125	0xbde8bf93	-0.11364665
126	0xbcb9abc4	-0.022664912
127	0x3c074974	0.008257259
128	0x3ba97c46	0.0051722853
129	0xbd90ad79	-0.07064337
130	0xbbb89eb5	-0.0056341537
131	0x3d45b5b0	0.048268974
132	0x3cd1dd9d	0.025618369
133	0x3d9f8286	0.07788567
134	0x3c925d7e	0.017866846
135	0xbc66731d	-0.014065531
136	0xba61b60e	-0.0008610197
137	0x3d098ed2	0.03358347
138	0x3dc176d1	0.094464906
139	0x3da5ebfd	0.08101652
140	0x3d8a1cc5	0.067437686
141	0xbd7f3179	-0.06230304
142	0xbba07f3b	-0.0048979796
143	0xbdb1d9aa	-0.08684094
144	0xbd99cde5	-0.075099744
145	0x3d877a5d	0.06615136
146	0xbd08409e	-0.03326475
147	0xbdd7791c	-0.10521147
148	0x3d8d2ba9	0.06893093
149	0xbd51ff03	-0.05126859
150	0xbc97dd3e	-0.018538114
151	0xbd81157a	-0.063029245
152	0x3d114f8f	0.035476264
153	0xbdac9082	-0.08426
154	0xbd8833ef	-0.066505305
155	0xb9ea79b8	-0.00044722646
156	0xbd8723fb	-0.065986596
157	0x3cf811ca	0.03028192
158	0x3c2ca9df	0.010538547
159	0xbd90d25e	-0.07071374
160	0xbd4f4225	-0.05060019
161	0xbbfc60cd	-0.0077019692
162	0x3d90415f	0.070437185
163	0x3d68b244	0.056810632
164	0x3d979b42	0.0740266
165	0xbcfa07a2	-0.030521218
166	0xbd0aa7d6	-0.033851467
167	0x3d242771	0.040076677
168	0x3d97852d	0.07398448
169	0xbd7464ef	-0.05966657
170	0x3d07a063	0.03311194
171	0xbd4a70a5	-0.049423832
172	0x3c0807e0	0.008302659
173	0x3db491bd	0.0881686
174	0x3b9ac8d5	0.004723648
175	0x3d812868	0.06306535
176	0x3adfa335	0.0017062189
177	0x3d8cff46	0.06884627
178	0x3d7e8d69	0.062146578
179	0xbccfa5da	-0.025347639
180	0xbd41ccc3	-0.047314417
181	0xbd65827c	-0.056032643
182	0x3da7608f	0.08172714
183	0xbcc50ece	-0.024054911
184	0xbdc8f59e	-0.09812473
185	0x3d6a6480	0.05722475
186	0x3d5e9cd5	0.054348785
187	0xbd9e681c	-0.07734701
188	0xbce2473d	-0.02762186
189	0x3d56f6ab	0.052481335
190	0x3d88cf77	0.06680196
191	0x3cd77bd4	0.026304163
192	0x3d8235df	0.06357931
193	0x3cdf437d	0.02725386
194	0xbd81435e	-0.063116774
195	0xbcb7205e	-0.022354301
196	0x3cfbe5ce	0.030749228
197	0x3dd3f537	0.103495054
198	0xbd050033	-0.032470893
199	0x3d3ffdc1	0.046872858
200	0x3cc6e4e2	0.024279062
201	0x3da7c25e	0.081913695
202	0xbd583ff3	-0.05279536
203	0xbd4349f4	-0.04767795
204	0x3dbaa7d7	0.09114044
205	0x3ca03154	0.019554771
206	0xbda75e75	-0.08172313
207	0xbd621942	-0.05519987
208	0xbc4c1b6d	-0.012457711
209	0xbdc347b0	-0.09535158
210	0xbdd5c7b3	-0.1043848
211	0xbd4bdabc	-0.04976915
212	0x3c918862	0.017765228
213	0xbda7172d	-0.08158717
214	0xbd153889	-0.03643087
215	0x3cdc3315	0.026879827
216	0x3da9b9b5	0.08287374
217	0xbd8d512d	-0.06900249
218	0x3dcd1527	0.100138
219	0x3dabfad4	0.08397451
220	0x3d920b83	0.07131102
221	0xbdb1d190	-0.08682549
222	0xbc818cfd	-0.015814299
223	0x3c138048	0.009002753
224	0xba87e546	-0.0010368011
225	0xbdb3e6cd	-0.08784256
226	0xbdc33593	-0.09531703
227	0x3d284b5c	0.041087493
228	0xbcbfd771	-0.02341816
229	0x3d10aa24	0.03531851
230	0x3cf24b12	0.029576812
231	0x3b31d729	0.0027136302
232	0x3d702fbe	0.05863928
233	0xbdca49d0	-0.0987736
234	0x3d0b5d88	0.034024745
235	0xbc9deb35	-0.019277195
236	0xbc48c258	-0.012253366
237	0xbd07b2f3	-0.033129644
238	0x3da772c6	0.08176188
239	0xbd14939b	-0.03627358
240	0x3de584b2	0.1120695
241	0xbdb898a6	-0.090134904
242	0xbdb628d2	-0.088945046
243	0x3d324963	0.04352702
244	0xbd776650	-0.060400307
245	0xbd9e38f4	-0.07725707
246	0x3d973098	0.073823154
247	0x3d85b106	0.06527905
248	0x3da83e70	0.08215034
249	0x3dba8d9d	0.09109042
250	0x3d972e18	0.073818386
251	0x3d680d05	0.05665304
252	0xbc6e009e	-0.014526514
253	0xbc678e1e	-0.0141330045
254	0xbd6894ed	-0.05678265
255	0x3d08613b	0.03329585

interaction_layer.0.bias f4 [128]
0	0xbcca14b4	-0.024668075
1	0xbd3a5078	-0.045486897
2	0x3aa8797c	0.0012853588
3	0xbd45838b	-0.048221152
4	0xbbb2fc1d	-0.005462183
5	0x3d30a625	0.043127198
6	0xbd3bc390	-0.0458408
7	0x3da3cb9a	0.07997818
8	0xbd4f2ad3	-0.05057795
9	0x3d410fce	0.047134213
10	0xbbb11cce	-0.005405045
11	0x3dc6cd1e	0.09707092
12	0x3d89836f	0.06714522
13	0x3cf4b6fe	0.029872414
14	0xbda52720	-0.08064103
15	0xbcf9c30c	-0.030488513
16	0x3d1c6173	0.038178872
17	0xbda04823	-0.07826259
18	0x3d0e746b	0.034778994
19	0x3db5ffb6	0.088866636
20	0x3cf29556	0.029612225
21	0x3c264724	0.010148797
22	0x3d8a3aa0	0.06749463
23	0xbc35a565	-0.011086796
24	0xbd8c22e8	-0.06842595
25	0xbcb04744	-0.021518357
26	0xbd699121	-0.05702317
27	0x3caa59a8	0.020794705
28	0x3d4aa81b	0.049476724
29	0xbc6d5cd0	-0.01448746
30	0xbd86a633	-0.06574669
31	0xbda51612	-0.0806085
32	0xbd2c544a	-0.04207257
33	0x3d229591	0.03969342
34	0xbd1a7e46	-0.03771808
35	0xbd487b5c	-0.04894577
36	0x3c77e50e	0.0151302945
37	0x3d3eb08b	0.046555083
38	0x3d3e3362	0.04643572
39	0xbcef47a9	-0.029208975
40	0x3d95acc5	0.07308344
41	0xbcc4b93f	-0.024014113
42	0x3d9db9cc	0.077014536
43	0xbca45617	-0.020060582
44	0xbd00af45	-0.03141715
45	0xbd915087	-0.070954375
46	0xbb054306	-0.0020334139
47	0xbda4c1b3	-0.08044758
48	0x3d5c7712	0.05382449
49	0x3cd3e654	0.025866665
50	0xbbac27a2	-0.005253748
51	0x3d1f09c1	0.03882766
52	0xbcba44be	-0.022737857
53	0xbc98d68d	-0.018656993
54	0x3d6be781	0.057593826
55	0xbd48adb8	-0.048993796
56	0x3d47841b	0.04870997
57	0xbd0afe77	-0.033934083
58	0xbd9b811e	-0.075929865
59	0x3c21c52e	0.009873671
60	0x3c6fba57	0.014631829
61	0xbbda1b8d	-0.0066561163
62	0x3d0368ea	0.032082476
63	0xbbc7fd0e	-0.0061031645
64	0xbc54abb1	-0.012980388
65	0xbc9042cb	-0.017609974
66	0x3d38c916	0.045113645
67	0x3cc4912b	0.023995003
68	0x3db0880c	0.08619699
69	0xbcd4de6e	-0.025984969
70	0x3d6023d2	0.05472166
71	0x3da0586f	0.07829367
72	0x3d533e13	0.05157287
73	0x3d4a98ac	0.049462005
74	0xbd55b6a1	-0.05217612
75	0xbbd46986	-0.006482306
76	0x3d16a964	0.036782637
77	0x3c2c08bc	0.010500129
78	0x3d0f46e7	0.034979727
79	0x3ce14048	0.027496472
80	0xbd2ca5c8	-0.04215029
81	0x3d84b8a7	0.06480532
82	0xbd91ac5b	-0.07112952
83	0xbd8cb4aa	-0.068703964
84	0x3d925d75	0.07146732
85	0x3d536ae9	0.05161563
86	0x3d73623b	0.05941985
87	0xbd8fe3ff	-0.07025909
88	0x3cb30e97	0.021857543
89	0x3d95e8e1	0.07319809
90	0x3da91543	0.082560085
91	0x3c1feec1	0.009761513
92	0x3d5280e6	0.05139246
93	0x3cede112	0.029037986
94	0xbbf2c680	-0.007408917
95	0x3d21e827	0.03952804
96	0x3ce1aa05	0.027546892
97	0xbd27bf55	-0.040953953
98	0xbd8a46d3	-0.0675179
99	0xbdc636c9	-0.09678418
100	0xbbf3a449	-0.007435356
101	0x3d9c5746	0.076338336
102	0xbd9b9e89	-0.075985976
103	0xbdc5aa60	-0.09651637
104	0x3b445ab7	0.0029961297
105	0x3c4edf55	0.012626489
106	0x3b7406c3	0.0037235476
107	0x3c8fe984	0.017567404
108	0x3da71fbe	0.08160351
109	0xbd95ccc9	-0.0731445
110	0xbd154ea2	-0.036451943
111	0x3d3cad26	0.046063565
112	0xbcd66806	-0.02617265
113	0xbb9be317	-0.004757296
114	0x3d4c6774	0.049903348
115	0xbd85a32c	-0.06525263
116	0xbd087906	-0.033318542
117	0x3cd0fb33	0.025510406
118	0xbd7d46ee	-0.061835222
119	0x3cf386bb	0.02972733
120	0x3c9480f0	0.018127888
121	0x3cbd87ee	0.023136105
122	0x3d9768b4	0.073930174
123	0xbd24a8f7	-0.0402002
124	0xbc5b46b4	-0.013383556
125	0xbd4c6d32	-0.049908824
126	0x3d768a7c	0.060190663
127	0x3d14c6c9	0.03632239
