models/dumps/SparseTwoTower_v3.pth (torch, 376992 bytes, 14 tensors)

user_tower.fc.0.weight f4 [256, 11]
0.14044613 0.20337765 -0.054573644 0.13678023 0.1924939 -0.26853982 0.16357826 -0.045558307
0.09245351 -0.009600898 -0.114500284 -0.16791567 -0.19503294 -0.11821273 0.055109378 -0.26366445
-0.040492922 -0.17326331 0.039569825 -0.2063883 0.07704073 -0.25738412 0.040588565 -0.15797904
-0.08656864 0.06402222 0.043185286 -0.18469751 -0.23396266 -0.028395373 -0.084429584 0.047304306
0.013889095 -0.2161881 0.20813912 0.093216054 -0.007035929 0.2432836 0.28573447 0.07740209
0.27971303 -0.16165018 0.17214522 -0.29620567 -0.21138673 -0.054980196 -0.26791164 -0.21755375
-0.26175398 0.12511738 0.17277703 0.2666535 0.14301176 -0.22677982 0.17074442 0.049694426
-0.1342332 0.23080634 0.2692626 0.26043946 0.09336285 0.20197353 -0.11715295 0.14256613
-0.22371925 0.15353166 -0.2722294 -0.12868391 -0.054985877 -0.2543857 0.029017035 -0.25359347
0.170423 0.15002173 -0.03932358 -0.14130302 0.28958446 -0.12182217 0.12617601 -0.011840494
-0.075499184 -0.18924753 -0.28713644 0.16717173 0.017979315 -0.007968466 -0.26600236 0.035802104
-0.0939611 -0.25248682 -0.047633696 -0.15617552 -0.26761913 0.19032525 -0.096983194 -0.16518639
-0.01767341 -0.16119614 0.27860683 0.043757237 -0.15390624 -0.12503581 -0.14629051 0.012541747
-0.14437826 -0.010578096 0.20174982 0.003178239 0.051154673 0.062976025 -0.122216426 0.16076915
-0.24898575 -0.19759303 -0.21253629 0.19857544 0.24819718 -0.104794584 0.000984416 0.2618401
-0.12884794 -0.21758667 0.02531491 0.07132115 -0.22753522 -0.085206546 -0.2830814 0.16175124
-0.17832316 -0.21390948 0.05042388 -0.20505562 -0.19437888 -0.06807476 0.008484019 -0.27901056
-0.2423747 0.26511288 0.21577351 -0.26101673 0.09668218 0.16288011 -0.26224694 0.1743473
-0.16267036 0.0013968667 0.17280316 -0.017618863 -0.11961974 -0.23128314 0.16943888 0.11245346
0.10660837 0.16310431 0.26713648 -0.080843605 -0.26037806 0.16013452 -0.10073139 0.04852837
-0.08671917 -0.14034519 -0.26656482 -0.061497487 0.18914928 0.2016751 0.1594347 0.18063551
-0.11692282 0.18337767 -0.016474817 -0.2600653 0.23496974 -0.14317691 -0.016683314 0.24754481
0.099675864 -0.21945786 0.16163994 -0.08057509 -0.060493063 0.27253368 -0.12781316 -0.122072235
-0.27689746 0.07238971 -0.27334544 0.08816716 0.13460346 -0.0039057573 0.23881619 0.13553537
0.26797685 -0.19038968 0.015830949 -0.17899981 -0.15873757 -0.11399497 0.06068801 -0.03371011
-0.13443872 -0.24083096 0.22662091 0.091798045 -0.028293148 0.0028453073 0.09173585 0.22375962
-0.1659635 0.18577275 0.11933714 0.09669237 -0.21222779 0.28066012 -0.068352655 -0.16495799
-0.029819325 0.29303747 0.25265872 0.1957581 0.20491113 0.22213419 -0.019813493 -0.25912234
-0.17851564 0.18200675 0.07100489 0.05793472 -0.038993895 -0.19903627 0.27170524 0.0078514395
-0.18667144 -0.038149867 -0.019456746 -0.07178549 0.09218241 0.0896909 -0.09504614 -0.10045463
-0.1916959 -0.2449286 -0.056898724 -0.0061035785 -0.14709744 0.23727374 -0.16364571 -0.08327746
0.01700169 0.1652232 0.0026072767 0.052609023 -0.030631471 0.002880048 -0.19733712 0.0053196643
00000000: 1cd1 0f3e 3b42 503e 9d88 5fbd 1e10 0c3e
00000010: 1f1d 453e 0d7e 89be 0f81 273e 599b 3abd
00000020: 4458 bd3d 164d 1dbc 207f eabd 16f2 2bbe
00000030: b7b6 47be 8419 f2bd 5fba 613d 07ff 86be
00000040: e8db 25bd f06b 31be f813 223d 7457 53be
00000050: 88c7 9d3d dac7 83be 3240 263d 42c5 21be
00000060: e64a b1bd 151e 833d 0ee3 303d 5821 3dbe
00000070: e893 6fbe 6a9d e8bc 6be9 acbd 29c2 413d
00000080: 168f 633c 6a60 5dbe 6c22 553e 0fe8 be3d
00000090: a68d e6bb 561f 793e ca4b 923e fd84 9e3d
000000a0: 8c36 8f3e a087 25be d646 303e 45a8 97be
000000b0: c375 58be ea32 61bd b72b 89be 69c6 5ebe
000000c0: 9e04 86be c51e 003e 76ec 303e cf86 883e
000000d0: ad71 123e f838 68be a0d7 2e3e 628c 4b3d
000000e0: 6e74 09be 7f58 6c3e cadc 893e 5258 853e
000000f0: 0635 bf3d 26d2 4e3e e3ed efbd dbfc 113e
00000100: a916 65be 6737 1d3e a761 8bbe b7c5 03be
00000110: df38 61bd d83e 82be 22b5 ed3c 01d7 81be
00000120: 5e83 2e3e 4c9f 193e c311 21bd bdb1 10be
00000130: 6a44 943e e77d f9bd 4934 013e a2fe 41bc
00000140: 519f 9abd 1bca 41be 8c03 93be 112f 2b3e
00000150: 5b49 933c 2b8e 02bc 7631 88be 3aa5 123d
00000160: ad6e c0bd f445 81be 8d1b 43bd 7aec 1fbe
00000170: 6005 89be 9fe4 423e 209f c6bd 9f26 29be
00000180: d4c7 90bc 9a10 25be 8ea5 8e3e ca3a 333d
00000190: 9999 1dbe 6309 00be 2ecd 15be e67b 4d3c
000001a0: e5d7 13be c04f 2dbc 8197 4e3e 014a 503b
000001b0: 9087 513d 93f9 803d 9b4c fabd aba0 243e
000001c0: 1ff6 7ebe d455 4abe 1da3 59be 5c57 4b3e
000001d0: 6727 7e3e 8b9e d6bd 8507 813a e80f 863e
000001e0: b7f0 03be 0acf 5ebe 3761 cf3c d310 923d
000001f0: fefe 68be c580 aebd 0cf0 90be 1ea2 253e
00000200: 599a 36be 160b 5bbe 4589 4e3d 1afa 51be
00000210: 420b 47be c86a 8bbd 8e00 0b3c 79da 8ebe
00000220: 1331 78be e0bc 873e bbf3 5c3e fca3 85be
00000230: 4f01 c63d 0bca 263e 3b45 86be 1988 323e
00000240: 0f93 26be 1217 b73a 50f3 303e 6f55 90bc
00000250: 32fb f4bd 7dd5 6cbe 6381 2d3e 004e e63d
00000260: 7d55 da3d d104 273e 1dc6 883e 5591 a5bd
00000270: 4650 85be 4efa 233e 424c cebd afc5 463d
00000280: d299 b1bd a6b6 0fbe 2f7b 88be cae4 7bbd
00000290: 59b0 413e eb83 4e3e da42 233e 84f8 383e
000002a0: 3b75 efbd 5bc7 3b3e 32f6 86bc 4727 85be
000002b0: e89b 703e f89c 12be 72ab 88bc 637c 7d3e
000002c0: dc22 cc3d 90b9 60be f184 253e 8e04 a5bd
000002d0: 93c7 77bd 8989 8b3e 74e1 02be 0201 fabd
000002e0: 81c5 8dbe 0e41 943d eff3 8bbe fc90 b43d
000002f0: 7dd5 093e bcf7 7fbb 3b8c 743e c9c9 0a3e
00000300: 4334 893e 83f5 42be e8af 813c ba4b 37be
00000310: 1a8c 22be 3276 e9bd fe93 783d 9d13 0abd
00000320: 4eaa 09be 649c 76be 500f 683e 9d00 bc3d
00000330: 08c7 e7bc 5678 3a3b 01e0 bb3d 3e21 653e
00000340: 56f2 29be 363b 3e3e 0867 f43d a606 c63d
00000350: 3e52 59be afb2 8f3e 7afc 8bbd bfea 28be
00000360: a847 f4bc 0209 963e 7c5c 813e d074 483e
00000370: 39d4 513e 2577 633e e84f a2bc afab 84be
00000380: cecc 36be fa5f 3a3e 036b 913d f54c 6d3d
00000390: 10b8 1fbd 2ad0 4bbe f31c 8b3e 53a3 003c
000003a0: cc26 3fbe 0943 1cbd c163 9fbc 4504 93bd
000003b0: 22ca bc3d ddaf b73d 8da7 c2bd 28bb cdbd
000003c0: ee4b 44be 90ce 7abe a30e 69bd 8700 c8bb
000003d0: b6a0 16be e3f7 723e be92 27be 5f8d aabd
000003e0: 2147 8b3c 4530 293e d8de 2a3b 8f7c 573d
000003f0: daee fabc 30bf 3c3b be12 4abe 9450 ae3b

user_tower.fc.0.bias f4 [256]
0.14336115 -0.10797283 -0.039955117 -0.11164933 0.07570744 0.13184056 0.21210018 -0.20073928
0.18536529 -0.16697936 -0.053017803 0.2843143 -0.1081387 0.018379902 0.13056861 -0.16309758
-0.05785573 0.061945695 0.0235594 -0.25865328 -0.259998 -0.10703028 -0.042717695 0.11825034
-0.01649765 0.09895316 -0.08990398 -0.16544487 -0.25225833 0.14105071 0.20156975 -0.23616633
-0.19510481 0.013249164 -0.0029810616 0.24168527 -0.27240586 0.08634243 -0.17121316 -0.18929896
0.09231688 0.22387351 0.051788017 0.26324895 -0.211288 -0.072678536 -0.15096833 0.19965239
0.042968705 -0.24687488 0.28409395 -0.075962596 -0.12654525 0.23096831 0.1935402 0.07295898
0.02175425 0.14344281 -0.13323201 -0.1748203 0.10506933 -0.00083227764 -0.21997355 0.08347818
0.2714522 -0.041991234 -0.17482819 0.26206458 -0.18120869 -0.3003556 -0.06194953 -0.053675186
0.1993998 -0.17421028 -0.22224781 0.122284114 0.29637888 -0.21281488 0.23548284 -0.04296465
-0.26788694 -0.23956738 -0.17952912 -0.13730036 -0.06481614 0.039330445 0.09816219 0.21235624
0.18929702 0.10084247 0.25633395 0.07662294 -0.17232369 0.24545339 0.18327598 0.15320149
0.26586318 0.22674589 0.10155213 0.03478798 0.21527259 -0.25885123 -0.019668506 0.25524324
-0.14582287 -0.23592614 0.21683046 -0.17813613 0.16549252 -0.12976 -0.24334857 -0.08637439
0.07682505 0.09535483 -0.29769155 -0.22726911 -0.119453 0.27295458 -0.07067676 -0.09101782
0.062170807 -0.25175536 -0.12527889 0.04737913 0.0757761 0.13013977 -0.22968802 0.26147884
0.0959428 0.06856626 -0.017554302 0.024685178 0.18887757 0.036805507 -0.07283716 -0.19457284
-0.16438241 0.2626488 -0.24197757 0.14889467 -0.26666456 -0.06402395 -0.08364178 0.13915068
-0.2986626 -0.121942736 0.09522843 0.2623916 -0.2129116 -0.22402026 0.27743477 0.27282318
-0.08383193 -0.26853293 0.15637064 -0.00640681 -0.032076206 0.13193451 0.06440096 -0.1540784
-0.1722218 0.106294036 0.0573022 -0.046296567 -0.22009054 -0.16291694 -0.03685889 -0.1797081
0.20582873 0.17596103 -0.24885634 -0.13028245 -0.15425223 0.15271477 -0.19414312 0.083189525
-0.24023207 0.15649337 0.25434774 0.102870084 0.25403994 -0.12079235 0.12725796 -0.005625685
-0.17097239 -0.19555472 0.02694204 0.29672852 0.0927186 -0.20041256 0.13197051 -0.08582559
-0.11012035 -0.12925272 0.28212878 0.15853241 -0.12857643 -0.2574385 0.19397362 0.117320925
0.19759683 -0.2506389 0.046992604 0.24781373 -0.02483974 0.00489194 -0.12793958 0.1547961
0.31134927 -0.09569227 0.18493424 0.19310814 0.07224363 0.26853815 0.069518544 0.22469164
0.15491003 -0.27170643 -0.21036707 -0.23112684 -0.21979576 -0.29079658 -0.26027232 0.30062342
-0.2780137 -0.046792727 0.07343108 -0.16795233 -0.24073961 -0.06869707 -0.07091586 0.19166338
0.13958666 -0.23464277 0.09193936 -0.07912066 0.12215441 -0.12929226 -0.24411894 -0.18318717
-0.16285391 0.01066028 0.29749167 -0.14096443 0.040351257 -0.17935637 -0.23885494 0.0031179842
0.209554 0.16485327 0.20335305 -0.055433933 -0.13268465 0.15418167 -0.13144587 -0.18673569
00000000: 44cd 123e dc20 ddbd faa7 23bd 67a8 e4bd
00000010: 810c 9b3d 3601 073e ca30 593e 998e 4dbe
00000020: 66d0 3d3e a3fc 2abe 3229 59bd a591 913e
00000030: d377 ddbd 7391 963c c7b3 053e 0d03 27be
00000040: 21fa 6cbd c5ba 7d3d a5ff c03c 346e 84be
00000050: 751e 85be b132 dbbd c0f8 2ebd 3c2d f23d
00000060: 1426 87bc f4a7 ca3d 941f b8bd 616a 29be
00000070: 0128 81be 996f 103e 4d68 4e3e 96d5 71be
00000080: 8ec9 47be 0613 593c ea5d 43bb 587c 773e
00000090: c878 8bbe 4dd4 b03d 8152 2fbe 96d7 41be
000000a0: a210 bd3d 193f 653e ac1f 543d 91c8 863e
000000b0: e25b 58be 7cd8 94bd 7197 1abe ad71 4c3e
000000c0: f4ff 2f3d c5cc 7cbe c374 913e 4792 9bbd
000000d0: 1495 01be f582 6c3e 672f 463e 856b 953d
000000e0: f835 b23c ace2 123e f96d 08be 1804 33be
000000f0: 972e d73d 352d 5aba bf40 61be 9cf6 aa3d
00000100: c8fb 8a3e 00ff 2bbd 2906 33be 542d 863e
00000110: c58e 39be 36c8 99be cabe 7dbd 83da 5bbd
00000120: 762f 4c3e 2e64 32be ee94 63be 1870 fa3d
00000130: f9be 973e 25ec 59be 6a22 713e b3fb 2fbd
00000140: 7a28 89be 2751 75be 7bd6 37be 7798 0cbe
00000150: 53be 84bd f618 213d 4209 c93d ea73 593e
00000160: 14d7 413e 7f86 ce3d 343e 833e 7dec 9c3d
00000170: 9f75 30be 2258 7b3e b3ac 3b3e dae0 1c3e
00000180: 381f 883e 1330 683e 90fa cf3d d77d 0e3d
00000190: 6b70 5c3e 2688 84be d91f a1bc 3eaf 823e
000001a0: 9752 15be 9f96 71be ce08 5e3e 5169 36be
000001b0: df76 293e cedf 04be 5e30 79be 0ee5 b0bd
000001c0: 7456 9d3d 6549 c33d 076b 98be 3cb9 68be
000001d0: c6a3 f4bd b4c0 8b3e fabe 90bd 8d67 babd
000001e0: d1a6 7e3d 14e6 80be 1c49 00be 9e10 423d
000001f0: 8030 9b3d 5c43 053e 5633 6bbe 8ee0 853e
00000200: a97d c43d 786c 8c3d 0ace 8fbc 9238 ca3c
00000210: 1f69 413e 5fc1 163d a62b 95bd 1a3e 47be
00000220: dd53 28be e779 863e f8c8 77be d877 183e
00000230: 4288 88be fd1e 83bd 624c abbd 847d 0e3e
00000240: 4eea 98be 1dbd f9bd 2007 c33d 3158 863e
00000250: 8005 5abe 9165 65be ee0b 8e3e 7baf 8b3e
00000260: 13b0 abbd 267d 89be a01f 203e 38f0 d1bb
00000270: 5762 03bd d719 073e a7e4 833d bac6 1dbe
00000280: e95a 30be b0b0 d93d b6b5 6a3d 78a1 3dbd
00000290: 6a5f 61be b3d3 26be 59f9 16bd 6605 38be
000002a0: c4c4 523e 212f 343e 32d4 7ebe c368 05be
000002b0: 4cf4 1dbe 4361 1c3e 74cd 46be 455f aa3d
000002c0: 65ff 75be cc3f 203e de39 823e 8dad d23d
000002d0: 8611 823e fb61 f7bd e94f 023e ab57 b8bb
000002e0: 6313 2fbe 7f3f 48be 8eb5 dc3c cdec 973e
000002f0: 40e3 bd3d f338 4dbe 4723 073e 54c5 afbd
00000300: c786 e1bd d35a 04be 2f73 903e 5256 223e
00000310: 8aa9 03be fbce 83be 05a1 463e f445 f03d
00000320: d356 4a3e be53 80be 517b 403d e2c2 7d3e
00000330: b67c cbbc 914c a03b 9802 03be de82 1e3e
00000340: 2c69 9f3e 4ffa c3bd 675f 3d3e 24be 453e
00000350: 78f4 933d d57d 893e bd5f 8e3d 9115 663e
00000360: bca0 1e3e 1b1d 8bbe 776a 57be 84ac 6cbe
00000370: 2412 61be 4ae3 94be 6a42 85be 50eb 993e
00000380: d057 8ebe bba9 3fbd 0963 963d b2fb 2bbe
00000390: 7284 76be 0db1 8cbd 563c 91bd 6843 443e
000003a0: ceef 0e3e 3246 70be b44a bc3d 030a a2bd
000003b0: 172c fa3d 3165 04be 51fa 79be 6b95 3bbe
000003c0: 2dc3 26be 74a8 2e3c d450 983e fb58 10be
000003d0: 5c47 253d 32a9 37be 6496 74be 1857 4c3b
000003e0: 5395 563e 4ccf 283e c83b 503e b10e 63bd
000003f0: 7cde 07be cde1 1d3e bf99 06be a437 3fbe

user_tower.fc.3.weight f4 [128, 256]
0.05889437 -0.059473913 0.0072396286 -0.029223645 -0.04042234 0.07246711 -0.040869683 0.027809555
-0.013526769 0.0016961009 0.031205531 0.02219515 -0.05846831 -0.010297123 0.044866458 0.055673346
0.057101075 0.05395114 0.051036123 0.04730187 0.038801067 0.03792834 -0.04967041 -0.019527216
-0.022715854 0.021115476 0.00096319907 0.017947111 -0.0045184544 -0.046403527 0.052058537 -0.045573846
0.017375067 0.010417783 0.07089445 -0.012242253 -0.0034397994 0.030842388 -0.05371783 -0.024721317
0.037313 0.013245411 -0.030645777 -0.027704513 0.057099596 0.07307307 0.010360607 0.019370694
-0.009680979 0.050728664 -0.05843529 -0.03185323 0.028643938 -0.019807108 -0.0061810273 -0.04272056
0.025276184 -0.051044967 -0.032246705 0.03018352 -0.0121159395 -0.005962272 -0.043832652 0.06590462
-0.0024152338 0.0025796727 -0.033207577 -0.047061555 -0.05468197 0.0661385 0.048441175 -0.020171225
0.042821273 0.04149739 -0.0027271393 -0.036634736 0.034535505 0.024610309 -0.024731653 0.033915106
-0.056010768 -0.046970204 -0.021526182 0.0078494605 0.02173271 -0.036149684 -0.019337313 -0.026456513
0.01958193 0.03821984 0.0018629467 -0.05155019 0.013056878 0.0437556 0.0073411535 0.068333015
-0.010063301 0.01925031 0.0016636301 -0.02850751 -0.01185245 0.076578125 -0.062639125 -0.030786037
0.046563655 -0.045333028 -0.03887398 -0.016642923 -0.06812944 -0.055714354 0.0048089665 -0.0030736146
0.0065065213 0.031687316 0.068891965 -0.03148345 0.026767012 0.03934996 0.0248895 0.018471843
-0.05250508 0.08370158 0.037768137 0.030068358 -0.06023027 -0.017478125 0.0498121 -0.013777509
0.017535983 0.039442874 -0.038935047 -0.0094350455 0.030614344 -0.036172688 0.070849225 -0.02769474
-0.03386834 0.0065616285 0.019120932 0.04046455 -0.040401183 -0.013718382 0.02650686 0.041097466
-0.009689757 0.012533912 -0.044293277 0.041170932 -0.060701013 -0.0012038025 0.039540198 0.014601721
-0.017224178 0.015588755 0.008890325 0.021896672 0.025988692 -0.05200907 0.011962283 0.011040643
0.040052332 -0.028293716 -0.009351878 -0.027170807 0.035604313 0.009398288 -0.006957376 0.005338675
0.037707273 -0.04150196 0.051590137 0.021858742 -0.021420576 -0.036770012 0.030398846 0.007829746
-0.024216997 0.036746137 -0.067155845 0.050816074 -0.00021243916 -0.0025170662 -0.0065640323 0.05320595
-0.032787915 -0.027002407 0.0528538 0.06706463 0.014976934 0.054883316 0.032300882 0.021130681
-0.029778222 -0.010586844 -0.033799004 -0.054591086 0.08365982 -0.01125502 -0.049201153 -0.061335627
0.038400713 0.02411018 0.07783369 -0.074273385 0.0055487286 0.026787747 -0.05428728 0.030432427
-0.023300655 -0.015002031 0.005694519 -0.0599005 -0.022492476 0.055860236 -0.048801903 -0.037523814
-0.0028279717 -0.035858184 0.0345047 -0.0038148644 -0.0028380568 -0.043232314 0.011994271 0.041701645
0.039641377 0.029582478 0.015934383 -0.0007735769 0.034755312 0.005190369 0.013502438 -0.053631365
-0.01732826 -0.019693917 -0.048826333 0.0071685943 -0.045856073 0.007654864 -0.036992997 -0.043009467
0.015508229 0.014247734 -0.018773919 -0.015203134 -0.06418047 -0.0121898195 0.0013067051 -0.015936814
0.013275861 0.028115502 -0.008801376 -0.014360692 0.0021859393 -0.03617969 0.024163904 0.014868057
00000000: 393b 713d eb9a 73bd 683a ed3b 6d66 efbc
00000010: e591 25bd a369 943d f866 27bd ddd0 e33c
00000020: 629f 5dbc b44f de3a bea2 ff3c 9ad2 b53c
00000030: 777c 6fbd 44b5 28bc e4c5 373d bc09 643d
00000040: d1e2 693d dffb 5c3d 410b 513d 9bbf 413d
00000050: deed 1e3d bf5a 1b3d 3373 4bbd 8af7 9fbc
00000060: 9916 babc 5dfa ac3c 327f 7c3a d205 933c
00000070: 8b0f 94bb a011 3ebd 553b 553d a4ab 3abd
00000080: 2856 8e3c 59af 2a3c 1c31 913d bb93 48bc
00000090: 426e 61bb 2da9 fc3c 3a07 5cbd 5c84 cabc
000000a0: 84d5 183d 4803 593c da0c fbbc 93f4 e2bc
000000b0: 44e1 693d 55a7 953d 89bf 293c 4aaf 9e3c
000000c0: f89c 1ebc dcc8 4f3d d859 6fbd 8878 02bd
000000d0: b1a6 ea3c 8442 a2bc 378a cabb c1fb 2ebd
000000e0: 0010 cf3c 8714 51bd 1f15 04bd 6e43 f73c
000000f0: ef81 46bc 2a5f c3bb de89 33bd 00f9 863d
00000100: e648 1ebb ba0f 293b ab04 08bd 9ec3 40bd
00000110: 34fa 5fbd 9f73 873d 416a 463d 203e a5bc
00000120: 5c65 2f3d 2bf9 293d ceb9 32bb 4e0e 16bd
00000130: 1a75 0d3d 8f9b c93c 099a cabc 91ea 0a3d
00000140: 8c6b 65bd d463 40bd ad57 b0bc 069b 003c
00000150: cc08 b23c b111 14bd 4969 9ebc 54bb d8bc
00000160: 496a a03c 688c 1c3d 1e2e f43a 4b26 53bd
00000170: 84ec 553c 1239 333d 0f8e f03b 2ef2 8b3d
00000180: 8be0 24bc d3b2 9d3c 2a0e da3a 9588 e9bc
00000190: c730 42bc fed4 9c3d f148 80bd 0033 fcbc
000001a0: 88b9 3e3d 20af 39bd 533a 1fbd bd56 88bc
000001b0: 7387 8bbd bc34 64bd 8994 9d3b b26e 49bb
000001c0: a834 d53b 8fca 013d 3b17 8d3d caf4 00bd
000001d0: 7e46 db3c 6c2d 213d 11e5 cb3c 4352 973c
000001e0: 910f 57bd bc6b ab3d c3b2 1a3d eb51 f63c
000001f0: 04b4 76bd 492e 8fbc c607 4c3d 10bb 61bc
00000200: 9fa7 8f3c da8e 213d 5b7a 1fbd 7395 1abc
00000210: efca fa3c d029 14bd 6619 913d 14e0 e2bc
00000220: 87b9 0abd ee02 d73b 80a3 9c3c 28be 253d
00000230: b67b 25bd 11c3 60bc ea24 d93c d155 283d
00000240: c9c1 1ebc 0a5b 4d3c de6c 35bd daa2 283d
00000250: a0a1 78bd e9c8 9dba e7f4 213d 0f3c 6f3c
00000260: b819 8dbc fa67 7f3c baa8 113c a660 b33c
00000270: 3de6 d43c 7607 55bd 74fd 433c d0e3 343c
00000280: ea0d 243d 39c8 e7bc 9f38 19bc 5095 debc
00000290: d4d5 113d 47fb 193c b3fa e3bb 0df0 ae3b
000002a0: f172 1a3d f6fd 29bd 2e50 533d 1b11 b33c
000002b0: 347a afbc 279c 16bd 0007 f93c 5648 003c
000002c0: b962 c6bc 1e83 163d 0189 89bd 8424 503d
000002d0: 34c2 5eb9 5df5 24bb 1817 d7bb 7bee 593d
000002e0: 9f4c 06bd 2734 ddbc 3a7d 583d 2e59 893d
000002f0: d061 753c 54cd 603d ee4d 043d 401a ad3c
00000300: 75f1 f3bc 7174 2dbc d370 0abd e79a 5fbd
00000310: d755 ab3d fa66 38bc 2687 49bd 113b 7bbd
00000320: 114a 1d3d b682 c53c 4567 9f3d a51c 98bd
00000330: 1cd2 b53b fa71 db3c 575c 5ebd 6d4d f93c
00000340: 04e1 bebc 14cb 75bc 1699 ba3b 3a5a 75bd
00000350: 2442 b8bc b4cd 643d 81e4 47bd 92b2 19bd
00000360: 7e55 39bb 08e0 12bd cd54 0d3d ce02 7abb
00000370: b1fe 39bb 5e14 31bd 9e83 443c 58cf 2a3d
00000380: ff5e 223d f456 f23c d388 823c dec9 4aba
00000390: 965b 0e3d f913 aa3b 5439 5d3c 90ac 5bbd
000003a0: fff3 8dbc 2355 a1bc 1ffe 47bd 87e6 ea3b
000003b0: 94d3 3bbd a7d5 fa3b f885 17bd b22a 30bd
000003c0: 3a16 7e3c 546f 693c c3cb 99bc 9116 79bc
000003d0: 0d71 83bd cfb7 47bc bf45 ab3a ec8d 82bc
000003e0: ff82 593c 7b52 e63c a633 10bc 1c49 6bbc
000003f0: fa41 0f3b 2831 14bd 61f3 c53c 2799 733c

user_tower.fc.3.bias f4 [128]
0.00971487 -0.019929862 0.018678913 -0.048645277 -0.02160447 0.038391046 -0.06352181 -0.014755724
0.0446437 0.008871663 0.003928082 0.047619674 0.057514794 -0.04019531 0.0032938092 0.031404566
-0.023722578 0.061106797 -0.037199736 -0.05244665 -0.050593987 -0.021490486 0.029101526 0.040908996
0.042736635 -0.050841935 0.051594127 0.032714482 0.016991226 0.031202119 0.05370927 0.01856081
-9.704923e-05 0.031049281 0.06815078 0.034570526 -0.015062092 0.016632468 -0.006521535 0.035600517
-0.03530413 0.05952651 -0.030772982 -0.02820851 -0.003464314 0.019391622 -0.057025775 -0.054325003
-0.04224601 0.025656031 -0.044467647 -0.033567097 -0.060007427 -0.066926375 -0.0375402 -0.018854922
0.005266284 0.06021253 0.051652502 -0.0077020423 -0.03411539 0.04918793 -0.04225533 0.056239177
0.029281769 0.0034397205 -0.055745337 -0.05406932 -0.018400872 0.054206047 -0.014289926 -0.01819646
0.030797012 -0.045890186 -0.06893014 0.026616741 0.009458159 -0.043339938 0.027459241 0.0102868285
0.07016736 -0.008919654 -0.037542135 -0.05936347 -0.008080575 0.058417905 0.01974095 -0.012824087
0.05276751 -0.0050860597 -0.0067722457 -0.009517317 -0.009619908 -0.021681808 0.071060315 -0.035014458
-0.07409422 0.018106785 0.047326315 0.024486445 -0.00748559 -0.04189151 0.0054197274 -0.029777959
-0.055536684 -0.05198732 0.029877618 0.044541955 -0.031315587 0.03923582 -0.014466651 -0.02100583
0.028755749 0.025702104 0.037436068 0.017877493 0.06838351 -0.056336995 -0.020365179 0.021116678
0.044174697 -0.027502572 -0.017099481 -0.067564406 -0.040790465 -0.043714013 0.007546003 0.0006404681
00000000: 1e2b 1f3c f343 a3bc 8504 993c 4540 47bd
00000010: dcfb b0bc ee3f 1d3d b917 82bd fec1 71bc
00000020: 50dc 363d 745a 113c 24b7 803b d90c 433d
00000030: a294 6b3d d6a3 24bd f3dc 573b 13a2 003d
00000040: da55 c2bc 1f4b 7a3d c05e 18bd 4cd2 56bd
00000050: a43b 4fbd d10c b0bc 5366 ee3c 3190 273d
00000060: 9c0c 2f3d a23f 50bd 5d54 533d 9fff 053d
00000070: 2f31 8b3c 969b ff3c 40fe 5b3d d70c 983c
00000080: e986 cbb8 105b fe3c a392 8b3d d399 0d3d
00000090: fec6 76bc d040 883c 9ab2 d5bb d9d1 113d
000000a0: 109b 10bd 12d2 733d 9f17 fcbc 8815 e7bc
000000b0: 8b09 63bb 2edb 9e3c dc93 69bd e583 5ebd
000000c0: 270a 2dbd 992c d23c b523 36bd a77d 09bd
000000d0: 59ca 75bd b210 89bd c1c3 19bd a375 9abc
000000e0: cb90 ac3b 6aa1 763d 9391 533d 6a61 fcbb
000000f0: 94bc 0bbd 4879 493d ed13 2dbd 0d5b 663d
00000100: 52e0 ef3c ef6c 613b 3955 64bd cb77 5dbd
00000110: 6dbd 96bc 2907 5e3d 4b20 6abc be10 95bc
00000120: 044a fc3c 59f7 3bbd 3f2b 8dbd 5a0b da3c
00000130: 65f6 1a3c 3885 31bd 34f2 e03c 168a 283c
00000140: e8b3 8f3d be23 12bc c8c5 19bd 1c27 73bd
00000150: 6364 04bc 9d47 6f3d c6b7 a13c 1f1c 52bc
00000160: bf22 583d f6a8 a6bb b7e9 ddbb 85ee 1bbc
00000170: d29c 1dbc 0c9e b1bc 1288 913d 526b 0fbd
00000180: b6be 97bd ae54 943c 3dd9 413d cc97 c83c
00000190: ae49 f5bb 6f96 2bbd f897 b13b e8f0 f3bc
000001a0: 6f7a 63bd a8f0 54bd e8c1 f43c a071 363d
000001b0: c644 00bd bdb5 203d 8805 6dbc 6b14 acbc
000001c0: 2d91 eb3c 388d d23c 9056 193d d273 923c
000001d0: a70c 8c3d 9fc1 66bd e0d4 a6bc e2fc ac3c
000001e0: 87f0 343d 134d e1bc 3614 8cbc 355f 8abd
000001f0: e713 27bd 770d 33bd 7644 f73b 16e5 273a

user_tower.fc.6.weight f4 [64, 128]
0.03219526 -0.08055341 0.052193925 0.03906523 0.07003239 0.054913398 0.04951109 0.0063083544
0.0071223592 0.0018531654 0.044692937 0.08932226 0.035987046 0.059816368 -0.041017096 0.003992559
-0.06060052 0.016496822 0.035584018 -0.06292034 -0.010362481 0.006544936 0.0011081886 0.051254407
0.017223742 0.006019597 -0.014003413 -0.071234204 0.09486725 0.0021453653 -0.030969072 -0.013619964
-0.032924034 0.0044748345 -0.009032924 0.010075762 -0.076407745 -0.0033351686 0.06619125 -0.018589681
0.012071469 0.0018706981 -0.04531661 -0.030108899 -0.023670742 -0.07698791 -0.037301734 -0.04839018
-0.06391393 0.058889776 -0.02871537 0.06331768 -0.026534464 0.016003486 0.04280503 0.010537991
0.08169117 0.016237712 0.0681712 0.03539039 0.04961145 0.06897044 -0.042823654 -0.03862631
-0.0648791 0.031048834 0.03289496 -0.05318251 0.05812712 0.043737426 0.017000278 0.011046918
0.050028723 0.021196764 0.052123755 0.028281227 0.05508088 -0.047841378 -0.057978652 0.058754504
-0.0038520326 0.009859823 -0.006484991 0.016114714 -0.018319778 -0.07513954 0.032916527 0.042245366
0.06987382 0.020758443 0.033643663 -0.022573246 -0.05742735 0.008447943 0.07180732 -0.081657104
-0.074886635 0.0439295 -0.052561715 -0.043522872 -0.012973265 -0.05755635 -0.07437629 -0.0026039463
-0.047377788 -0.0005452406 -0.05532259 0.06855734 0.03427889 -0.0426306 -0.038244266 0.056437604
-0.00010404289 -0.026128054 -0.05970372 -0.033170126 -0.024653953 0.009177441 0.04671207 -3.926322e-05
0.038350157 -0.079028465 0.03768273 0.062694736 0.07858445 0.0012448344 -0.005548582 0.061784357
0.004072158 0.015745541 -0.041708913 -0.017727615 -0.0336922 -0.08871138 0.058512624 0.067684025
0.0056667263 -0.033718362 -0.08885289 0.04680659 0.0054666935 0.006859656 -0.04553837 -0.025804712
0.08328462 -0.08107756 0.07506112 -0.08565435 -0.02711584 -0.030299446 -0.053534698 0.022496605
0.07273799 -0.0071964576 -0.08212163 -0.065809734 0.03661478 -0.07978813 0.016498495 -0.055033673
-0.033226427 0.04299234 -0.04478472 0.033101473 -0.09442015 -0.069292024 -0.07855417 -0.04774034
0.047300994 -0.007954904 0.010873529 0.019240407 -0.040131085 -0.008521428 0.08099655 0.05123009
0.06050227 -0.067385375 -0.00404623 -0.039245237 0.0035292231 0.06158835 0.07851963 -0.034330796
-0.042736463 0.041984636 -0.012120131 -0.090264425 0.055757195 0.043625105 0.017158952 -0.069615796
-0.049269274 0.021475192 -0.04533517 0.056334775 -0.031093827 -0.004640446 -0.00918707 -0.0539487
-0.062777095 -0.029572703 0.055507913 -0.074249774 -0.026986405 0.035800304 -0.058072805 -0.06694616
-0.08390233 -0.031854562 0.043018475 0.042810485 0.07756954 0.014362192 -0.037074786 0.04511791
0.013000119 -0.023227684 -0.038028367 -0.034917712 -0.029565375 -0.069043726 0.0051425416 0.019100003
0.068353795 0.032111645 -0.07957727 -0.058680672 0.0012665914 -0.06982501 -0.0915911 -0.041516826
0.059598975 0.09741646 0.08943522 -0.060758114 -0.040279783 -0.09263112 0.041473888 -0.05275367
-0.075901896 -0.025517246 0.024120014 0.046932362 -0.085702136 0.087878756 -0.08613384 -0.07847799
-0.05077376 -0.075658575 -0.007162121 0.0039011342 -0.058046676 0.03890453 -0.09098643 -0.011704943
00000000: 2ddf 033d 30f9 a4bd 4cc9 553d dd02 203d
00000010: 246d 8f3d dfec 603d 24cc 4a3d 50b6 ce3b
00000020: ae62 e93b eae5 f23a f10f 373d 97ee b63d
00000030: 2767 133d 0202 753d 8b01 28bd 03d4 823b
00000040: 4038 78bd 5824 873c 8cc0 113d 61dc 80bd
00000050: 65c7 29bc e776 d63b a440 913a 24f0 513d
00000060: ce18 8d3c 0a40 c53b 926e 65bc 3de3 91bd
00000070: c349 c23d 4299 0c3b dab2 fdbc 4526 5fbc
00000080: 5adb 06bd a2a1 923b d4fe 13bc cf14 253c
00000090: aa7b 9cbd d892 5abb 478f 873d 6349 98bc
000000a0: 69c7 453c 3632 f53a e99d 39bd f0a6 f6bc
000000b0: 25e9 c1bc d6ab 9dbd b4c9 18bd c834 46bd
000000c0: 4ee5 82bd 6836 713d 7f3c ebbc b3ac 813d
000000d0: ce5e d9bc be19 833c 5454 2f3d 8aa7 2c3c
000000e0: b34d a73d f304 853c 589d 8b3d 83f5 103d
000000f0: 6035 4b3d 6040 8d3d db67 2fbd 9f36 1ebd
00000100: 55df 84bd 205a fe3c debc 063d e7d5 59bd
00000110: b416 6e3d 0426 333d 2b44 8b3c 22fe 343c
00000120: ebea 4c3d d6a4 ad3c b87f 553d 08ae e73c
00000130: 7d9c 613d 52f5 43bd 067b 6dbd 90a8 703d
00000140: 6272 7cbb 188b 213c 0c80 d4bb 0103 843c
00000150: 5c13 96bc c2e2 99bd 7bd3 063d 7a09 2d3d
00000160: 011a 8f3d 9c0d aa3c f0cd 093d 87eb b8bc
00000170: f138 6bbd 3e69 0a3c b70f 933d d73b a7bd
00000180: 2a5e 99bd 6bef 333d f44a 57bd 0a45 32bd
00000190: d18d 54bc 35c0 6bbd 9952 98bd f8a6 2abb
000001a0: 360f 42bd 7aee 0eba f199 62bd ca67 8c3d
000001b0: 0568 0c3d 6d9d 2ebd 05a6 1cbd 1e2b 673d
000001c0: 9a31 dab8 800a d6bc e38b 74bd 66dd 07bd
000001d0: 16f7 c9bc fa5c 163c 2855 3f3d 90ae 24b8
000001e0: 0e15 1d3d add9 a1bd 3559 1a3d 1966 803d
000001f0: e2f0 a03d b629 a33a e1d0 b5bb 9811 7d3d
00000200: bd6f 853b cbfc 803c f7d6 2abd 8139 91bc
00000210: d500 0abd 50ae b5bd efaa 6f3d ec9d 8a3d
00000220: f2af b93b 441c 0abd 81f8 b5bd 44b8 3f3d
00000230: f321 b33b f7c6 e03b 7186 3abd 6764 d3bc
00000240: 2091 aa3d fe0b a6bd a5b9 993d 8c6b afbd
00000250: 0a22 debc 8b36 f8bc 3347 5bbd cd4a b83c
00000260: a8f7 943d 43d0 ebbb 632f a8bd 41c7 86bd
00000270: 61f9 153d f667 a3bd da27 873c fd6a 61bd
00000280: 6f18 08bd bc18 303d 2f70 37bd 6995 073d
00000290: 5a5f c1bd fae8 8dbd 02e1 a0bd 608b 43bd
000002a0: b0be 413d 4955 02bc e326 323c 0f9e 9d3c
000002b0: 7e60 24bd 769d 0bbc 85e1 a53d a5d6 513d
000002c0: 3ad1 773d 5801 8abd 3d96 84bb 9dbf 20bd
000002d0: 8a4a 673b 1144 7c3d e6ce a03d 739e 0cbd
000002e0: 6e0c 2fbd 15f8 2b3d 8493 46bc 8edc b8bd
000002f0: a861 643d 3db0 323d ee90 8c3c ba92 8ebd
00000300: 94ce 49bd beec af3c 5fb1 39bd 4bbf 663d
00000310: 7bb8 febc e20e 98bb 5d85 16bc 50f9 5cbd
00000320: 4791 80bd 7442 f2bc 445c 633d 4410 98bd
00000330: 9812 ddbc 57a3 123d c0dd 6dbd 111b 89bd
00000340: fcd4 abbd ee79 02bd 2434 303d 0c5a 2f3d
00000350: c7dc 9e3d 664f 6b3c bbdb 17bd 8fcd 383d
00000360: 73fe 543c fc47 bebc a2c3 1bbd e005 0fbd
00000370: 1633 f2bc cc66 8dbd c482 a83b 9c77 9c3c
00000380: 13fd 8b3d 8087 033d 68f9 a2bd 255b 70bd
00000390: c103 a63a 6a00 8fbd 1d94 bbbd 8c0d 2abd
000003a0: 0e1e 743d 4882 c73d d029 b73d 80dd 78bd
000003b0: 6afc 24bd 62b5 bdbd 86e0 293d 3b14 58bd
000003c0: 7472 9bbd 8b09 d1bc 5697 c53c 263c 403d
000003d0: 9a84 afbd c7f9 b33d f066 b0bd 12b9 a0bd
000003e0: 25f8 4fbd e2f2 9abd 3ab0 eabb 2caa 7f3b
000003f0: 5ac2 6dbd 5b5a 1f3d 1857 babd 17c6 3fbc

user_tower.fc.6.bias f4 [64]
0.09712265 -0.079568624 0.018727828 -0.08340775 0.06879922 0.0061321068 -0.029825877 -0.0032723527
-0.055186782 0.09040661 -0.02419438 -0.052295372 0.024878306 0.08347844 0.089503855 -0.0043029655
0.0008088528 0.0072853765 -0.015275525 0.088414416 0.07694789 0.05041392 0.08213305 -0.084109046
-0.027645245 -0.0077695353 0.08746414 -0.05225923 -0.048950408 -0.077739276 -0.08446753 -0.050376985
-0.029305963 -0.0949216 0.05001359 -0.07715671 -0.060509462 0.0021948195 0.07961907 -0.04749231
0.08418827 0.05068462 -0.07396792 -0.078158386 0.08647957 -0.08698517 0.007061665 0.059627477
0.013970598 -0.052787974 -0.026323842 0.03650626 0.0013371207 0.046677515 -0.030510634 -0.0806391
0.031096837 0.023020979 0.0700352 -0.017323568 0.07840443 0.014798305 0.016517444 0.014479221
00000000: 3de8 c63d e0f4 a2bd 1a6b 993c afd1 aabd
00000010: 9be6 8c3d d7ef c83b 6655 f4bc f874 56bb
00000020: 890b 62bd 1a27 b93d 4b33 c6bc ac33 56bd
00000030: 97cd cb3c bff6 aa3d cc4d b73d e4ff 8cbb
00000040: 3109 543a 2bba ee3b 3246 7abc 9e12 b53d
00000050: db96 9d3d d47e 4e3d 5f35 a83d 5d41 acbd
00000060: 4878 e2bc 9697 febb 6620 b33d c60d 56bd
00000070: 3980 48bd c535 9fbd 50fd acbd 1958 4ebd
00000080: 0f13 f0bc 4166 c2bd 0ddb 4c3d 5604 9ebd
00000090: c5d8 77bd f6d6 0f3b 530f a33d 4c87 42bd
000000a0: e66a ac3d ad9a 4f3d 7e7c 97bd 8111 a0bd
000000b0: 331c b13d 4825 b2bd 8a65 e73b f13b 743d
000000c0: efe4 643c 3438 58bd 19a5 d7bc 9787 153d
000000d0: 5342 af3a ec30 3f3d 70f1 f9bc 1d26 a5bd
000000e0: cbbe fe3c 7e96 bc3c 9d6e 8f3d 28ea 8dbc
000000f0: 8092 a03d 9774 723c 974f 873c 413a 6d3c

item_tower.fc.0.weight f4 [256, 12]
0.17627722 -0.073583506 -0.03440498 -0.08349542 0.1362645 -0.2891341 0.073241256 -0.07242296
0.13383637 -0.17152342 0.27606577 0.2865601 -0.03514133 0.18175678 0.039503198 -0.24800049
0.029773597 0.1898689 0.019937435 -0.070281014 -0.14217207 -0.11417892 0.23471522 0.01618123
0.14223966 0.1786377 0.21405205 -0.12802015 0.0730419 -0.121443965 0.16747835 0.1209592
0.28487286 0.1878023 -0.25922492 0.22689043 -0.06358267 -0.162317 0.11768089 0.011577245
-0.19101267 0.013964553 0.19322939 -0.110804036 0.10322936 0.06511911 -0.052492432 0.23467866
-0.0022675348 -0.13372788 -0.08549729 -0.18970612 0.041154195 0.016815737 0.22728965 -0.08469125
0.047126353 0.2668262 0.13178547 -0.21293782 -0.070918776 -0.19082117 0.02718014 0.16209432
-0.022080619 -0.19374526 -0.14227512 0.1221457 -0.03734565 0.04862667 -0.16536513 -0.1429455
-0.16538268 0.23950809 0.27440104 0.22001697 0.09483582 0.13054965 -0.16598552 0.024083005
-0.1557517 0.19623563 0.035703767 -0.2614989 -0.25700778 -0.14746071 0.04372382 -0.2175093
0.23286231 0.023549803 -0.25137952 0.20713285 0.11623778 -0.26644337 -0.28676513 0.19848694
0.18235525 0.29102984 0.21971178 -0.045788337 0.21745251 0.14481996 -0.1987272 -0.0070537133
-0.23530793 -0.093665406 0.1971883 -0.09485525 0.14514112 -0.04465649 -0.02869664 -0.16899309
0.011977322 0.04611484 0.13358961 0.07268807 0.28251445 -0.16284025 0.011848835 0.12783766
-0.037957586 0.022036504 0.13150424 0.26136467 0.07735664 0.30045918 0.21554798 -0.07209971
0.30116284 -0.1251895 -0.1196924 -0.078981705 -0.03663348 0.07434965 0.0015757318 -0.17607406
-0.22990632 0.16815351 -0.16792306 0.116405174 -0.1956287 0.15591317 0.09851671 0.02370884
-0.15035641 -0.07443969 -0.026709195 -0.22694205 -0.09101638 0.057550497 -0.24988084 -0.1145351
0.113058776 -0.26055786 -0.07888128 -0.039650816 0.1415647 -0.25995588 0.07870582 -0.100470506
-0.110027425 -0.18217525 0.26540488 0.15543328 0.09949041 -0.23101197 -0.24049048 0.15685606
-0.1153951 0.132937 0.012591932 0.17388162 -0.037644878 -0.1361141 -0.2566439 -0.13715518
-0.11736363 -0.08132004 -0.24891253 0.1640277 -0.11065863 -0.08585273 -0.21170446 0.007316036
-0.12537545 0.09145406 0.2835644 -0.08639482 0.11908293 0.2698808 -0.24812718 -0.098293826
0.18965088 -0.069131434 0.13995442 0.20395717 -0.014335581 -0.036327302 -0.17153642 0.037302487
0.19004409 -0.025360174 -0.13674197 0.2643903 -0.043649882 0.3073821 -0.019375766 0.18518211
0.018048244 0.2064503 -0.0026534046 0.11459569 0.2533303 0.22473162 0.002807386 -0.05973132
0.22980316 0.14940871 -0.23348561 0.13538206 0.06914916 -0.21696407 -0.0006256296 0.079767354
0.14196476 0.26839843 -0.110770606 0.22233814 -0.17922832 -0.25134036 0.15241595 -0.17656839
0.19344848 0.09080229 0.18280031 -0.20727578 0.13860917 0.1711746 0.20620751 0.21400273
-0.011507919 0.315197 -0.09466316 0.22103083 0.22006747 0.16588081 0.23657203 0.075064726
-0.22737373 0.1840082 0.103206255 -0.017204331 0.1154447 0.21003051 0.11751563 0.03645962
00000000: 0482 343e f3b2 96bd 3cec 0cbd a6ff aabd
00000010: ec88 0b3e 6209 94be 83ff 953d 7d52 94bd
00000020: 670c 093e d6a3 2fbe 7e58 8d3e 01b8 923e
00000030: 5bf0 0fbd 731e 3a3e 1bce 213d d7f3 7dbe
00000040: c2e7 f33c fe6c 423e d553 a33c 7eef 8fbd
00000050: 8e95 11be a3d6 e9bd 3059 703e 808e 843c
00000060: 46a7 113e cdec 363e 7630 5b3e b717 03be
00000070: fe96 953d 9db7 f8bd 727f 2b3e 75b9 f73d
00000080: dbda 913e 3f4f 403e 21b9 84be f755 683e
00000090: a237 82bd 6d36 26be ae02 f13d 7cae 3d3c
000000a0: d398 43be 95cb 643c eddd 453e 3aed e2bd
000000b0: ea69 d33d 2b5d 853d 4e02 57bd 9a4f 703e
000000c0: ec9a 14bb f6ef 08be 3419 afbd 5242 42be
000000d0: 4d91 283d 28c1 893c 9ebe 683e 9b72 adbd
000000e0: 9007 413d 729d 883e c5f2 063e 5f0c 5abe
000000f0: dd3d 91bd a066 43be e3a8 de3c 0efc 253e
00000100: 6ae2 b4bc 2865 46be 92b0 11be 8627 fa3d
00000110: c1f7 18bd c22c 473d 7a55 29be 4e60 12be
00000120: 145a 29be 9c41 753e 4b7e 8c3e 214c 613e
00000130: 4839 c23d cfae 053e 1cf8 29be b949 c53c
00000140: 607d 1fbe fef1 483e 1d3e 123d 2fe3 85be
00000150: 8696 83be f1ff 16be c017 333d c2ba 5ebe
00000160: 7573 6e3e 84eb c03c d1b4 80be a21a 543e
00000170: 130e ee3d 446b 88be e1d2 92be 2940 4b3e
00000180: 56bb 3a3e dd01 953e 20fc 603e 8d8c 3bbd
00000190: dfab 5e3e af4b 143e 257f 4bbe d622 e7bb
000001a0: 90f4 70be a6d3 bfbd bbeb 493e 7843 c2bd
000001b0: e09f 143e b9e9 36bd 3715 ebbc 860c 2dbe
000001c0: 883c 443c eae2 3c3d b7cb 083e 7cdd 943d
000001d0: bca5 903e 98bf 26be 9e21 423c e0e7 023e
000001e0: 6a79 1bbd e685 b43c 0ca9 063e 97d1 853e
000001f0: 286d 9e3d c9d5 993e 9cb8 5c3e 03a9 93bd
00000200: 0432 9a3e ad31 00be 4a21 f5bd 29c1 a1bd
00000210: fd0c 16bd a144 983d c988 ce3a c24c 34be
00000220: 906c 6bbe 6f30 2c3e 06f4 2bbe d665 ee3d
00000230: e452 48be b4a7 1f3e 21c3 c93d 0b39 c23c
00000240: 08f7 19be d673 98bd 3ecd dabc 7f63 68be
00000250: cc66 babd 12ba 6b3d c3e0 7fbe 6191 eabd
00000260: 5c8b e73d d767 85be 828c a1bd e568 22bd
00000270: 56f6 103e f018 85be 8430 a13d 7bc3 cdbd
00000280: 0f56 e1bd 268c 3abe 26e3 873e e729 1f3e
00000290: a1c1 cb3d 678e 6cbe 2343 76be e09e 203e
000002a0: 4454 ecbd a320 083e 644e 4e3c 060e 323e
000002b0: 8431 1abd 7f61 0bbe d466 83be 6872 0cbe
000002c0: 585c f0bd 1f8b a6bd ede2 7ebe e1f6 273e
000002d0: fea0 e2bd 8ed3 afbd 0ec9 58be 5cbb ef3b
000002e0: 6c62 00be 444c bb3d 5a2f 913e c4ef b0bd
000002f0: c0e1 f33d d12d 8a3e 0d15 7ebe 464e c9bd
00000300: d733 423e c894 8dbd 3650 0f3e 26da 503e
00000310: c9df 6abc f0cb 14bd 3ea7 2fbe 7eca 183d
00000320: eb9a 423e 24c0 cfbc 1606 0cbe 2a5e 873e
00000330: 38ca 32bd 3061 9d3e edb9 9ebc 61a0 3d3e
00000340: e9d9 933c b567 533e bee4 2dbb 25b1 ea3d
00000350: 82b4 813e 0c20 663e 1ffc 373b d4a8 74bd
00000360: 8551 6b3e 99fe 183e da16 6fbe 98a1 0a3e
00000370: 139e 8d3d d42b 5ebe 4b01 24ba 115d a33d
00000380: 365f 113e 856b 893e b3db e2bd 9cac 633e
00000390: a187 37be afaf 80be ed12 1c3e 58ce 34be
000003a0: 5c17 463e 8df6 b93d 0130 3b3e 1a40 54be
000003b0: 90ef 0d3e 6548 2f3e 1028 533e 8823 5b3e
000003c0: b68b 3cbc 8061 a13e c2de c1bd e855 623e
000003d0: 5e59 613e a9dc 293e f03f 723e 89bb 993d
000003e0: a9d4 68be a56c 3c3e cd5d d33d 19f0 8cbc
000003f0: 456e ec3d 3d12 573e 09ac f03d af56 153d

item_tower.fc.0.bias f4 [256]
0.123735175 -0.067357935 0.27234486 0.22747847 0.119755074 0.1813885 -0.07980646 0.08493209
-0.24630901 0.15970953 0.19099107 -0.15348841 0.0014711195 -0.23276098 -0.015695699 0.005895906
0.14949831 0.020059353 0.21274371 -0.21395384 -0.24967201 0.0063505443 -0.08280199 0.14184153
0.20076013 0.22031778 0.16244233 -0.20673545 0.045907192 0.02244529 -0.136861 0.19651078
0.20924512 0.1435649 -0.09679292 0.20511545 -0.19525017 -0.033246957 0.0016883367 -0.07486822
0.01973794 -0.23369767 -0.007224467 -0.110175796 -0.17183894 0.25974864 0.12760657 -0.124790974
0.2298342 -0.05221494 -0.09523729 0.2053221 0.0180593 -0.17580627 -0.116752975 -0.14359629
0.09190465 0.2584489 -0.06459023 0.10419579 -0.08474296 0.19255094 -0.2854517 0.17075552
0.22824422 -0.02608287 0.16519797 -0.25110534 -0.15567441 0.07977519 -0.15111364 0.15789792
-0.069237836 0.2443264 0.15275957 0.05093484 0.012145926 0.098566614 -0.18925388 0.0030522477
0.26793325 0.116728224 0.06210648 -0.00838823 -0.11464773 0.14529306 -0.009864437 -0.2070288
-0.11585019 0.17598934 0.21054047 0.26124528 -0.12923506 -0.048324488 0.106076255 -0.004766284
0.28180495 -0.18061168 0.02543395 0.0016387927 0.14973041 -0.070194684 -0.19823606 0.21560909
0.15723366 -0.19282626 -0.17315975 -0.0701189 -0.17818353 0.2694848 -0.14620887 0.09367923
-0.15921627 -0.2367134 0.1680832 -0.009211619 -0.045857474 -0.112694666 -0.2024003 0.28117278
-0.11764226 -0.06831331 -0.19157858 -0.2388448 -0.11925216 0.18597001 0.20090014 -0.22397245
0.030193778 -0.1999989 -0.05536058 0.26443955 -0.17697579 0.20583077 0.07498166 -0.10536201
0.034333047 -0.15216589 -0.19164704 -0.18466401 -0.24277419 -0.16775341 0.17172834 0.07638706
0.0061667883 -0.1559432 0.25030214 0.15732712 0.026900241 0.052779768 0.26947847 -0.20762411
0.23942284 0.050340284 -0.068425275 -0.20911868 0.16528165 0.10763916 0.023300808 0.10392217
-0.052648854 -0.037392773 0.12187836 0.1457379 0.2335528 -0.23698725 0.13636376 -0.13876003
-0.0099041 -0.10748681 0.21626553 0.11063093 -0.1491665 -0.16185252 0.08279677 0.080479056
0.22032522 0.08458481 0.22929052 0.07272084 -0.20716316 -0.12152722 -0.20413798 -0.12619953
0.25117722 -0.14271311 -0.16669711 -0.021417893 0.12591052 -0.22027738 0.048036825 0.22964543
0.21640293 0.26858371 0.2484253 -0.15964715 -0.021470904 0.051172163 -0.035153005 -0.025565887
-0.28220555 0.21955568 -0.2363473 -0.09943989 0.006885026 -0.022049574 0.18791956 0.25433356
-0.23499271 0.2615487 0.11537104 -0.017759454 0.24527887 0.12129314 -0.21471883 0.14804085
-0.07278583 -0.12733567 -0.2640929 0.0091578895 0.0020417417 -0.23660186 0.033171196 -0.09001123
0.13925198 0.28177464 -0.27424794 -0.08656916 0.22447897 -0.24530031 0.056570876 0.13165544
0.27424175 -0.051275544 0.04769229 0.07037855 0.15973625 -0.025716044 0.13491116 -0.18818119
-0.17578545 0.1910517 0.073722176 0.035169985 0.21117084 0.12727714 0.21049672 -0.24699576
0.10717704 -0.12538336 0.11814347 0.22721748 -0.049922615 -0.09903669 -0.02076354 -0.060652595
00000000: de68 fd3d f5f2 89bd c970 8b3e 1ef0 683e
00000010: 2642 f53d e8bd 393e 9271 a3bd e0f0 ad3d
00000020: 6e38 7cbe e58a 233e 2a93 433e 112c 1dbe
00000030: 94d2 c03a e558 6ebe 4494 80bc 7232 c13b
00000040: 1616 193e 8353 a43c 7dd9 593e b716 5bbe
00000050: 05aa 7fbe 3a18 d03b 1794 a9bd e83e 113e
00000060: 1094 4d3e fc9a 613e 4857 263e 75b2 53be
00000070: 2e09 3c3d 2fdf b73c 4a25 0cbe 1f3a 493e
00000080: 5a44 563e ad02 133e 5e3b c6bd c909 523e
00000090: a9ef 47be f62d 08bd 2e4b dd3a 8254 99bd
000000a0: 76b1 a13c 714e 6fbe 39bb ecbb d9a3 e1bd
000000b0: 8cf6 2fbe c6fd 843e 4cab 023e 6992 ffbd
000000c0: a859 6b3e 55df 55bd c50b c3bd f53f 523e
000000d0: 19f1 933c 8f06 34be 2f1c efbd e80a 13be
000000e0: 8138 bc3d 6a53 843e e247 84bd 9a64 d53d
000000f0: b88d adbd 132c 453e ba26 92be 89da 2e3e
00000100: dab8 693e beab d5bc a829 293e e190 80be
00000110: 1d69 1fbe 2d61 a33d 89bd 1abe feaf 213e
00000120: 91cc 8dbd b330 7a3e 016d 1c3e 0da1 503d
00000130: b5ff 463c 4bdd c93d c5cb 41be 3808 483b
00000140: 8c2e 893e 350f ef3d 5d63 7e3d c96e 09bc
00000150: 6ecc eabd b4c7 143e 739e 21bc 5cff 53be
00000160: dd42 edbd 8d36 343e ec97 573e f1c1 853e
00000170: 3256 04be e6ef 45bd 823e d93d 7d2e 9cbb
00000180: bd48 903e 45f2 38be dc5a d03c c2cc d63a
00000190: ee52 193e 3bc2 8fbd 65fe 4abe a1c8 5c3e
000001a0: dc01 213e 3f74 45be ca50 31be 7f9a 8fbd
000001b0: be75 36be e9f9 893e c7b7 15be e5da bf3d
000001c0: 9709 23be ff64 72be 011e 2c3e 55ec 16bc
000001d0: 0cd5 3bbd 76cc e6bd 0642 4fbe e1f5 8f3e
000001e0: 6dee f0bd d9e7 8bbd 2d2d 44be bb93 74be
000001f0: 7a3a f4bd ec6e 3e3e c4b8 4d3e 0959 65be
00000200: f158 f73c 83cc 4cbe c7c1 62bd 9f64 873e
00000210: 2439 35be 4dc5 523e fc8f 993d 0ac8 d7bd
00000220: cfa0 0c3d 60d1 1bbe 1f3f 44be 9018 3dbe
00000230: cc99 78be 8dc7 2bbe 8ed9 2f3e d270 9c3d
00000240: c512 ca3b 93af 1fbe 9a27 803e 5c1a 213e
00000250: e55d dc3c 992f 583d 15f9 893e 6a9b 54be
00000260: 432b 753e 9d31 4e3d 8d22 8cbd 3523 56be
00000270: 983f 293e eb71 dc3d 56e1 be3c 26d5 d43d
00000280: 53a6 57bd 2a29 19bd 5d9b f93d 513c 153e
00000290: 7728 6f3e c9ac 72be f1a2 0b3e 1c17 0ebe
000002a0: ce44 22bc 0b22 dcbd b674 5d3e 7892 e23d
000002b0: 1abf 18be abbc 25be 5a91 a93d 34d2 a43d
000002c0: ef9c 613e cd3a ad3d 22cb 6a3e aaee 943d
000002d0: 9422 54be 43e3 f8bd 8c09 51be 733a 01be
000002e0: 4d9a 803e 6323 12be a6b2 2abe 9474 afbc
000002f0: b0ee 003e 6590 61be 43c2 443d 2c28 6b3e
00000300: bb98 5d3e ce83 893e 3463 7e3e 8b7a 23be
00000310: c0e3 afbc e799 513d 99fc 0fbd 8d6f d1bc
00000320: 3f7d 90be 34d3 603e 0705 72be 24a7 cbbd
00000330: c99b e13b 4fa1 b4bc fc6d 403e 0238 823e
00000340: eea1 70be b6e9 853e a747 ec3d 467c 91bc
00000350: 622a 7b3e 8a68 f83d 41df 5bbe 0598 173e
00000360: bd10 95bd 4864 02be 2f37 87be f90a 163c
00000370: bece 053b c247 72be 85de 073d cf57 b8bd
00000380: 1298 0e3e c444 903e 3a6a 8cbe 2c4b b1bd
00000390: d1dd 653e 0130 7bbe ddb6 673d afd0 063e
000003a0: 6a69 8c3e 4e06 52bd fe58 433d a122 903d
000003b0: e691 233e 74aa d2bc 2726 0a3e 92b2 40be
000003c0: 1a01 34be 0fa3 433e a7fb 963d 670e 103d
000003d0: 2b3d 583e f054 023e 748c 573e 75ec 7cbe
000003e0: a37f db3d 7f64 00be 34f5 f13d b3ab 683e
000003f0: a87b 4cbd c0d3 cabd 4d18 aabc db6e 78bd

item_tower.fc.3.weight f4 [128, 256]
0.004208294 -0.022574687 -0.031397045 0.05033805 -0.045405272 -0.017600043 0.07014083 0.02832683
-0.008802699 -0.024229974 -0.006188787 0.047823135 -0.027951935 0.018766979 0.021355184 0.062411115
-0.028506598 0.040155698 0.055598035 -0.04540575 0.060151625 0.023783173 -0.054264106 0.004993113
-0.001071668 -0.047156304 0.062469024 -0.028056417 0.020458112 0.015936702 0.068244874 -0.031203488
0.03592012 -0.03418957 0.0832328 -0.00639525 -0.056842662 0.015349694 0.0069102445 -0.032413255
0.029790143 0.040413074 0.0069474974 -0.0477212 0.05994695 -0.017970985 -0.01284873 0.04829192
-0.044069067 -0.047019217 0.029949132 0.07299852 0.022996733 0.058512576 -0.047935683 0.011679564
0.00088883244 -0.018490637 0.0426239 0.0387326 -0.023691501 -0.009646436 0.033995263 0.032354243
-0.03380024 -0.034528263 0.03303036 0.019167952 -0.07168049 -0.041141625 0.03312447 -0.056504473
-0.04733408 -0.045516618 -0.036915753 -0.05495237 0.0215111 -0.0026210947 0.0534472 0.025585352
-0.026942741 0.06301101 -0.012920003 0.0781912 0.054639865 0.0033283113 0.038354505 -0.057720013
-0.010582829 0.0026111563 0.0093409745 -0.030246641 0.004574047 0.032660663 -0.054873973 0.06780486
-0.024948426 -0.0517537 0.036323965 -0.022045631 -0.026802773 -0.021626912 -0.05913025 -0.059409592
-0.07989746 -0.006908271 -0.03033103 -0.06568685 -0.01616231 -0.031038366 -0.0031706907 0.036633912
-0.022615109 0.034955747 0.040006954 -0.006240155 0.00036610587 -0.017885322 -0.004296291 -0.006765309
-0.030657465 0.021444868 -0.044144977 -0.064158626 0.059501525 -0.007504689 0.0055140704 0.007823817
0.03379278 -0.068071246 0.027053505 -0.0026243823 0.069507524 0.020584239 0.05525027 -0.025041662
0.047408693 0.023824694 -0.025034837 0.0004400935 0.054538187 0.04416355 -0.029170496 -0.05328164
-0.05194776 -0.06451046 0.033362232 -0.021141011 -0.0295201 -0.049179245 0.052204244 0.020272264
-0.02243699 0.023267299 0.07139261 0.04208789 -0.028689817 0.038953986 -0.027245045 -0.062485036
-0.048234627 -0.013276614 0.013961584 -0.061525825 0.032781776 -0.0068110125 0.0663566 -0.042885542
0.0059619416 0.025731493 0.049086858 0.032483913 0.030602075 0.014244765 -0.0040424466 -0.034141216
-0.07415467 0.048400093 -0.034781087 -0.0085605085 -0.046375185 -0.032756675 -0.045188148 -0.017409902
-0.014988285 0.057900835 0.07004532 -0.026063604 0.019443383 -0.06879395 0.062727444 -0.06588862
-0.038305618 0.0387101 -0.021140277 -0.042046268 0.0042932117 0.05270672 0.047330037 -0.020486204
-0.020435158 -0.04009404 -0.012304921 0.06896025 -0.05418627 -0.030118614 0.042866305 -0.021572744
0.062487986 0.046039466 0.010071129 0.021790871 -0.037754547 0.039291244 0.08348591 0.01411627
-0.010549165 0.060590424 0.017132446 0.022651391 0.025807768 0.011379935 -0.039745398 -0.04698551
0.01969651 -0.03760015 -0.06534834 -0.009179932 0.061482385 0.016098436 -0.028528955 -0.022772582
0.032832902 -0.03913995 -0.029105548 0.031755034 0.031588797 0.050287995 0.07380184 0.024127897
0.019939777 -0.033747364 -0.043535545 0.06346633 0.049079366 0.037833486 0.016960047 -0.022446249
0.016024794 -0.0074036666 0.04557806 -0.0352623 -0.015388685 0.021838797 -0.040312126 -0.019557992
00000000: bbe5 893b 8dee b8bc 309a 00bd 452f 4e3d
00000010: e1fa 39bd f72d 90bc ffa5 8f3d ab0d e83c
00000020: 3239 10bc f07d c6bc 4fcb cabb 31e2 433d
00000030: 75fb e4bc 35bd 993c 11f1 ae3c cca2 7f3d
00000040: ab86 e9bc 4d7a 243d c4ba 633d 61fb 39bd
00000050: 8d61 763d eed4 c23c 0a44 5ebd 459d a33b
00000060: 3677 8cba f826 41bd 85df 7f3d 92d6 e5bc
00000070: c597 a73c b08d 823c f8c3 8b3d 759e ffbc
00000080: fa20 133d 5d0a 0cbd f575 aa3d 3f8f d1bb
00000090: dad3 68bd 487d 7b3c 556f e23b c3c3 04bd
000000a0: 750a f43c 2e88 253d d5a7 e33b 4e77 43bd
000000b0: ef8a 753d e337 93bc 7b83 52bc c0cd 453d
000000c0: c481 34bd 3997 40bd e257 f53c 4080 953d
000000d0: a563 bc3c e2aa 6f3d 3558 44bd a45b 3f3c
000000e0: 8900 693a ad79 97bc 6696 2e3d 13a6 1e3d
000000f0: ae14 c2bc 160c 1ebc 9e3e 0b3d e285 043d
00000100: 1f72 0abd 826d 0dbd d84a 073d 1c06 9d3c
00000110: 39cd 92bd 1f84 28bd 86ad 073d 3c71 67bd
00000120: 61e1 41bd a26f 3abd f934 17bd bc15 61bd
00000130: 0c38 b03c acc6 2bbb 74eb 5a3d 5f98 d13c
00000140: 06b7 dcbc eb0b 813d 6cae 53bc b522 a03d
00000150: 0dce 5f3d cc1f 5a3b 9d19 1d3d d26b 6cbd
00000160: 9a63 2dbc ef1f 2b3b e30a 193c cec7 f7bc
00000170: e3e1 953b 30c7 053d 88c3 60bd 46dd 8a3d
00000180: a460 ccbc b0fb 53bd 70c8 143d 0a99 b4bc
00000190: 7d91 dbbc ec2a b1bc 9032 72bd 7957 73bd
000001a0: 48a1 a3bd c75e e2bb c878 f8bc d486 86bd
000001b0: d266 84bc 2c44 febc 5dcb 4fbb 710d 163d
000001c0: 5243 b9bc c22d 0f3d 55de 233d 377a ccbb
000001d0: e6f1 bf39 3d84 92bc e7c7 8cbb 86af ddbb
000001e0: 5d25 fbbc 26ad af3c 5dd1 34bd 9965 83bd
000001f0: dfb7 733d e5e9 f5bb 60af b43b 782f 003c
00000200: 4c6a 0a3d f068 8bbd 509f dd3c d4fd 2bbb
00000210: f659 8e3d 47a0 a83c 1b4e 623d 2c24 cdbc
00000220: 9e2f 423d 012c c33c dc15 cdbc 5abc e639
00000230: 6f63 5f3d d7e4 343d f7f6 eebc d93d 5abd
00000240: 2dc7 54bd 0f1e 84bd d6a6 083d ea2f adbc
00000250: 23d4 f1bc 2d70 49bd 1ed4 553d 0512 a63c
00000260: c7cd b7bc 109b be3c 4a36 923d 5a64 2c3d
00000270: e806 ebbc 378e 1f3d 0031 dfbc 4ff0 7fbd
00000280: ac91 45bd 2886 59bc 21bf 643c 8102 7cbd
00000290: 2f46 063d ea2e dfbb f8e5 873d c0a8 2fbd
000002a0: 645c c33b daca d23c 4d0f 493d da0d 053d
000002b0: 34b1 fa3c e062 693c 8076 84bb a9d7 0bbd
000002c0: 67de 97bd 2d3f 463d 9d76 0ebd 6041 0cbc
000002d0: e8f3 3dbd dd2b 06bd 3517 39bd 369f 8ebc
000002e0: 6c91 75bc 6d29 6d3d ec73 8f3d 5783 d5bc
000002f0: bb47 9f3c d8e3 8cbd 3f77 803d 9df0 86bd
00000300: 5ae6 1cbd 7b8e 1e3d 602e adbc b538 2cbd
00000310: 12ae 8c3b 00e3 573d 24dd 413d afd2 a7bc
00000320: a267 a7bc a639 24bd 949a 49bc 083b 8d3d
00000330: 6cf2 5dbd 50bb f6bc 9494 2f3d 53b9 b0bc
00000340: 67f3 7f3d e193 3c3d 6001 253c c582 b23c
00000350: 83a4 1abd dbef 203d a9fa aa3d ed47 673c
00000360: 68d6 2cbc aa2d 783d 5859 8c3c 698f b93c
00000370: d06a d33c e872 3a3c 12cc 22bd e173 40bd
00000380: 935a a13c 9d02 1abd 5ad5 85bd 6d67 16bc
00000390: f4d4 7b3d dee0 833c 8eb5 e9bc 918d babc
000003a0: cb7b 063d 3651 20bd c26e eebc 9111 023d
000003b0: 4163 013d c9fa 4d3d 6b25 973d dea7 c53c
000003c0: be58 a33c ad3a 0abd 5452 32bd a3fa 813d
000003d0: 7207 493d 49f7 1a3d ccef 8a3c 32e1 b7bc
000003e0: 6e46 833c 759a f2bb 0fb0 3a3d 346f 10bd
000003f0: d320 7cbc 47e7 b23c 541e 25bd 1538 a0bc
