models/dumps/SparseTwoTower_v2.pth (torch, 376928 bytes, 14 tensors)

user_tower.fc.0.weight f4 [256, 11]
00000000: 86ff 4a3e c47e 163e 2c58 17ba 4191 87be
00000010: b13d 1dbc 3e8a 083e 7071 edbd dfa7 07bd
00000020: c7e0 3abe b6ff 3abe 6942 0dbe 22aa 02bd
00000030: fa9a 33bc 3735 913e fce8 963e 59fe 563e
00000040: d476 f53d 7dc8 073e 35c9 0c3c 4f30 913e
00000050: 45cd 3c3e af9d 953e 50c2 213e f649 033e
00000060: d946 55be d5e7 7cbc 68e6 4dbe 9f17 63be
00000070: 4c89 0d3e 7938 6ebe 7953 15be 0153 063e
00000080: 0bcc 1ebb 51ea 7f3e f208 a73c ffd4 1f3d
00000090: 7544 dabc f0f5 1e3e faa1 b7bc 181e ca3d
000000a0: 39dc c6bd cfc3 0b3e de07 13be 2a6b 803e
000000b0: 24fa 1fbd 2687 823e 2b00 c6bd 5089 583e
000000c0: cb8f 56be f12f 033c 213c a93d 504f 8b3e
000000d0: ca8c b63d bb8f 8cbd 9574 15be c338 07be
000000e0: 76ac acbd 3459 523e ee6f 6ebe ebca e13d
000000f0: 4c59 47be 0660 ee3c 15c2 46be ef82 b43d
00000100: caf2 53bd 1865 1fbe ab03 cd3d 7307 7abe
00000110: fc66 363d b6e9 b93c 7dc1 4dbe 6f28 87be
00000120: c468 7d3e 2354 82be e86d ddbc dc78 533d
00000130: 0561 1dbe 4f38 2abe 2c10 56bd c173 03be
00000140: e51b 203e a74f 103e 82c3 13bd 4341 0dbe
00000150: d5c0 81be 007e 723e 6936 913e d738 3d3d
00000160: 6226 05be 673a b23d 6818 81be 63a5 933c
00000170: 7ea1 a1bd b5da 7abe 2570 31bb 1cec 5f3e
00000180: 9235 87be a216 83be e4f6 cbbd 9664 c53d
00000190: e3a1 cc3b 0815 bb3d 45f2 2dbe fa3e 823e
000001a0: 63c3 923e f30a 11bc cfe1 48be 2df7 243e
000001b0: 8b36 25be e9f0 e53d 5e41 073e 810d 60be
000001c0: 3670 80bc c843 553d 90b0 0f3e 7a33 cb3d
000001d0: 7668 043e d5f7 70be d4c1 8ebd c091 86be
000001e0: fcfd 603e 10ed 883e 8443 47be e2be 10bd
000001f0: cc3a 7cbe e568 5fbe d9d6 333e c1a5 cc3d
00000200: f5a6 49be 9443 3abb dfa7 bc3c c0b7 843e
00000210: 287a 33bb f332 ad39 acc5 6bbd 0147 4abe
00000220: 5fa2 923d a258 333b dc69 433e 87be e2bd
00000230: 36ae fabd 5229 e3bd e5d0 e63d fbac 7f3e
00000240: d175 65bd 8cb1 0f3e 93c7 f5bd 5064 8d3e
00000250: 53bc 963e bfa0 7bbe 04ab 6e3d e26f 573e
00000260: f37a 863e 1b0b 38be 8540 22bc 0690 08be
00000270: 67a4 283e ba01 3cbe e696 eabd ab43 1dbb
00000280: be64 833e 62ec 193b 1978 7c3d 9ab8 5fbd
00000290: 1ee4 1f3d ab14 c9bd 0480 99bd e8fd 59be
000002a0: 3d67 783e e1c2 0f3e 27da 393e 4f1e 693d
000002b0: 43bc 0bbd 49d6 05be d698 733c 1c05 c03d
000002c0: 3f3f 53be 520f 533e c914 853e 2569 843e
000002d0: c840 18bc 68e2 3bbe 2cd0 5dbe c526 293e
000002e0: f308 9b3e f5e9 193e 409b 80bc be94 87be
000002f0: e2aa 0ebe b0fd 47bd c302 003e cd52 753e
00000300: 2174 b23d 026c 55be 85b7 d8bd 7006 ddbd
00000310: 3e81 8ebd 881e 813e 342a 77be 354b edbd
00000320: 8753 873e aed9 ff3d 2eed 11be f293 67be
00000330: 8443 d53d 3b83 e5bd 049d 04bd dc8f 433e
00000340: 61b4 31bc 4acc 5abe f9f0 8e3e a255 09bd
00000350: d161 2bbe 482b 823d f0fc 033c eedb c7bb
00000360: 7fa9 0ebe 3b46 643e 47f5 a7bd 55b6 5bbe
00000370: c775 1f3e 4e82 96bd d506 72bd 480b 25be
00000380: ecb8 ad3c 9378 033e b820 093c e83f e5bd
00000390: 28ea 3ebe 419e 4fbe ac74 823e a480 45be
000003a0: 780d 483e ba67 3a3e 3e18 7a3e 7f66 883e
000003b0: 483c 963e 1e5c 15bd 6af7 643e 212b 963e
000003c0: fd5c 2e3d c857 e13c d2e1 3c3e 0f55 553e
000003d0: 8b37 5c3e 40e3 ddbd 84eb fd3c f874 2b3e
000003e0: bdd1 43be b1b1 3bbc d25e c63d ca91 68bd
000003f0: 1e15 92be 66e2 673d 9420 8c3e 2670 83be
0.19824037 0.14696795 -0.00057733315 -0.26478007 -0.009597228 0.13333985 -0.11593902 -0.03311908
-0.18249808 -0.18261608 -0.13794865 -0.031900533 -0.010962242 0.28360912 0.29474628 0.20995463
0.11985555 0.13260074 0.008592893 0.2835717 0.18437679 0.29221866 0.1579678 0.12821183
-0.20827807 -0.015436132 -0.20107424 -0.2217698 0.13821906 -0.2326373 -0.14582624 0.13117601
-0.0024230506 0.24991728 0.020390008 0.03902149 -0.026643971 0.15523505 -0.022416104 0.09869021
-0.09709973 0.13648914 -0.1435847 0.2508176 -0.039056912 0.25493735 -0.09668001 0.2114613
-0.2095329 0.008007036 0.08263422 0.27208948 0.08913572 -0.06863352 -0.14595254 -0.13205247
-0.08431332 0.20541841 -0.23284885 0.11025032 -0.19467658 0.029098522 -0.19409974 0.08814036
-0.051745214 -0.15565908 0.10010465 -0.24416904 0.044531807 0.02269445 -0.20093341 -0.26398036
0.24746996 -0.25454816 -0.027029946 0.051628932 -0.15369041 -0.16623043 -0.052261516 -0.12837125
0.15635641 0.14092885 -0.036075123 -0.13794427 -0.25342432 0.23680878 0.28361824 0.046196785
-0.13002923 0.087025456 -0.25213933 0.018023198 -0.0789213 -0.24497493 -0.00270749 0.21867412
-0.26408058 -0.25603205 -0.099592 0.09638326 0.0062448843 0.09134871 -0.1698695 0.25438672
0.28664693 -0.008852708 -0.19617389 0.16109915 -0.16134088 0.112275906 0.1320853 -0.21880151
-0.015678506 0.052066594 0.14032197 0.09921928 0.12930474 -0.2353204 -0.069705635 -0.26283073
0.21971887 0.26743364 -0.19459349 -0.03533829 -0.24631804 -0.21817358 0.17562427 0.099925525
-0.19692595 -0.0028421627 0.023029266 0.2592144 -0.0027386043 0.00033035091 -0.05756156 -0.19753648
0.07159876 0.0027366062 0.19083351 -0.110714965 -0.12240259 -0.110918656 0.11270312 0.2496833
-0.05602056 0.14032573 -0.120009564 0.27615595 0.29440555 -0.24573039 0.058268562 0.21038774
0.26265678 -0.17972986 -0.009903078 -0.1333619 0.16468965 -0.18360034 -0.11454563 -0.0023996632
0.25662798 0.0023486842 0.06163797 -0.05461941 0.03903591 -0.09818395 -0.0749512 -0.21288264
0.24258132 0.14039184 0.18149625 0.05691367 -0.034115087 -0.13070025 0.014867982 0.093759745
-0.20629595 0.20611313 0.2599242 0.2586147 -0.009292789 -0.18348086 -0.21661443 0.16518696
0.30280265 0.15030654 -0.015699029 -0.2648067 -0.13932374 -0.04882592 0.12501054 0.23957367
0.08713556 -0.20841983 -0.105818786 -0.107922435 -0.06958245 0.25218606 -0.24137193 -0.1158661
0.26430914 0.12492691 -0.14250633 -0.2261503 0.10413268 -0.11206671 -0.032376304 0.19097847
-0.010846228 -0.21366993 0.27918223 -0.03352893 -0.16736533 0.063559115 0.0080559105 -0.0060992157
-0.13931845 0.22292416 -0.0820108 -0.21456273 0.15572272 -0.073490724 -0.059088547 -0.16117585
0.021206342 0.12838964 0.008369617 -0.1119383 -0.18644011 -0.20275213 0.2547964 -0.19287354
0.19536388 0.18203631 0.2442331 0.26640698 0.29342866 -0.036464803 0.22360006 0.2932978
0.04256915 0.027507678 0.18445519 0.20833229 0.21505563 -0.1083436 0.030996092 0.16743839
-0.19122978 -0.011455939 0.09686054 -0.05677966 -0.28531736 0.056612395 0.27368605 -0.256715

user_tower.fc.0.bias f4 [256]
00000000: 3f23 18be a828 d0bd c476 8dbd fe26 92be
00000010: 696e 8d3e 8dfb 86be bc7f 963e b014 4abe
00000020: d6eb 07be 6942 533e 989f 393e 8ec9 eebc
00000030: a18f 89be 0a9c 81be 58d8 76be 86f3 14be
00000040: acae 843e 2cdb 38be c19d 7dbd c26e 713e
00000050: 2d6c a3bd 0885 733e 9d7f 9d3d f010 29bd
00000060: 9cd3 16be ebbd 913d 5610 123e f558 903d
00000070: 4504 5bbe 8f95 6b3d 9080 38be 55f0 7c3e
00000080: 52fc 6d3e 0b09 883e f9e4 94be c72d b5bc
00000090: 82cc 353e e147 1cbe aa33 913e dc9d 433e
000000a0: 7c8d 743d 2913 c53d 52dc 45bd 3a73 2cbc
000000b0: b9c2 8a3d dee3 b93d 2e36 293c 42e3 483d
000000c0: bf62 86be 20c0 c3bb 2265 153e 8dc4 543e
000000d0: 57ae 9b3e 0bd9 0b3d 9d9b e2bd 58f0 63be
000000e0: f8cd 2cbe 880a 52be ab1a babd 00b8 3cbe
000000f0: e373 2e3d aa5c 953e 7d59 f63d 530f 10be
00000100: 4375 25be 3042 723e bce2 fabd 6319 783d
00000110: 1518 633e 4f51 593e f135 5bbd a711 05be
00000120: f54d 0ebc c833 933e c0fc e43d f78b e23d
00000130: e2a8 29bd 8822 5fbe b80d 42be e001 f0bd
00000140: 9900 523e 2862 a03e a8a2 47be b67f 21bd
00000150: cd2a 69be 2ed2 3ebd 75d3 42be aca1 41be
00000160: 324e 8abd 13b0 833d cec6 373d c8c2 37bd
00000170: 96f8 b53d b1eb 873e d586 4ebe 372b 853d
00000180: 8306 88be 21cd 933e f89e 86bc a297 a63d
00000190: a755 5cbd 6344 86be 5786 973e bc5a e4ba
000001a0: 09fd a7bd 1cce 893e 4e92 803e ca9c eb3d
000001b0: f0e9 6fbe 41e3 6a3d 145a 833d ea26 2f3e
000001c0: b853 8a3e 792f 753e b792 933d 28ed 77be
000001d0: 365e 89be ebcd 46bc eda7 663d 9abe 703d
000001e0: d77c 0fbe a8c3 27be 5122 a83d 6958 b6bd
000001f0: b6db 043d 632c 21be fe7c a3bc 8e51 8dbd
00000200: 9d8e 823e 7cea 82bb 9099 5d3e 3d90 d0bc
00000210: 6be6 893d 2ce1 413e e35c 803e 7b49 4f3c
00000220: 3ebb 18be 314c 49be 4fbd 3abd 8097 81be
00000230: c3b7 c3bd a062 583e 96db 24be 8723 4bbe
00000240: 5c36 4cbe e7f1 b9bd b75e f63d e741 6d3d
00000250: 4636 7b3e e22b 23be 86b1 883e a838 dcbd
00000260: 103c 433d 4a87 9c3d dd05 953e d42a 2b3e
00000270: f124 183e c513 63bd 74a0 a8bd 1167 46be
00000280: f066 2abe 0eca 133d 8b73 a03d f280 663d
00000290: abf5 efbd f30f 7abe 6e3b 90be ad0b 1fbe
000002a0: 5569 f1bd aa9d c43d 7a5b acbd 9d7c e13d
000002b0: a124 213c 5f4c 073d eb64 843e d4c1 b33d
000002c0: 7a23 53be 1314 40bc 7940 b73d b6c9 753e
000002d0: d5be 81bd b8e4 893e f1f1 9e3e 2e71 c23c
000002e0: 8aee fcbd c05d 123e 78b9 063e eb8e 3cbd
000002f0: 50fa 373d e39a c3bd 6d9f 323e 273e 123e
00000300: 4653 23bd e9ad b93d 37ab 50be c965 8bbe
00000310: 79a6 a8bc 65a1 ebbc 33bf c8bd 9fea c9bd
00000320: 34f0 323e a546 57be 8da8 7ebe 6f70 8abe
00000330: a5be aebd a6e0 aa3d 5f22 3f3e b6c5 233d
00000340: f02b 953e 4e1e 34bd cf7e 323e 60e8 073e
00000350: 16c3 5bbd 3512 64be ab5c 983e 2426 683e
00000360: 9101 eabc 3601 33be 99e5 3dbd 7a99 5f3d
00000370: fc3e 23ba 9dd5 0b3d 30fd 963e 52e8 4cbe
00000380: e399 c3bd 08de 203e a2b6 4bbe e7bc 703c
00000390: 8ef2 893e b173 223e 1053 7fba 4022 913e
000003a0: e58e 52be ce53 043e a9e3 51bd 835e bb3d
000003b0: d96d 5ebd 58c8 7ebe de71 513e 7f75 b33d
000003c0: 81bd 513d c697 07be 23c8 bc3d ea79 01be
000003d0: f6f8 c23d 825f 2abd d887 073e 0d8c a0bd
000003e0: b982 4abe 2ea8 fa3d 060e df3c e49a de3d
000003f0: 5fc5 b2bd 4e81 5fbe 12af 5dbd 9630 81be
-0.14857195 -0.101640046 -0.06907418 -0.28545374 0.276233 -0.26363793 0.2939433 -0.19734454
-0.13273558 0.20630802 0.18127286 -0.029148843 -0.26867393 -0.2531436 -0.24105966 -0.14546022
0.25914514 -0.18052357 -0.061918024 0.23577407 -0.07979617 0.23781216 0.07690356 -0.04127592
-0.1472916 0.07116302 0.14264044 0.07048217 -0.21388347 0.057515677 -0.18017793 0.24701054
0.23240784 0.265694 -0.29080942 -0.022116555 0.17753795 -0.15261795 0.2835973 0.19103187
0.059705243 0.09622795 -0.048305817 -0.010525519 0.06775422 0.09076665 0.010327859 0.049044855
-0.26247212 -0.005973831 0.1458936 0.20778103 0.30406448 0.034142535 -0.11064837 -0.22259653
-0.16875446 -0.2051183 -0.09087118 -0.18429565 0.042590987 0.2917226 0.12028787 -0.14068346
-0.16158013 0.23658061 -0.122502774 0.060571086 0.22177155 0.21222423 -0.05351824 -0.12995015
-0.008685579 0.28750443 0.11181021 0.110618524 -0.041420825 -0.21790516 -0.18950546 -0.11719108
0.2050804 0.31324887 -0.19495642 -0.039428435 -0.22770233 -0.04658716 -0.19025977 -0.18909329
-0.06753196 0.06430068 0.04486733 -0.044863492 0.08885305 0.26547006 -0.20168622 0.06502383
-0.26567468 0.28867438 -0.016433224 0.081343904 -0.053792622 -0.2622405 0.2959468 -0.001742206
-0.082025595 0.2691506 0.25111622 0.115045145 -0.23429084 0.057345632 0.064136654 0.17104688
0.27016997 0.2394389 0.07205718 -0.24211562 -0.2682969 -0.012134056 0.05631249 0.05877552
-0.14012466 -0.1638323 0.0820967 -0.08903582 0.032436095 -0.15739588 -0.019957062 -0.06900321
0.2549943 -0.003995238 0.2164061 -0.025459403 0.06733402 0.18933553 0.25070867 0.012651796
-0.14915177 -0.19657971 -0.045590695 -0.25310898 -0.09556534 0.21131372 -0.1609939 -0.19837771
-0.19942611 -0.09079342 0.12029784 0.057924177 0.24532422 -0.15934709 0.2669794 -0.10752994
0.047664702 0.07642992 0.29106036 0.16715556 0.14857842 -0.055438776 -0.08233729 -0.19375254
-0.1664083 0.036081366 0.07834538 0.056275316 -0.11716779 -0.24420147 -0.2817034 -0.15531798
-0.117876686 0.096003845 -0.08415885 0.11010096 0.009835393 0.033031818 0.25858244 0.08777204
-0.20619002 -0.011723536 0.08947844 0.24002728 -0.063352264 0.2693231 0.31043962 0.023735609
-0.12350185 0.14293575 0.13156688 -0.046034735 0.04491645 -0.09551027 0.17443629 0.14281522
-0.039874338 0.09066374 -0.20377813 -0.27226093 -0.020587193 -0.028763482 -0.09802093 -0.098592035
0.17474443 -0.21023043 -0.24868985 -0.27038905 -0.08532456 0.083436295 0.18665455 0.039983474
0.29135084 -0.043974213 0.17431186 0.13272238 -0.053652845 -0.2227257 0.297582 0.226708
-0.0285652 -0.1748093 -0.04636154 0.054589726 -0.0006227342 0.034139264 0.29490042 -0.20010498
-0.09550836 0.15709698 -0.19893888 0.014693475 0.26942867 0.15864445 -0.00097398553 0.28346443
-0.20562322 0.12922594 -0.051242504 0.09148886 -0.054303978 -0.24881113 0.20453593 0.08762645
0.051206116 -0.1324149 0.092178605 -0.12644163 0.09520142 -0.04159499 0.13235414 -0.078392126
-0.19776429 0.12239109 0.027228367 0.10869387 -0.08729052 -0.2182667 -0.05412204 -0.2523238

user_tower.fc.2.weight f4 [128, 256]
00000000: 4a3e d83a e675 4d3d 6adf d6b8 e2f2 b7bb
00000010: 298c 24bd 4a56 a0bc 8536 ccbb 55d1 5dbd
00000020: 765d 44bc 65b1 38bd bc4c 51bd 35f1 e739
00000030: 4072 fc36 a323 c63c 42f4 78ba ea0d 2a3c
00000040: 6c8c b2bc 615d 373c 6c0a f8bb 1b03 e53c
00000050: 7804 85ba 1816 e73b 38b2 07bc eae2 e93c
00000060: f2d3 c4b9 c690 0a3d 334e 933c b159 34bb
00000070: 09f4 14bb df51 aa3c 87e5 563a f9c4 c6bc
00000080: ff13 bebc 825a 77bd 291d b13c 7e33 2f3c
00000090: d7cf 6bbb ddc0 dcbc 70a2 21bd beea 91bc
000000a0: ae01 c63a bf22 623d bd8b 02bd 421d f53a
000000b0: 51b3 62bc 01f0 323d 0bf6 5e3d 7e7e 2d3d
000000c0: f4e0 6cbc e455 8f3c cf92 483c ec78 b1bc
000000d0: be0b 2ebd 3fcb fbbc c4ad fcbc fdaf 083d
000000e0: 3993 2bbd 6a4d 5e39 e298 983c 80e1 16bc
000000f0: 6a9c ae3c f1a1 21bd f2f9 183b 03ab e6bc
00000100: 8a69 ff3c 3e2b 04bd d62e 4c3c 4d41 ca3a
00000110: 283f 7c3c b3e4 3abc 3e10 603c ced2 c63c
00000120: d5d2 c73c 2a13 383d 4dc7 383d 6c40 21bd
00000130: 78be c03c 0219 2c3d d664 0d3c 99db 03bd
00000140: dbef bdbb adad 913b ff77 5338 c125 5dbb
00000150: a8c1 a6bc 2787 923c b32a 2cba d8cd 1e3b
00000160: 4cac 8539 ec5a ba3c d803 fab8 17c7 2e3c
00000170: 254a 2abd f0e3 25bd 684c d4bc d9d5 77bd
00000180: c206 be39 ee9c bbbc 9b28 053c 9174 2b3c
00000190: 79ed 6dbd 6949 a0bb 6f96 2bbd ea8a 253d
000001a0: 08ba f93a fc8d 2dbc 0ea2 68bd 7f1e 31bd
000001b0: f993 13bb 47c9 a63c 5286 4c3d fc53 0dbd
000001c0: c51f 843c b2c5 543d 3257 fbba 4e90 8f3c
000001d0: dd4c 043d 7cda 83bc 300a 0dbd 2a5d 0f3d
000001e0: a895 0f3d 0446 70bc 9824 373d dcf4 d439
000001f0: 9c30 d83c 3a5e e1bc 3388 0d3b 73cc ac3c
00000200: e014 0fbd af42 c1bc 608e 48bc 48cd a13b
00000210: 5d1d 16bc c3ae 573d da78 83bd 1df2 2abb
00000220: 0659 7f39 beb7 e8bc af3b c8bc 1066 fa3c
00000230: 5e8c b13c 85a0 57bd 1f9b c3bc b89e d53c
00000240: ce25 c139 3034 9238 254c 2f3d fa80 cdbc
00000250: 8989 d13c 8edd d6bb cd20 81bc c717 dc3c
00000260: 57db cdbc a735 73bc 0d9c 943c 9703 463d
00000270: 2e69 493b 6d23 8a3c 67d9 0ebd afde 6c3b
00000280: e928 423d 176b 19bc 940f 163d 3839 7e3c
00000290: d674 84bc 51a5 07bc a31f 20bd c67f 5c3b
000002a0: 6202 69bd 74c9 30bc d75b 7d3a 3a58 053a
000002b0: 1323 72bd 9b2b 453c 7030 cf38 78ec c73c
000002c0: 5d15 17bb 3024 1e3b 710f 5abd 74e7 d83c
000002d0: d28b 62bd 6d91 b9bc 660f 94bc 1dde 613c
000002e0: 669d 56bb 6fd7 5a3d b92e 7f3c 39ff 373b
000002f0: de4f 2d3b 545c e7bc 03de 343d 8f61 c53c
00000300: f7e6 ea39 f832 2abd 1366 01bb fcc2 9e3c
00000310: 17bb b1bc a7e1 9dbc 19f0 993c c591 acb8
00000320: bb56 833c b904 d6bc aa6d 673a a3f7 02bb
00000330: 3850 a33b 8074 50b6 9fc9 5dbd ab7d 38bd
00000340: 3f58 573d 9293 7bbc bf27 bf3c 354c 443d
00000350: b85d 2b39 3849 d9ba 8bce 6d3c 8b8b 363d
00000360: 4439 0a3d 0029 08bd 16ae 4abd 4ea0 29bc
00000370: 5a30 da3a ad2c ebbc cf49 2abc e110 9dba
00000380: 7fab 74bc 14c8 25bc 7fff e1bc 23ed 16bd
00000390: d66a 72bd 2887 86bc c0bd 71b6 41fb d63b
000003a0: cada 0d3b bcf2 ac3c 5192 0abd b0e1 46bc
000003b0: d545 5fbc d04e 88bc 26be b8bc 16ba 2c3b
000003c0: 8755 69bb abf7 4bbc 8bb8 dd3c a5e7 263c
000003d0: 89c3 5b3d 1a38 af3b 6ea1 b23b 90f7 79ba
000003e0: 9ea1 773c 75ec 6bbb 3e33 f4bc 08f2 523d
000003f0: 845e 9d3c 82cd 21bd 1181 033c b60e 2f3b
0.0016498056 0.050161265 -0.00010245929 -0.0056136707 -0.04017273 -0.019572396 -0.006232085 -0.054154713
-0.011985173 -0.04509105 -0.05109857 0.00044239467 7.5234857e-06 0.024186915 -0.00094968465 0.010379294
-0.021795474 0.011191697 -0.0075696018 0.027955582 -0.0010148427 0.0070521943 -0.008282237 0.028550584
-0.00037541945 0.033829473 0.017981624 -0.002751928 -0.0022728464 0.020790992 0.00081976544 -0.024263846
-0.023202894 -0.06038905 0.02162035 0.010693429 -0.0035982036 -0.026947433 -0.039461553 -0.01781213
0.0015106702 0.055208918 -0.031871546 0.0018700736 -0.013836698 0.043685917 0.054433864 0.04235696
-0.01445793 0.01749701 0.012242033 -0.021664105 -0.042491667 -0.030736564 -0.030844577 0.03337096
-0.04188845 0.00021200409 0.018627588 -0.009209037 0.021314818 -0.03946108 0.0023342338 -0.028157717
0.031178255 -0.0322678 0.012462338 0.0015430838 0.015395917 -0.011407065 0.013675747 0.024270441
0.024392525 0.04494015 0.045111943 -0.039368078 0.023528323 0.042016037 0.008629998 -0.032191847
-0.0057964153 0.0044457526 5.0418075e-05 -0.0033744427 -0.020356014 0.017886711 -0.0006567642 0.002423158
0.00025496108 0.022748433 -0.00011921645 0.010667584 -0.041574616 -0.04050058 -0.02591534 -0.060506675
0.0003624466 -0.022901978 0.008127357 0.010464803 -0.0580878 -0.0048915637 -0.04189151 0.040415682
0.0019052634 -0.010592934 -0.056795172 -0.043241974 -0.0022518618 0.020359648 0.049932785 -0.034503922
0.01612843 0.05194635 -0.0019175767 0.017524865 0.032299865 -0.016095392 -0.034433544 0.035000958
0.035054833 -0.0146651305 0.044712633 0.00040618225 0.026390366 -0.027510751 0.0021596074 0.021093583
-0.034932017 -0.023591368 -0.012240976 0.0049378015 -0.009162274 0.0526569 -0.06419535 -0.0026084252
0.00024351859 -0.028407928 -0.024442522 0.030566245 0.021673378 -0.052643318 -0.023877678 0.02607666
0.00036839995 6.971543e-05 0.042797226 -0.025085915 0.025578277 -0.006557173 -0.015762711 0.026866807
-0.025129003 -0.014844335 0.018140817 0.048343267 0.0030732858 0.016862595 -0.0348753 0.0036143472
0.047402296 -0.009363911 0.03663595 0.015516572 -0.016168993 -0.008279161 -0.03909267 0.0033645495
-0.056887038 -0.010790218 0.0009664869 0.0005086694 -0.05911548 0.012034322 9.879551e-05 0.02440475
-0.0023053505 0.0024130456 -0.053237382 0.026477553 -0.055309124 -0.022652352 -0.018073749 0.013785866
-0.0032747625 0.05342811 0.015575104 0.0028075709 0.002644531 -0.028242268 0.04415704 0.024094371
0.0004480404 -0.041552514 -0.001974468 0.019380085 -0.021695657 -0.019272638 0.018791245 -8.228751e-05
0.016032567 -0.026125299 0.0008828292 -0.0019984029 0.004983928 -3.1062227e-06 -0.05414736 -0.04504172
0.052574392 -0.015355008 0.023334382 0.04792424 0.00016342744 -0.0016577607 0.014514576 0.044566672
0.03374602 -0.033242226 -0.049482428 -0.010353161 0.001664649 -0.028707827 -0.010393574 -0.001198318
-0.014933466 -0.010118503 -0.02758765 -0.036847245 -0.059183918 -0.01642187 -3.6022248e-06 0.0065607135
0.00216453 0.021111839 -0.033830944 -0.012138769 -0.013627489 -0.016639143 -0.022551607 0.0026356033
-0.0035603957 -0.012449185 0.027065536 0.010187064 0.053653274 0.005347264 0.005451373 -0.0009535486
0.015114216 -0.0035999094 -0.02980959 0.05150035 0.019210108 -0.03950263 0.008026377 0.002671165

user_tower.fc.2.bias f4 [128]
00000000: 543a 75bd 6cc4 3c3d ef50 b83c 5db9 33bc
00000010: d169 94bc 61b1 32bd 33ef 503d 8f47 22bd
00000020: bffc 543d ec9b a0b7 9656 22bd 4f14 293b
00000030: 50d4 0a3d 38c8 363d 1e83 04bb 0749 143d
00000040: 4ed3 12bd c0eb d93c d045 c9bb af12 47bd
00000050: e5fc 77bd f500 903d 0369 29bd 0926 d2bc
00000060: b7ce 46bd 2e12 0bbd 91b1 2e3d 3bb8 e5bc
00000070: 5a79 debc a443 343c 75bb b53c 556d 80bb
00000080: bd0e 34bb da06 5f3d 2f84 47bd fe27 0dba
00000090: 7dff 79bd b0c9 db3c 7c70 4bbd ccfc 33bd
000000a0: b289 2b3c 804b a5bc 575d 2dbc 32bc 293d
000000b0: 9326 6fbc b986 debc fe60 51bc 1a67 5f3c
000000c0: 4aaf 47bd 1f78 0e3d 059b 1bbd ae0a 723c
000000d0: 1ab9 6dba 6f04 3bbd 5952 143d 223d d2bb
000000e0: 178e 6b3d 8b32 73bc 1fe9 e1bc a38d 413b
000000f0: db6d 2cbd b4c6 4fbc a768 5d3d 9568 d1bc
00000100: c400 babc 066a fa3b 185d 443d aece b1bc
00000110: 15b9 a53b 216a 4d3d c33c 83bc 5178 05bd
00000120: 43b6 be3c defb fb3c 1d16 aabc b633 063d
00000130: 2350 33bd c75e 7a3d 0fd4 653c bd65 e6bc
00000140: 3a1b 57bd 7322 1c3d 1a1f 2a3d a848 dbbc
00000150: c165 463d 2d7c 16bd 1a1a 203d 4958 5a3d
00000160: 0313 203d 0f97 3cbd cf77 a93c 3510 363c
00000170: 57ee c039 3b78 90bb ceb6 363a 65ab dfbb
00000180: 910b 25bd 076f 8e3c c436 203b b3db 8a3d
00000190: ce10 c23a f272 013d b28d 813d 621a a9bc
000001a0: 2f9e c2bc 334f 3ebc 982a 593d a49b 30bc
000001b0: a290 36bd 7570 e4bc 78c5 283d c220 763d
000001c0: 9647 75bc e33b 84bc 8f82 e4ba e25b cc3b
000001d0: 8dc1 713d eb63 293d 772b 0abc f843 03bc
000001e0: dace fa3b 5816 633d c0be 093d 3c8d a93c
000001f0: 7956 7c3d 6958 783d f475 593a 6c2c 153d
-0.05987008 0.04608576 0.02249953 -0.010969487 -0.018116863 -0.043626193 0.05100937 -0.039619025
0.05199885 -1.9146093e-05 -0.039633356 0.0025799458 0.033893883 0.044624537 -0.0020219753 0.036202457
-0.035846047 0.026601672 -0.0061423555 -0.048601802 -0.060543913 0.070314325 -0.041359913 -0.025652902
-0.048536982 -0.033952884 0.04264981 -0.02804195 -0.027157474 0.011002455 0.022184113 -0.0039192834
-0.0027474605 0.054449894 -0.048710044 -0.00053846824 -0.06103467 0.02682957 -0.04966782 -0.043942258
0.010469841 -0.020177603 -0.010581336 0.041439243 -0.014596599 -0.02716385 -0.012779472 0.013635421
-0.048751153 0.034782525 -0.037989635 0.014773054 -0.0009068415 -0.045658525 0.036211345 -0.006415979
0.057508554 -0.014843593 -0.027576981 0.0029533885 -0.042096954 -0.012681652 0.054054882 -0.025562564
-0.022705443 0.0076420335 0.047940344 -0.021704998 0.005057464 0.05015004 -0.016020184 -0.032585446
0.023280269 0.030759748 -0.020762498 0.03276416 -0.043777596 0.061125543 0.0140276095 -0.028124684
-0.0525162 0.03811879 0.041533567 -0.026768044 0.048436884 -0.036739517 0.039087392 0.05330685
0.03908063 -0.0460425 0.020687012 0.0111122625 0.0003679867 -0.004408864 0.0006969989 -0.0068258517
-0.040294234 0.017386926 0.0024446705 0.067801856 0.0014806034 0.03160376 0.06325854 -0.020642463
-0.023757068 -0.011615562 0.053019136 -0.010779295 -0.044571526 -0.027885655 0.041203946 0.060089834
-0.014970681 -0.016141837 -0.0017433929 0.006236539 0.059022475 0.041355055 -0.008433214 -0.0080118105
0.007654053 0.05544123 0.03362918 0.020697229 0.061605904 0.06063119 0.00082954695 0.036419317

user_tower.fc.5.weight f4 [64, 128]
00000000: 0cfd 3abd bad9 9dbd 5664 a0bd ea3e 56bd
00000010: a499 b6bd c2ce 6d3d 3c68 453d 9cca 83bb
00000020: 285d 863b 4576 3cbd f716 7a3c 4b3a 5fbd
00000030: ef89 2e3d d7f8 e8bc 83d6 8c3b f4f2 c83b
00000040: b638 a83d 5ddb a43d 5f7b 81bd 026a 653a
00000050: 445b e7bb 9732 9abd 6a1d 6abc 9753 893b
00000060: 8531 e0bb 7742 d73c 1953 4abd 8669 8f39
00000070: 0b7d a23c 03f7 c4bc c973 6d3d d07b 753c
00000080: 979e e8bc 02f6 3c3d c05d b9ba 0ff3 5e3c
00000090: faef 453c f08f 9139 b09f af3b e45d 2fbd
000000a0: d125 5d3d 42d4 cb3c 959a ae3a f7fd 0a3d
000000b0: 01c4 16bd 0650 adbd 24d3 763d 566b 29bd
000000c0: 959a d9bc 313d 8bbd 52a9 69bd c17a 69bd
000000d0: b80b 8cbd 6e3b 2abd 63f9 2ebc f24a 74bc
000000e0: 1335 9f3d 125b 84bd 3656 053d abfc cc3b
000000f0: 8bd0 b2bd 1c25 a93d 6228 9fbc 4b3b 423b
00000100: c164 54bd 79e5 753d e7aa 8a3d d70c 4bbd
00000110: 69b2 5cbd db2d b7bd 436b 9cbc d2d9 debc
00000120: f3af 823d 836a 36bd edb2 87bd 9da0 88bd
00000130: 6696 a13d e4d5 223d abcd 173d 0dd1 453a
00000140: 38f1 7d3d 2ddc 123d e090 99bd cb44 a33b
00000150: c977 823b 245c a5bc 9cb5 d0ba df4e 803d
00000160: 1635 25bd 2be6 b3bc f2bc 9dbd f749 b5bd
00000170: 4133 013d 79fe 3bbd 6e9d c73b 47ef b5ba
00000180: 2ac6 903d 8778 95bb 5c30 f13c 0eea a53c
00000190: 0e34 0dbd 9a03 0a3d 2990 8dbd 9bd5 74bc
000001a0: b25e 893d 602d 1f3b 4380 87bd 0f1d 8bbc
000001b0: 2fd1 7ebd feee f13c 65dd 42bc 73d1 78bd
000001c0: 095f 543d 9609 6e3c 547f 6a3d 5221 8ebb
000001d0: 87f7 173d 655d 813d dc43 b53c 7d85 1fbd
000001e0: 1afb 3a3d ac52 40bd 15c8 4bbd c65b 96bd
000001f0: 8e57 fa3c 5c76 a43d 622b 143d 0869 9fbd
00000200: 2550 40bd 5603 5f3d 028c 85bc 2832 e93c
00000210: ec84 e4bc 2a34 d5bc d048 6b3c d569 a03c
00000220: 0c81 243d a6b4 f73c 2ee5 76bd 47a0 0e3b
00000230: 97c2 1cbd 1446 4dbd a101 323d cb2b 963d
00000240: 6005 3ebc 99cd 18bd cd5f 953d 045c 373b
00000250: 58a2 bd3c 4c32 64bd 4c19 033d 28bc 913b
00000260: a0cc ba3d 6012 27b6 7817 813d 021c 71bc
00000270: 765c 553d 4412 c4bc dec9 9dbd 8db2 59bc
00000280: 1c85 543d da57 f93c 7227 2fbd 85ec 44bd
00000290: ceff 4c3b 82c8 8ebd 7ffa 923d d207 8cbc
000002a0: ec63 3bbd b8c6 4aba 5b76 5e3d 4623 5d3d
000002b0: bc99 5b3d 5b71 a23d 20aa 7ebc 0319 febc
000002c0: 6010 2c3d 983e 75bc a1fe 26bd 4c62 a3bd
000002d0: b5e4 293d d11f 9f3c e5af 1f3c 2a5b 8b3a
000002e0: 457e 9cbd faf0 023c e420 473c de2b 41bd
000002f0: 9cfb 913d fc44 cd3d 1c8f 233b 1b22 29bd
00000300: d777 34bb a99e 82bd 75cc c63d d946 dd3c
00000310: a5c4 8fbb 20c1 6dbd e2bf ae3d cc06 533d
00000320: 648f a63d 03b8 373d 1243 133d 6434 cf3c
00000330: 61a0 373d a4da 913a 5fb9 873d b66b 8d39
00000340: 75d4 8b3d c2d3 1ebd 7e09 69bc 6098 403c
00000350: a604 c23d 8d63 5ebc c70f 133d 4bd8 443d
00000360: 2104 ab3d 1759 4dbd 8618 533d 532b a53d
00000370: ce53 1bbd 52f2 45bc c654 46bd 8ee0 0f3c
00000380: bcac ca3c 08de 5dbb 8acb d83c 9979 aabd
00000390: b54b 8c3c ae87 a23d 4c50 04bc a23b 923d
000003a0: 2f3f df3d a307 8cbc 2c03 27bd 3b01 b43b
000003b0: a685 b3bb 24bb 37bd 219a d43d 40d5 36bd
000003c0: b870 763c 9765 803c e6d2 453d a150 33bd
000003d0: c7f3 7ebd dd7c 1d3d 10ea 63bd 8bb3 2f3c
000003e0: 57db 913d 032a 833c f33e dbbc 00ef 6d3d
000003f0: 2bfe 2a3d bdab 173c 9343 233b 3be5 c6bc
-0.04565148 -0.07707544 -0.078316376 -0.052306093 -0.089160234 0.058058508 0.04819511 -0.0040219557
0.0041004606 -0.046011228 0.015264264 -0.054498952 0.042612012 -0.028438969 0.0042980327 0.006132478
0.08213942 0.08049653 -0.06322359 0.0008751453 -0.0070604403 -0.075291805 -0.014289239 0.004190873
-0.0068418407 0.02627681 -0.049395654 0.00027353707 0.019835016 -0.024043566 0.05797175 0.0149831325
-0.028395934 0.04613305 -0.001414232 0.013607754 0.012081141 0.00027763797 0.0053596124 -0.04281415
0.053991143 0.024881486 0.0013321216 0.033933606 -0.036808018 -0.08462529 0.060259953 -0.04136213
-0.026562968 -0.06798781 -0.057046242 -0.057001833 -0.06838173 -0.041560583 -0.010679576 -0.0149104465
0.07773795 -0.06462683 0.03255292 0.0062557063 -0.08731183 0.08259031 -0.019428436 0.0029637392
-0.0518539 0.060033295 0.06770878 -0.049572792 -0.053881083 -0.08944293 -0.019094115 -0.027203474
0.06381216 -0.04453517 -0.06625924 -0.066712596 0.07890014 0.039754763 0.037061375 0.00075461046
0.061997622 0.035854507 -0.07498336 0.004982566 0.0039815647 -0.020185538 -0.0015923264 0.062650435
-0.04033383 -0.021960339 -0.07702054 -0.08851998 0.03154302 -0.04589698 0.006091765 -0.0013880514
0.07069047 -0.004561487 0.029442005 0.020253208 -0.03447347 0.03369484 -0.06912262 -0.014943506
0.06707515 0.002428852 -0.06616261 -0.01698163 -0.06221121 0.029532906 -0.011893605 -0.06074662
0.051848445 0.014528653 0.057250336 -0.004337468 0.037101295 0.06316642 0.022127084 -0.038945664
0.045649625 -0.046953842 -0.04975136 -0.07341723 0.030559327 0.08030388 0.036174186 -0.07783705
-0.04695143 0.05444654 -0.016302112 0.0284663 -0.027895413 -0.02602585 0.014360622 0.019581715
0.04016213 0.030237507 -0.060277157 0.0021763013 -0.038271513 -0.05011566 0.043458585 0.073325716
-0.011597961 -0.03730545 0.07293663 0.002797843 0.0231487 -0.05571203 0.032006547 0.004447479
0.0912106 -2.4895635e-06 0.063033044 -0.01471615 0.05209013 -0.023934491 -0.07704519 -0.013287199
0.051884755 0.030437399 -0.042762227 -0.048077125 0.00312804 -0.069718376 0.071766846 -0.017093573
-0.04574959 -0.00077353 0.05431209 0.053988717 0.05361341 0.07931777 -0.015543491 -0.031017786
0.042007804 -0.014968537 -0.040770177 -0.07977733 0.041477878 0.019424351 0.009746526 0.0010632027
-0.076412715 0.007992024 0.012153838 -0.047160976 0.07128069 0.10022923 0.0024957126 -0.04129229
-0.002753725 -0.06377918 0.09706966 0.027011322 -0.0043874555 -0.058045506 0.085326925 0.051520154
0.08132818 0.04485322 0.035952635 0.025293536 0.044830684 0.0011127782 0.066271536 0.00026973867
0.06827632 -0.038776167 -0.0142234545 0.011755079 0.09473543 -0.013573539 0.03590372 0.048057836
0.08350397 -0.05013379 0.05153706 0.08064904 -0.03792172 -0.012081699 -0.04842069 0.008781565
0.02474057 -0.0033854265 0.026464242 -0.08323974 0.017125944 0.07936035 -0.008075785 0.0714028
0.10900723 -0.017093485 -0.04077451 0.0054933107 -0.0054785786 -0.044856206 0.1038096 -0.044636965
0.015041523 0.015673442 0.04829683 -0.043778066 -0.062244203 0.038449157 -0.05564314 0.010723959
0.07121914 0.016011244 -0.026763415 0.058089256 0.0417463 0.009257254 0.0024912104 -0.024279227

user_tower.fc.5.bias f4 [64]
00000000: 9cd9 95ba 394c 93bd 7175 323d f7a9 283a
00000010: 79bd 60bb 4752 9f3b 7d8b 7cbc 4e34 58bd
00000020: cb80 be3c f94f 913d c310 2e3d ca84 51bd
00000030: 3d76 debc 75b4 10bd 99f2 cb3d feb7 aabc
00000040: 319b 373d fb7d 9d3d 55ed 75bd 609f 063c
00000050: 9d44 593c 3ded 6d3d d6c5 933d 0588 5fbd
00000060: 7c35 5d3d ee8f 433d 710e aebd 7c96 bdbc
00000070: 7e57 e53c 0af2 9c3d 3526 503c 6143 da3c
00000080: e160 fd3a d1ec cebd 4d40 b1bd 8640 3e3d
00000090: 9597 66bd 1e4c 0d3d b4ea b8bd dde6 86bd
000000a0: 05dd 2a3d c0a1 7e3d e94d 113d fd39 e7bc
000000b0: ceec 593d 001c 86bc 9aae 6d3d 4afb 53bd
000000c0: c869 ca3d e4eb db3b 809c 00bd 00bd edbc
000000d0: 3c65 97bc 4aa2 dabc f7d7 0d3d 5887 8dbd
000000e0: 5e02 a6bd cde8 84bd a6e7 73bd 35c4 8f3d
000000f0: 7456 003d e9b5 5e3d a517 253d ae20 3f3d
-0.001143265 -0.07192273 0.043569032 0.0006434018 -0.0034292622 0.004862103 -0.015414116 -0.052784257
0.023254773 0.07095332 0.042496454 -0.05115203 -0.02715599 -0.035328347 0.09958381 -0.020839687
0.044825736 0.076900445 -0.06004079 0.008216709 0.013260988 0.058087576 0.072154686 -0.054573078
0.054006085 0.047744684 -0.08498848 -0.023143046 0.027995821 0.07663353 0.012704422 0.026643457
0.001933124 -0.10103763 -0.086548425 0.046448253 -0.056296904 0.03449642 -0.09029141 -0.065870024
0.041714687 0.062165976 0.03547469 -0.028225893 0.05320435 -0.016370773 0.05802784 -0.05175332
0.098834574 0.00671147 -0.03139925 -0.029020786 -0.01848089 -0.026688714 0.03462979 -0.069105804
-0.0810592 -0.06489716 -0.05954709 0.070198454 0.031332448 0.0543727 0.040305752 0.046662025

item_tower.fc.0.weight f4 [256, 12]
00000000: 06d3 8f3c 002c 393e 864d 2cbd f98a 24be
00000010: 9298 f83d 0b81 81be f513 5b3e 0145 6fbd
00000020: 73b1 8dbc 4ebf 3f3e 3ab9 6e3d 48d9 e7bd
00000030: 7093 32be 65f0 65be 0fc8 50be 50ac 8ebe
00000040: 1efa 263e 7a5b 38be 8a56 a93d 277c dabd
00000050: 6d85 853e 4fb8 643e fe65 2f3e 524a ef3d
00000060: d59a 673e 564e 3b3e e6a6 09be 948e 1abe
00000070: 2c6e 1fbd eac2 123e 450f 863c 589d c2bd
00000080: c78b 113e 3e06 31be 4cce 2d3d 1dad 3d3e
00000090: 58f7 153e 255d 6dbd 05c0 653e ace0 eabd
000000a0: 951b ecbd 4c7f 9a3d 5b36 973d 700d 0dbe
000000b0: 0617 65bd 63a7 53bd 12f2 19bc dac9 b2bd
000000c0: 5134 78be e107 6f3e 918b 81be 504f 803e
000000d0: 0a73 a6bd 8a77 353e 6203 853e caa4 48be
000000e0: 7e5a 5bbe 28c6 5fbe cfff 97bc 2ad4 5b3e
000000f0: e52b 4a3e 840a f0bd eda4 e33d 6dc2 70bc
00000100: f176 f4bd a9c2 c43c c1bc 11bd 0e6e 51be
00000110: 3be5 9fbd 100f b83d 7d39 04be dd0f a73d
00000120: 98dd 66ba e223 3e3e bbd1 1cbe 826c 683e
00000130: b059 7e3e 670e 22be 6de0 3c3d f149 803d
00000140: 63a2 2f3e a9c2 873d 4009 903e fa33 87be
00000150: ab33 b8b9 aa99 243d 649e 5bbe eb0f 26be
00000160: 1a39 253e 5d23 09bd 6db3 8c3d 16e5 10be
00000170: fb89 703e 14ee eebc 9e9a 003e f3b9 693d
00000180: 0b0a 6ebe 0f07 933d 3a2b 16be 6051 17be
00000190: c06a 863c 1c1f 2c3c 9f76 b0bd 1579 953e
000001a0: c547 423e dcbd 893e 8ab8 803e 9630 e5bc
000001b0: af44 35be 5776 62be d15b d43d 3baa 5abe
000001c0: 1fac 88bd 6a90 80be 30d1 a03d 6ab5 2c3e
000001d0: 238c 4fbe 42ac 80bd d479 2b3e bda1 b53c
000001e0: 11b5 523e 1f2b 65be 4437 15be afd6 7e3d
000001f0: 9901 133e ed61 4dbe 21cc 42be 1b9e bd3d
00000200: 1416 233d 7383 903d 46fc 7abd d308 e53c
00000210: 0669 973d d358 39be 2d54 94be 1140 573e
00000220: 6067 7e3d 40fe b6bc 0f7e 2d3e 17ec 2c3e
00000230: 2f5d 5b3e cefa 5c3d 1138 2d3e 52f5 5c3e
00000240: d9f3 983d f5cf c13d a77e 6ebe 3851 6f3e
00000250: ba44 61be 20a5 48bb 39ac 55be 04ef 003e
00000260: e2fc 823e 3b57 cfbd b4b8 8fbd d67c 15be
00000270: dc4d 113e 2d97 97be fb8c 27be d581 8bbd
00000280: 808d 8dbe 756e 593e 9328 81be cc58 df3d
00000290: 2630 66be f3ea 6a3e 9208 bebc f911 eabc
000002a0: eb92 f8ba c39e fe3d 4232 793e 37d4 1e3e
000002b0: 7d85 61be 5891 863c 2de5 2bbe b00c 50be
000002c0: c422 2e3e 2139 7dbe 6888 5f3d 44c4 e0bc
000002d0: 041e b03d cf15 b53d e852 203e df96 12bd
000002e0: bf4c de3d 28d1 843e bf06 8c3c a8d5 323d
000002f0: b233 563e acc4 04be 4815 913d e5cf 6abc
00000300: 7538 a53d 4f4d 50be acf3 9c3c df31 ebbd
00000310: 1458 103e 41ef 163e 843b 2cbe f5d6 84bd
00000320: 14dd 873e 52b4 623e 1568 8a3e 87a7 87be
00000330: efc0 6b3e c646 bc3d 0f07 9bbc 7a48 9dbd
00000340: 946d 82be 0436 63be 0015 29be 525e 733e
00000350: 2576 2b3d 2f18 11be 18f7 b0bc dfa0 60bd
00000360: 488d dd37 1010 dcbd 2b1d c2bd 1137 233d
00000370: 86e6 9a3e 97d3 433e c0b1 933e 727c 4b3d
00000380: b206 18be 1484 6fbc e330 12be 768f c2bd
00000390: 6237 f03d 665c 1c3e ed47 383e 917c 67be
000003a0: 75a8 743d d7c6 593d 285e e0bd 83ee a63d
000003b0: 127c 91bd b752 473e e45a 613d a666 1d3d
000003c0: b990 f1ba 0fa5 bc3d c89a 943b fef4 3f3e
000003d0: 73ba 8d3c bb1a 6c3e 9270 3f3e 2db6 983d
000003e0: 0108 86be df1e 1c3d 6210 863e 3e58 7c3c
000003f0: 88d5 d1ba c3a2 963e 3e50 5a3e 67a9 b03d
0.017556679 0.18083191 -0.04206612 -0.16068639 0.121384755 -0.25293764 0.21394332 -0.058415417
-0.017296528 0.1872532 0.058282115 -0.1132074 -0.17439055 -0.22454984 -0.20388816 -0.2786584
0.1630635 -0.18003646 0.08268459 -0.106682114 0.26078358 0.22335933 0.1712875 0.11684097
0.22617657 0.18291602 -0.13442573 -0.15093452 -0.038923427 0.14332166 0.016364703 -0.09502667
0.14213477 -0.17287537 0.04243307 0.18523069 0.14645135 -0.057950158 0.22436531 -0.11468634
-0.11528698 0.07543811 0.07383414 -0.13774657 -0.05593016 -0.051673304 -0.009396093 -0.087299064
-0.24238707 0.2334285 -0.25301793 0.2506051 -0.08127411 0.17721382 0.25979143 -0.19594112
-0.21421239 -0.21852934 -0.018554596 0.21467653 0.19743307 -0.11720756 0.111154415 -0.014694792
-0.11936749 0.024018602 -0.0355804 -0.20452139 -0.07807394 0.08987248 -0.12912555 0.081573226
-0.0008806824 0.18568376 -0.15314381 0.22697642 0.248389 -0.15825807 0.046112467 0.06264103
0.1715179 0.06628925 0.28132057 -0.26406842 -0.0003513371 0.040185608 -0.2144714 -0.1621701
0.16135064 -0.03348099 0.0687016 -0.1414989 0.23490135 -0.029166259 0.12558982 0.0570621
-0.23246019 0.07179081 -0.14664927 -0.14777136 0.016408324 0.010505464 -0.08616375 0.2919394
0.1897269 0.26902664 0.25140792 -0.02797727 -0.17701982 -0.22115456 0.10369075 -0.21354
-0.066734545 -0.2511018 0.07852399 0.16866079 -0.20268302 -0.062828556 0.16745692 0.02217185
0.20576884 -0.2237973 -0.14571863 0.062216457 0.14356078 -0.20056887 -0.19023181 0.09258672
0.039815977 0.07056322 -0.061275743 0.02795831 0.073930785 -0.1810029 -0.2897047 0.21020533
0.062110305 -0.022338033 0.16942619 0.16886936 0.21422265 0.053950123 0.16915919 0.21577957
0.07468385 0.09463493 -0.23290502 0.23370826 -0.21998873 -0.0030616 -0.20866479 0.12591177
0.2558356 -0.1012406 -0.07017651 -0.14598402 0.14189857 -0.29607525 -0.16362374 -0.06811873
-0.27647018 0.21233542 -0.25226268 0.109056085 -0.22479305 0.22941189 -0.023197446 -0.028573023
-0.0018964683 0.12432625 0.24335578 0.15510641 -0.22023578 0.016426727 -0.16786642 -0.2031734
0.1700545 -0.24728824 0.054573447 -0.027437337 0.08599475 0.0884205 0.15656626 -0.035788413
0.10854482 0.25940824 0.01709306 0.04366079 0.20918158 -0.1296565 0.07084137 -0.0143317925
0.08067409 -0.20341991 0.01915916 -0.114841215 0.14096099 0.14739706 -0.16819578 -0.06486312
0.26535857 0.22139099 0.27032533 -0.26495 0.23022817 0.091931865 -0.018924264 -0.076798394
-0.25474226 -0.22188574 -0.16511917 0.23766449 0.04186072 -0.14169382 -0.021602198 -0.05484092
2.6411042e-05 -0.10745251 -0.094782196 0.039847437 0.30254 0.19123684 0.2884655 0.049679227
-0.14846304 -0.014618892 -0.14276461 -0.09500019 0.117293134 0.15269622 0.17996188 -0.22606112
0.059730966 0.053168144 -0.10955459 0.08150961 -0.07103743 0.19465147 0.05501832 0.03842797
-0.0018429972 0.0921117 0.004535053 0.18745801 0.01730082 0.23057072 0.18695286 0.07456622
-0.26177981 0.03811538 0.26184374 0.015401898 -0.0016009072 0.29421052 0.21319672 0.08626061

item_tower.fc.0.bias f4 [256]
00000000: 6936 1bbe c011 95bd 22d9 26be 8010 b3bd
00000010: d128 2c3d 6071 28be 9c56 543e 49f1 4a3c
00000020: d6be 09be f4e9 563e fb89 4c3d d3ab 60be
00000030: 9a84 273e 8971 3d3e c247 5dbe 9090 d33d
00000040: bcb0 45bd d978 afbd 27b3 b13d ddde 313e
00000050: b3c9 9f3d 6e01 f8bd 277e 9d3d ba31 fdbd
00000060: cc27 8a3c 24da 3fbe 66ee c1bd 5817 5fbe
00000070: 726a 95bd 13e9 493e 0afe 00be e00d 7e3a
00000080: d775 8abe b3e2 0bbe 3db4 67be 3109 ee3d
00000090: 8b8c babd efd1 f13c a586 813e 81dd 74be
000000a0: 5baf 5abc fa0b 623e 92d9 563e 90b0 3dbe
000000b0: 3793 0abe 41e6 2e3e 64ac bdbd 1c3f 593e
000000c0: 7892 243c 13c4 213e 7463 c2ba 06a6 53be
000000d0: 862c 843e 974b 303e 06e7 cdbd bc4b a5bd
000000e0: 1130 59be 6e82 b8bd e18a 903e 1e79 34be
000000f0: d0e8 f13d 7ffc 6e3e 4056 9b3b 160e e93b
00000100: 96e3 633e bd0c 083e f416 0d3d 3eb7 11bd
00000110: 1bcc f43d a059 60be 18e3 623e d0a8 873d
00000120: 6eba 5e3e 76ce 423e aa30 64be a442 d1bd
00000130: 2887 703d 6336 223e 9262 cb3d dccb 7d3d
00000140: 4843 b8bd 562b fabc 0f99 29be 97a5 9cb9
00000150: 8dea 4c3e 68a7 783e f3b8 883e 78bc 593d
00000160: bf80 0f3e b926 bdbd 5c60 863d 0f7d 02be
00000170: 5361 c6bd c1ab 083e 8f1c d13b 26cb 643e
00000180: 8bad 5dbe 33b3 37be 72c8 4bbe dfc3 fa3c
00000190: 78dd f43d 214e 8c3e 198b a5bd 6212 8e3d
000001a0: 40ac 5b3d 5ef7 8d3e b8ed 59be ef20 6d3e
000001b0: 13fe cebd 5dac 22be 1aaf 253e 928b 82be
000001c0: 072c 403e ddd1 ef3d 8da8 9f3d bb35 84be
000001d0: d7e7 393e 9b33 a63d 2273 da3c 4a0c 66bd
000001e0: 4651 693e c412 5cbd 7da5 1ebe b273 02bd
000001f0: c581 57be 6980 223e 9d24 71be d8b7 42be
00000200: 3ef7 83be fd21 9dbd e934 133d 696c 42be
00000210: 6c4e 61bd a5d6 673e c3fa 6ebe ae46 583e
00000220: b644 e93d 32bf 53be dc38 04be d62e 263e
00000230: 9f76 4f3d 1a48 8e3e d0a5 bf3d 9011 df3c
00000240: 96a4 ba3d 9548 e93c ecd2 b3bd c79d a93d
00000250: 6d62 4dbe e1c3 8cbe 8f99 cc3d 0148 1fbe
00000260: f35a a93d 5048 7d3e d8a3 6f3e af83 1e3e
00000270: cf1b 313e 8f36 893e e617 503e 5852 fa3d
00000280: 0a25 353d ec1d ad38 ea99 1abe 5903 62be
00000290: 0703 423e cf8c 40bd e380 7cbd 5559 2ebd
000002a0: 2650 893e 6bef 6a3e b3b2 b73d 648d 8cbd
000002b0: 62ae 383e abed e9bd 1027 623e 9182 ff3a
000002c0: 0780 253e 4b66 123e 5bc9 d0bd 5813 90bd
000002d0: 04db 5fbe f36f 8bbe d094 58bd e9c9 513e
000002e0: 5ad9 31be e2f7 dd3d 2459 643e 2424 183e
000002f0: 4e15 7fbc 0aaa 6f3e 306c 03be 6c28 0fbe
00000300: 1ef6 5fbd 80c3 8a3d 9c97 60be 03a0 3e3e
00000310: 9649 0cbe 771e c7bd d159 3a3d 86ba 04be
00000320: 9d10 1abe 5a01 6a3e fc1f 583e 03cc 8e3e
00000330: d27e 60bd 7db8 df3d e4c2 2cbd a095 603e
00000340: e7f5 443e 4eb8 10be 9530 11be 0eab 453d
00000350: 18cf 3d3d 6af9 b7bd 5876 09bb da05 36bd
00000360: 964e abbd 252b 033e eef2 64be ed21 20be
00000370: e277 0cbe 6db8 2dbe 98e9 733e 5c86 38bd
00000380: 3611 883e 53d8 953e 0e21 913e 0956 8c3e
00000390: f28b 7fbe 5e24 453e fe25 663e e46e d33d
000003a0: cee5 bdbd 4a25 c5bd 7f5e 883e f920 79be
000003b0: 1650 e23d 5d1d 2f3e 388b a23d 5aca 8abe
000003c0: 1741 b73c 56e5 513e b2b8 5b3d d96f af3d
000003d0: 7886 51be 19ec 4dbd c02b 09bd 7b56 debd
000003e0: 3579 6dbd a75a 9e3c b998 14be 79ff 7dbe
000003f0: 4788 4b3e 23ae b53b 5542 98bd 62f5 97bd
-0.15157475 -0.07278776 -0.16293767 -0.087433815 0.042031113 -0.16449499 0.20736164 0.012386628
-0.13451704 0.20987684 0.049936276 -0.21940546 0.16359177 0.18500341 -0.21609405 0.103303075
-0.04826425 -0.08567972 0.08676749 0.17370172 0.07802143 -0.12109648 0.07690077 -0.12363
0.01686468 -0.18735558 -0.09469299 -0.21786249 -0.072956935 0.19717817 -0.12596908 0.00096913986
-0.2704303 -0.13660698 -0.22627349 0.11622847 -0.09108838 0.02951905 0.25298038 -0.23912622
-0.013347472 0.22074881 0.20981434 -0.18524384 -0.1353272 0.17080022 -0.092613965 0.2121548
0.0100446865 0.15797453 -0.0014830665 -0.20668802 0.2581522 0.17216335 -0.1005383 -0.08071086
-0.21209742 -0.090092525 0.28230956 -0.17624328 0.118119836 0.23338507 0.0047405064 0.007112275
0.22254786 0.1328611 0.034445718 -0.035575144 0.119529925 -0.21909189 0.22156942 0.06623995
0.21750805 0.19024071 -0.22284189 -0.10217789 0.058722645 0.1584106 0.0993091 0.061961994
-0.08997208 -0.030538242 -0.16562293 -0.00029878013 0.20011349 0.2428261 0.26703605 0.053158253
0.14013956 -0.092359014 0.06561348 -0.12743019 -0.09686532 0.13346769 0.0063815783 0.2234312
-0.21648233 -0.17939453 -0.19900683 0.030610977 0.11956304 0.27403358 -0.080831714 0.069371
0.053631067 0.2772779 -0.21282089 0.23157094 -0.101070546 -0.15886064 0.16180077 -0.2549711
0.18766795 0.1170995 0.077958204 -0.25822243 0.18154846 0.08115312 0.026666228 -0.056164064
0.2278491 -0.053728834 -0.15492816 -0.031848617 -0.21045597 0.15869297 -0.23549123 -0.19015443
-0.25774568 -0.076724984 0.03593913 -0.18986668 -0.05500643 0.22640474 -0.23337846 0.21120712
0.11390059 -0.20678404 -0.12912315 0.16228804 0.050650235 0.27789384 0.09357798 0.027230054
0.091134235 0.028476993 -0.087804645 0.08282047 -0.20057078 -0.27493194 0.099902265 -0.15554811
0.082693 0.24734616 0.23402345 0.15479921 0.17295764 0.26799437 0.20321617 0.12222737
0.044224776 8.254856e-05 -0.15097776 -0.2207159 0.18946467 -0.047009286 -0.061646353 -0.042565662
0.2681896 0.22942893 0.08969631 -0.068629056 0.18035272 -0.11422285 0.22085214 0.0019493868
0.1616212 0.14296834 -0.101946555 -0.070349395 -0.21860892 -0.27233848 -0.052876294 0.20487179
-0.1736807 0.108382955 0.2229963 0.14857537 -0.015569044 0.23404709 -0.12834239 -0.13980263
-0.054678075 0.0677557 -0.21932834 0.18615727 -0.13699946 -0.097226076 0.04549581 -0.12961778
-0.150454 0.22852078 0.21105951 0.27890024 -0.054808445 0.1092386 -0.04217805 0.21932077
0.1923443 -0.14132807 -0.14178689 0.048258834 0.046340078 -0.08983119 -0.002097508 -0.044439174
-0.083645985 0.12809427 -0.22358295 -0.15637942 -0.13717607 -0.16964884 0.23819578 -0.04505001
0.2657563 0.29266605 0.2834553 0.2740939 -0.24955729 0.19252154 0.2247543 0.10323885
-0.092723474 -0.09626253 0.26634595 -0.24328984 0.110504314 0.17101045 0.0793671 -0.27107507
0.022369904 0.20497641 0.053642936 0.08566255 -0.20461452 -0.05027399 -0.03348899 -0.108563386
-0.05797692 0.019330336 -0.14511384 -0.24804486 0.19876204 0.0055444404 -0.07434527 -0.0741985

item_tower.fc.2.weight f4 [128, 256]
00000000: 5b0d 51bd 878b 39bd 5247 133d 2f80 053d
00000010: f74d 953c 93b1 2e3c ffa3 4dbd e6f3 6fbb
00000020: 47fa 45bb d336 1bbb 8a46 7c3c 6fae 0bbd
00000030: 46b3 73bd ff3c 9fbc e077 6a3d 9ce2 26bd
00000040: b8b3 d3bc 12c8 483d e179 313d 1f4e 2b3d
00000050: 7392 53bd faf5 00bc 922e 62bd 5383 f4b9
00000060: 1159 9f3c f3b0 243d ce61 bdbc 2328 cebc
00000070: b8eb 203d d7ec 203c 6fec 34bc 8717 c8bb
00000080: 248b 51bd be8f 7a3d b149 3fbd 7688 9b3d
00000090: a988 44bd 2276 6d3d 7f29 6c3c b655 593c
000000a0: 50bd 493d 6502 0b3d 761b 213d c62c 823d
000000b0: 157a 153d 29ea eabc 2255 ccbc 3260 14bc
000000c0: 404f d13c 9553 8fbd 6b9e 49bd fa49 e2bc
000000d0: ec3c 2e3d 511f 453b e71d b93a 4d25 6bbd
000000e0: 7468 96bc 80b9 a1bc 7739 c3bc 13f2 9b3d
000000f0: 0ccd 903c 66bd 863d bf44 1f3b b29d 55bd
00000100: 89dc ee3b 0903 8cbc 3fe5 1b3d 5467 2e3d
00000110: d91e 5e3c 7517 23bc 3f66 1f3d 8d46 0f3c
00000120: 36d9 913c b094 85bd 1697 14bd 0046 c23c
00000130: c5cd 0b3d d07b 69bd c414 08bd c717 333d
00000140: d293 e83c 3e49 e73c 3ed5 52bc f08a 0bbb
00000150: 94f5 833d 4c1a 7cbd 9a15 053d 77b3 7d3d
00000160: 11c8 273c df8c 2bbd aaad f9bb 0680 febc
00000170: dbe9 ea3c 73c9 9f3c 9b32 12bd b923 4e3d
00000180: 179e 1abd fa29 04bc d397 983b af4b 2b3d
00000190: e0d8 bf3c ec70 24bd bcbc a73d 20b9 f7bc
000001a0: 10f5 ad3d e8ce 313c 0f4d 2a3d 967a 59bd
000001b0: f65f 273b 5d34 e5bc 83bd b9bc 2299 7b3d
000001c0: b62f 3dbc d652 86bd 0673 463d 20b5 3e3a
000001d0: e3a6 0bbd 8bf5 a0bc bad5 25bd 6955 24bd
000001e0: b1e7 a9bc 54a9 16bd 8de2 90bd 730d b53c
000001f0: d0f6 023d 9fdf 2a3d b342 2cbb 6d27 ccba
00000200: de2e 633d 67ea 32bd e9b0 a93d 356f e23c
00000210: 9d22 dcbc af88 e83b 8d68 12bd 2493 1cbd
00000220: d230 5dbc 2cc5 f5bb 29b0 a13c 52bf c7bc
00000230: dc67 493d 2399 c6bb b856 c53c c22e a63c
00000240: c8b9 213d d8e9 6bbd eca2 303a 14d8 0a3b
00000250: 4b32 cd3b 6e5b 40bd cd2e 47bc 688b 60bc
00000260: 73b0 54bc ad59 c9bb d44f 16bd c7ab e33c
00000270: 7fa3 52bd 58cc 24bd 673f 1dbd 719f fb3c
00000280: 784b febb 95b2 d43c 5908 9fbc 68bc 56bc
00000290: b3dd 4cbc 6d8c 003d b755 0bbd 24f0 323a
000002a0: cc5d 3cbd d152 123d 0b4a 81bc 2105 bc3b
000002b0: 7518 97bd ce7b f5ba 457f 9b3c 68d6 2dbb
000002c0: 7dbd cd3c 6a4f 3ebd 6494 8bb9 4ed9 a03d
000002d0: c891 4aba 2427 3bbc ede5 f13c c2a2 bcbb
000002e0: e99b a33c c163 4b3b 3c8a 97bc 60ad 7c3d
000002f0: 1ed8 453d c79e 173d 3797 253d df60 193c
00000300: 4b77 363d 4e73 cd3c c8d5 70b8 7ed1 29bc
00000310: 65b0 07bd bddb 463d 151a e7bc 2fe4 943c
00000320: c337 453c 806f be3c 3370 9b3d 6879 4f3d
00000330: 3661 5f3d aaaf 223c 90ef 603c 9dfd 973b
00000340: 92d7 19bc 1060 00bd 6e97 8f3d 3ee0 7dbb
00000350: 224c 323d 9a55 8d3d 2a64 903d ccef 1dbc
00000360: b88e 193b e64a a83b 364c ae3b 63a4 93bc
00000370: 7e2a 223b b75f 733d b3e7 3c3c a09c 2ebc
00000380: f405 1bbd 2aea 92bd 9e42 64bd 268f 5bbd
00000390: 5a35 683d 5e39 073d 6c5d 953d b2d7 903c
000003a0: 45c8 cf3c 1a54 1c3d 10cc 2f3c 145a 75bd
000003b0: b06a 123d f46d 0d3d fd9a 7d3d c4e6 45bd
000003c0: 4733 7c3d c538 c43b 6608 7ebc d22e 66bc
000003d0: f1a9 a9bb 5b19 debc ef9d d0bb e154 f9bb
000003e0: 8804 743c 42d2 ad3b edf7 83bd 6864 793a
000003f0: 998d 173d 80a9 dc3c f1a1 89bc 10b6 21bd
-0.051038127 -0.04529908 0.03595669 0.03259295 0.018225653 0.010662454 -0.050205227 -0.003661388
-0.0030208991 -0.00236838 0.015397677 -0.0341019 -0.05949714 -0.019438265 0.057243228 -0.040743455
-0.025842533 0.049018927 0.043329123 0.04182255 -0.051653337 -0.007871145 -0.055220194 -0.0004663715
0.01945165 0.040207814 -0.023117926 -0.025165623 0.0392873 0.009822092 -0.011042698 -0.0061063203
-0.051158085 0.06117224 -0.046701137 0.07594387 -0.04798189 0.05797399 0.01441419 0.013265064
0.049252808 0.03393783 0.03933283 0.06356196 0.03649338 -0.02867611 -0.024942938 -0.009056138
0.025550485 -0.06998364 -0.049223345 -0.027623165 0.04253857 0.003007848 0.0014123291 -0.05740862
-0.018360354 -0.019741774 -0.023831112 0.07614531 0.017675899 0.06579094 0.002430245 -0.052152343
0.0072894734 -0.017091291 0.038060423 0.04257901 0.013557159 -0.009954323 0.03891587 0.008744848
0.01780377 -0.065225005 -0.0362769 0.02371502 0.034131784 -0.057002842 -0.03322293 0.043723848
0.028390799 0.028233167 -0.012868224 -0.002129253 0.06443325 -0.061548516 0.032491304 0.06193873
0.010240571 -0.041882392 -0.0076195793 -0.031066906 0.028675964 0.019505238 -0.035692792 0.050327037
-0.037748422 -0.008066649 0.0046567707 0.041820224 0.023418844 -0.040146753 0.08190295 -0.030239642
0.084940076 0.010852553 0.041577395 -0.053095423 0.0025539375 -0.02797907 -0.022673374 0.061425336
-0.01154702 -0.065587685 0.04844954 0.00072749145 -0.034094702 -0.019648334 -0.04048703 -0.040120516
-0.020740362 -0.036782578 -0.07074461 0.02210114 0.03197366 0.041717168 -0.0026284873 -0.0015575715
0.055464618 -0.043680575 0.08285696 0.027640918 -0.026871974 0.007096372 -0.03574424 -0.03822626
-0.013500409 -0.0075003114 0.01973732 -0.02438322 0.049171314 -0.006060736 0.024089202 0.020285968
0.039483815 -0.057596058 0.00067381444 0.0021185922 0.006262099 -0.046962194 -0.012157154 -0.013705112
-0.012981522 -0.0061447234 -0.036697224 0.02779187 -0.051425453 -0.04023394 -0.038390543 0.030715676
-0.0077604614 0.02596406 -0.01941316 -0.013106443 -0.012504029 0.03138392 -0.03401729 0.0006825945
-0.04598789 0.03572351 -0.015782377 0.005737916 -0.07377712 -0.0018728913 0.018981585 -0.00265255
0.02511477 -0.046462454 -0.00026622706 0.078539476 -0.00077274116 -0.011422906 0.029528582 -0.005756707
0.019971805 0.00310348 -0.018498532 0.06168878 0.04830181 0.037016656 0.040427413 0.009361475
0.04454736 0.025079396 -5.741956e-05 -0.010364888 -0.033127207 0.048549403 -0.02821068 0.018175213
0.01203722 0.023246527 0.0758976 0.05065289 0.054536067 0.009929577 0.013728991 0.0046383874
-0.009389775 -0.031341612 0.07011305 -0.0038738395 0.043529637 0.06901093 0.07050355 -0.009639692
0.0023431014 0.0051358817 0.0053191436 -0.018022722 0.0024744566 0.059417453 0.011529851 -0.0106574595
-0.037847474 -0.071735695 -0.055727594 -0.053603314 0.056691505 0.033013694 0.072932094 0.017680977
0.02536405 0.038166143 0.010729805 -0.05990036 0.035746276 0.034528688 0.061915386 -0.04831578
0.06157234 0.005988213 -0.015504932 -0.014049249 -0.0051777293 -0.0271117 -0.0063664834 -0.0076089953
0.014893658 0.0053046057 -0.064437725 0.0009513558 0.037000272 0.026936293 -0.016800852 -0.03948027
