models/dumps/SparseTwoTower_v1.pth (torch, 99716 bytes, 10 tensors)

user_tower.fc.0.weight f4 [128, 11]
00000000: 3fdb 273e 5a9f 20be 94e1 9d3e 8877 42bc
00000010: 1261 f73d ae66 3e3e b0a1 23be c670 2bbe
00000020: b7c7 363d 77a1 b6bd 212f a9bd 373f 21be
00000030: 25c4 763e 9057 a2bd a399 723e ea57 bfbd
00000040: 6364 703c ddc1 63be baa1 8bbd 4f0e fd3c
00000050: b3f1 8cbe 7e9f 193e 5e2c 963e 9af5 ebbd
00000060: cb88 84bd cb7d 143e 20c0 953d 02a6 17be
00000070: 6828 6ebe 594c 8b3d 7326 ed3d 70fd a93d
00000080: 2018 993e 4620 193e 7e1f d3bd cb8c 88be
00000090: ef59 673e c182 63be 96ab 893d 3877 41be
000000a0: cf31 25be 5d03 b93c 656f c23d 466e ddbd
000000b0: 662b e8bd f7da 63be 4a48 8dbb 46dc 303e
000000c0: fc97 00be 535a 953c 9b5e 9c3d bbc4 073d
000000d0: e7b5 81be 47d3 cabd 914c 4f3e 426b 4dbe
000000e0: f1d0 17be a924 703d 2302 283e 695c f8bd
000000f0: 50b6 033d e353 cbbd 6191 0a3e 01fa 453e
00000100: 174c c43c 7bde 6ebd 0246 483e 9137 6fbe
00000110: d858 123e 5875 1c3e 676c dcbb 1720 85be
00000120: 6b1f 453e 5d83 1ebe 216f 57be a243 473e
00000130: 78bf 003d 79f0 9d3e d610 e1bb 8b5b ac3d
00000140: f789 4cbe 129c a43d ec59 25be 8c07 bdbd
00000150: a08c 5fbe 3b3f 3a3d 3a7d 8f3e b4f1 1dbe
00000160: 11d5 2d3e 5951 7d3e 8650 32be 597d 743c
00000170: 2305 02bd 6d30 8e3e cd40 b63d e6db 84be
00000180: fcf7 773e 92b0 0bbe b64c 31be ef59 0ebe
00000190: 607d 9abd bb67 89be 2301 3dbe 3b98 85be
000001a0: 7013 32be 6a2b 62be d6b9 cc3c 6c11 963e
000001b0: be94 44be 373a 103e 7f85 1abe 79c5 4fbe
000001c0: 294b 873e cc89 9dbd f3ea 97be 20d1 cf3d
000001d0: 7bda 0dbe 567b 553e 5eb3 20ba 3aba 60be
000001e0: 2ecf 82be 9c56 89bd 92bf 8abe 23e3 6c3e
000001f0: f0f5 573e ed20 8bbd 29e8 48be e9e3 32bc
00000200: 0d04 02be 2316 533e c023 383e 28c9 c5bd
00000210: 2a3b 99be e94a 1a3e 9ed1 803d 8838 a0be
00000220: b0bf 063e 15da 4d3e 079e 0cbe b387 f3bd
00000230: aa6f e83d 3dea 95bd d438 21be c415 0fbe
00000240: 9b02 913e 51d2 e63d 18c4 9a3e abd8 31be
00000250: aa15 703b 82f9 fdbd 10d0 353b 35d9 61be
00000260: a363 2ebe b0d0 4fbd d117 233d 0900 d03d
00000270: 4f6f 23be f258 ca3d 4db4 0d3e 8ad5 84bd
00000280: b59e 66be 713b 85bd 9981 843e 96fc 35bd
00000290: 1887 5abe 5b86 603b 0293 5fbe cdec 0c3e
000002a0: 14c7 a93c 2dd4 5bbe 942d 8cbd a14c 913d
000002b0: d0bd 66bb 9fbb d13d 02b7 0a3a ed0d 8bbe
000002c0: cc7d 393e ebd8 04be 4a7c 54be d126 613e
000002d0: 3156 3a3e 6733 40be b2f9 4bbb a09a 26be
000002e0: 27b7 ffbd 4142 d5bc 08e5 833e 7855 693e
000002f0: 55b2 00be 0659 033e 589d bc3c d5f4 bdbd
00000300: 3f56 0a3e efe8 023d a269 673e 1380 57be
00000310: 0a62 c5bd 9915 103d 7ee9 3fbd 45fa 873e
00000320: 25ae 07be bc72 1f3e e708 a1bd 7638 1ebe
00000330: 4fdc 2e3e a6ce 873c 7a62 66be a5ea 583d
00000340: 51b4 933e 5a2b 6b3e 35a4 79bd 87dc d9bd
00000350: b758 3fbe 98af 923e 9ddd 9c3d 347e 363e
00000360: 44f6 db3d 3187 bfbc 69e9 80be 10a5 8fbd
00000370: 0def 9cbe 8293 d2bc e712 873b fa86 943e
00000380: 8f2a 27bd 928f 413e b151 7fbe 46a1 903e
00000390: c57e 8a3e 73b3 88be 7962 3c3e 78f1 98be
000003a0: d102 513d ddfe 05be 09a4 263e 6f8b 1ebe
000003b0: 418c a73d 147c 7bbe 9e0a 543e ac73 123e
000003c0: ef13 babd 9645 efbc cda9 79be 971c 6cbd
000003d0: 61e8 883e 188e dbbd a6df 7dbe 3f75 9d3d
000003e0: be84 c53d 865f 5fbd 29ff e1bd accf 0a3b
000003f0: 949e 8e3e cfc6 453e d205 9abe 39d9 293e
0.1639223 -0.15685788 0.30836165 -0.011869319 0.120790616 0.18593857 -0.15979648 -0.16742238
0.044624057 -0.08917516 -0.08260942 -0.15746771 0.2409826 -0.079268575 0.2369142 -0.0934294
0.014672372 -0.22241922 -0.06817956 0.030890612 -0.27528152 0.15002248 0.29330724 -0.11521454
-0.06471404 0.14501111 0.073120356 -0.1480942 -0.23257601 0.068016715 0.11579599 0.083002925
0.29901218 0.14953718 -0.10308741 -0.26669917 0.225929 -0.22217847 0.067221805 -0.18893135
-0.16132282 0.022584612 0.09493903 -0.108120486 -0.113364026 -0.22251497 -0.004311596 0.17271528
-0.12557977 0.018231547 0.07635232 0.0331466 -0.25334093 -0.09903579 0.20244052 -0.20060447
-0.14825799 0.05862871 0.16407065 -0.12127001 0.03215629 -0.099281095 0.1353202 0.1933365
0.023962064 -0.058317643 0.19557956 -0.2336104 0.14291704 0.15279138 -0.0067267898 -0.26001045
0.19250266 -0.15479799 -0.21038486 0.19459394 0.0314326 0.3084753 -0.006868462 0.08415898
-0.19974504 0.080375805 -0.16147584 -0.09229955 -0.21830988 0.045470458 0.28025228 -0.15424234
0.1697581 0.24738063 -0.1741353 0.014922463 -0.03174318 0.2777132 0.088990785 -0.2594902
0.24215692 -0.13641575 -0.17314419 -0.13901494 -0.07543445 -0.26836953 -0.18457465 -0.26092705
-0.17390227 -0.22086874 0.024990957 0.29310167 -0.19197366 0.14084707 -0.15089987 -0.20290174
0.2642453 -0.07692298 -0.2967144 0.10147309 -0.13852875 0.2084783 -0.00061302434 -0.2194604
-0.2554869 -0.067059726 -0.27099282 0.23133521 0.21089911 -0.067933895 -0.19619812 -0.010918596
-0.12696858 0.20613913 0.17982388 -0.09657508 -0.2992795 0.15067638 0.06289981 -0.3129313
0.1315906 0.20102723 -0.13732158 -0.11891117 0.11349423 -0.07320068 -0.15744334 -0.13973147
0.283223 0.112705834 0.30227733 -0.17367809 0.0036634007 -0.124011055 0.0027742423 -0.22055514
-0.17030196 -0.05073613 0.039817635 0.10156257 -0.1596043 0.09880246 0.1383831 -0.06486042
-0.2252148 -0.06505478 0.25880125 -0.044430338 -0.21340597 0.003425977 -0.21833423 0.13762207
0.02072481 -0.21467657 -0.06844631 0.07094694 -0.0035208352 0.10240864 0.00052915525 -0.27159062
0.18114394 -0.12973373 -0.20750538 0.21987464 0.18196942 -0.18769608 -0.0031124172 -0.16269922
-0.124861054 -0.026032569 0.25760674 0.2278651 -0.12568028 0.12826928 0.023024246 -0.09275214
0.13509463 0.031960424 0.2259889 -0.2104495 -0.0963784 0.035176847 -0.046853535 0.26558128
-0.13250025 0.15571111 -0.07863026 -0.15451226 0.17076229 0.01657803 -0.22498503 0.05295815
0.28848508 0.22965756 -0.060947616 -0.106377654 -0.18686186 0.28649592 0.07659457 0.1782158
0.10740331 -0.023379894 -0.25178078 -0.07013905 -0.3065113 -0.025705103 0.0041221264 0.2900923
-0.04081207 0.18902424 -0.24933507 0.28248042 0.27049842 -0.2669941 0.1839694 -0.29871726
0.051028077 -0.13085504 0.16273512 -0.15482877 0.08181048 -0.24559051 0.20707175 0.14301938
-0.09085833 -0.029207986 -0.2438118 -0.057644453 0.2673979 -0.107204616 -0.24792346 0.076883785
0.09644459 -0.054534458 -0.11034996 0.002118091 0.2785536 0.1931412 -0.30082566 0.1658677

user_tower.fc.0.bias f4 [128]
00000000: ab03 66be 18fa 523c 6996 863d 71ad b5bd
00000010: 32c8 e9bd aad7 52be 5168 dabc 7cc8 f0bd
00000020: 1b0a 06be 80a8 9c3e e736 1dbe 8157 a0be
00000030: 39da 703b 84da a5bd 6c2d 1ebe b00d 83be
00000040: 192f 62be e250 d73b 5ffd 313d 2d62 e53d
00000050: a697 f13d df22 dd3b 7741 6e3e d08f 09bc
00000060: c7a5 0dbe e5b5 4ebe 6ecb 413e 493f 84be
00000070: feaa 22be 99a6 26be 6325 85be 2d8e 093e
00000080: a5d6 92be 3c08 9fbd b4a2 23be 02a1 ba3d
00000090: 222b 8c3e 0ce0 e0bd 8860 733c 2a08 8f3e
000000a0: 92cb a8bd 01e2 ca3d 8559 423e 284e 6dbd
000000b0: b096 b8bd 899a f43d f4ed 9f3e 52a2 98be
000000c0: 8a05 8abe 98f8 523e 01be 6bbe c3f7 26be
000000d0: ac35 273e f84a 2bbe 34cb cabd 958a 3b3e
000000e0: 5101 053d f345 fd3d 8911 cebd 5f22 ba3d
000000f0: 58d8 093e 83ca 8dbd fff2 79bc c315 783e
00000100: 7245 033e f475 67be 5c7b 8abe 0bee 803e
00000110: 43a5 463e c91a 6d3d 405a fa3d 8d9a ac3d
00000120: 9e5e bd3c bdac 3a3e ef6b 853e 09e6 abbd
00000130: cadf 1abe 8a51 69bd 5c1e ec3c aec9 bd3d
00000140: 7b0e 25bd e6cf 833d 52b5 55bd 92c4 97bd
00000150: 9c66 05be d79a 0d3e 36c6 2c3e 14b2 77be
00000160: 1c15 57bd 96db 073c 5851 a73c ab42 3d3e
00000170: bb37 833e 2102 4dbd b14a 903d 94db 78be
00000180: 3021 d53d 74b9 4a3e 9667 3fbd 24a4 1ebe
00000190: 634a 6d3e bfa7 6ebe 9a21 173d 5680 953d
000001a0: 6818 ab3c 44ee 4d3e dfe4 3dbe 451a 1e3d
000001b0: bc2b 113e 5671 5bbd c228 403e 6371 633e
000001c0: 18c7 953e 5b60 33be 3c8f 42be dded 6ebe
000001d0: a5ea b63d 5b79 013e a8b6 75bc d294 fbbd
000001e0: a9f7 a03e ae1f 6fbe 3257 7bbd 8261 883e
000001f0: c612 223d 4f7f 753e e3d9 083e ba99 66bd
-0.22462337 0.01287701 0.06571657 -0.08870972 -0.11415137 -0.20590082 -0.02666107 -0.11756989
-0.13089792 0.30597305 -0.15352975 -0.3131676 0.0036751165 -0.08098319 -0.15447015 -0.2559638
-0.22088279 0.0065709213 0.043454524 0.11200366 0.11796503 0.0067485417 0.2326716 -0.008396104
-0.1383277 -0.20186575 0.18925259 -0.25829533 -0.15885541 -0.1627449 -0.26005086 0.13433142
-0.28679386 -0.077652425 -0.15980035 0.09112741 0.27376658 -0.109802336 0.014854558 0.27935916
-0.08241953 0.09906388 0.18979461 -0.057935864 -0.09013116 0.11943538 0.3123623 -0.2981134
-0.2695735 0.20602643 -0.230217 -0.16305451 0.16329068 -0.16727817 -0.09902039 0.18314584
0.03247196 0.123668574 -0.10061938 0.09088587 0.13461435 -0.06923392 -0.015255689 0.24227051
0.1281946 -0.2260359 -0.2704724 0.25181612 0.1939898 0.057886872 0.12224245 0.08427916
0.023116406 0.18229957 0.2605891 -0.08393485 -0.15124431 -0.056962527 0.02882307 0.09266983
-0.040297013 0.06436138 -0.052174874 -0.0741054 -0.13027424 0.13828598 0.16872486 -0.24189025
-0.052510366 0.008292099 0.02042453 0.18482463 0.25628456 -0.05005086 0.07045496 -0.24302512
0.10406721 0.19797307 -0.046729647 -0.15492302 0.23172908 -0.23306178 0.03689728 0.07299869
0.020885661 0.20110422 -0.18544339 0.03859927 0.1417684 -0.053574882 0.18765548 0.22211222
0.2925346 -0.17517225 -0.18999952 -0.23332925 0.08931474 0.1264395 -0.014997162 -0.122842446
0.3143895 -0.23351929 -0.061362453 0.26636893 0.039568685 0.23974346 0.13364367 -0.05629895

user_tower.fc.3.weight f4 [64, 128]
00000000: e23b 0a3c e725 acbd 9b67 2e3d 3750 5e3c
00000010: f4af e9bc a031 223d 1aa9 4f3d 7822 313d
00000020: 9a56 663c 8013 1dbd db21 60bc 247f 06bc
00000030: 1cb6 a53c 8e0b 5fbd 95c1 03bd 15d5 53bd
00000040: 7df1 0b3d aa47 23bd d833 13bd 09f0 163d
00000050: 50da 94bc 4608 203d e414 06bc 0721 6f3d
00000060: 7035 663c 89a2 28bd 1adc 733d 6802 33bb
00000070: 66a0 843c 26b9 873d f068 293d 38e1 46bd
00000080: 7967 613d 5153 5fbd 2285 373c 9802 313d
00000090: f8a7 1bbd 019f 673d ef3d efbc 52c9 e5bc
000000a0: 784d 48bc e90d 8d3d 2384 8dbd 686c 923d
000000b0: 7ed1 36bc 3769 953c 4de5 293d c48c c23d
000000c0: 044b 9b3d bf5e 92bd c6d7 96bc 2fd4 05bd
000000d0: 11b8 323d 5bda 6cbd 539e 533d 96ce 0ebd
000000e0: bc4f 923c 67dd 453d 1bef fbbb 07de 43bd
000000f0: efd4 d43c 44c5 fabc 6a35 eebc 0c23 1dbd
00000100: 40d6 a5bd 9b36 453a 497a 8e3b 3950 aabb
00000110: b39b 333d 324a b2bd 2260 083d 3454 2abc
00000120: 6ff3 7bbb 524a 81bd 3f2f 82bd 56a0 9dbd
00000130: 8ed0 633d 95f8 12bd 5e2e 84bc 2e96 763d
00000140: 0df3 843d 5ff0 28bd b75a 063d cc46 11bd
00000150: 7c25 ee3c b1ff b6bd 2282 7f3d 7833 eabc
00000160: ff7c 4b3d 8a36 f93c c8e5 e1bc 6837 633d
00000170: 273b 11bc 9df7 b83d 3bfa 83bd 0f78 053c
00000180: 9a53 a1bc ac1e 8f3d 4baf 753c 6e61 d6bc
00000190: 4f68 33bd dbc0 e93c 052e 71bd a402 d2bb
000001a0: b750 873d 916c b23c d5ee a53d 1a9d 433d
000001b0: 8394 4d3c 5c40 3b3d 2cb9 81bd e3f7 bfbd
000001c0: a3a4 70bd bb5b b7bc b129 f23c 33eb 13bd
000001d0: 3caa e8bb 577f 2bbc ac66 053d 63ad e9bc
000001e0: 01ac 5abd 50b6 673d 876e 21bd d363 bfbd
000001f0: 6a71 8dbd 5d9d 12bd 1a43 8bbd 86cf e0bc
00000200: af72 d7bc 6d23 a43d 3134 a1bd 4c42 58bd
00000210: e2ed c33c a206 a13c 0843 8b3d 8eba 59bb
00000220: 8597 263c c181 a63d 8f43 35bd 148b 453d
00000230: ea99 8ebd 5147 7abd ba8c 6abd b85a 4cbd
00000240: 2dfa 443d b487 9f3c 0370 6cbc 97b4 8cbd
00000250: bd18 b33d 8e54 2ebd f55b f53c 992c 4a3b
00000260: baaf 8bbd 166c cfbc 5127 67bc f295 023d
00000270: 4601 adba 1c4b a63c 7628 973d 1d51 883d
00000280: e4f6 f63c ab0a 883c 0abc 96bb b250 793c
00000290: 758a 3b3c be0b 653d 9d2d 4b3d b07f 87bb
000002a0: 525f bdbd 59f5 a33c f9d2 81bd 8b0d a13d
000002b0: a2d4 0ebd f89b 45bc f139 323d 7632 0f3d
000002c0: 182f a9bd c7af c7bc fec4 d53c 787f 0cbd
000002d0: c461 e8bb 8b57 283d b6e4 463d 46d4 63bc
000002e0: 2ae3 b83d ed63 34bc 71e7 0cbd a42f 0b3d
000002f0: c1a4 6cbc 6139 193c 7936 05bd d4a0 b93d
00000300: ecf5 bcbc 3a13 553d 9da7 133d 511a 543d
00000310: 0427 39bd 2b8e ebbc 6455 a13d fd96 aabc
00000320: 5130 933d b896 3fbd 2599 adba c894 5e3d
00000330: 4866 833d 0979 96bc 9ad3 353b e452 c53b
00000340: 41c1 543d 15b8 b23d 034d 8abd f03d c5bc
00000350: 0649 82bd 2f6b 2c3c db57 3dbc 91d6 643c
00000360: a38c 70bd 8dad 783c cec9 a23d be45 8ebc
00000370: 178a 133d 8408 323c 075d cd3d 6c8e dab7
00000380: c6e8 7f3d 7e7f 77bd 8588 363d e42d cbbc
00000390: b36f 743d b365 4ebc 9886 333d d00b 30bd
000003a0: 0843 3f3d 1bc2 d93b ea43 b4bc 1720 823d
000003b0: 9750 8b3d 2c30 d7bc 057a 563c 7590 0fbc
000003c0: 105d a6bd 90c8 ad3d 36b3 e63c 4e62 9f3d
000003d0: 8efd 1bbd 6d3a 63bd 0573 5a3c 0743 4dbd
000003e0: 0a5a d1bc 19dc 96bd 6883 1c3d 0285 b23c
000003f0: 21a5 df3c 8b82 91bd 7d9c 06bd 18ba 883d
0.008437129 -0.08405667 0.042579275 0.013568929 -0.028526284 0.039598107 0.050698377 0.043245763
0.014058733 -0.038348675 -0.013679947 -0.008209024 0.020228438 -0.05445438 -0.032167036 -0.051716883
0.034165848 -0.039863266 -0.035938114 0.03685001 -0.018170506 0.03907039 -0.008183692 0.058381107
0.014050826 -0.04117063 0.059536077 -0.0027314667 0.016189765 0.06627111 0.04135984 -0.04855463
0.05503032 -0.054522816 0.011201175 0.043215364 -0.038001984 0.056548122 -0.029204337 -0.028050099
-0.012225501 0.06887419 -0.06909969 0.07149583 -0.011158345 0.018238647 0.041478444 0.09499505
0.075826675 -0.07146978 -0.018413436 -0.032673057 0.04363257 -0.057825428 0.05166466 -0.034864984
0.017860286 0.04830685 -0.0076884157 -0.047819164 0.02598044 -0.030611642 -0.029078204 -0.0383635
-0.080975056 0.00075230905 0.0043480736 -0.0051975516 0.04384966 -0.08705558 0.033294804 -0.010396052
-0.0038444658 -0.063130036 -0.06356668 -0.07696597 0.055618815 -0.035881598 -0.01613539 0.060201816
0.06491671 -0.04124486 0.032801356 -0.035467908 0.029070608 -0.08935488 0.062379964 -0.028588995
0.049679752 0.030421514 -0.027575389 0.05547276 -0.008864201 0.090316035 -0.06444212 0.0081463
-0.019693185 0.06988272 0.014995406 -0.026169505 -0.04380065 0.028534343 -0.05888178 -0.006409006
0.06607192 0.021780284 0.08102194 0.047757246 0.012547615 0.045715675 -0.06334147 -0.093734525
-0.05875076 -0.022382608 0.029560896 -0.036112975 -0.0071003716 -0.010467372 0.03256862 -0.02852506
-0.053386692 0.05657035 -0.039412048 -0.09345212 -0.06906398 -0.035794605 -0.06799908 -0.027442705
-0.026299803 0.080145694 -0.07871283 -0.0527976 0.023917142 0.019656483 0.067998946 -0.0033222768
0.010167961 0.08130217 -0.044253882 0.04822834 -0.069629505 -0.06110317 -0.057263114 -0.049891204
0.04809015 0.019473888 -0.014431003 -0.06870382 0.08744953 -0.042561106 0.029951075 0.0030849336
-0.068206266 -0.025320094 -0.014108495 0.03188128 -0.0013199232 0.020299487 0.07380764 0.06656096
0.030147023 0.01660665 -0.0046000527 0.015216993 0.011446585 0.0559194 0.049604047 -0.0041350946
-0.092466965 0.020014452 -0.06339068 0.07863911 -0.03487075 -0.012061112 0.04351229 0.034960233
-0.082609355 -0.02437581 0.02609491 -0.03430125 -0.0070917327 0.041099112 0.04855796 -0.01390559
0.09027703 -0.011010152 -0.034400407 0.03398098 -0.014443577 0.009352059 -0.032522652 0.09063879
-0.023066483 0.05202029 0.03604852 0.05178291 -0.045203224 -0.028754314 0.07877615 -0.02082395
0.0718695 -0.046774596 -0.0013244493 0.054341108 0.06415993 -0.018368261 0.0027744533 0.006021844
0.051942114 0.08726517 -0.0675297 -0.024077386 -0.06361584 0.010523601 -0.011556591 0.013967172
-0.05872787 0.0151780965 0.079486474 -0.01736724 0.036020365 0.010866288 0.10027509 -2.6053945e-05
0.06247785 -0.06042432 0.04456379 -0.024802156 0.059676837 -0.012597489 0.04382953 -0.042980015
0.046694785 0.0066454536 -0.02200504 0.06353777 0.06802481 -0.026268087 0.013090615 -0.008762469
-0.08123219 0.0848552 0.028161626 0.07782422 -0.038083605 -0.05547564 0.013333087 -0.05011275
-0.02555563 -0.07366199 0.038211256 0.021791939 0.02730042 -0.07104977 -0.032864083 0.066761196

user_tower.fc.3.bias f4 [64]
00000000: 8576 c23c a729 883b 0420 4c3d 73ee c2bc
00000010: 3ee9 333b 9561 b4bb fb40 3e3c 0360 dc3c
00000020: 1945 ce3c e79c 853d 13d6 d03d 09cf 2b3d
00000030: c091 adbd 8362 84bd 919c 72bd 7474 72bc
00000040: 63d7 5d3d 776d 2a3d df06 b53c f2b5 8bbd
00000050: 261f de3b a2f2 aa3c f9ee 4a3c ed9e 103d
00000060: 9822 21bc 9bf0 f8bc f6c0 4fbd 46a0 bcbb
00000070: db5e 143d 2cb1 7f3c 1e5f 6fbd 61a8 23bc
00000080: 76e8 ca3d f357 d93c 8699 99bd 2573 9fbd
00000090: 848b 96bd cc37 403d da8d 81bd f174 c1bc
000000a0: 29e7 d3bc 3a24 1c3d 8394 cc3d b4d3 133d
000000b0: 875f 9cbd e3e2 0a3d 484d 17bd c11d 9d3b
000000c0: feb1 79bd a0c5 69bc d122 c2bd 3c96 633d
000000d0: 7b8d 5abd 8ace 45bd 19cd ce3d 9e9f 34bd
000000e0: 9fc7 f1bb ea5b a9bc 5869 5cbd 7e2e 293c
000000f0: 0b19 473d f303 2fbb c4bc 4c3d fcd6 b0bd
0.023738155 0.004155356 0.04983522 -0.023795342 0.0027452256 -0.0055047967 0.011612172 0.02690125
0.025179433 0.06524067 0.101970814 0.04194549 -0.08475065 -0.06464102 -0.059231345 -0.014798272
0.054160487 0.0416083 0.022098003 -0.06821813 0.0067786155 0.02086765 0.012386077 0.035307813
-0.009834908 -0.030388167 -0.05072113 -0.005756411 0.036223274 0.015606206 -0.05844032 -0.009988875
0.0990762 0.026531195 -0.074999854 -0.07785634 -0.07350829 0.046928212 -0.06325884 -0.023615332
-0.025867062 0.038120486 0.09989264 0.036090568 -0.07635408 0.033907782 -0.036938936 0.0047948067
-0.060960762 -0.014268309 -0.09479297 0.055563197 -0.053357583 -0.048292674 0.10097713 -0.044097535
-0.007378533 -0.02067371 -0.0538114 0.010326026 0.048607867 -0.0026705235 0.04998471 -0.08634755

item_tower.fc.0.weight f4 [128, 12]
00000000: b367 f0bd 5ddd aa3d f520 3fbe 65d0 74be
00000010: 8190 dd3d 562a a83d a4f4 b9bd 1291 673d
00000020: 2b1b b23c 0f4a 50bd 9065 4abc e6d5 4c3c
00000030: 4ead 9abd 06aa 513e 38ea 7e3e 3667 3d3d
00000040: ea3f 9e3e 260d 703d 8a79 92bc 0869 7e3e
00000050: 6a9f 973e f4a5 49be 4d99 f5bd d1ef 0f3e
00000060: 64dc 0abd 5fcb 80be 54de 4a3e 3195 843e
00000070: 2757 473c e4de 91be 925d 213e 9acd 7c3d
00000080: 1b0e 08be e926 29be 79a9 3f3d e54f 03bd
00000090: 6f88 a6bb e9e1 8dbe 29df 80be 5387 563d
000000a0: afcb 7fbe bca0 9abe f6f5 d53d cb58 673e
000000b0: bb64 40be 7010 e73d 496c 813e fadd 8ebd
000000c0: cd39 7bbd 68f3 5e3e b158 673d c48a d9bc
000000d0: 9e05 d5bd 96b1 533d 7fdc 2e3c c11f 9dbd
000000e0: 219a 883e 7164 7e3d 9481 73bd 6495 b03c
000000f0: 8cc8 c8bd 4c12 8f3e d331 c8bd 973c 58be
00000100: 467b 313e 7a14 c1bd 1596 4d3e e522 d73d
00000110: 5b10 57bd 9652 2ebe 38fa 54be 790d 893e
00000120: 3432 3f3e 7cb3 2f3d 323c 873e a85b 1bbd
00000130: 78e1 59bd 00e6 923e 2f7e 383c a1a9 77be
00000140: 48f8 c3bd 628b 233e bbbf 79be 476d 743e
00000150: 0082 29be 13ab 1d3e 855b d0bd a976 6a3e
00000160: a3f0 083e 8092 b1bd 9288 4cbe 2605 09be
00000170: e161 813d 3034 133d 60ea 133c bdec fe3d
00000180: 8e5a 27bb 73fe 723e 124f c1bd 481a 25be
00000190: e6c4 55bc 11a5 5a3d b505 92bb df42 173d
000001a0: 1369 babc fe6d 073e 6a5f 3b3e 7df6 00be
000001b0: 6175 6bbe 476c 35be 100b b23d ce88 f83d
000001c0: e559 193e eec8 46be 3058 8a3e b929 6c3e
000001d0: 905f 143e 7516 ebbd 715b 77bd 137d 7fbe
000001e0: 44b9 b13a cb49 85bd 380a 413e 375c 78bc
000001f0: ca65 603d c176 5d3e ca43 7c3e 575b 823e
00000200: df0d d33d 94a6 53bd 8abd a43d abc7 78be
00000210: 079f 2b3e c167 1e3e 6b66 55bb 6098 513e
00000220: fe16 04bd 38f9 24bd 7647 36bc 3376 ba3d
00000230: 2a9f 55be 3a17 febd 3b5e ffbb 097b 8abc
00000240: 6b1f b7bd 6e50 683e 957f 80be de39 4f3d
00000250: c0c6 023e 27b2 8f3e 0b54 783d 3b08 003e
00000260: bb82 6d3e e862 133e 12a3 0d3d 18f4 bc3d
00000270: ab42 8ebc 4d39 e1bd 4d0d 803e 348d e5bd
00000280: 254a 743e fb98 f8bd 587f 933e 5e5c 33be
00000290: 9939 5d3e a964 0a3e b695 a23d 4266 483e
000002a0: ce77 d23d 1411 48be 0ac0 2abe ad0d 01be
000002b0: 769a 90be 9abc 873e 40e7 b5bd ce02 fa3d
000002c0: cb67 5cbe 67f6 4a3e 3437 373e 2c19 26be
000002d0: 3b1f e03c f5e6 febc c829 eebc 8e89 56bd
000002e0: 0ae2 b4bd c172 943e 5422 5a3d 3f87 f33d
000002f0: a766 8d3e 37ca 0a3d e547 8b3e b369 2a3e
00000300: 17c0 4ebe 9297 32be 3e2b b2bd 8971 f93d
00000310: 58e6 273e 38c8 443e 8655 69be 9f6e 7c3e
00000320: 0d2b 8a3e f09f 14bc fa50 ab3d a171 54be
00000330: ca8b e53d 44d1 9dbd 7297 b3bc 0c99 673d
00000340: 5cf6 e9bb 883d 82be 1652 1b3d 295a 613e
00000350: 975f 42bc fe54 41be bb33 6bbc 5d3d 023e
00000360: 6847 4abe 9846 0b3e a412 86be c214 193e
00000370: 915f 55be effb 3cbe a176 26be c0ac 2d3e
00000380: aac7 053e fcb4 663d ffcf 1e3e ead1 cebd
00000390: f277 483e cc96 5dbe 7003 97bc c959 91be
000003a0: 4e04 033e a8fb 7e3e e0ac b8bd 5cf3 cf3d
000003b0: 6c39 f1bc 3485 713c 88b4 bd3d cb8c 8ebe
000003c0: ec38 72bc 1401 6bba 3ec2 723e c22b 133e
000003d0: 0030 31be fa99 4ebe 13c3 4ebe a602 3dbe
000003e0: 2749 4f3e 78b7 83be 13f0 72bd e2eb 84bb
000003f0: af99 843a db9b a5bd 7df2 2e3e 21a0 d73b
-0.11738529 0.08343003 -0.18664916 -0.23907621 0.108185776 0.082112 -0.090798646 0.056534834
0.02174147 -0.050851878 -0.012353316 0.012502169 -0.075525865 0.20475015 0.24894035 0.046241008
0.30908138 0.05860629 -0.01788022 0.24844754 0.2961381 -0.19692212 -0.119921304 0.14056326
-0.033901587 -0.2515516 0.19811374 0.25895074 0.012166775 -0.28490365 0.1575835 0.061719514
-0.13286631 -0.1651875 0.04679248 -0.032058615 -0.005082182 -0.27711418 -0.25170258 0.05237515
-0.24980043 -0.30200756 0.10447304 0.22592466 -0.18788426 0.11282432 0.25277928 -0.069759324
-0.06133442 0.2177254 0.056481067 -0.026555426 -0.10401462 0.05168303 0.010672688 -0.07672072
0.2668009 0.062107507 -0.059449747 0.02155561 -0.09803876 0.27943647 -0.09775128 -0.21116863
0.17332181 -0.09427734 0.20076783 0.105047025 -0.052505832 -0.17023692 -0.20798576 0.2676809
0.18671495 0.04289578 0.26413113 -0.037929207 -0.05319354 0.286911 0.011260553 -0.24185802
-0.0956884 0.15971139 -0.24389546 0.23869811 -0.16553497 0.15397291 -0.10173706 0.22896828
0.13373046 -0.08670521 -0.19973972 -0.1338087 0.06317497 0.03593844 0.009028047 0.12447498
-0.0025536153 0.23729877 -0.094389096 -0.16123307 -0.0130474325 0.053380076 -0.0044562467 0.036929008
-0.022755181 0.13225552 0.18298116 -0.12594028 -0.22993995 -0.17717086 0.08693516 0.121354684
0.14975698 -0.19412586 0.27020407 0.23062791 0.14489579 -0.11478893 -0.06038994 -0.24950056
0.0013559242 -0.065082155 0.18851554 -0.0151587045 0.054784574 0.21627332 0.24635234 0.25460312
0.1030538 -0.051672533 0.08043964 -0.24294917 0.16759883 0.15469266 -0.0032562267 0.20468283
-0.03224849 -0.040276736 -0.011125436 0.09104576 -0.20861498 -0.12406774 -0.0077932156 -0.01690437
-0.089415394 0.22686931 -0.25097337 0.050592296 0.1277113 0.28065607 0.060627025 0.1250314
0.23194401 0.14393198 0.034579344 0.09226245 -0.017365774 -0.109972574 0.25010148 -0.11208573
0.23856409 -0.12138554 0.28808093 -0.17515704 0.21604003 0.13514961 0.07938711 0.19570258
0.10276757 -0.19537765 -0.1667482 -0.12602873 -0.28242844 0.2651108 -0.08881998 0.12207566
-0.21523969 0.19820558 0.17892152 -0.1622054 0.027358642 -0.031115988 -0.029072657 -0.052377276
-0.08832176 0.289938 0.053255394 0.118910305 0.2761738 0.033884253 0.2720329 0.16641884
-0.20190464 -0.17440632 -0.08699654 0.12179858 0.16396463 0.19217002 -0.22786531 0.24651574
0.2698597 -0.009071335 0.083650544 -0.20746471 0.11208303 -0.0770593 -0.0219228 0.05654244
-0.007139964 -0.2543757 0.03792008 0.2200705 -0.011863611 -0.18880078 -0.014355595 0.1271872
-0.19753802 0.13601148 -0.26186097 0.14949325 -0.20837237 -0.1845548 -0.16256191 0.1696043
0.13064447 0.056324944 0.15509032 -0.10098632 0.19577006 -0.21639556 -0.018434256 -0.28388813
0.12794611 0.24900687 -0.09017348 0.10153839 -0.029446326 0.014741231 0.09262949 -0.27841792
-0.014784079 -0.0008964699 0.2370691 0.14372161 -0.17303467 -0.20175925 -0.20191602 -0.18458042
0.20242749 -0.25725913 -0.059310984 -0.0040564397 0.0010116602 -0.08086368 0.1708469 0.006580368

item_tower.fc.0.bias f4 [128]
00000000: 856e 6d3e 48f3 55bd 281c 9c3c 2309 8d3e
00000010: 1607 9f3d cf54 66be 4029 143e 0e04 4abe
00000020: 9762 67bd 1390 6fbe 0779 303e eda8 0f3c
00000030: 6c15 6abe 5bac 7bbd 6547 353e 1674 8abe
00000040: 3fbe 56be 7ce7 e1bd 8855 99bd ecef 593e
00000050: 18fd cebd ab23 693c df63 c1bc a1d9 8e3b
00000060: 0fad 903c c231 ddbd d7ea 553d 159f 4c3d
00000070: da2d 82bb e33f 43bd 7244 ebbd af81 e5b9
00000080: 1be0 103e 451e afbb b9b8 9e3d ea4e 313d
00000090: 33e5 423e 6837 e63d aa64 653c b7ac 36be
000000a0: c270 c8bd 9212 7c3e 19d4 38be 8dd1 a7bb
000000b0: 15a2 143c 4ee3 773e c330 4abe e451 f53d
000000c0: b091 013e 8b84 863e 47e7 593e 599a 903e
000000d0: 3ff6 063e f15c 2c3e acee 013e 9c2a 84be
000000e0: eb96 69be 6979 423e 4ca3 093e c841 8cbe
000000f0: 8980 debd 1837 c6bc 2139 19be 87a1 50be
00000100: cf24 003e e231 ccbd 3446 893e ae64 6c3e
00000110: f66e 5ebe 51ee 7ebe d6d9 5a3d 568c 6a3e
00000120: 59ac 06be a533 43be 784b 4b3e 8b24 abbd
00000130: a11c bebd e123 803e d8d6 5f3e c78b 1dbd
00000140: 9b1c a9bd 5b8b 413e 39c8 4fbe 559c 5dbe
00000150: 5977 08be 7d29 b1bd 25d3 79be bdb2 3f3d
00000160: bded 05bd cc3b 5ebe fa39 3cbd c80a b9bd
00000170: be5f feb9 542c 4c3e 1e70 543d 4c86 8cbd
00000180: c6e0 35be e551 b4bc ca76 1d3e 988a 82bd
00000190: fc22 05be d08f 1c3e 2039 47be 075b 773e
000001a0: 0e46 243e 560e b93a 1539 383e b451 8a3e
000001b0: c9db 8abd 75e1 d9bd 243c e53d e4e7 313e
000001c0: 595f 0e3e 3efa 77bd 569c 913a 8218 6fbe
000001d0: 1375 42be fda7 7ebe aaf8 fc3b 600f 213e
000001e0: 01d8 1dbe add2 5b3e 2b6e 7e3e 2409 d3bd
000001f0: 0485 59be 16b4 803e 820c 743e d8b9 553e
0.23186691 -0.052233964 0.019056395 0.27546033 0.077650234 -0.2249329 0.1446886 -0.19728109
-0.056490507 -0.23394804 0.17233668 0.008768302 -0.22859734 -0.061443668 0.17703016 -0.27041692
-0.2097101 -0.1103048 -0.07487017 0.21282929 -0.101068676 0.014229695 -0.023607193 0.0043594395
0.017660646 -0.10800506 0.052225914 0.0499564 -0.003972751 -0.04766835 -0.11487664 -0.00043774905
0.1414799 -0.0053441846 0.07750077 0.04328815 0.19032745 0.11241037 0.014001051 -0.17839323
-0.09787132 0.24616459 -0.18049659 -0.005121416 0.0090718465 0.24207804 -0.19745164 0.1197851
0.12653232 0.26272997 0.21279632 0.28242758 0.13179873 0.1683233 0.12688702 -0.25813758
-0.22811477 0.18991627 0.13441199 -0.27393937 -0.1086436 -0.024196193 -0.14963199 -0.20374118
0.12514041 -0.09970452 0.26811373 0.23085281 -0.21722016 -0.24895598 0.0534304 0.22905096
-0.13151683 -0.1906267 0.19853008 -0.083565794 -0.09282804 0.25027373 0.218593 -0.03846338
-0.08257409 0.18900816 -0.20291223 -0.21641667 -0.13326778 -0.086504914 -0.24396951 0.046801317
-0.032697428 -0.21702498 -0.04595373 -0.090352595 -0.0004851799 0.19938785 0.051864736 -0.068615526
-0.17761526 -0.022011707 0.15377346 -0.06374091 -0.13001627 0.15289235 -0.19455385 0.24155818
0.16042349 0.0014118652 0.17990525 0.2701546 -0.06780202 -0.10638706 0.111931115 0.17373616
0.1390356 -0.060541384 0.0011109214 -0.23349193 -0.18989973 -0.2486877 0.0077200728 0.15728521
-0.1541443 0.21467085 0.24846713 -0.10304478 -0.21242148 0.25137395 0.23832896 0.20871675

item_tower.fc.3.weight f4 [64, 128]
00000000: a0a0 1fbd 2035 ad3d 7bbf 59bd 07f1 a13d
00000010: 9f5e e93b 5c7e df3d 50a5 83bd f22a 99bc
00000020: 0fee 07bd 81d3 c1bc 41c9 97bc 150c 703d
00000030: ae75 28bd 17f0 87bd f0b0 a2bd 7dea 643d
00000040: 3b23 3fbb bb56 543d cd86 a0bd c0ff 60bc
00000050: 1c22 ce3d 80d9 803b 8a36 2c3b 7e47 753d
00000060: c68b 92b9 cc51 7db9 15a0 d53d 372e 7a3c
00000070: bffa 68bb 5e10 3e3d ceef b93c 3f94 123d
00000080: aa46 4e3d a456 533c 5b3d 783b 0dcd 093d
00000090: 9508 703d cb24 ac3d 2b25 dabd bd41 5ebd
000000a0: ec56 a53d 9393 713c 3203 883d ec14 03bd
000000b0: 6bf1 333d 4b3d aabd c150 d43b b5b2 9abd
000000c0: 83aa a83c 2a1b b5bd 8958 17bd 8ea5 413d
000000d0: c117 a93d 8e6f 8ebd a360 ff3c b9e4 573d
000000e0: d91d 4139 7e08 81bd 2613 6c3b 102a 5bbc
000000f0: e763 d13c 53f7 673a 2695 853d f99e 6e3d
00000100: 64a6 38bd 4b6d 69bd 8385 e53d 4268 abbd
00000110: ee77 e33c 8fec 9fbc 4eae ee3c e953 7fbd
00000120: 1087 333d e1e3 903d 4742 88bd 40b6 c6bb
00000130: 94fa 743a 8244 46bb b1b4 03bc ed12 233c
00000140: 101c a93b 93f4 313c cc9b 02bc 973c 21bb
00000150: 250f 52bd 74c0 833c 6b14 fc3c 0f9b 9c3c
00000160: f98f 04bc 40c8 2dbb 79b7 903c fbb5 3f3d
00000170: 9715 9c3d 4c34 90bd b3ae 78bc 21c2 89bc
00000180: 27b6 1c3c d4e4 87bd 9580 cdbc 7290 cebb
00000190: f993 053b 029b 953d ab10 e239 9865 123d
000001a0: 79bb 563c 622a babc cc4b 1c3d ebb2 12bc
000001b0: 5fdc 703c 4939 b03c c012 203d 96f2 743d
000001c0: 27f5 cf3c d6b5 97bd eeb0 a73d 583f b9bd
000001d0: ce21 923b e856 a83c 1cce bc3c ccfb 81bd
000001e0: 549b 53bd aee3 423d ada3 443d 230f a7bd
000001f0: ba49 293d 3dd9 31bd 4a47 bc3c 5370 a7bd
00000200: 3d93 4a3d 1bf5 003d 561a 88bd 1909 1bbd
00000210: e781 8abd b738 53bc 2f2b 37bd 7f35 c73c
00000220: 8529 b8bc d519 7c3b c5dd 96bc 9c25 953c
00000230: 80f0 53bd db25 06bd ed49 cb3d a5a0 4bbd
00000240: 91e9 c23c 1a8e 76bd b6ae 833d af3f 87b9
00000250: d82a 88bd 148b 163d acb4 19ba dbe2 26bd
00000260: 3ac8 1b3d be6b 4c3b 548e b9bd 3409 993d
00000270: d457 19bd 0c4f b73d 45d4 703d b66b 353d
00000280: da17 033d 6ac0 af3c 3f68 06ba 27b4 1dbd
00000290: 2735 1c3d bfe6 78bd fe77 50bd 2cc6 0f3d
000002a0: cfe8 583d 29ba 543c 2fa3 ca3c 4a40 02bd
000002b0: 5970 4e3d ffb9 06bd c98c 49bd ebe6 0dbd
000002c0: f4e2 71bc b845 bc3d 1ce5 b93d 5168 75bc
000002d0: 663e 80bd 8276 1d3d 1d97 47bc d37e 3abb
000002e0: 91a1 83b9 c2cb f4bb d085 1dbd a5cc 993c
000002f0: d95c fdbb eebb f1bc 5dd8 8cbd 0b92 61bc
00000300: 5016 bfbc 01e1 14bc a0ed 8fbd fe8d 413c
00000310: 2cd7 ec3b 3174 afbb 97a7 47bd 2114 86bd
00000320: 25d9 af3d 5425 013d 49ed 91bc 7e89 50bd
00000330: ded8 d23c 2fd1 b63d 585f c93c 9336 453d
00000340: f54f 42bb 1019 5a3c 5c99 9bbd fd53 473d
00000350: 3561 543d 0b40 4c3d 50ca b6bc baba a2bb
00000360: 1915 603c de61 20bd ef5e 973c 9aed 613d
00000370: dafc 1fbd 4996 8abb 474b a83c 9b71 5ebc
00000380: ce99 223d 5bdc 393d 29f8 f83a 10ec 89bd
00000390: b1c3 89bc 052b 59bd 0110 12bb 220c 933d
000003a0: b672 f83c 719e 8cbd caa9 2a3c ba84 84bd
000003b0: 219a ffbc ea79 8ebc e757 a3bc 8465 c43d
000003c0: d152 8fbd 620d 89bc 701a 9e3d a24a 583b
000003d0: bdb6 6ebc 879c bb3c 6297 473d 00c6 88bd
000003e0: 3c8b 803d 9ed0 4c3d 475e 3cbc b617 80bd
000003f0: 8ab5 c13d fc24 263b 6a14 6ebd 7c32 563d
-0.038971543 0.084573984 -0.053161126 0.079073004 0.0071218754 0.10912773 -0.06428015 -0.018697236
-0.033186015 -0.023660423 -0.018528583 0.058605272 -0.041127853 -0.066375904 -0.079439044 0.055887688
-0.0029165286 0.051840525 -0.07838211 -0.013732851 0.100650996 0.003932178 0.0026277625 0.059882633
-0.0002795143 -0.00024158432 0.10430924 0.015269808 -0.0035549847 0.046402328 0.022697356 0.03578591
0.05036036 0.012899075 0.0037878368 0.033642817 0.058601934 0.08405455 -0.106516205 -0.05426191
0.0807322 0.014744657 0.066412345 -0.032002375 0.043931406 -0.08312472 0.006479353 -0.07553617
0.020589119 -0.08843072 -0.036949668 0.047277026 0.08256484 -0.06954871 0.03117401 0.05270836
0.00018417033 -0.06300448 0.0036022156 -0.013376728 0.025560332 0.0008848805 0.065225884 0.058257077
-0.045080557 -0.056988996 0.11207106 -0.08369495 0.027767148 -0.01952198 0.02913585 -0.062335882
0.043829978 0.070747145 -0.066532664 -0.0060642064 0.00093452004 -0.0030253236 -0.008038686 0.009953243
0.005160816 0.010861534 -0.007971715 -0.0024602765 -0.051283974 0.01608298 0.030771455 0.019116906
-0.008090966 -0.0026517063 0.017665612 0.04680441 0.076213054 -0.07041225 -0.01517837 -0.0168162
0.009564913 -0.066354424 -0.025085727 -0.0063038403 0.0020382388 0.07304956 0.00043118498 0.03574142
0.01310622 -0.022725288 0.038158223 -0.00895379 0.014700978 0.02151169 0.03908038 0.05980166
0.025385452 -0.07407729 0.081880435 -0.09045285 0.0044595962 0.020549253 0.0230475 -0.063468546
-0.051661804 0.047580414 0.048007656 -0.08157184 0.041330077 -0.043420065 0.022983212 -0.08175721
0.049456824 0.03148375 -0.06645648 -0.037850473 -0.06763058 -0.01289194 -0.044718917 0.024317501
-0.022480736 0.0038467546 -0.018416295 0.01820641 -0.05174303 -0.032750946 0.099262096 -0.04971375
0.023793014 -0.060194112 0.06429808 -0.00025796655 -0.06648797 0.03675373 -0.0005863409 -0.04074369
0.038032748 0.003119215 -0.0906035 0.074724585 -0.037437275 0.08950624 0.058796186 0.044292174
0.03200517 0.021454055 -0.0005127228 -0.038501885 0.038136628 -0.06076693 -0.050895683 0.0351011
0.0529564 0.012983837 0.024736015 -0.031799592 0.05040011 -0.032892223 -0.04920653 -0.03464405
-0.0147635825 0.09192985 0.09076902 -0.014978484 -0.062619016 0.038443096 -0.012182024 -0.002845694
-0.00025106643 -0.007470579 -0.03845769 0.01877434 -0.0077320156 -0.029508557 -0.068772055 -0.0137677295
-0.02332607 -0.009086848 -0.07027745 0.011813639 0.007227799 -0.0053544273 -0.04874381 -0.06546808
0.08586339 0.03152974 -0.017813342 -0.050912373 0.025738176 0.08926617 0.024581596 0.04814775
-0.002964971 0.013311639 -0.0759761 0.04866408 0.051850516 0.049865764 -0.022313267 -0.004966107
0.013676905 -0.039155833 0.018477885 0.055158235 -0.039059497 -0.004229341 0.020543708 -0.01357689
0.03969746 0.045376163 0.0018994856 -0.067344785 -0.016816946 -0.053019542 -0.002228737 0.071800485
0.030328136 -0.06866158 0.010416457 -0.06470628 -0.031201424 -0.017392118 -0.019939376 0.09589675
-0.06998218 -0.016730014 0.07719886 0.003300347 -0.014569935 0.022901786 0.048728354 -0.066783905
0.06276557 0.05000364 -0.011497087 -0.062545225 0.09458454 0.0025351634 -0.058124937 0.05229424

item_tower.fc.3.bias f4 [64]
00000000: a0e7 d4bb 12d0 0a3d cda8 b83d 1acd e6bc
00000010: 6225 9bbc b0e3 893d 7fd2 a93d d69a c0bd
00000020: 2ae1 923d 19b6 d23d fdd0 113d 7575 a2bc
00000030: f808 03bd 965d 43bd 24ab 57bc b9d3 463d
00000040: 9ff6 57bc 292b 3a3c 3169 79bd b946 92bd
00000050: 8ca3 5b3b bc19 15b9 79ef 3c3d d8df 68bd
00000060: 637c 303d 6336 c93d d9c1 ab3c 704a 51bd
00000070: 7b05 b13d 84e7 babc ede6 893d b83a 253d
00000080: 909b 543d 3b0e 8fbd 0836 25bd a681 89bd
00000090: c833 55bd 7389 6f3d 9d66 3e3d 2933 00bd
000000a0: 358c cbbb b670 c2bc c5d0 443d bbbe 24bd
000000b0: b927 a1bc adde 013d 7f82 29bc a0b3 36bc
000000c0: 2734 223d 2312 543d f30b 863d 52b7 93bb
000000d0: 4c9b 4f3d 5ae1 5e3c 4ed7 833d 0c31 b6bd
000000e0: 471b a8bc 4849 313d 3893 b1bd 465c 123c
000000f0: 63c5 57bd 972e 9b3d 9127 b73d b37a 38bd
-0.0064973384 0.033889838 0.09016571 -0.028173972 -0.018938724 0.06732881 0.08292102 -0.094045326
0.07171853 0.102886386 0.035599697 -0.019831399 -0.031990975 -0.047696672 -0.013163362 0.04854176
-0.013181358 0.011362829 -0.060891334 -0.071423955 0.003351423 -0.00014219334 0.046126816 -0.0568541
0.043087374 0.098248266 0.020966457 -0.05109638 0.086436234 -0.022815473 0.06733499 0.0403392
0.05190617 -0.06985136 -0.04033473 -0.067141816 -0.052051336 0.05848069 0.04648458 -0.03129879
-0.0062117823 -0.023735385 0.04805066 -0.040220957 -0.019672262 0.0317065 -0.010346054 -0.011151224
0.039600518 0.05177511 0.06545248 -0.0045079375 0.050685212 0.013603533 0.064375505 -0.08896074
-0.02052082 0.043282777 -0.08670658 0.0089331325 -0.052678477 0.07577246 0.089430936 -0.04503889

sparse_cross.fc.weight f4 [64, 64]
00000000: bf74 2ebd 4066 e33d a313 ab3d e538 8ebd
00000010: 6d64 1c3b b422 ae3c 1108 be3d 9288 2d3d
00000020: 8838 99bd d72a eb3d beb3 f53b d818 bebd
00000030: 3b80 bb3b 5b97 c83c 4b4f 0bbd 1af4 d3bd
00000040: dbcd be3d ae7d e8bc e645 d43d b0bc e5bc
00000050: 708c d1bb 5912 043d ad13 e83d 4da4 9abd
00000060: 53b7 3dbd 23a2 aa3d ffdc 7c3c 5c64 c83d
00000070: 7106 823d 4acd 7d3c 915e d6bd 50e9 223d
00000080: fc76 09be 10b5 7bbc 1c9f 873d 80f2 a2bd
00000090: 681e 793c 0c50 903d d007 b13c 1f21 91bd
000000a0: b395 903d 0159 d03d 50eb 563d 87f9 f3bd
000000b0: 8b18 c9bd b08d a73d dda0 a4bd bfe6 d5bd
000000c0: c154 933d d33f 073d 36d8 22bd a1c4 6f3d
000000d0: df0a 03bd f382 56bd bf27 ee3c 8201 0c3c
000000e0: 76e3 a8bd cd66 b1bd 23d7 c03d e17d 2bbd
000000f0: ed15 42bd 0c00 553c 3687 ba3d 574b 82bd
00000100: b6c9 dfbd b190 b0bc 7939 3dbd 70da 95bd
00000110: eb90 db3c bb15 83bd 6c34 41bb 5148 ac3d
00000120: 8a7f 3dbc 08c5 d93d 41c0 f13d a5d7 433c
00000130: 050e 54bb 96c0 b73d b92f 11bd ca95 5e3d
00000140: 7a92 b73d 6608 2c3c a089 803d a84e 7ebd
00000150: 56c8 a9bd c196 ff3d ceea 493c 7127 b7bc
00000160: e2b4 943d 72ce 10be e25f a6bd a41a fa3c
00000170: 3ef3 a33d c1b7 593c 52a3 5cbd 1d79 b4bc
00000180: c173 1bbd fd7f 653d 4a4e 1e3d 2706 7a3d
00000190: 1c0e 9dbd 38e5 a83d 3264 f33c 5f01 043e
000001a0: 9452 2d3d 6e4c 82bd 8f5d acbd 36a6 c93c
000001b0: 7151 373d f378 deb9 cc39 a9bd 48a2 d0bd
000001c0: b6ca 8e3d 89e1 c23d 7139 e5bd 9916 75bc
000001d0: 3b37 b03d b931 8dbc dbd8 6bbd 53c8 513d
000001e0: 2b95 a5bc 79db aebd fffa d93d 7702 7dbd
000001f0: 2750 07bc 6112 ba3c 10f7 b73d 48a4 c3bd
00000200: d3be fd3d 5179 c93c 8825 28bd 0a70 b23d
00000210: ccaa bc3d da39 f6bc 3eb6 023e c1e5 91bd
00000220: f742 a7bd a657 8c3d c934 87bd be9c fa3d
00000230: 5b5a 2fbd 000b 78bd 0d90 9e3d cae2 773d
00000240: 91ef e03d f3c6 b43d 1f27 2dbd fdbc 8d3d
00000250: cad8 c53a c83e c7bd 6813 af3d 02f8 4fbd
00000260: 5077 4c3d 278b 62bd 067c 393c bfbf 27bd
00000270: 2641 723d 6af6 e33d 72a7 d4bd 8c2f 463d
00000280: f24b 00bd e93c 55bd f341 1fbc 54a4 92bd
00000290: 2ece 9dbd 1154 05bd a818 103d 8326 89bd
000002a0: a3b9 fcbc 6edd e03d 9424 9abd cfcb 9f3d
000002b0: f9fd 813d b6d6 cdbd 3122 1f3b 7740 c7bc
000002c0: 1ae9 d8bd 4483 e73d eab5 b53d a2fc 18bc
000002d0: 9336 b6ba 4531 0a3d 03d2 8f3d 4fd6 75bd
000002e0: 7583 743d 5785 92bc 8921 b13b 49f4 a83c
000002f0: 7136 cd3d e6f3 823d fc3a fe3d 2baf b7bd
00000300: 98c9 f13c cb76 483d 9a0e 3e3d 3566 e53c
00000310: eb82 b53c e2aa bfbd 5151 173d c28d 5b3c
00000320: 7e63 5dbd fdf0 fb3d dc87 95bd 679a 94bd
00000330: d649 e53d cbea a6bc ccc2 92bd cb86 b43d
00000340: 0a91 2c3d 1def e8bb b0eb a3ba 1266 27bd
00000350: 337b aebd 716b f63c 9aaa 153d c387 e6bd
00000360: c298 eabd 92b7 afbc 5e39 1b3d 5900 413d
00000370: a51a 79bd 848d 9f3d ff48 c33b 013d 49bd
00000380: b737 04be 7484 c13d 885e 3bbd 60c7 6ebd
00000390: c38b 843d 755b 37bd 7493 c1bc a4ad bdbd
000003a0: e420 573d 0ab6 e63c b7a7 cebd 0488 86bd
000003b0: 3ac7 6abd f361 86bd 1cfb 2e3d c12d ccbc
000003c0: b3dd d73d 384a 6abc 040f 9dbd 3755 613d
000003d0: 628f 693d 0702 923c 834d 14be f326 253d
000003e0: 440d ab3d 2a59 f73d 1eca edbd b2e7 843d
000003f0: ba33 6abc dc6d f93c ad69 6fbc 3b04 44bd
-0.042591807 0.11103487 0.08353355 -0.069444455 0.002386357 0.021256782 0.09278882 0.04236657
-0.074814856 0.114827804 0.0074982336 -0.09282082 0.0057220734 0.024486234 -0.034011167 -0.10349293
0.093166076 -0.028380241 0.103648946 -0.028044075 -0.0063949153 0.03224406 0.11331878 -0.07550869
-0.04631741 0.083317064 0.015433549 0.09784767 0.06348885 0.015490839 -0.10467256 0.039773285
-0.13424295 -0.015362993 0.066221446 -0.079564095 0.015205003 0.07046518 0.02161017 -0.070863955
0.07059803 0.10173226 0.052470505 -0.11912828 -0.09819134 0.081813216 -0.08038495 -0.10444402
0.071939 0.033019852 -0.039756976 0.05853713 -0.03199279 -0.052370977 0.029071687 0.008545281
-0.0824651 -0.08662186 0.09416034 -0.041868094 -0.04738419 0.013000499 0.09107821 -0.06362026
-0.10927145 -0.02155337 -0.04619739 -0.07317054 0.0268025 -0.06400629 -0.0029480709 0.08412231
-0.011566052 0.10633284 0.11804248 0.011953269 -0.003235699 0.0897228 -0.035445902 0.05434207
0.08963485 0.010500049 0.0627625 -0.06208673 -0.08290164 0.12479926 0.012324048 -0.022357674
0.07261063 -0.14141253 -0.08123757 0.030530281 0.08005379 0.013288439 -0.053866692 -0.022030408
-0.03795219 0.056030262 0.03864888 0.061041024 -0.07668707 0.08246845 0.029710863 0.12891148
0.04231508 -0.06362234 -0.084162824 0.024615388 0.044755403 -0.00042433254 -0.08262977 -0.10187203
0.06972258 0.09515674 -0.11192597 -0.014959001 0.086042844 -0.017235624 -0.057579856 0.051216435
-0.02021273 -0.08537955 0.10643577 -0.06176993 -0.008258856 0.022713842 0.0898267 -0.095528185
0.123899125 0.024593981 -0.041051418 0.08712776 0.092122644 -0.030056883 0.12764832 -0.071239
-0.081670694 0.06852655 -0.06601865 0.122369274 -0.04281078 -0.060557365 0.07742319 0.060519017
0.10983194 0.08827009 -0.042273637 0.06920812 0.0015094515 -0.097287714 0.08548623 -0.050773628
0.049918473 -0.055308487 0.011321073 -0.040954348 0.05914416 0.11130984 -0.103835 0.048385188
-0.031322427 -0.05206004 -0.009720313 -0.07160249 -0.07705341 -0.032550875 0.035179764 -0.06696799
-0.030850237 0.10979734 -0.07526508 0.07802545 0.063472696 -0.100507185 0.0024281854 -0.024322731
-0.105913356 0.11304334 0.08872588 -0.009337576 -0.0013901762 0.033738393 0.070224784 -0.060018834
0.05969568 -0.017885847 0.005405609 0.020624297 0.100201495 0.06394176 0.12413594 -0.089689575
0.029515073 0.048941415 0.046400644 0.028002838 0.022157153 -0.09358765 0.036942784 0.013400497
-0.05404996 0.12301824 -0.07301304 -0.072560124 0.11195724 -0.02037563 -0.07166061 0.08814772
0.042130508 -0.0071085826 -0.0012506153 -0.040868826 -0.08519592 0.030080529 0.03653965 -0.11256363
-0.114549175 -0.021449838 0.037896506 0.047119472 -0.060816426 0.07790664 0.0059596295 -0.049130443
-0.12911879 0.094490916 -0.04574445 -0.058295608 0.0647197 -0.044764955 -0.023629881 -0.09261635
0.0525216 0.028162975 -0.10090583 -0.06568912 -0.057318904 -0.06561651 0.042719945 -0.02492416
0.10540333 -0.014299922 -0.0766888 0.055012908 0.057021506 0.017823232 -0.14482693 0.040320348
0.083521396 0.120775536 -0.116108164 0.06489505 -0.014294559 0.030447893 -0.014612597 -0.047855597

sparse_cross.fc.bias f4 [64]
00000000: c149 9a3d f591 8ebd 48c6 b83d 64fe afbd
00000010: 0855 a0bd 6077 dfbd 6a45 d8bd 4aa3 e23d
00000020: 5aef 963d f807 df3d f39a 00bd 60b2 9bbd
00000030: 2888 7bbd 1018 8ebd fcc5 5bbd 5260 ae3d
00000040: 212a 66bc 7a67 563d 2b27 afbd a629 2dbc
00000050: 434e 99bd 67e1 f53d 603b 06bd 7208 b7bd
00000060: 39d1 a2bd 83d2 8dbc 72e2 50bd 736a 943c
00000070: 8cc4 cebd dba7 96bd 3792 45bc 5303 47bd
00000080: 0d47 44bd 3242 39ba a4a6 14bd c30b ecbc
00000090: 6784 a8bc 44cb 9bbb d0f2 cb3b e11f 9d3d
000000a0: 501d d5bd dbb7 003d 2d3c 2bbd 8261 a33d
000000b0: 0b2f 723d fb54 67bd c874 c8bd 4b89 8bbd
000000c0: 02a3 2dbd 3315 b1bd 936e c93d 9934 183d
000000d0: 9f43 58bd cfb0 983d bc65 9cbd 83a4 1dbd
000000e0: f16d a93c fc86 2b3d 033e 77bd f1f6 dbbd
000000f0: 2adb 043d 1cbe b23d abdd 7b3d e69e b839
0.07533599 -0.06961433 0.09022194 -0.08593443 -0.078287184 -0.10911441 -0.10560115 0.11066301
0.073698714 0.10890192 -0.03139777 -0.07602382 -0.061409146 -0.06938183 -0.05365561 0.085144654
-0.01404813 0.052344777 -0.085523926 -0.010569012 -0.0748563 0.12005883 -0.03277147 -0.08937158
-0.07950062 -0.017312294 -0.050997205 0.018117165 -0.10096082 -0.07356235 -0.012058786 -0.048587155
-0.04791932 -0.0007067054 -0.036291733 -0.028814202 -0.020570947 -0.0047544558 0.006224014 0.07672096
-0.104059815 0.03142534 -0.041805435 0.079775825 0.059126895 -0.056477528 -0.09787899 -0.06813296
-0.042391784 -0.086466216 0.098355435 0.037159536 -0.052798864 0.074555986 -0.07636592 -0.03848697
0.020682307 0.041876778 -0.060361873 -0.1074046 0.032435574 0.08727667 0.061490696 0.00035213603
