models/dumps/TwoTowerModel_v1.pth (torch, 82476 bytes, 8 tensors)

user_tower.fc.0.weight f4 [128, 11]
0	0x3e8c654b	0.2742103
1	0xbe2c5051	-0.16827513
2	0x3ccfa810	0.025348693
3	0x3e6f4c96	0.23369059
4	0x3e9e5af0	0.30928755
5	0xbe7081bf	-0.23486994
6	0xbd223e11	-0.039609972
7	0xbdabde15	-0.08391968
8	0x3e0030a9	0.12518562
9	0xbe4cd94c	-0.20004767
10	0x3e0eece8	0.1395756
11	0x3e39f7e3	0.18160968
12	0xbe202927	-0.15640698
13	0x3e817f41	0.252924
14	0x3e0e3aca	0.13889614
15	0x3e774976	0.24149117
16	0xbd41c2ce	-0.04730492
17	0x3d20307e	0.039108746
18	0x3d4a09b2	0.049325652
19	0x3e900d4f	0.28135154
20	0x3d2a3fa4	0.0415646
21	0xbe0bb485	-0.13643081
22	0x3e356d11	0.17717387
23	0xbdfc762d	-0.12327228
24	0x3e11037a	0.14161482
25	0xbd38649f	-0.045017835
26	0xbe206e68	-0.15667117
27	0xbe858aef	-0.2608256
28	0x3a116a3d	0.0005547142
29	0x3b8fefeb	0.004392614
30	0xbda1f776	-0.079085276
31	0xbd97a7de	-0.07405065
32	0x3e40f601	0.18843843
33	0x3e8a200b	0.26977572
34	0xbdf4df5f	-0.11956667
35	0x3dff267d	0.12458513
36	0x3d96e1ea	0.073673084
37	0xbcf0832c	-0.029359423
38	0xbd473f2c	-0.04864423
39	0x3d8af2db	0.06784602
40	0xbe90e08d	-0.2829632
41	0x3e5f479d	0.21804662
42	0x3d841cc2	0.064507976
43	0xbe812666	-0.25224608
44	0x3de55277	0.111973695
45	0xbe84e552	-0.25956208
46	0xbe8e7976	-0.27827042
47	0x3d8dbc66	0.069207
48	0xbe10beb0	-0.14135242
49	0xbe803916	-0.25043553
50	0xbe5dff5f	-0.21679448
51	0x3e874230	0.26417685
52	0x3c549356	0.012974581
53	0x3d7327ea	0.059364237
54	0x3e2530b9	0.16131867
55	0xbe3bcf19	-0.1834072
56	0x3e7fc11c	0.24976009
57	0x3d0e2b00	0.034708977
58	0x3c2b3436	0.01044946
59	0xbe6bc460	-0.2302413
60	0x3e4d6b1f	0.20060395
61	0x3d3ede9e	0.046599023
62	0xbddc4b13	-0.10756507
63	0xbe816c60	-0.25277996
64	0x3e28813b	0.16455548
65	0x3c0d00c3	0.008606139
66	0xbd1e7b17	-0.038691606
67	0xbb313c0a	-0.0027043843
68	0xbd363d35	-0.044491965
69	0x3b140397	0.0022585148
70	0x3d6ef0d1	0.05833513
71	0xbda555ca	-0.080730036
72	0x3df035ad	0.11728988
73	0xbcc838a2	-0.024441067
74	0xba808d17	-0.0009807673
75	0x3dcafaa2	0.09911086
76	0xbe6032fe	-0.21894452
77	0x3d70a30b	0.05874924
78	0xbd392fe0	-0.045211673
79	0xbe7cef8f	-0.2470076
80	0xbcc49bb7	-0.024000032
81	0xbe37bb7d	-0.17942615
82	0x3b8af4bd	0.004240601
83	0x3d3f01f6	0.04663273
84	0x3e3d8558	0.18507898
85	0x3e550d9d	0.20805974
86	0x3e993324	0.2992183
87	0xbdc90e70	-0.09817207
88	0x3dfd50d8	0.12368935
89	0x3b24e096	0.0025158278
90	0xbcedf466	-0.029047202
91	0xbe650814	-0.22366363
92	0xbde4c750	-0.11170828
93	0x3e696544	0.22792536
94	0xbe62c18a	-0.22144142
95	0xbe72f4b2	-0.23726156
96	0x3b209cdb	0.0024507556
97	0xbe36ea69	-0.17862858
98	0xbe6266aa	-0.22109476
99	0xbe6c796b	-0.23093192
100	0x3e8d82b6	0.27638787
101	0xbc239bc2	-0.009985866
102	0x3e420682	0.18947795
103	0xbe612c02	-0.21989444
104	0xbe0d8ba4	-0.138228
105	0x3e461407	0.19343577
106	0x3e83fdf7	0.25779697
107	0xbe598f3d	-0.21246047
108	0xbd8d2f72	-0.06893815
109	0x3d58c74c	0.05292444
110	0x3e7597ff	0.23983763
111	0xbd004b05	-0.031321544
112	0x3e7763f7	0.24159227
113	0x3ddc859f	0.10767674
114	0x3d5b6882	0.053566463
115	0x3e96749d	0.29385844
116	0xbd171bdc	-0.036891803
117	0x3d9e19f8	0.07719797
118	0xbe776d99	-0.24162902
119	0x3e8d7291	0.2762647
120	0x3e4bba00	0.19895172
121	0x3e58acb9	0.21159638
122	0xbdc6c653	-0.09705796
123	0xbe25e73b	-0.16201489
124	0xbe48bf57	-0.1960424
125	0xbe63e0d6	-0.22253737
126	0xbdba4bfb	-0.090965234
127	0x3e482d91	0.19548632
128	0xbd53aaaa	-0.05167643
129	0xb8038a00	-3.1361356e-05
130	0x3d829b38	0.06377262
131	0x3df9b0f8	0.12191957
132	0x3cc216ec	0.02369257
133	0xbd99b258	-0.075047195
134	0xbe82d0f3	-0.2555004
135	0xbd2fc99a	-0.04291687
136	0xbe61831f	-0.22022675
137	0xbe33279d	-0.1749558
138	0x3d83ff2d	0.06445155
139	0x3e759ba9	0.23985161
140	0x3dc3e50a	0.0956517
141	0x3e947e22	0.29002482
142	0x3e074935	0.1321152
143	0xbdba2e08	-0.09090811
144	0xbce85bb2	-0.028364036
145	0xbe83bcf2	-0.2573009
146	0x3d962d19	0.073328204
147	0x3e886e45	0.2664663
148	0xbe7ed141	-0.24884512
149	0x3e079989	0.13242163
150	0x3e80b354	0.25136817
151	0x3e7d1c96	0.24717936
152	0x3e2f5053	0.17120485
153	0xbd79514f	-0.060868558
154	0x3c787d3e	0.015166579
155	0x3e20864b	0.15676229
156	0xbd930156	-0.07177989
157	0xbbebd849	-0.007197414
158	0xbd6ffaa3	-0.058588635
159	0x3d7316dc	0.059347972
160	0xbde6808b	-0.112549864
161	0xbe7328db	-0.23746054
162	0x3bd3ceea	0.006463875
163	0x3e2a1f95	0.1661361
164	0xbe951cf7	-0.2912366
165	0xbe0ece9d	-0.13946004
166	0x3e02b05b	0.12762587
167	0xbe698dff	-0.22808073
168	0xbd16bd6f	-0.03680175
169	0xbe6d4efc	-0.23174661
170	0x3e15d54c	0.14632148
171	0x3dc27c04	0.0949631
172	0xbe5a36c1	-0.2130995
173	0x3dcbab97	0.099448375
174	0xbdf8fa9f	-0.12157177
175	0xbacd2cfe	-0.0015653668
176	0xbce1c624	-0.027560301
177	0x3e5543ae	0.20826599
178	0xbe3bef88	-0.18353093
179	0xbe80be45	-0.25145164
180	0x3e21268e	0.15737364
181	0x3ae817d0	0.0017707292
182	0x3e639fad	0.2222888
183	0x3e542bf3	0.2071989
184	0xbe58be89	-0.21166433
185	0x3e4a0108	0.19726956
186	0xbe4a7dcf	-0.19774555
187	0x3e6d9be1	0.23203994
188	0xbe48dfb8	-0.19616592
189	0x3e251865	0.16122587
190	0x3e96124d	0.29310837
191	0xbd346701	-0.044043545
192	0x3c1133df	0.008862465
193	0x3e3be787	0.1835004
194	0xbe7d7c6a	-0.24754491
195	0xbe6ac022	-0.22924855
196	0xbcc45bcd	-0.023969555
197	0xbc6b94e1	-0.014378757
198	0xbde9d2e5	-0.11417178
199	0x3e2fee04	0.1718064
200	0x3d685636	0.056722842
201	0x3e392841	0.18081762
202	0x3b97c3d1	0.0046314974
203	0x3c81f3ab	0.01586326
204	0x3e41ae72	0.18914202
205	0xbd742dff	-0.059614178
206	0x3df08546	0.1174417
207	0x3cf2215d	0.029556924
208	0x3e8e775e	0.27825445
209	0x3c3f535a	0.011677587
210	0xbe69d7cc	-0.22836226
211	0xbe5cbb5d	-0.21555848
212	0xbe5ce91c	-0.21573299
213	0x3e8e1b76	0.27755326
214	0xbdf056c4	-0.11735299
215	0x3d963c38	0.073357046
216	0x3ccb25eb	0.024798354
217	0xbdb7a053	-0.08966126
218	0x3e8ee274	0.27907145
219	0xbdb42cb7	-0.08797591
220	0x3df7148a	0.120644644
221	0x3d5da5c5	0.05411317
222	0x3e846baa	0.2586339
223	0x3dc568c8	0.09639126
224	0x3e868ed9	0.2628086
225	0x3e688730	0.2270782
226	0x3e4f8a7d	0.20267673
227	0x3e9d18b3	0.30682907
228	0x3d9f1daa	0.0776933
229	0x3d9784ec	0.073984
230	0xbdfcab68	-0.12337381
231	0xbe29a714	-0.16567641
232	0x3e8f97a7	0.2804539
233	0xbe59e4bd	-0.21278663
234	0xbb918dee	-0.004441968
235	0x3c4d2831	0.012521789
236	0xbe332041	-0.17492773
237	0x3dae6419	0.08515186
238	0x3e64d794	0.22347862
239	0x3e35a547	0.1773883
240	0xbe619a1c	-0.22031444
241	0xbdf2c653	-0.118542336
242	0xbe66c950	-0.22537732
243	0x3e05f879	0.13083066
244	0xbe284819	-0.16433753
245	0x3bfb103b	0.007661847
246	0x3e900974	0.28132212
247	0x3e8f9738	0.28045058
248	0x3e15e4e8	0.14638102
249	0xbe07813a	-0.1323289
250	0xbe3a626d	-0.18201609
251	0xbe08ad5b	-0.1334738
252	0xbe1dd01e	-0.15411422
253	0x3e8b1a1f	0.27168366
254	0x3e927328	0.28603482
255	0x3e7b8b44	0.24564844

user_tower.fc.0.bias f4 [128]
0	0xbe8b55d3	-0.27213916
1	0xbe3681b8	-0.17822921
2	0xbe8408e4	-0.25788033
3	0x3df2ad81	0.118494995
4	0x3e8fe8b4	0.28107226
5	0x3e6e0c8b	0.23246972
6	0xbe342a36	-0.17594227
7	0x3d83a667	0.06428223
8	0xbe6ecac5	-0.23319538
9	0xbe0a8be0	-0.1352992
10	0xbe640452	-0.22267273
11	0x3e13bfae	0.14428589
12	0x3e87bf3a	0.26513082
13	0x3d50901f	0.050918695
14	0x3e4f8f9b	0.20269625
15	0x3e975b3e	0.295618
16	0xbbc0765d	-0.005873485
17	0xbd4a4983	-0.049386512
18	0x3e5b3bc5	0.21409519
19	0x3e0a0f77	0.13482462
20	0xbe3f812a	-0.18701616
21	0x3e64029f	0.22266625
22	0xbe500938	-0.20316017
23	0xbe4456dc	-0.19173759
24	0x3e937f22	0.28807932
25	0x3e416c89	0.18889059
26	0xbdb464ca	-0.088082865
27	0xbe7b68f6	-0.24551758
28	0x3e239fc0	0.15978909
29	0xbe13fb22	-0.14451268
30	0x3e0eaef0	0.13933921
31	0xbe94e570	-0.29081297
32	0x3dc999bd	0.098437764
33	0x3e666e63	0.22503047
34	0xbe82f66e	-0.25578636
35	0xbd1c9ff6	-0.03823849
36	0xbda18f28	-0.07888633
37	0x3d293763	0.041312587
38	0x3e023171	0.12714173
39	0x3e94efc6	0.29089183
40	0x3ce8ddb7	0.028426034
41	0xbdab477f	-0.08363246
42	0x3e1518c6	0.14560232
43	0xbe298815	-0.16555817
44	0xbe8b7dff	-0.27244565
45	0xbe53a2eb	-0.20667617
46	0xbce915c9	-0.02845277
47	0x3e4d950d	0.2007639
48	0xbe5383a1	-0.20655681
49	0xbd353319	-0.044238184
50	0xbd4f71f7	-0.050645795
51	0xbd1a858c	-0.037725016
52	0x3b104d4f	0.0022018736
53	0xbe21b29a	-0.15790787
54	0x3e55e88f	0.20889495
55	0xbe021cd6	-0.12706313
56	0xbdc34828	-0.09535247
57	0x3ea27287	0.31728002
58	0x3c7cd9af	0.015432759
59	0xbdc0c2a1	-0.094121225
60	0xbe8d8ebe	-0.27647966
61	0xbe583837	-0.21115194
62	0x3d93aa3e	0.072102055
63	0xbdb5e3ba	-0.08881326
64	0x3def6c3a	0.116905645
65	0xbe81692f	-0.2527556
66	0x3e8b93f2	0.2726131
67	0x3e690038	0.2275399
68	0x3e9ffe8c	0.3124889
69	0x3e7c88e7	0.24661599
70	0x3ccd8e78	0.025092348
71	0xbe5a9f99	-0.21349944
72	0x3e85cf60	0.26134777
73	0xbe720710	-0.23635507
74	0x3d3340e7	0.043763068
75	0x3d29e0fc	0.041474327
76	0x3df96531	0.12177504
77	0xbdb9e210	-0.09076321
78	0xbe47a76b	-0.19497459
79	0x3ccb694a	0.02483048
80	0xbd4fd1ae	-0.050737076
81	0x3d4419dc	0.047876224
82	0xbe773d40	-0.24144459
83	0xbe6c0206	-0.23047647
84	0x3dd7b77d	0.105330445
85	0x3e996fba	0.29968053
86	0xbe735307	-0.23762141
87	0x3e85f74c	0.26165235
88	0xbdc673ad	-0.09690032
89	0x3e7ab100	0.24481583
90	0xbe8b0860	-0.27154827
91	0x3cb01bc6	0.021497618
92	0x3df602d7	0.120122604
93	0x3e00b76d	0.12569971
94	0xbe845139	-0.25843218
95	0xbddd31a8	-0.10800487
96	0x3e1c84a5	0.15284975
97	0xbe3696a8	-0.17830908
98	0x3e1f524c	0.15558738
99	0xbe07fae3	-0.132793
100	0xbda29934	-0.079393774
101	0xbe378600	-0.1792221
102	0xbd922d17	-0.071375065
103	0xbe4f3b2f	-0.2023742
104	0x3e3914f7	0.18074404
105	0xbe6600a8	-0.22461188
106	0x3e8dae1a	0.2767189
107	0xbe3ba419	-0.18324317
108	0xbd3b1d51	-0.045682255
109	0x3d3cc148	0.046082765
110	0x3cb44e8a	0.022010107
111	0x3e95e145	0.2927343
112	0xbce98544	-0.028505929
113	0xbde2a68f	-0.11066925
114	0xbe1b58df	-0.1517062
115	0xbe2eb51d	-0.17061277
116	0x3e7bf0a6	0.24603519
117	0x3dc7a842	0.097488895
118	0xbe810d49	-0.25205448
119	0xbe39e943	-0.18155389
120	0xbd6c8c84	-0.057751194
121	0xbc82c52a	-0.015963156
122	0x3e774b55	0.2414983
123	0xbe69b4be	-0.22822854
124	0xbe1c4941	-0.15262319
125	0x3df1e05f	0.118103735
126	0xbe94a69a	-0.29033357
127	0x3d4e8493	0.0504194

user_tower.fc.3.weight f4 [64, 128]
0	0xbdba0971	-0.09083832
1	0xbd842fcf	-0.06454431
2	0xbd5c6994	-0.053811625
3	0x3daf4f8e	0.08560096
4	0x3b3842fc	0.0028116098
5	0xbd4cb603	-0.049978267
6	0xb9f9e0a3	-0.00047660348
7	0x3c0f2cc5	0.008738701
8	0x3d012aab	0.031534832
9	0xbd3c5503	-0.04597951
10	0x3d40e37f	0.047091957
11	0xbd7c819d	-0.061647046
12	0x3d9dbff2	0.07702626
13	0x3d8ce861	0.0688026
14	0x3b63ae42	0.0034741317
15	0x3dda8c0a	0.106712416
16	0x3d43458f	0.047673758
17	0x3d8f9397	0.070105724
18	0x3dbb122f	0.091343276
19	0xbcd02844	-0.025409825
20	0xbd4a87a5	-0.049445767
21	0x3d42dd16	0.047574125
22	0xbdb2213f	-0.086977474
23	0x3d836f62	0.06417729
24	0x3cb7f81c	0.022457175
25	0x3d8be957	0.068316154
26	0xbd20f8b6	-0.03929969
27	0x3d4ee6fc	0.050513253
28	0xbd3a5d90	-0.045499384
29	0x3a343d5d	0.0006875599
30	0x3cd0c9ea	0.025486905
31	0xbcfb0725	-0.030643055
32	0x3dbbeb32	0.09175719
33	0xbca22eae	-0.01979765
34	0x3d8b933d	0.06815193
35	0x3d9d1851	0.076706536
36	0x3dc69d38	0.09697956
37	0xbd80a4e9	-0.06281454
38	0x3d499b5d	0.04922043
39	0x3d3e0836	0.04639455
40	0x3da28f20	0.07937455
41	0xbcc3f887	-0.023922218
42	0x3dbf288d	0.09333906
43	0x3d638f64	0.05555667
44	0x3cfb0838	0.030643567
45	0x3b971028	0.0046100803
46	0x3b70fa43	0.0036770261
47	0x3d1758b2	0.03694982
48	0x3d0ab5e2	0.033864863
49	0x3d770c03	0.06031419
50	0x3c4c661b	0.012475516
51	0xbd7fa438	-0.06241247
52	0x3cdb54d2	0.026773844
53	0x3cbb2fc6	0.022849929
54	0xbd967758	-0.07346982
55	0x3d0577e8	0.032585055
56	0xbb6ac035	-0.003582013
57	0x3da635e2	0.08115746
58	0xbd62e4c1	-0.055393938
59	0xbd76727c	-0.060167775
60	0x3c05813e	0.0081484895
61	0xb88098cc	-6.131976e-05
62	0xbd767895	-0.06017359
63	0xbb9163b5	-0.004436935
64	0x3da4e554	0.08051553
65	0xbd3989ee	-0.045297556
66	0xbd168b46	-0.036753915
67	0xbd9252f6	-0.0714473
68	0x3d8862b9	0.06659455
69	0x3d15948c	0.03651862
70	0xbbe6046c	-0.00701957
71	0x3c8d1492	0.017221723
72	0x3d8a5356	0.06754176
73	0x3b4ea0f2	0.0031529036
74	0xbd3458fb	-0.04403017
75	0x3c8273f7	0.015924437
76	0x3d935ede	0.07195829
77	0x3d1150a3	0.03547729
78	0xbd1b1379	-0.037860367
79	0x3d81097e	0.063006386
80	0xbd97bc48	-0.07408959
81	0x3d8b87a3	0.0681298
82	0x3d731472	0.05934567
83	0x3d63d123	0.05561937
84	0x3d4efd44	0.0505345
85	0x3d343bd7	0.04400238
86	0x3c28f126	0.0103114005
87	0x3cf0878a	0.029361505
88	0x3c1ded0d	0.009639037
89	0xbd44e847	-0.04807308
90	0xbc86469c	-0.016391091
91	0x3d7bc11a	0.061463453
92	0x3d3d9bd1	0.046291176
93	0x3cc194ef	0.023630587
94	0x3d2ec256	0.042665802
95	0x3cafe2c2	0.021470431
96	0x3d80f1ab	0.062960945
97	0xbcbbe682	-0.022937063
98	0x3cfc5bdd	0.030805523
99	0x3da19c7d	0.07891176
100	0xbd794540	-0.060857058
101	0xbbe2140e	-0.0068993634
102	0x3cdec477	0.027193291
103	0xbd4dcbb9	-0.050243113
104	0x3d0c5b35	0.03426667
105	0x3d369848	0.04457882
106	0xbd486260	-0.048921943
107	0x3c8d2e52	0.017234001
108	0x3d4b70f7	0.04966828
109	0xbd45b600	-0.04826927
110	0x3d52b073	0.051437806
111	0x3cb8aabc	0.02254235
112	0xbbccdba4	-0.006251769
113	0x3d20beb4	0.03924437
114	0xbd94e952	-0.07271065
115	0x3d6fa40c	0.058506057
116	0xbd7557ec	-0.059898302
117	0xbceb2022	-0.028701846
118	0x3b435f46	0.0029811426
119	0xb94c3758	-0.00019475573
120	0x3d95f8a7	0.07322817
121	0x3bcde9ef	0.0062839906
122	0x3d942d53	0.072352074
123	0x3add7ded	0.0016898491
124	0x3b512d8c	0.0031918017
125	0xbd616341	-0.055026297
126	0xbaf21b2f	-0.0018471236
127	0xbceb58dc	-0.028728895
128	0x3c649f82	0.013954045
129	0xbc1715ab	-0.009221475
130	0x3c913c98	0.017729089
131	0x3d26859c	0.040654764
132	0x3b55c2e3	0.0032617382
133	0x3d30b9ef	0.04314607
134	0x3ceb655e	0.02873486
135	0x3dbd6373	0.09247484
136	0xba91d3cf	-0.0011125746
137	0xbc3f44b3	-0.011674094
138	0xbdae2a3d	-0.0850415
139	0x3dc22edf	0.09481596
140	0xbd236b13	-0.039897036
141	0x3d84e76a	0.06489451
142	0x3db0505b	0.086090766
143	0xbb94a1d7	-0.0045358944
144	0xbd8ca1c7	-0.06866794
145	0x3c7175d6	0.014737567
146	0x3d3ad81d	0.045616258
147	0x3bd2a59d	0.006428434
148	0xbd366eee	-0.044539385
149	0x3dcbba60	0.099476576
150	0xbc1cfd19	-0.009581828
151	0x3c90878d	0.01764276
152	0x3cb4e73d	0.02208292
153	0x3ce619da	0.028088499
154	0x3c86f866	0.016475867
155	0x3d811ae4	0.06303957
156	0xbd0b3db3	-0.033994388
157	0xb95269e4	-0.00020066608
158	0x3cb2680a	0.021778125
159	0xbc3a447f	-0.01136887
160	0x3dc17b08	0.094472945
161	0x3bb5626f	0.005535416
162	0x3c9b4587	0.018954052
163	0x3d66e560	0.056371093
164	0xbd89f99c	-0.06737062
165	0x3d121b8a	0.035670795
166	0x3bda3f74	0.0066603962
167	0xbc8a8a2f	-0.016911594
168	0xbc85fd9b	-0.01635628
169	0xbd007732	-0.031363674
170	0x3d978641	0.07398654
171	0x3b3451ad	0.0027514503
172	0x3cc75425	0.024332115
173	0xbd0a1b8a	-0.03371767
174	0x3d57eefe	0.052718155
175	0xbd71de00	-0.059049606
176	0x3d9cdd86	0.0765944
177	0x3c0ab1e8	0.008465268
178	0xbd47b61c	-0.048757657
179	0xbd398e33	-0.045301627
180	0x3cb4a871	0.022052975
181	0x3cc0c8e6	0.023533296
182	0x3d271fb0	0.040801704
183	0x3ca8f0e5	0.02062268
184	0x3dc6975e	0.0969684
185	0x3dae0294	0.084965855
186	0x3c85de18	0.016341254
187	0xbd2eae64	-0.04264678
188	0xbd9f494f	-0.077776544
189	0xbb2f8110	-0.0026779808
190	0x3d5ebd23	0.054379594
191	0x3c584444	0.01319987
192	0x3d5826d4	0.052771404
193	0xbd381e7c	-0.044950947
194	0xbc96a291	-0.018388065
195	0xbd3f8fab	-0.04676787
196	0xbd53db4a	-0.051722802
197	0x3cb7ad5e	0.022421535
198	0x3cb3eaa9	0.02196248
199	0x3ce85fe0	0.02836603
200	0xbb9c8fa4	-0.0047778655
201	0x3a882ef6	0.0010389972
202	0x3c69b523	0.014264378
203	0xbce09161	-0.027413072
204	0x3dd0ddf2	0.10198583
205	0x3ca6170d	0.020274663
206	0xbd5c9922	-0.053856976
207	0x3d3cd018	0.04609689
208	0xbc4ada83	-0.012381199
209	0xbcc2934a	-0.023751874
210	0xbcccdc67	-0.02500744
211	0x3cf13ca9	0.02944787
212	0xbcd138e3	-0.025539821
213	0x3d6c45ae	0.05768364
214	0xbd391c7d	-0.045193184
215	0x3d557f66	0.05212345
216	0xbc8f7bdd	-0.017515117
217	0xbb8f586a	-0.0043745534
218	0x3d22cce0	0.039746165
219	0x3cedd904	0.029034145
220	0xbc5df2d9	-0.013546669
221	0x3db7827e	0.08960436
222	0xbda791af	-0.08182084
223	0xbc97faf9	-0.01855229
224	0xbd35e599	-0.044408415
225	0xbc9d35f6	-0.01919077
226	0xbd8f3090	-0.069916844
227	0x3cb7fb12	0.022458587
228	0x3d8f0751	0.06983817
229	0x3ca2043a	0.019777406
230	0x3d9f058f	0.07764732
231	0x3d6f9172	0.058488317
232	0xbcfc38a7	-0.030788733
233	0x3d14ba5e	0.036310546
234	0xbd24eb06	-0.0402632
235	0x3ce6e084	0.02818323
236	0xbab11ff4	-0.0013513551
237	0xbc4ad14a	-0.012379
238	0xbdb8446f	-0.08997428
239	0x3d3632ec	0.044482157
240	0xbc3981d1	-0.011322455
241	0x3d41a998	0.047280878
242	0x3d29032e	0.041262798
243	0xbd495185	-0.04915001
244	0x3cfb5883	0.030681854
245	0xbd35b672	-0.044363447
246	0x3d40a93d	0.0470364
247	0xbb370d25	-0.0027931419
248	0xbc782641	-0.015145839
249	0x3da4af98	0.08041304
250	0xbd376809	-0.04477695
251	0xbd3644cf	-0.044499215
252	0xbd210188	-0.0393081
253	0xbc410b9d	-0.011782554
254	0x3dbd05da	0.09229632
255	0x3ce5ea6a	0.028065879

user_tower.fc.3.bias f4 [64]
0	0x3cbc8a17	0.023015065
1	0x3c5107ee	0.012758238
2	0x3cfa9285	0.030587444
3	0x3d97f765	0.07420234
4	0xbd0f80a9	-0.03503481
5	0x3d2507ef	0.04029077
6	0x3d7e86ac	0.06214015
7	0x3ca91fb1	0.020644994
8	0xbd894c8e	-0.06704055
9	0x3d75ef47	0.060042646
10	0x3c8a6d71	0.016897889
11	0xbdb50b99	-0.08840103
12	0x3d8f9e70	0.070126414
13	0x3cce8dd5	0.025214115
14	0x3d0f5884	0.034996524
15	0xbce9fb18	-0.028562114
16	0xbdb464e8	-0.08808309
17	0x3d80afa0	0.06283498
18	0xbd5415b4	-0.05177851
19	0x3bb26368	0.005443979
20	0xbd699601	-0.05702782
21	0xbd0fea04	-0.035135284
22	0x3dd02f8d	0.101653196
23	0xbd7f70d9	-0.06236348
24	0xbd6c74d5	-0.057728607
25	0x3d1cbc5d	0.038265575
26	0x3d1df9b4	0.038568214
27	0x3cdafd77	0.02673219
28	0xbd9f063d	-0.07764862
29	0xbd64b786	-0.055839084
30	0xbd39b0e0	-0.045334697
31	0xbd793bae	-0.06084793
32	0x3d335a97	0.043787565
33	0xbda3c816	-0.07997148
34	0xbd8259e0	-0.063647985
35	0xbd137a3d	-0.036005247
36	0x3ccaabaf	0.024740068
37	0xbd09e392	-0.033664294
38	0x3cf212f6	0.029550057
39	0xbbf16233	-0.0073664426
40	0xbc96eccc	-0.01842346
41	0xbccdc131	-0.025116535
42	0xbd7a9201	-0.061174396
43	0xbd7c7d24	-0.06164278
44	0x3dc696f1	0.096967585
45	0xbd4cfc8b	-0.05004553
46	0x3c6cc581	0.0144513855
47	0xbd81bd28	-0.06334907
48	0xbd12157d	-0.035665024
49	0xbd92665c	-0.0714843
50	0xbd3f898a	-0.046762027
51	0x3b86131e	0.0040916344
52	0xbc1ea3ed	-0.009682638
53	0xbd17d66b	-0.03706972
54	0x3dca3768	0.09873849
55	0xbd039982	-0.03212882
56	0x3da83cfc	0.08214757
57	0x3d3dfa58	0.046381325
58	0x3da65972	0.08122529
59	0x3da28e18	0.079372585
60	0x3d014821	0.031562928
61	0x3da1b892	0.07896532
62	0x3d626100	0.055268288
63	0xbd9670c8	-0.0734573

item_tower.fc.0.weight f4 [128, 12]
0	0x3d118a96	0.035532556
1	0x3d7c77ff	0.061637875
2	0x3e83ab3f	0.25716588
3	0x3ccb7e90	0.024840623
4	0xbde49162	-0.11160542
5	0x3e797fec	0.24365205
6	0xbdde6d2c	-0.10860667
7	0xbe825fee	-0.25463814
8	0xbd41791d	-0.047234643
9	0x3e6d9e65	0.23204954
10	0x3dba6aa5	0.09102372
11	0x3e3b81a5	0.18311174
12	0xbcf9d39d	-0.030496413
13	0x3e93e4ee	0.28885597
14	0x3e940047	0.28906462
15	0xbe80295d	-0.25031558
16	0x3c23c3d4	0.0099954195
17	0xbc00bea4	-0.007857952
18	0xbe501818	-0.20321691
19	0x3e69fc21	0.22850086
20	0x3ceecdb8	0.029150829
21	0xbe4dd74f	-0.20101665
22	0xbe817114	-0.25281584
23	0xbe2c081e	-0.16799971
24	0xbe3b56e4	-0.18294865
25	0xbd9c1171	-0.07620514
26	0xbe305bdf	-0.17222546
27	0xbd4c39bd	-0.04985975
28	0xbe14d03d	-0.14532562
29	0xbd32a631	-0.043615524
30	0x3e61a61b	0.2203602
31	0xbe19b688	-0.15011036
32	0x3de55e8c	0.11199674
33	0x3e7f1d1a	0.24913445
34	0xbe80ac57	-0.25131485
35	0xbdaa25f4	-0.0830802
36	0x3e7210a4	0.2363916
37	0xbdf9218d	-0.121646024
38	0x3e97f7d8	0.29681277
39	0xbe03d856	-0.12875494
40	0xbe52ef76	-0.2059916
41	0x3e896882	0.26837546
42	0x3e8363d6	0.25662106
43	0xbd31a520	-0.043370366
44	0xbe05f3e4	-0.13081318
45	0x3d4c84b3	0.04993124
46	0xbdc6ce0e	-0.097072706
47	0xbd1630cb	-0.036667626
48	0xbd1c172b	-0.038108032
49	0xbdec9918	-0.11552638
50	0xbe470bab	-0.19438045
51	0x3e420586	0.1894742
52	0x3dba367c	0.09092423
53	0xbe98604e	-0.29760975
54	0xbc0149d0	-0.007891133
55	0x3e717da7	0.23583089
56	0xbe37b970	-0.17941833
57	0x3aed58ba	0.0018108108
58	0x3d4d960c	0.050191924
59	0xbe1446be	-0.14480111
60	0xbda7ea56	-0.08198993
61	0xbdb3333b	-0.08750006
62	0x3da6f48e	0.08152114
63	0x3e1ea064	0.15490872
64	0xbdda118b	-0.10647877
65	0xbde57e49	-0.112057276
66	0x3e61f9f4	0.22068006
67	0x3e7ba52a	0.24574724
68	0x3df08131	0.11743391
69	0x3e85c480	0.2612648
70	0x3dd99371	0.10623825
71	0x3e6eabc1	0.23307706
72	0x3dcbf90e	0.09959613
73	0xbd53e28c	-0.051729724
74	0x3e0a0a5b	0.13480513
75	0xbe1ad631	-0.1512077
76	0x3e0b42ed	0.13599749
77	0x3e9a428f	0.30128905
78	0x3e94567c	0.28972232
79	0x3e882403	0.26589975
80	0x3e92d0a7	0.28674814
81	0x3e4793b7	0.19489942
82	0xbdbc03b9	-0.091803975
83	0xbdb03260	-0.08603358
84	0xbdc24911	-0.094865926
85	0x3c23c080	0.009994626
86	0x3d3cb5ff	0.046072003
87	0xbde8042b	-0.1132892
88	0x3e92a39e	0.28640455
89	0xbe713a77	-0.23557459
90	0xbe832d9a	-0.2562073
91	0x3de10d09	0.109888144
92	0x3e2f8492	0.17140415
93	0x3df46d01	0.11934853
94	0x3d807e23	0.06274059
95	0x3dd84de8	0.105617344
96	0x3e4b2614	0.19838744
97	0xbe7d6262	-0.24744561
98	0xbdca5467	-0.0987938
99	0x3e0f082d	0.13967963
100	0x3d072bea	0.033000864
101	0xbe948a99	-0.29011992
102	0x3e3210ca	0.17389217
103	0x3e7860ca	0.24255672
104	0xbe3a1ddc	-0.18175453
105	0xbb9ecfb0	-0.0048465356
106	0xbccc8eb6	-0.024970394
107	0x3e175b07	0.14780818
108	0x3c0bf98e	0.008543385
109	0xbb4249ee	-0.0029646116
110	0x3e84053a	0.25785238
111	0x3de6744c	0.112526506
112	0x3d125800	0.035728455
113	0x3e11c483	0.1423512
114	0xbd548907	-0.051888492
115	0xbd464cc6	-0.04841306
116	0x3e04d131	0.12970425
117	0x3e55bbbd	0.20872398
118	0x3dbd56ac	0.09245047
119	0x3e3bb567	0.18330918
120	0x3e61dc9f	0.22056817
121	0xbd6f6444	-0.05844523
122	0xbd46e4a6	-0.0485579
123	0x3e336c7d	0.17521854
124	0x3ccfeece	0.025382426
125	0x3e643513	0.22285871
126	0x3cb4b240	0.022057652
127	0xbe03656e	-0.12831661
128	0xbe011394	-0.12605125
129	0x3e648987	0.22318088
130	0xbe4ad895	-0.19809182
131	0x3ab15b3b	0.0013531217
132	0x3c378615	0.011201401
133	0xbe83e5de	-0.25761312
134	0xbe539433	-0.20662002
135	0xbd4393bc	-0.047748312
136	0xbe42358e	-0.18965742
137	0x3c926a6d	0.017873013
138	0x3e24a936	0.16080174
139	0xbe1d1d1b	-0.15343134
140	0xbe526086	-0.20544633
141	0xbe5ad48d	-0.21370144
142	0xbd8ea01a	-0.06964131
143	0xbe7236bc	-0.23653692
144	0x3dcfa2b6	0.101384565
145	0xbe64ab5d	-0.22330995
146	0xbddbef74	-0.107390314
147	0x3e49205d	0.19641252
148	0xbdcdaa19	-0.10042209
149	0xbe4fbb90	-0.20286393
150	0x3d8c66b6	0.06855528
151	0x3e498f88	0.19683659
152	0x3e9bd936	0.30439156
153	0xbbc520ea	-0.0060158866
154	0x3dd79dbf	0.105281346
155	0xbe3d4ec7	-0.18487082
156	0x3e0cfdac	0.13768643
157	0x3dcdef85	0.1005545
158	0xbe17b7b6	-0.14816174
159	0xbdc0fd1a	-0.09423275
160	0xbb3c25a5	-0.0028708961
161	0xbd0952d2	-0.03352625
162	0xbd98df8f	-0.074645154
163	0x3e57ff28	0.21093428
164	0x3e4e65ca	0.20156017
165	0x3c8c01dc	0.01709073
166	0xbe2096ab	-0.15682475
167	0xbc1b862d	-0.009492439
168	0xbb1f55db	-0.0024312648
169	0xbd4ab92f	-0.04949301
170	0x3d2d2e7e	0.042280667
171	0x3de9889f	0.114030115
172	0x3e408784	0.18801695
173	0xbe3a228a	-0.18177238
174	0x3e3ebf33	0.18627624
175	0x3e863177	0.26209614
176	0xbe21f4f2	-0.15816095
177	0x3e9b3dde	0.30320638
178	0x3d02e2ba	0.031954505
179	0x3e82aae7	0.25521013
180	0x3dd44afd	0.103658654
181	0xbe2694a9	-0.16267647
182	0x3d682a08	0.05668071
183	0x3d6b74e4	0.057484522
184	0x3e8cc5f2	0.2749477
185	0xbe318cb2	-0.17338827
186	0x3da8744b	0.08225306
187	0x3e6b19a6	0.22959003
188	0x3e7f5ca2	0.2493768
189	0x3e5ebf83	0.21752743
190	0xbd08dcee	-0.03341382
191	0x3df7e1b7	0.121035986
192	0xbe72c311	-0.23707224
193	0x3dc55869	0.096360035
194	0x3e48257c	0.19545549
195	0x3d14a2fd	0.03628825
196	0xbe672d2e	-0.22575828
197	0xbe311dd4	-0.17296535
198	0xbe9249f6	-0.28572053
199	0xbe3b6b6d	-0.18302698
200	0x3e55dd40	0.20885181
201	0xbe6419d3	-0.22275476
202	0xbdaa5360	-0.08316684
203	0x3e0d9a17	0.13828312
204	0x3d9768cf	0.073930375
205	0x3d395bf8	0.045253724
206	0xbdb8d24a	-0.090244845
207	0xbde88258	-0.11352986
208	0x3e60a837	0.21939169
209	0x3e941a50	0.28926325
210	0x3aad2bf3	0.001321195
211	0xbe23cce3	-0.15996127
212	0x3e2aa746	0.16665372
213	0x3e595455	0.21223576
214	0x3d9fa0f0	0.07794368
215	0xbbb7451b	-0.005592955
216	0xbe7ade98	-0.24498975
217	0xbdd97a0f	-0.10618984
218	0x3d98612f	0.07440411
219	0x3e2376d4	0.15963298
220	0xbe0a71c4	-0.1351996
221	0xbe862657	-0.26201126
222	0x3e003cd4	0.12523204
223	0x3e31b073	0.17352466
224	0x3e82be0b	0.25535616
225	0xbe3e4cc7	-0.18583976
226	0x3e4d7a57	0.200662
227	0xbe35d73e	-0.1775789
228	0xbd8f33c1	-0.06992293
229	0x3e7436b1	0.23848988
230	0x3dad1bbc	0.084525555
231	0x3d9885da	0.07447405
232	0x3dac330d	0.08408175
233	0xbe25ba72	-0.16184404
234	0xbd98c061	-0.07458568
235	0xbc971692	-0.01844338
236	0xbddd7644	-0.10813573
237	0xbe4729a9	-0.19449486
238	0xbe834002	-0.25634772
239	0x3d874dbc	0.066066235
240	0x3e08aafb	0.13346474
241	0x3e403865	0.18771513
242	0x3e296bb0	0.16544986
243	0xbe1381df	-0.1440501
244	0x3db84e5a	0.089993194
245	0x3e8ad185	0.27112976
246	0xbe891210	-0.26771593
247	0x3df89929	0.12138588
248	0xbe3116e4	-0.17293888
249	0x3dbfbd1b	0.09362241
250	0xbc83442d	-0.01602372
251	0xbe1077fc	-0.1410827
252	0xbd48c6b5	-0.049017627
253	0xbd95e452	-0.07318939
254	0xbda02721	-0.07819963
255	0xbdff6c8f	-0.12471878

item_tower.fc.0.bias f4 [128]
0	0x3d25abba	0.040446974
1	0x3d925d34	0.07146683
2	0xbe496733	-0.19668274
3	0xbe4f65e0	-0.20253706
4	0x3e593b61	0.21214058
5	0xbe944684	-0.2896005
6	0x3e819c84	0.25314724
7	0x3dcd9bd1	0.10039485
8	0xbd3a4a02	-0.045480736
9	0x3e443186	0.19159517
10	0xbdc72b31	-0.09725035
11	0xbe36b571	-0.17842652
12	0xbe2244a5	-0.15846498
13	0xbc960fac	-0.01831802
14	0xbd9a0a36	-0.07521479
15	0xbda97712	-0.08274664
16	0x3e831967	0.25605318
17	0xbe7b50d3	-0.2454255
18	0x3e4871e7	0.195747
19	0x3d4c9cbb	0.049954157
20	0x3e1b20b0	0.15149188
21	0x3e6dbf70	0.23217559
22	0xbe160c6f	-0.1465318
23	0x3d38a447	0.045078542
24	0x3e051af9	0.1299857
25	0xbde7049d	-0.11280177
26	0xbe46f6e2	-0.19430116
27	0xbe1af790	-0.151335
28	0x3e2d7cab	0.16942088
29	0x3e4681c5	0.1938544
30	0x3e375434	0.17903215
31	0xbe7447ac	-0.23855466
32	0xbe28a467	-0.16468965
33	0x3e8ed13a	0.27894002
34	0xbd2a69be	-0.04160475
35	0xbe053188	-0.13007176
36	0xbd45534c	-0.04817514
37	0xbe027b9a	-0.12742463
38	0xbe29270c	-0.16518801
39	0xbd180a63	-0.03711928
40	0x3e0ec7d9	0.13943423
41	0xbd4d07c6	-0.05005624
42	0x3d8216b3	0.06351986
43	0x3e66cd00	0.22539139
44	0xbdca6676	-0.09882824
45	0x3e4d5868	0.20053256
46	0xbe7b969c	-0.24569172
47	0xbe1b2aae	-0.15153
48	0x3e0aa065	0.13537748
49	0xbe4e222f	-0.20130228
50	0x3e035be7	0.12828027
51	0xbe0ac17c	-0.13550371
52	0x3e3120ce	0.1729767
53	0xbe45142a	-0.19245973
54	0xbe48a97a	-0.195959
55	0x3e545812	0.20736721
56	0xbdc2461a	-0.09486027
57	0x3e8622d2	0.2619844
58	0x3e157a30	0.14597392
59	0xbe8fd183	-0.28089532
60	0xbe54cf0e	-0.2078211
61	0x3e38c9a5	0.18045671
62	0x3dab7624	0.08372143
63	0x3d185d9a	0.03719864
64	0xbe7ff516	-0.24995837
65	0xbdd51e92	-0.104062214
66	0x3db63b86	0.08898072
67	0x3e3a423f	0.18189333
68	0xbb671a94	-0.0035263645
69	0x3e25efd5	0.1620477
70	0x3dd5ec1d	0.10445426
71	0xbdd1702b	-0.102264725
72	0x3e6030a4	0.21893555
73	0x3d8396f5	0.06425277
74	0x3d6483a2	0.055789597
75	0xbe5244a1	-0.20533992
76	0x3e8d90b5	0.27649465
77	0x3e8148cd	0.25250855
78	0x3e37788c	0.17917079
79	0xbd59a96a	-0.05314008
80	0x3dcc7e43	0.0998502
81	0xbce55427	-0.027994229
82	0xbe73e39c	-0.23817295
83	0x3e694122	0.22778752
84	0xbbf43e1d	-0.0074536935
85	0xbdf1d417	-0.11808031
86	0xbe4eb6ef	-0.20186971
87	0xbe3def3c	-0.18548292
88	0x3dd9aeb4	0.10629025
89	0xbe4dbe7d	-0.20092197
90	0x3e26cd43	0.16289239
91	0x3e0147e4	0.1262508
92	0xbd6a7593	-0.057241034
93	0xbdfa9626	-0.1223567
94	0x3e6e07a9	0.2324511
95	0xbe264792	-0.1623824
96	0xbe475e99	-0.1946968
97	0x3e2e5fa3	0.1702867
98	0xbd4cad5c	-0.049970016
99	0xbe866970	-0.26252317
100	0xbd08b4b8	-0.03337547
101	0xbe03ad7d	-0.1285915
102	0x3e29c1e1	0.16577865
103	0xbe840292	-0.2578321
104	0x3d77433b	0.06036685
105	0xbddae4c0	-0.10688162
106	0xbe77c0c5	-0.2419463
107	0x3dfedc01	0.12444306
108	0x3d8908ad	0.06691108
109	0xbe55e40f	-0.20887779
110	0x3d75734b	0.059924405
111	0xbe3e96e1	-0.18612243
112	0x3e58e2ef	0.21180318
113	0x3c980d5f	0.018561063
114	0x3dae4acc	0.0851036
115	0x3e61c145	0.22046383
116	0xbd9d2cfb	-0.07674595
117	0x3dc37180	0.09543133
118	0x3e8bccc4	0.2730466
119	0x3d6c780d	0.057731677
120	0xbd6acf2d	-0.057326484
121	0xbe7a2de9	-0.24431576
122	0xbd334bc8	-0.043773443
123	0x3d475fa1	0.048675183
124	0x3e40d31d	0.18830533
125	0x3e4c9abb	0.199809
126	0xbe8689df	-0.26277062
127	0x3d9174e3	0.071023725

item_tower.fc.3.weight f4 [64, 128]
0	0xbda3a79d	-0.07990954
1	0xbd92a341	-0.071600445
2	0x3a63f600	0.00086960196
3	0xbd914271	-0.07092751
4	0x3ddd32ef	0.108007304
5	0xbbf379e9	-0.0074303043
6	0xbc8992a0	-0.016793549
7	0xbd8a7658	-0.067608535
8	0xbc8769fd	-0.016530031
9	0x3d58b641	0.052908186
10	0x3c2b130b	0.010441552
11	0x3ae68074	0.001758589
12	0x3ca7bc70	0.020475596
13	0xbd2b61a2	-0.041841157
14	0xbd3adea1	-0.04562247
15	0x3d585158	0.05281195
16	0xbcfacd5c	-0.030615501
17	0x3d8249ff	0.0636177
18	0x3d2489e9	0.040170584
19	0x3c97223a	0.018448938
20	0x3c8c5ce7	0.017134143
21	0xbc9011f1	-0.01758668
22	0xbbaa184d	-0.005190885
23	0x3d3842c7	0.04498556
24	0xbdb05a23	-0.08610942
25	0xbcded6ef	-0.027202098
26	0x3dd2cf0d	0.10293398
27	0xbd1a9a60	-0.03774488
28	0xbd1a2a84	-0.037638202
29	0x3c73302d	0.014843029
30	0xbd81b99d	-0.06334231
31	0x3d11d9e7	0.0356082
32	0x3adc554b	0.0016810087
33	0xbd80d5fe	-0.06290816
34	0x3da56f22	0.080778375
35	0x3d422f23	0.047408234
36	0xbd912693	-0.070874356
37	0xbcd46659	-0.02592771
38	0xbcc9d919	-0.024639653
39	0x3c859836	0.016307931
40	0x3d0bd3c9	0.03413752
41	0xbd558a26	-0.0521337
42	0x3cb344fd	0.021883482
43	0x3d3c5310	0.045977652
44	0x3d121154	0.035661057
45	0x3d024c21	0.031810883
46	0x3d0a991e	0.03383743
47	0xbd458ded	-0.048231054
48	0x3d60c89c	0.054878816
49	0x3c52404a	0.0128327105
50	0x3d877706	0.06614499
51	0xbcd645e7	-0.026156379
52	0xbdb2fb2f	-0.08739316
53	0x3cba6218	0.022751853
54	0x3c27af42	0.010234656
55	0x3d34d2e3	0.04414643
56	0xbd0424be	-0.032261603
57	0xbd12b8ac	-0.035820648
58	0xbdc42c1d	-0.095787264
59	0xbd15af80	-0.036544323
60	0xbd491c0b	-0.04909901
61	0x3d6f82c6	0.058474325
62	0x3cb8167f	0.022471664
63	0xbd9702e7	-0.073736005
64	0x3b2801ba	0.0025635795
65	0xbcfcd8e3	-0.030865138
66	0x3cb5311e	0.022118147
67	0xbda3d5e4	-0.07999781
68	0x3d457f31	0.048217002
69	0x3d0fa1ed	0.035066534
70	0xbbdd3bf3	-0.0067515313
71	0xbd4df6ea	-0.050284304
72	0x3d508952	0.05091221
73	0xbdc9c3f0	-0.09851825
74	0x3b9f429c	0.0048602354
75	0xbd20bd44	-0.039242998
76	0x3d5aef48	0.053450853
77	0xbcf9363c	-0.030421369
78	0xbd43de60	-0.047819495
79	0x3c87f46c	0.016596042
80	0xbd07ebe8	-0.033183962
81	0xbdcc4352	-0.09973778
82	0x3c606d24	0.013697896
83	0x3d3d8c2c	0.046276256
84	0xbd2e2baa	-0.04252211
85	0x3cddec01	0.027090074
86	0xba04e4e9	-0.00050695107
87	0x3b421503	0.0029614575
88	0x3cdc8403	0.026918417
89	0xba47c536	-0.0007620634
90	0xbd86ce69	-0.06582338
91	0x3d81ce97	0.06338232
92	0x3c897e54	0.01678387
93	0x3d42fdac	0.0476052
94	0xbdac099a	-0.08400269
95	0xbd9f9ecf	-0.07793962
96	0xbcfb0c15	-0.03064541
97	0xbcce7cb0	-0.02520594
98	0x3c41285e	0.011789409
99	0xbcb90559	-0.022585558
100	0xbd0e38c0	-0.03472209
101	0xbd805079	-0.06265349
102	0x3b4ae9e2	0.003096216
103	0x3c4dc33b	0.012558754
104	0xbd0da2a2	-0.034578927
105	0x3db514b6	0.08841841
106	0xbc190240	-0.009338915
107	0xbc3ea17f	-0.011635183
108	0x3c9421db	0.01808255
109	0xbdafa567	-0.0857647
110	0xbd696935	-0.0569851
111	0x3b1dd362	0.0024082293
112	0xbdb0634d	-0.0861269
113	0xbc99de99	-0.0187829
114	0xbb6b252c	-0.003588031
115	0xbddf76cb	-0.1091133
116	0xbd0a7359	-0.03380141
117	0xbcda73a3	-0.026666468
118	0xbdb1c9f8	-0.086811006
119	0xbb9ca815	-0.004780779
120	0xbd720242	-0.059084184
121	0x3d88199c	0.066455096
122	0xbd3b6c36	-0.045757495
123	0xbdb530c7	-0.08847194
124	0x3b2c69ae	0.0026308107
125	0xbd8d0fa0	-0.06887746
126	0x3c236ce5	0.009974693
127	0x3d61ace3	0.05509652
128	0xbcbb0e60	-0.022834003
129	0xbdb6b624	-0.08921459
130	0x3d6e95d8	0.05824837
131	0xbcccd344	-0.025003083
132	0x3c521085	0.012821321
133	0xbcb3f50f	-0.021967439
134	0xbd44991d	-0.047997583
135	0xbd6dfc40	-0.058101892
136	0x3daac293	0.08337893
137	0x3d901864	0.07035902
138	0xbce61d21	-0.028090062
139	0xbd0393e6	-0.03212347
140	0x3d8aa6d9	0.06770105
141	0xbcfe49a0	-0.031040967
142	0xbd269f2d	-0.040679146
143	0xbd70b6f3	-0.058768224
144	0xbda80381	-0.08203793
145	0xbb2200f4	-0.0024719806
146	0xbcb9b61b	-0.022669842
147	0x3d4db880	0.05022478
148	0xbc361124	-0.011112485
149	0xbd6b0785	-0.057380218
150	0xbd613c92	-0.054989405
151	0xbcb8115f	-0.02246922
152	0xbd879bc4	-0.06621507
153	0xbc0bd11b	-0.008533741
154	0xbd51b38a	-0.051196612
155	0x3d640094	0.055664614
156	0xbc44707a	-0.011989707
157	0x3c44151b	0.011967923
158	0x3d7bffbf	0.061523195
159	0xbd217ed9	-0.039427612
160	0xbd46dc30	-0.04854983
161	0x3d1d8333	0.0384552
162	0x3d447245	0.04796054
163	0x3d62e5ad	0.055394817
164	0xbc143e76	-0.009048095
165	0xbd820f91	-0.06350625
166	0x3c982c6d	0.018575871
167	0x3c2f86bb	0.010713275
168	0xbd5edb84	-0.054408565
169	0x3cf76cc4	0.03020323
170	0xbc209e4c	-0.009803366
171	0xb96e01aa	-0.00022698069
172	0x3c739fca	0.01486964
173	0xbcf0dd3c	-0.029402368
174	0xbbb89623	-0.005633132
175	0x3c4e11df	0.012577503
176	0xbd969412	-0.07352461
177	0xbd8642a8	-0.065556824
178	0xbd1fe399	-0.039035413
179	0x3cb55b86	0.022138368
180	0x3bf31f1b	0.0074194795
181	0x3d6d07b9	0.057868693
182	0xbb2d2983	-0.0026422448
183	0x3d231c9c	0.039822206
184	0xbd7363c7	-0.059421327
185	0xbd942a84	-0.07234672
186	0x3d82a11b	0.06378385
187	0x3d9c8f4b	0.076445185
188	0x3bb312b4	0.005464876
189	0xbd2387e0	-0.039924502
190	0x3d12e0ec	0.035859033
191	0x3da49d92	0.08037867
192	0x3af34dad	0.0018562578
193	0xbc673806	-0.014112478
194	0xbd510642	-0.05103136
195	0x3be101b8	0.00686666
196	0x3c3179f9	0.010832303
197	0xbbadfd07	-0.005309704
198	0xbcaec53e	-0.021334287
199	0x3ab3fb26	0.0013731464
200	0x3d6fae9f	0.05851614
201	0x3da4f049	0.08053643
202	0xbdae272b	-0.085035644
203	0x3c901ec8	0.017592803
204	0x3befbd18	0.007316243
205	0xbcd6b9da	-0.026211668
206	0xbdaad4f7	-0.08341401
207	0xbc9f4a88	-0.019444719
208	0xbd0ae9a6	-0.03391423
209	0x3d7ffd17	0.062497225
210	0xbc40f5ea	-0.0117773805
211	0xbd606340	-0.054782152
212	0xbc1339e7	-0.008985973
213	0xbcb78f40	-0.022407174
214	0x3d8c1aaf	0.06841027
215	0xbbb9191f	-0.0056487466
216	0xbda9713e	-0.08273552
217	0x3d4784a1	0.04871047
218	0xbda10112	-0.07861532
219	0x3cb95c22	0.02262694
220	0x3c9d6f86	0.019218218
221	0xbd15aa00	-0.036539078
222	0xbd840d3c	-0.06447837
223	0x3cd1ef39	0.025626766
224	0x3b2def8d	0.0026540488
225	0x3d342172	0.04397721
226	0x3cf04e5d	0.029334242
227	0x3d909277	0.07059186
228	0xbd65baa7	-0.05608621
229	0x3da44ada	0.08022089
230	0x3d6919fb	0.056909543
231	0x3cbbd6b4	0.022929527
232	0xbdcf8242	-0.101322666
233	0x3cd06fc5	0.02544392
234	0xbcce97bf	-0.025218843
235	0x3bc34acd	0.0059598447
236	0xbc2a2c4f	-0.010386541
237	0xbd160c88	-0.036633044
238	0xbcd5532e	-0.02604064
239	0x3b30496f	0.0026899239
240	0x3ce4580a	0.027874012
241	0x3d1b66bf	0.037939783
242	0xbdb3dcd1	-0.08782352
243	0x3caa1ca4	0.02076561
244	0x3cda6100	0.026657581
245	0x3be0f80c	0.006865507
246	0x3d8ac89d	0.06776545
247	0xbc958169	-0.018250184
248	0x3ba3b921	0.0049964343
249	0xbda631d0	-0.0811497
250	0xbd848676	-0.06470959
251	0xbd254716	-0.040350996
252	0xbd616220	-0.05502522
253	0x3d7d5356	0.061847053
254	0xbcb833f8	-0.022485718
255	0x3d3e75b9	0.046498988

item_tower.fc.3.bias f4 [64]
0	0xbd95dfd0	-0.073180795
1	0xbd736c51	-0.05942947
2	0xbd145a54	-0.036218956
3	0xbc0be43e	-0.008538304
4	0xbd9376bb	-0.072003804
5	0xbd8dccff	-0.069238655
6	0x3bcfe1f5	0.006344075
7	0x3b40ac76	0.002939967
8	0xbcb6ddcf	-0.022322563
9	0x3d02e42b	0.03195588
10	0xbd36a1ef	-0.044588026
11	0xbd785223	-0.060625207
12	0xbd983b9e	-0.07433246
13	0x3d6c1ea7	0.05764642
14	0xbd0b7979	-0.034051392
15	0x3d47c25a	0.048769332
16	0x3cce16dd	0.025157386
17	0xbcca5ea2	-0.024703328
18	0xbd87a5eb	-0.06623443
19	0x3cb5af0b	0.022178194
20	0x3d952cb4	0.07283917
21	0xbd8ba588	-0.06818682
22	0x3cb7fb7a	0.02245878
23	0xbd84343b	-0.06455275
24	0x3d08e8e7	0.033425238
25	0x3dae6e7a	0.085171655
26	0xbda43631	-0.08018149
27	0xbdaadc87	-0.083428435
28	0x3d52da6d	0.05147784
29	0x3d434900	0.04767704
30	0xbd286a04	-0.04111673
31	0xbcbefcc8	-0.023313895
32	0xbd641acf	-0.05568963
33	0x3cbc8e2c	0.023017012
34	0xbd8f34ca	-0.069924906
35	0x3b4eea87	0.0031572895
36	0xbdb4630f	-0.088079564
37	0xbbcbaafb	-0.006215451
38	0xbd8ad58e	-0.067790136
39	0x3b996291	0.0046809395
40	0x3c8fe424	0.01756484
41	0x3d63b1c2	0.055589445
42	0x3c74feb7	0.014953307
43	0xbacf89d6	-0.0015833925
44	0xbda9d99a	-0.08293457
45	0x3d301089	0.04298452
46	0x3d4682bd	0.048464525
47	0x3bf0834f	0.007339872
48	0xbca44ae4	-0.020055242
49	0x3d96976d	0.07353101
50	0x3db448b4	0.088029295
51	0x3cd2ef69	0.025748925
52	0xbca4ce50	-0.020117909
53	0x3cd27f45	0.025695452
54	0x3d3f977f	0.046775337
55	0x3d823781	0.06358243
56	0xbd4905cb	-0.04907779
57	0xbc8b06ac	-0.016970955
58	0xbda8cbcb	-0.082419954
59	0xbcbed9c6	-0.023297202
60	0xbd49b6d5	-0.049246628
61	0xbc93d2f4	-0.018044926
62	0x3d854f10	0.065092206
63	0x3d03a2dc	0.032137737
