models/dumps/TwoTowerModelV1_v1.pth (torch, 82500 bytes, 8 tensors)

user_tower.fc.0.weight f4 [128, 11]
0	0xbe1675aa	-0.14693323
1	0x3e2e9660	0.17049551
2	0xbea031ae	-0.31287903
3	0x3ce31503	0.02771998
4	0x3e6775ae	0.22603485
5	0xbdb4af43	-0.08822491
6	0x3e1ce6f3	0.15322475
7	0xbe300b5e	-0.17191836
8	0xb98b237e	-0.0002653859
9	0x3dd25d60	0.10271716
10	0x3e09ed1b	0.13469355
11	0x3dbf983a	0.09355207
12	0xbd994220	-0.074833155
13	0xbd92d96a	-0.07170375
14	0xbe80dab7	-0.25166866
15	0xbe380414	-0.17970306
16	0x3e639436	0.22224507
17	0x3d94576a	0.072432354
18	0x3e539c1d	0.20665021
19	0x3dc27e12	0.09496702
20	0x3d9ffeb0	0.0781225
21	0xbe6f3bfe	-0.23362729
22	0xbe19136b	-0.14948814
23	0x3d1956bf	0.037436243
24	0x3e159ad5	0.14609845
25	0xbcbb35aa	-0.022852737
26	0x3e7d3a35	0.24729235
27	0xbdde2a4a	-0.1084791
28	0x3e3bcdf6	0.18340287
29	0xbd1e75b0	-0.038686454
30	0x3c0fc7bb	0.008775647
31	0xbe7984a4	-0.24367005
32	0xbe7ab5df	-0.24483441
33	0x3df36139	0.11883778
34	0xbe6aef13	-0.22942762
35	0xbd89d226	-0.06729536
36	0x3cd3e493	0.025865829
37	0xbe5a32e8	-0.21308482
38	0xbd790f7e	-0.06080579
39	0xbd5ee20e	-0.0544148
40	0xbdc380a0	-0.09546018
41	0xbe153687	-0.14571582
42	0x3da3a1c3	0.07989838
43	0xbe3cbb85	-0.18430908
44	0xbe449382	-0.19196895
45	0x3e66c044	0.22534281
46	0xbd35d229	-0.044389877
47	0xbd9843a0	-0.074347734
48	0x3e30649e	0.17225882
49	0xbe140447	-0.14454757
50	0xbe0bf672	-0.1366823
51	0xbde3bb6b	-0.111197315
52	0xbd9fb0b5	-0.07797376
53	0x3e0c1878	0.13681209
54	0xbe822b52	-0.25423676
55	0xbc4580bc	-0.012054618
56	0xbdea6588	-0.11445147
57	0xbdf8dca6	-0.1215146
58	0xbe801854	-0.2501856
59	0x3e8f72fa	0.28017408
60	0x3e89d5cc	0.26920927
61	0x3e50d3b6	0.20393261
62	0xbc5e2a98	-0.01355996
63	0x3ea0c950	0.3140359
64	0x3e15df14	0.14635879
65	0x3e2805cb	0.1640846
66	0xbdd47e81	-0.10375691
67	0xbe294376	-0.1652964
68	0x3e8d0ce2	0.2754889
69	0xbe8fba0b	-0.28071627
70	0xbe308b15	-0.17240556
71	0xbd867804	-0.0656586
72	0x3e15fd40	0.14647388
73	0x3e3ceb53	0.18449144
74	0x3e564dd7	0.20928131
75	0x3e884522	0.26615244
76	0x3e518ae6	0.20463142
77	0xbdc11280	-0.09427357
78	0xbd0db9ed	-0.03460114
79	0xbe465543	-0.19368462
80	0xbe7878cd	-0.24264832
81	0x3e0ea3a9	0.13929619
82	0xbe4d787f	-0.20065497
83	0xbe0a3d40	-0.13499928
84	0x3e1a1407	0.15046702
85	0xbe08e47b	-0.13368408
86	0xbe608f43	-0.2192965
87	0xbda5f617	-0.081035785
88	0xbda9daae	-0.08293663
89	0x3d9d52fe	0.07681845
90	0x3d8d71ea	0.06906493
91	0xbe0bedb0	-0.1366489
92	0xbe6eb508	-0.23311245
93	0x3e47098d	0.19437237
94	0xb98dbff6	-0.00027036638
95	0x3e53e08f	0.20691131
96	0x3dfe49cc	0.124164194
97	0xbdb76fc0	-0.089568615
98	0x3e0d6455	0.13807805
99	0xbc43f39a	-0.011959935
100	0x3dd386f5	0.103284754
101	0xbb8abbfe	-0.004233836
102	0x3e1a7670	0.15084243
103	0xbe5e9bb2	-0.2173908
104	0x3e0820eb	0.13293807
105	0x3d620f72	0.05519051
106	0x3e4c321c	0.1994099
107	0x3de7ebe6	0.11324291
108	0xbe75ab47	-0.23991118
109	0xbc574773	-0.013139593
110	0x3d76f619	0.06029329
111	0x3df932ef	0.12167918
112	0x3e8db966	0.2768051
113	0x3dff0b45	0.12453321
114	0xbe031787	-0.12801944
115	0x3e93d35e	0.28872198
116	0xbe77335c	-0.24140686
117	0x3e451c5c	0.192491
118	0xbe372349	-0.17884554
119	0xbdb77a95	-0.089589275
120	0x3e06401e	0.13110396
121	0x3c6c04bc	0.014405426
122	0xbddc9371	-0.1077031
123	0x3e7ba361	0.24574043
124	0x3d9b6bbc	0.07588908
125	0x3e6736a1	0.22579433
126	0xbe8720c3	-0.26392183
127	0x3e32d622	0.17464498
128	0x3d9dd300	0.07706261
129	0x3df6b772	0.12046708
130	0x3e1c3120	0.15253115
131	0x3e751372	0.23933199
132	0xbd0f752b	-0.03502385
133	0xbd90bd96	-0.07067411
134	0xbe25a064	-0.16174465
135	0xbe6cbd9a	-0.23119202
136	0xbe59586f	-0.21225141
137	0x3e137304	0.14399344
138	0xbda4b662	-0.08042599
139	0xbc163d99	-0.009169959
140	0x3e15e616	0.14638552
141	0x3e91b2dd	0.28456774
142	0x3e69a064	0.2281509
143	0x3e50ed31	0.20402981
144	0x3e0ed417	0.13948093
145	0xbdd3c5df	-0.10340475
146	0x3e886225	0.26637378
147	0xbe420d62	-0.18950418
148	0x3d8644ce	0.06556092
149	0x3a1d72df	0.0006006192
150	0xbd596a63	-0.053079974
151	0x3cc21c09	0.023695009
152	0x3e22b12f	0.15887903
153	0x3e57c472	0.21071032
154	0xbe77c806	-0.24197397
155	0xbe2e060e	-0.16994497
156	0x3e83ad72	0.25718266
157	0xbd0ac8e3	-0.033882987
158	0xbcfcf91b	-0.030880501
159	0xbc065cf6	-0.008200875
160	0x3e2417c9	0.16024698
161	0xbd5982fb	-0.05310343
162	0x3ccb5c28	0.024824217
163	0x3e3a2e37	0.18181692
164	0xbde86bee	-0.11348711
165	0xbe65c127	-0.22436963
166	0x38ffe1d8	0.00012201414
167	0x3e2432b0	0.16034961
168	0xbe8374d9	-0.25675085
169	0xbe3440d2	-0.17602852
170	0xbd27ab07	-0.04093459
171	0xba19e59c	-0.0005870701
172	0xbe648289	-0.2231542
173	0x3d0cc660	0.034368873
174	0xbb80d40c	-0.003931528
175	0xbd62d5fb	-0.05537985
176	0xbe795982	-0.24350551
177	0x3ea0610e	0.31324047
178	0xbe7a490b	-0.24441926
179	0x3c2d89b9	0.010591918
180	0xbe4419ea	-0.1915051
181	0x3d9efb19	0.07762737
182	0xbe32ef59	-0.17474116
183	0x3d13f804	0.036125198
184	0x3e898640	0.26860237
185	0x3e970a1f	0.2949991
186	0x3dea291d	0.11433623
187	0xbe3d5c4e	-0.18492243
188	0x3e1b30f9	0.151554
189	0x3e3abec6	0.18236837
190	0xbe318b53	-0.17338304
191	0x3d936d4a	0.071985796
192	0xbe10cc53	-0.14140444
193	0x3e32dc27	0.17466794
194	0xbd357331	-0.04429931
195	0xbe26b984	-0.16281706
196	0x3e8e2c3b	0.2776812
197	0x3e2c55ae	0.16829559
198	0x3d477466	0.04869499
199	0x3ccc98ab	0.024975142
200	0x3c6b6d20	0.014369279
201	0x3b2a000c	0.002593997
202	0xbe3e8d19	-0.18608512
203	0xbe550e1b	-0.20806162
204	0xbe4d53d2	-0.20051506
205	0x3b3294c7	0.0027249323
206	0x3e2a8152	0.16650894
207	0xbe4ae59f	-0.19814156
208	0xbe04795e	-0.12936923
209	0x3e9739c3	0.29536256
210	0x3e235c6f	0.1595323
211	0xbe721549	-0.23640932
212	0xbe3c765a	-0.18404523
213	0x3e7ba18d	0.24573345
214	0xbd9267c0	-0.07148695
215	0x3d563954	0.052300766
216	0x3e84d8fc	0.25946796
217	0xbdf61810	-0.12016308
218	0x3e769aa6	0.24082431
219	0x3e533ad1	0.20627905
220	0x3db6f356	0.089331314
221	0x3e0dd242	0.13849738
222	0x3d124f58	0.0357202
223	0x3d804309	0.06262786
224	0xbddd017f	-0.10791301
225	0x3e52240c	0.20521563
226	0xbdb7eeac	-0.0898107
227	0x3e494717	0.19656025
228	0xbe67f6f4	-0.22652799
229	0xbe71c220	-0.23609209
230	0xbddbac5b	-0.107262336
231	0x3dee6d86	0.11641984
232	0x3e5ed0f8	0.21759403
233	0xbd09b4f4	-0.033619836
234	0xbe817802	-0.2528687
235	0x3e862457	0.261996
236	0xbc546043	-0.012962404
237	0x3d53eb5c	0.051738128
238	0xbcbe0f87	-0.023200763
239	0xbe74acb0	-0.23894
240	0x3e88f74e	0.26751179
241	0x3c2bb734	0.010480691
242	0x3de7d493	0.11319842
243	0xbddfbd75	-0.10924808
244	0xbd0bc8d5	-0.034127075
245	0xbe0c1755	-0.13680775
246	0x3d03414a	0.032044686
247	0x3e2f2353	0.17103319
248	0xbdbbda3a	-0.09172483
249	0xbe8845a8	-0.26615644
250	0xbde811da	-0.1133153
251	0x3e39e47e	0.18153569
252	0xbdea99ea	-0.11455138
253	0x3dd8ab08	0.105794966
254	0xbe907b40	-0.28219032
255	0x3df15e57	0.11785572

user_tower.fc.0.bias f4 [128]
0	0x3e708762	0.23489144
1	0x3d043f6a	0.03228704
2	0xbe750637	-0.23928152
3	0x3e1b44ea	0.15163007
4	0xbd87a0ee	-0.06622492
5	0xbe4953b9	-0.19660844
6	0x3e716279	0.2357272
7	0xbe5bc402	-0.2146149
8	0x3c85decd	0.016341591
9	0x3e558bb8	0.2085408
10	0x3ce344ff	0.02774286
11	0x3e3d1e45	0.18468578
12	0xbda23ded	-0.07921968
13	0xbe7e38e4	-0.2482639
14	0xbe88387a	-0.26605588
15	0xbe7e462c	-0.24831456
16	0x3e5dba08	0.21652997
17	0x3d6a3af5	0.057185132
18	0xbe7519fe	-0.23935696
19	0xbd8360f5	-0.064149775
20	0x3dc8eba1	0.09810568
21	0x3e803818	0.25042796
22	0xbe091b14	-0.13389236
23	0x3e7f7a2f	0.24948953
24	0x3dbca375	0.092108645
25	0x3e7f664d	0.24941368
26	0x3e1032c3	0.14081864
27	0xbdee1839	-0.11625714
28	0xbdb5eff3	-0.08883657
29	0xbda11157	-0.078646354
30	0xbe40873a	-0.18801585
31	0x3e57aa50	0.21061063
32	0xbcf248a2	-0.02957565
33	0xbe1c61ba	-0.15271655
34	0xbda3dd80	-0.08001232
35	0x3d94854a	0.07251985
36	0x3e800f26	0.25011557
37	0xbe403658	-0.1877073
38	0xbe35a336	-0.17738041
39	0x3e0821d4	0.13294154
40	0x3e2eeca9	0.17082466
41	0x3ca995fb	0.0207014
42	0x3bea9957	0.007159393
43	0xbdb0c193	-0.08630671
44	0x3e3bdd35	0.18346103
45	0x3e167135	0.14691623
46	0xbe0a1635	-0.13485034
47	0x3da45a55	0.08025042
48	0x3d771d69	0.060330782
49	0xbdfb2c64	-0.12264326
50	0xbe3e2603	-0.18569188
51	0x3e918540	0.28421974
52	0xbe38aa7e	-0.18033788
53	0xbe023567	-0.12715684
54	0x3e05b79e	0.13058326
55	0x3e78766a	0.24263921
56	0x3df35491	0.11881364
57	0x3e6e326a	0.23261419
58	0x3e3cb96e	0.18430111
59	0xbdb84391	-0.08997262
60	0x3d8e8ce9	0.0696047
61	0xbd289533	-0.041157912
62	0xbd6231d2	-0.055223294
63	0xbe0fa2da	-0.14026967
64	0xbdc2b997	-0.09508055
65	0xbe3c156d	-0.18367548
66	0xbde34f19	-0.11099071
67	0x3dad8baa	0.084739044
68	0x3e83b835	0.25726476
69	0xbe17e8a6	-0.14834842
70	0x3d82290c	0.06355485
71	0xbca79ab9	-0.02045952
72	0xbd011bd6	-0.031520687
73	0xbe1d019e	-0.15332648
74	0xbe5f5df8	-0.2181319
75	0xbcf46a26	-0.029835772
76	0xbe83bde2	-0.25730807
77	0x3dc63b98	0.09679335
78	0xbe99adf0	-0.30015516
79	0xbd799079	-0.060928795
80	0xbe581f01	-0.21105577
81	0xbe1bcd87	-0.15215121
82	0xbe8dd11f	-0.2769861
83	0xbb89e84d	-0.0042086006
84	0xbe6f4285	-0.23365219
85	0x3e1f5da5	0.15563066
86	0x3dd65945	0.104662456
87	0xbe73b77c	-0.23800462
88	0x3e26e748	0.16299164
89	0x3c92e534	0.017931558
90	0xbe793aba	-0.24338809
91	0xbe46473a	-0.19363108
92	0xbd3543a3	-0.044253957
93	0x3e45f215	0.19330628
94	0x3db9c060	0.09069896
95	0xbe5b3a76	-0.2140902
96	0x3e0b130d	0.13581486
97	0x3d8524ba	0.06501146
98	0xbdcd9007	-0.10037237
99	0xbe801bbb	-0.25021157
100	0xbe09d270	-0.13459182
101	0xbdcb3e65	-0.0992401
102	0x3e43eb4c	0.19132727
103	0x3d3939da	0.045221187
104	0xbe40d469	-0.18831028
105	0xbae4c74a	-0.0017454412
106	0x3d54cc8a	0.051952876
107	0x3e115c82	0.14195445
108	0x3db325ca	0.08747442
109	0x3df9a0d1	0.121888764
110	0x3e7be5f0	0.24599433
111	0x3e939c50	0.28830194
112	0x3cc2ccf8	0.023779377
113	0x3e635136	0.22198948
114	0xbe7320a9	-0.23742928
115	0xbe8762c1	-0.2644253
116	0xb9b0c03e	-0.00033712568
117	0x3e0058bf	0.12533854
118	0x3e126190	0.1429503
119	0x3e6df802	0.23239139
120	0xbe809a86	-0.25117892
121	0xbe4d016f	-0.20020078
122	0xbe4c87d5	-0.19973691
123	0xbdb56ba0	-0.088584185
124	0x3dfb9203	0.12283709
125	0xbe507395	-0.20356591
126	0x3a5b64fe	0.0008369236
127	0x3dd90bd6	0.10597961

user_tower.fc.3.weight f4 [64, 128]
0	0x3dcca934	0.099932104
1	0x3d303e2f	0.043028053
2	0xbd399c95	-0.045315344
3	0xbbd62cb0	-0.006536089
4	0x3d761d03	0.06008626
5	0xbd59720e	-0.053087287
6	0x3d91943a	0.0710835
7	0xbb3433a7	-0.0027496608
8	0x3c1e743d	0.009671268
9	0x3cd0fe02	0.025511745
10	0xba09b520	-0.0005253125
11	0xbd32d887	-0.043663528
12	0xbd38fbf9	-0.045162175
13	0x3d2072eb	0.039172094
14	0x3d5a2581	0.053258423
15	0x3c04119b	0.008060838
16	0x3c6cc8d5	0.014452179
17	0x3d7dec45	0.061992902
18	0x3a4d7b0d	0.00078384654
19	0x3d880d87	0.06643205
20	0x39a963ba	0.00032308494
21	0xbd6a83a8	-0.057254463
22	0xbd2b5582	-0.041829593
23	0x3c5ab81c	0.013349559
24	0x3d9591de	0.073032126
25	0x3d979358	0.074011505
26	0x3cc525ed	0.024065936
27	0x3cd2bd05	0.025724897
28	0xbc75f272	-0.015011417
29	0x3dba6189	0.091006346
30	0x3d68ace6	0.056805514
31	0x3c23d006	0.009998327
32	0x3c612da5	0.013743793
33	0xbb9b9b31	-0.004748725
34	0xbbc67a41	-0.0060570543
35	0x3dbf6daa	0.09347089
36	0x3d1befc8	0.03807047
37	0x3c447bcf	0.011992409
38	0x3d2f6bf4	0.04282756
39	0x3db9911c	0.090608805
40	0x3d9da70c	0.07697877
41	0x3d5e5473	0.054279756
42	0x3c1556a2	0.009114893
43	0x3dc15c8a	0.094414786
44	0xbd7b1b6d	-0.061305452
45	0x3dce1a40	0.100636005
46	0x3ddef10d	0.108858205
47	0xbcf186eb	-0.02948328
48	0x3d3d03cd	0.046146203
49	0x3c21f502	0.009885075
50	0xba85414e	-0.0010166557
51	0x3d80805a	0.06274481
52	0x3bef2656	0.007298271
53	0x3c8171a2	0.015801255
54	0x3c488dd0	0.012240842
55	0x3d72eac2	0.059305914
56	0xbd2ed587	-0.042684104
57	0xbb176ef7	-0.0023106912
58	0xbc8a12a0	-0.016854584
59	0x3d30633a	0.04306338
60	0x3dd2a3a8	0.10285121
61	0xbd556dc8	-0.05210665
62	0x3daa233b	0.08307501
63	0x3ca00a91	0.019536288
64	0xb89219f8	-6.9666596e-05
65	0x3d919e24	0.07110241
66	0x3d97e360	0.07416415
67	0x3dccd022	0.10000636
68	0xbd896ddd	-0.06710408
69	0xbcf686d9	-0.030093597
70	0x3d0f1306	0.03493025
71	0x3da1fa54	0.079090744
72	0x3ce29d9a	0.02766304
73	0x3d5a67b4	0.053321555
74	0x3c884b23	0.01663739
75	0x3bbab03d	0.005697279
76	0x39343727	0.00017186684
77	0x3da3c753	0.079970025
78	0x3c84a3ef	0.01619145
79	0x3d05c2f6	0.032656632
80	0xbb0649f6	-0.0020490861
81	0x3c28a8c8	0.010294147
82	0x3cc6cbac	0.02426704
83	0x3d9dc80d	0.07704172
84	0x3da8de9e	0.08245586
85	0xbca7adfe	-0.020468708
86	0xbd4afb1d	-0.049555887
87	0x3afae502	0.0019141736
88	0x3c0cda2e	0.00859694
89	0xbc47eed7	-0.01220294
90	0x3d3dc1a2	0.04632724
91	0xbd47764c	-0.0486968
92	0x3d6975a0	0.05699694
93	0xbd017b6a	-0.031611837
94	0xbd4d7e6f	-0.050169405
95	0x3d9079ef	0.07054507
96	0x3dcf7075	0.10128871
97	0x3bcdd73f	0.006281763
98	0x3d7cadd9	0.06168923
99	0x3c4db476	0.012555232
100	0xbd25da0a	-0.04049114
101	0x3dcfcd3f	0.101465695
102	0x3d78894f	0.060677823
103	0x3d9abce1	0.07555557
104	0x3d9de03b	0.07708784
105	0xbd103abe	-0.03521227
106	0xbb91f517	-0.004454266
107	0x3d12e939	0.03586695
108	0x3d569046	0.052383684
109	0xbcd4ad3c	-0.02596151
110	0x3caed227	0.021340443
111	0x3ca00dbe	0.019537803
112	0x3dc4d7d7	0.09611481
113	0x3dac7bb9	0.08422036
114	0x3ca718cf	0.020397572
115	0xbd64d6d7	-0.05586895
116	0x3d98ce08	0.07461172
117	0x3cacba3c	0.021084897
118	0xbd689f48	-0.056792527
119	0xbd6347b8	-0.05548832
120	0xb9cd9f04	-0.00039219123
121	0x3d02b81c	0.03191386
122	0xbd11244c	-0.035435006
123	0x3b9d075e	0.004792138
124	0xbc1a3fcc	-0.009414624
125	0xbd33e727	-0.043921616
126	0x3dc44b97	0.0958473
127	0x3d7932a2	0.060839303
128	0xbd1dff06	-0.038573287
129	0x3da24d8e	0.07924949
130	0xbc90433a	-0.017610181
131	0xbb1fc961	-0.0024381506
132	0xbd4ef12f	-0.05052298
133	0x3d809aef	0.06279551
134	0x3dbf6a73	0.093464755
135	0xbcc9abfc	-0.024618141
136	0xbd0edf86	-0.034881137
137	0x3d791d36	0.060818873
138	0x3d9f6e16	0.07784669
139	0x3db47fa4	0.08813408
140	0x3d9842df	0.0743463
141	0xbda3605e	-0.07977365
142	0xbd5f3605	-0.054494876
143	0xbb12d32a	-0.0022403696
144	0x3cde6e1a	0.02715211
145	0x3d22bf3a	0.03973315
146	0xbd362bec	-0.04447548
147	0xbd30062b	-0.042974632
148	0x3ba5e3ac	0.005062541
149	0x3da6d136	0.081453726
150	0x3c07dd1a	0.008292461
151	0x3d8aadc6	0.06771426
152	0xbc3245f8	-0.01088094
153	0xbcfb8fe1	-0.030708255
154	0x3d879ceb	0.066217266
155	0x3d8f3de9	0.0699423
156	0x3d37c264	0.04486312
157	0x3daa4f41	0.08315898
158	0x3db0b2f0	0.086278796
159	0xbd0d248b	-0.03445868
160	0x3d8a215b	0.06744643
161	0x3b07df6f	0.0020732542
162	0x3abaa023	0.0014238398
163	0xbbf056e5	-0.0073345774
164	0x3d5ad4e3	0.05342568
165	0xbd3b3806	-0.045707725
166	0xbd3883b5	-0.04504748
167	0x3d5c070b	0.053717654
168	0x3cf69ffc	0.030105583
169	0x3d971360	0.07376742
170	0xbd405704	-0.046957985
171	0xbd7bb9a1	-0.061456326
172	0x3db92d9b	0.09041902
173	0xbca6df5d	-0.02037018
174	0x3ce592f3	0.028024172
175	0x3d492c83	0.049114715
176	0xbd2e6f45	-0.042586584
177	0x3cdc20be	0.026871081
178	0xbd5d859a	-0.05408249
179	0xbb0a753d	-0.0021127008
180	0x3d01dac3	0.031702768
181	0x3c55028c	0.0130010955
182	0xbd0cbb62	-0.03435839
183	0x3cc53233	0.024071788
184	0xbd95bb9b	-0.073111735
185	0x3d00abad	0.031413723
186	0x3d27846c	0.04089777
187	0xbd8b0ecd	-0.067899324
188	0x3cd5ea21	0.026112618
189	0xbda18f97	-0.07888716
190	0x3da33738	0.079695165
191	0x3cbfbfd6	0.023406904
192	0x3b968eb4	0.0045946483
193	0xbda10ba0	-0.078635454
194	0x3d4811df	0.04884517
195	0x3c1bb77c	0.009504195
196	0x3db8683d	0.09004257
197	0xbd922174	-0.07135287
198	0x3bebf969	0.007201363
199	0xbd467668	-0.048452765
200	0x3cb9befd	0.022674078
201	0x3d2f2519	0.04275999
202	0xbd7123ed	-0.058872152
203	0x3d392483	0.045200836
204	0xbacd9dff	-0.0015687345
205	0x3dba52c0	0.090978146
206	0x3d9ebbf9	0.07750697
207	0x3cedf6ee	0.02904841
208	0x3d427a8c	0.04748015
209	0x3dd1f260	0.102513075
210	0x3cd1f453	0.025629198
211	0xbd124e2f	-0.035719093
212	0xbd949646	-0.07255225
213	0xbd1abd05	-0.03777792
214	0x3da0ed50	0.07857764
215	0xbb2be61d	-0.0026229688
216	0xbd64e3b6	-0.055881225
217	0xbd817f4a	-0.063231066
218	0xbd0edd72	-0.034879155
219	0x3b80ef9e	0.0039348146
220	0xbd7a25ee	-0.06107133
221	0xbd6268ba	-0.055275656
222	0xbc856958	-0.016285583
223	0xbd8a0d85	-0.0674086
224	0xbbca8317	-0.006180178
225	0x3d636552	0.05551655
226	0xbdbb3f2d	-0.09142909
227	0x3caf0fb9	0.021369802
228	0xbd6a9c54	-0.057277992
229	0xbd4655b4	-0.048421577
230	0x3d773326	0.060351513
231	0x3cad33c7	0.021142853
232	0xbd3610be	-0.04444956
233	0x3c69b07b	0.014263268
234	0xbd5a5ae7	-0.053309347
235	0x3d0c02a7	0.034182217
236	0x3caa6639	0.020800697
237	0xbc922eec	-0.01784464
238	0x3d7915cb	0.0608118
239	0x3cea076e	0.028567996
240	0x3c179246	0.009251183
241	0x3c8406da	0.016116548
242	0xbccd1ba7	-0.0250376
243	0xbd5c55b4	-0.05379267
244	0x3c9a5f71	0.018844338
245	0x3d996ad7	0.07491081
246	0xbd3f1e00	-0.04665947
247	0xbd092c0a	-0.033489265
248	0xba01fc72	-0.0004958577
249	0x3d4945e4	0.04913892
250	0xbd1b0159	-0.037843082
251	0xbc9a6635	-0.018847564
252	0x3d9e73af	0.07736909
253	0x3c416d94	0.011805911
254	0x3c58292a	0.013193408
255	0x3da2db1a	0.079519466

user_tower.fc.3.bias f4 [64]
0	0xbd7a297b	-0.061074715
1	0x3da4fbe8	0.0805586
2	0xbd984946	-0.07435851
3	0xbd968d5d	-0.07351182
4	0xbd090d44	-0.033459917
5	0xbd2e63ed	-0.042575765
6	0xbd8938cb	-0.067002855
7	0x3b96d120	0.0046025664
8	0xbd5b40e1	-0.05352867
9	0xbd953ef6	-0.072873995
10	0x3d34afc4	0.044112936
11	0xbcbae665	-0.022814939
12	0xbc001fa6	-0.007820046
13	0xbd942221	-0.07233072
14	0x3cec4778	0.028842673
15	0x3b4e6eda	0.0031499178
16	0xbd8b7501	-0.06809426
17	0x3d84b170	0.06479156
18	0x3c8d0207	0.01721288
19	0x3c906553	0.01762644
20	0xbda4f772	-0.08055009
21	0xbdc863c6	-0.09784655
22	0x3d5692cb	0.052386086
23	0x3d92ee9f	0.071744196
24	0xbbbe298f	-0.005803294
25	0xbbe3c71b	-0.0069512255
26	0x3c09d38f	0.008412256
27	0xbcec56fd	-0.028850073
28	0xbcb8cf73	-0.022559857
29	0xbcbb99f4	-0.022900559
30	0xbcc9a32f	-0.024613945
31	0x3cf672bf	0.030084012
32	0xbd129d22	-0.035794385
33	0xbd8fefef	-0.070281856
34	0xbd95d762	-0.07316472
35	0xbd03538a	-0.03206209
36	0x3d906944	0.07051328
37	0xbd0f3958	-0.034966797
38	0x3dd0d9d7	0.101978
39	0xbdd77147	-0.10519653
40	0x3d1fe13b	0.039033156
41	0x3b1494e4	0.0022671754
42	0x3bc7045e	0.0060735187
43	0xbd4ae43b	-0.049534064
44	0x3c3590c2	0.011081876
45	0xbd8f8b3d	-0.070089795
46	0x3dd58a7d	0.10426805
47	0x3ce04957	0.027378721
48	0xbce7f27a	-0.028313864
49	0x3afc3c5e	0.0019244065
50	0x3d3de64a	0.0463622
51	0xbb8f4d74	-0.004373247
52	0xbdd84f3e	-0.10561989
53	0xbd23041d	-0.039798845
54	0x3d0cf54b	0.034413617
55	0x3cd86cd5	0.026419083
56	0xbc248cd9	-0.010043346
57	0x3dd81881	0.10551549
58	0xbdb565b4	-0.08857289
59	0x3b8204b7	0.003967847
60	0xbd3a1cbf	-0.04543757
61	0xbd8c4c76	-0.06850521
62	0x3d34b1ad	0.044114757
63	0xbcb48bc3	-0.0220393

item_tower.fc.0.weight f4 [128, 12]
0	0xbe7921bc	-0.24329275
1	0x3e06219e	0.13098761
2	0xbe11ec27	-0.14250241
3	0x3e834458	0.2563808
4	0xbdd9a1a2	-0.10626532
5	0xbe0b2ac3	-0.13590531
6	0x3cbeaf85	0.023277054
7	0x3c369957	0.0111449575
8	0xbe34fbbc	-0.17674154
9	0xbc84aade	-0.016194757
10	0x3d0bfeb4	0.03417845
11	0x3e5176c7	0.20455466
12	0xbdf5d43e	-0.120033726
13	0x3e280393	0.16407613
14	0x3dda6687	0.10664087
15	0xbde596ae	-0.112103805
16	0xbdafd3a3	-0.085852884
17	0xbe79910b	-0.24371736
18	0xbe1aafed	-0.15106173
19	0xbc8d4297	-0.017243667
20	0xbde1c82a	-0.110245064
21	0xbe02fb57	-0.12791191
22	0xbcba9641	-0.022776725
23	0x3e41179a	0.1885666
24	0x3e81542d	0.25259534
25	0xbe265e83	-0.16246991
26	0xbe22c770	-0.15896392
27	0xbd98891f	-0.07448029
28	0xb9ef6c3d	-0.00045666276
29	0xbdb63d0e	-0.08898364
30	0xbc81965d	-0.01581877
31	0xb8cffa1c	-9.917116e-05
32	0xbded51f6	-0.115878984
33	0xb9b81578	-0.0003511121
34	0x3e2ed9c9	0.17075266
35	0xbd34f362	-0.04417742
36	0xbd804e27	-0.062649064
37	0xbe4fb6e5	-0.20284612
38	0x3e82be0e	0.25535625
39	0xbe6c1ff3	-0.23059063
40	0xbdc97230	-0.09836233
41	0x3b2410d1	0.0025034437
42	0x3c131a34	0.008978415
43	0xbe68b204	-0.22724158
44	0xbb10f784	-0.0022120187
45	0xbd0853c8	-0.033283025
46	0x3daef9d7	0.08543747
47	0xbe463282	-0.19355205
48	0x3e307f3a	0.17236033
49	0xbdf8b5e3	-0.12144067
50	0x3cedf199	0.029045867
51	0x3de98890	0.11403
52	0xbe048b99	-0.12943877
53	0xbe7f2789	-0.24917425
54	0xbdb254cf	-0.08707582
55	0xbdfd7e26	-0.123775765
56	0xbe1d12b6	-0.15339169
57	0xbc154406	-0.009110456
58	0xbe0af56a	-0.1357018
59	0xbe6e0f0e	-0.2324793
60	0xbe2b95bd	-0.1675634
61	0xbd31d754	-0.043418244
62	0xbe1628cf	-0.14664005
63	0xbe5c0016	-0.21484408
64	0xbe1f5ddf	-0.15563153
65	0x3e4347e7	0.19070397
66	0x3d8472e0	0.06467223
67	0x3e7b3e77	0.24535547
68	0xbe7944c3	-0.24342637
69	0x3dc49e1a	0.09600468
70	0x3e706276	0.2347506
71	0x3e30835a	0.17237607
72	0x3b332466	0.0027334928
73	0xbdd984c9	-0.1062103
74	0xbcd4c0a6	-0.025970768
75	0xbe832410	-0.2561345
76	0xbe2a39d2	-0.16623619
77	0xbd2710f0	-0.040787637
78	0x3d28d67f	0.041220184
79	0xbd73ad02	-0.059491165
80	0x3a882281	0.001038626
81	0x3d736e55	0.059431393
82	0xbe93c908	-0.28864312
83	0x3ddf96e0	0.10917449
84	0xbdd03ad3	-0.1016747
85	0xbe78473e	-0.24245927
86	0xbdfa7104	-0.12228587
87	0xbe347163	-0.17621379
88	0x3e78edf5	0.24309523
89	0x3e70c143	0.23511223
90	0x3e0cfc31	0.13768078
91	0x3e254099	0.16137923
92	0x3e3fb2e5	0.18720587
93	0x3d886f38	0.06661838
94	0x3cde6c71	0.027151318
95	0xbe3ea52f	-0.186177
96	0x3cf0fccc	0.029417418
97	0xbcdefbf5	-0.027219752
98	0x3e207d4b	0.15672795
99	0xbd3b1086	-0.045670055
100	0xbdba0adf	-0.09084105
101	0xbda8b0d1	-0.0823685
102	0x39b461bc	0.00034405093
103	0xbe404e90	-0.18779969
104	0x3dc90416	0.098152325
105	0x3dcb7261	0.099339254
106	0xbe32cfc9	-0.17462076
107	0xbe4f42e5	-0.20240362
108	0x3d93b38f	0.072119825
109	0x3e1c8df6	0.15288529
110	0xbe807a94	-0.2509352
111	0x3dae22e2	0.08502747
112	0x3e0c6d44	0.13713557
113	0x3e9548f5	0.29157224
114	0x3e6323ae	0.2218158
115	0xbe5a3c5c	-0.21312088
116	0xbe0d25ed	-0.13783999
117	0xbe15f9c1	-0.14646055
118	0x3d218699	0.039435003
119	0xbd49758d	-0.04918437
120	0xbd76ddbd	-0.06027006
121	0x3e0e4c71	0.13896348
122	0x3e59b889	0.21261801
123	0xbd22c784	-0.039741054
124	0x3e1060c8	0.14099419
125	0xbe17fa6b	-0.1484162
126	0xbe29464f	-0.16530727
127	0x3e3dc206	0.18531045
128	0xbe846bb2	-0.25863415
129	0x3cdcf79d	0.02697354
130	0xbdfb19a9	-0.12260754
131	0xbd1aacc6	-0.037762426
132	0x3c9dde95	0.019271174
133	0x3ded7c0a	0.11595924
134	0x3dcd950d	0.10038195
135	0xbdcbe17c	-0.09955117
136	0x3d02f018	0.031967252
137	0xbe8087f8	-0.25103736
138	0xbe2d5cc1	-0.16929914
139	0xbc8f043f	-0.01745808
140	0xbda50df8	-0.08059305
141	0xbdf4a0b4	-0.11944714
142	0x3d4ee29f	0.05050909
143	0x3d3b673c	0.04575275
144	0xbe14ab32	-0.14518431
145	0x3e1a347a	0.1505908
146	0x3e09b636	0.13448414
147	0x3e4f079e	0.2021775
148	0x3d4e0e12	0.050306387
149	0x3e6746a0	0.22585535
150	0xbd9941c0	-0.07483244
151	0xbe24cfbb	-0.16094868
152	0xbe81016c	-0.25196397
153	0x3cbcfdce	0.023070242
154	0xbe4852c3	-0.19562821
155	0x3a9bd065	0.0011887668
156	0x3e33ccbc	0.17558569
157	0xbd927b27	-0.07152396
158	0x3e50f6dd	0.20406671
159	0x3e8a77e8	0.27044606
160	0xbdfb9ba5	-0.12285546
161	0xbe97c3e6	-0.29641646
162	0xbe8b2f9c	-0.2718476
163	0xbe03affb	-0.128601
164	0x3c814f80	0.015784979
165	0xbe140d6c	-0.14458245
166	0x3e555550	0.20833325
167	0x3e8260ee	0.25464576
168	0xbafff0ea	-0.0019526754
169	0xbe12be6e	-0.14330456
170	0xbe74a773	-0.23892002
171	0x3d887aaf	0.06664025
172	0x3e686569	0.22694935
173	0x3bab8cae	0.005235276
174	0xbe1bf8c1	-0.15231611
175	0x3d9964b9	0.074899144
176	0x3db4a50b	0.08820542
177	0x3e526aa4	0.20548493
178	0xbe6ad8d2	-0.22934273
179	0xbe342ea0	-0.17595911
180	0xbe5bda82	-0.21470073
181	0xbe76142c	-0.24031132
182	0x3e855afe	0.26045984
183	0x3e2ae823	0.16690116
184	0x3e42d756	0.19027457
185	0xbe11a608	-0.14223492
186	0xbd788e4e	-0.060682587
187	0xbe8d3261	-0.275775
188	0x3e6d0dbe	0.23149773
189	0x3dc3bac1	0.09557105
190	0x3e8020b8	0.25024962
191	0xbda1a9fa	-0.078937486
192	0x3a461ce8	0.0007557408
193	0x3cd00070	0.025390834
194	0xbc007a55	-0.007841666
195	0xbe31ac29	-0.1735083
196	0xbddd72eb	-0.108129345
197	0x3dc9a95a	0.09846754
198	0xbe002a75	-0.12516196
199	0x3e653afe	0.22385785
200	0x3e52d7c9	0.20590128
201	0xba7b4b7f	-0.000958614
202	0xbe3d869a	-0.18508378
203	0xbe66b08d	-0.22528286
204	0xbdbde63d	-0.0927243
205	0xbe10caa4	-0.14139801
206	0xbddc9410	-0.10770428
207	0x3e18f925	0.14938791
208	0x3d3b8986	0.04578545
209	0x3db150c1	0.08657981
210	0x3cacdceb	0.021101436
211	0xbe781365	-0.24226148
212	0x3b2ba004	0.0026187906
213	0xbe69767f	-0.22799109
214	0xbdc7409a	-0.09729119
215	0xbe44314d	-0.19159432
216	0xbe5f8859	-0.21829356
217	0x3e4a87a3	0.19778304
218	0x3e172820	0.147614
219	0xbd97335c	-0.07382843
220	0x3dfda13b	0.12384268
221	0x3d9f4c11	0.077781804
222	0x3dd2bcbc	0.102899045
223	0xbddf2925	-0.108965196
224	0x3e7824d7	0.24232803
225	0xbd9fcd19	-0.07802791
226	0x3e3744ff	0.17897414
227	0xbd572364	-0.052523986
228	0x3d6d18bf	0.057884928
229	0x3cf7c8b0	0.030247062
230	0xbdbaac94	-0.09114948
231	0xbd8aa3ac	-0.06769499
232	0x3dbcb88c	0.09214887
233	0xbd2c026c	-0.041994497
234	0x3c9b438f	0.018953113
235	0xbe6a6019	-0.22888221
236	0x3e7ac656	0.24489722
237	0xbe5158c6	-0.2044402
238	0xbdd1be7b	-0.102414094
239	0x3e772168	0.24133837
240	0x3dd704ae	0.104989395
241	0x3e495039	0.19659509
242	0xbe3d5241	-0.18488409
243	0x3e803a75	0.250446
244	0xbe340f7b	-0.1758403
245	0x3e7fe544	0.24989802
246	0x3e568114	0.20947677
247	0xbe93245e	-0.28738683
248	0x3e565a13	0.20932798
249	0x3e391231	0.18073346
250	0x3da127a6	0.078688905
251	0x3e01f533	0.12691192
252	0x3e27b02e	0.16375801
253	0xbe28756d	-0.16451044
254	0xbd92cead	-0.071683265
255	0x3e86f76c	0.26360643

item_tower.fc.0.bias f4 [128]
0	0xbe61c5aa	-0.22048059
1	0xbda885f6	-0.08228676
2	0xbe848856	-0.25885266
3	0xbe53c820	-0.2068181
4	0xbde1c661	-0.11024166
5	0x3d2bbee6	0.0419301
6	0x3e14267a	0.14467803
7	0x3e9645d1	0.2935014
8	0xbddc739d	-0.10764239
9	0xbe09bda0	-0.13451242
10	0xbe422606	-0.18959817
11	0xbc83db41	-0.01609576
12	0x3e74f0ee	0.23920032
13	0x3d9df33d	0.0771241
14	0x3cf19218	0.029488608
15	0x3e088551	0.13332106
16	0xbcccb326	-0.024987768
17	0xbe1cfb31	-0.15330197
18	0xbd5c01d0	-0.053712666
19	0x3e4be933	0.19913177
20	0xbe9d74af	-0.30753085
21	0x3de66c89	0.1125117
22	0xbe476962	-0.19473794
23	0xbe230c11	-0.15922572
24	0x3d90e132	0.070742026
25	0x39ebebc0	0.0004499834
26	0xbe15819f	-0.14600228
27	0x3d7f01e3	0.06225766
28	0x3dde4373	0.10852709
29	0xbe4e3675	-0.20137961
30	0xbdbf84ce	-0.09351502
31	0xbe1595ab	-0.14607875
32	0xbdc3bfee	-0.09558092
33	0xbe4e18b7	-0.20126615
34	0x3d374689	0.044745002
35	0x3e78fdc5	0.24315555
36	0x3e4bbd37	0.19896398
37	0xbe3218fc	-0.17392343
38	0xbe88d7cb	-0.26727137
39	0x3da37b0d	0.079824544
40	0x3dcf9fef	0.10137927
41	0xbe22021b	-0.15821116
42	0xbd6f84f2	-0.058476396
43	0xbc7bc0f3	-0.015365827
44	0x3d9b2d5a	0.075770095
45	0x3dd8ef9a	0.10592575
46	0xbe4d8735	-0.20071109
47	0x3da66673	0.081250094
48	0x3e33380f	0.17501853
49	0xbe2dbe1d	-0.16967054
50	0xbd959f97	-0.0730583
51	0xbe1b6e38	-0.15178764
52	0x3c83dae5	0.016095588
53	0xbd9c1cb4	-0.07622662
54	0xbe612b70	-0.21989226
55	0xbcf243fe	-0.029573437
56	0xbe6e4ede	-0.23272273
57	0xbdad8e00	-0.0847435
58	0x3e95ba65	0.2924377
59	0x3d47c9bc	0.048776373
60	0x3d8de6ba	0.06928773
61	0x3d0df04a	0.034652986
62	0x3ca2d358	0.019876167
63	0x3d61516f	0.0550093
64	0x3e83d866	0.25751036
65	0xbdc55aae	-0.096364364
66	0x3e8d18e0	0.2755804
67	0x3d3b7826	0.04576888
68	0xbe4ab8bc	-0.19797033
69	0x3db99ad7	0.090627365
70	0xbdf5c3af	-0.12000214
71	0x3c07b1bd	0.008282122
72	0x3e1a6ab9	0.15079774
73	0x3e1d20cb	0.15344541
74	0x3d44e6fb	0.048071843
75	0x3d6fc89c	0.058540925
76	0x3e2814a5	0.16414125
77	0xbe4948cb	-0.19656675
78	0xbe886709	-0.2664111
79	0xbe992a2b	-0.29914984
80	0xbdcbdf94	-0.099547535
81	0xbe213828	-0.15744078
82	0x3e1b9816	0.15194735
83	0x3cc4e574	0.024035193
84	0x3cf7bfe0	0.03024286
85	0xbdfd5a71	-0.12370766
86	0x3e751483	0.23933606
87	0xbda74a1a	-0.081684306
88	0x3d4bd33b	0.049761992
89	0x3e5aee6b	0.21380012
90	0x3e19e598	0.1502899
91	0x3e2e4be3	0.17021136
92	0xbdfb6b74	-0.122763544
93	0x3dbfb690	0.09360993
94	0xbe5e2aea	-0.21696058
95	0xbe01adb2	-0.12663916
96	0x3dbd70c3	0.09250023
97	0xbbbbebeb	-0.0057349107
98	0x3df8d558	0.12150067
99	0xbd953c1c	-0.072868556
100	0x3de78c18	0.11306018
101	0x3d5c33c3	0.0537603
102	0xbd6f1541	-0.05836988
103	0x3b63962f	0.0034726968
104	0x3e3bb1a5	0.18329485
105	0x3d5a1a63	0.05324782
106	0x3c8f87e9	0.017520862
107	0x3dccb252	0.099949494
108	0x3d1052b5	0.035235126
109	0xbe25e8e6	-0.16202125
110	0xbe5b7bb6	-0.2143391
111	0xbe018f81	-0.12652399
112	0xbe791d62	-0.24327615
113	0x3c95c491	0.018282207
114	0xbe895da9	-0.2682927
115	0xbe280c34	-0.16410905
116	0xbe309361	-0.1724372
117	0x3e0f72d3	0.14008646
118	0x3e74bf7d	0.23901172
119	0x3e36b876	0.17843804
120	0x3d6bf9b3	0.05761118
121	0xbd405b66	-0.046962164
122	0xbd37f13e	-0.0449078
123	0xbe372a85	-0.17887314
124	0xbe4f2bce	-0.20231554
125	0x3d881bcb	0.06645926
126	0x3e2eefb1	0.17083623
127	0x3e2809e7	0.16410027

item_tower.fc.3.weight f4 [64, 128]
0	0xbd260563	-0.04053248
1	0xbdd9dd58	-0.10637921
2	0x3bf1680f	0.007367141
3	0xbc5a04f9	-0.01330685
4	0x3c1919c1	0.009344519
5	0xbccab3c8	-0.02474393
6	0x3c909c65	0.0176527
7	0x3ced60c8	0.028976813
8	0x3bb01358	0.0053733997
9	0xbdc55260	-0.096348524
10	0x3d601149	0.054703984
11	0x3d1beb8e	0.03806644
12	0x3ba32c7b	0.0049796677
13	0xbc0bc8af	-0.008531733
14	0xbdd9f5c9	-0.10642583
15	0x3c9f93b2	0.019479606
16	0xbd03068a	-0.031988658
17	0xb92032c8	-0.00015277707
18	0x3d5a4906	0.053292297
19	0x3c59de6d	0.013297659
20	0xbdc7a3ae	-0.09748016
21	0xbc8472d0	-0.016168028
22	0x3c61e627	0.013787783
23	0x3c3f3cd6	0.011672219
24	0xbd555f50	-0.05209285
25	0xbd64eef2	-0.05589194
26	0xbbb85bfd	-0.0056262
27	0x3d48c18b	0.049012702
28	0x3d4a1e1a	0.049345113
29	0x3d4b2762	0.049598105
30	0xbcb1704e	-0.021659996
31	0x3d0ac20a	0.033876456
32	0xbd5f635c	-0.054538116
33	0x3a6409c2	0.0008698964
34	0xbd384069	-0.0449833
35	0x3db96d6c	0.09054074
36	0x3db44d35	0.088037886
37	0x3b2a2f21	0.0025968032
38	0x3d06deca	0.032927312
39	0xbd28ccce	-0.041210942
40	0x3cc605f3	0.024172759
41	0x3c909df2	0.01765344
42	0x3d911090	0.07083237
43	0x3d7c9c07	0.061672237
44	0x3cdbf41d	0.0268498
45	0xbce81898	-0.02833204
46	0xbda4bb2a	-0.08043511
47	0x3d14a90a	0.03629402
48	0x3ceb838c	0.02874925
49	0x3c708dfc	0.014682289
50	0x3cd38f43	0.025825148
51	0xbd0cfb4f	-0.034419354
52	0xbdc9e771	-0.09858597
53	0xbd402671	-0.04691166
54	0xb92bc3a3	-0.00016380711
55	0x3d513771	0.051078264
56	0x3c70e3b1	0.014702723
57	0xbc5875aa	-0.013211647
58	0x3da87954	0.082262665
59	0xbd24296b	-0.04007856
60	0xbc913c26	-0.017728876
61	0x3c06ab51	0.008219556
62	0xba584c1a	-0.0008251086
63	0xbbd6deae	-0.006557307
64	0xbd4fabde	-0.050701015
65	0x3cf8ff0c	0.030395053
66	0x3d1d3cae	0.038387947
67	0xbd8d98fe	-0.069139466
68	0x3cbfaa9a	0.023396779
69	0xbd137479	-0.03599975
70	0x3d04a686	0.03238537
71	0xbd87b603	-0.06626513
72	0x3d903add	0.07042477
73	0x38ed9380	0.00011328515
74	0xbb9549c4	-0.0045559127
75	0x3d544013	0.05181892
76	0x3cc3130d	0.023812795
77	0xbdce5c45	-0.10076193
78	0xbdbec519	-0.09314937
79	0xbd6d864b	-0.0579894
80	0xbd16ca5b	-0.036814075
81	0xbd87d168	-0.06631738
82	0x3dd857ad	0.10563598
83	0xbd84439a	-0.064582065
84	0x3cbc7176	0.023003321
85	0x3d1e1ebc	0.03860353
86	0x3cc746f3	0.024325823
87	0x3c378a38	0.0112023875
88	0xbd80ba40	-0.06285524
89	0x3c669c3c	0.014075335
90	0xbda7598c	-0.081713766
91	0xbd23fc38	-0.040035456
92	0x3d628373	0.05530114
93	0x3c8124a5	0.015764544
94	0x3db9ee36	0.09078638
95	0xbc72dd6d	-0.0148233
96	0xbcb67a72	-0.022275183
97	0xbc12e61c	-0.008965995
98	0x3d55fd7b	0.05224369
99	0x3cd2b2d4	0.025720038
100	0x3cb465b4	0.022021152
101	0x3cbb3658	0.022853062
102	0xbdb7525d	-0.089512564
103	0xbd252975	-0.04032274
104	0xbd852f49	-0.065031596
105	0x3b6419ce	0.003480542
106	0xbca5791c	-0.020199351
107	0x3d969796	0.073531315
108	0xbdad917d	-0.08475015
109	0xbdf5dbbb	-0.12004801
110	0xbcb0c966	-0.02158041
111	0x3daeb886	0.08531289
112	0xbcaadeb4	-0.020858146
113	0xbdbdf367	-0.09274941
114	0x3ca9bcff	0.020720003
115	0x3d350ad6	0.044199787
116	0xbd783870	-0.060600698
117	0x3b1071d3	0.00220405
118	0x3c8f8558	0.017519638
119	0xbd952b0a	-0.072836
120	0xbbb6cbd8	-0.0055784993
121	0x3ca47d1c	0.020079188
122	0xbda90af7	-0.082540445
123	0xbda6c093	-0.08142199
124	0xbdc5c8cd	-0.0965744
125	0xbdce6c1c	-0.10079214
126	0x3c231e22	0.009955915
127	0x3d2a976a	0.041648306
128	0xbb860208	-0.0040895976
129	0xbc73fb53	-0.014891463
130	0xbca489a5	-0.020085165
131	0x3b330f34	0.0027322294
132	0xbb8e38be	-0.0043402603
133	0x3b7be3f7	0.0038435438
134	0xbd06cef2	-0.032912202
135	0x3d7c272f	0.061560806
136	0xbdae5805	-0.08512882
137	0xbdd8dbe2	-0.10588814
138	0xbcc274b6	-0.023737293
139	0xbdab6d1a	-0.08370419
140	0xbc7ddfb8	-0.015495233
141	0x3b33fed1	0.0027465115
142	0x3bdf3c2e	0.006812594
143	0x3c80cc4a	0.015722413
144	0xbd011640	-0.03151536
145	0x3d471054	0.048599556
146	0x3d1478fc	0.036248192
147	0xbd281db5	-0.041043956
148	0x3d7646c5	0.060126085
149	0xbda39a29	-0.07988388
150	0xbb2b91d4	-0.002617945
151	0xbdbe27ee	-0.0928496
152	0xbd361e23	-0.044462334
153	0x3d915fa5	0.07098321
154	0xbbd703e7	-0.0065617445
155	0x3bc6ba4d	0.0060646893
156	0xbdc51d5b	-0.0962474
157	0xbd5f065e	-0.05444943
158	0x3cf5a987	0.029988063
159	0xb7118200	-8.6729415e-06
160	0x3d149768	0.036277205
161	0xbd44ef29	-0.048079643
162	0xbc348e9a	-0.011020327
163	0x3d02ca22	0.03193105
164	0xbd87aef1	-0.06625164
165	0xb946906b	-0.00018936551
166	0xbd230bd4	-0.039806202
167	0x3bf81372	0.0075706774
168	0x3d8cdfc9	0.06878621
169	0x3da73055	0.081635155
170	0x3de8c8ff	0.11366462
171	0x3d551369	0.052020464
172	0x3d5d5392	0.054034777
173	0xbd9dc731	-0.07704008
174	0xbd07fa3d	-0.03319763
175	0xbdb749c7	-0.08949619
176	0xbd7a6ac8	-0.06113699
177	0xbd1f82ce	-0.038943104
178	0xbda1799b	-0.078845225
179	0xbd29d3d6	-0.041461788
180	0xbdcfa247	-0.10138374
181	0x3b336bb7	0.0027377435
182	0xba949109	-0.0011334728
183	0xbba22d9b	-0.0049492843
184	0xbcf953ed	-0.030435527
185	0x3d8a8b15	0.06764809
186	0x3d2d49b6	0.042306624
187	0xbd9b9527	-0.07596808
188	0x3d48e342	0.049044855
189	0x3ce9d306	0.028543007
190	0x3d72462a	0.059148945
191	0xbd6a5a9e	-0.057215326
192	0xbd41fcdb	-0.047360282
193	0xbd5adf90	-0.053435862
194	0x3b2a86f8	0.002602039
195	0x3d70f848	0.05883053
196	0x3d70d0a8	0.05879274
197	0x3d8b102f	0.06790196
198	0xbd01d070	-0.031692922
199	0xbdcc7e23	-0.09984996
200	0xbc8dbf4a	-0.017303128
201	0xbb9309fe	-0.004487275
202	0x3d01166a	0.031515516
203	0xbcd00800	-0.02539444
204	0xbd4210cc	-0.0473793
205	0xbdd0ff87	-0.10204988
206	0xbdcd6c43	-0.10030415
207	0x3c595750	0.013265446
208	0xbd7e3b89	-0.062068496
209	0xbca62306	-0.020280372
210	0x3ca3aa9a	0.01997881
211	0xbcc4c844	-0.024021275
212	0x3ccaf21d	0.024773652
213	0x3d5332a7	0.051561978
214	0xbd2ee893	-0.04270227
215	0xbccd92b5	-0.02509437
216	0xbd42667a	-0.04746101
217	0xbd888cd8	-0.06667489
218	0xbd300acd	-0.04297905
219	0xbd3776a8	-0.044790894
220	0xbc57abef	-0.013163551
221	0x3d2fe859	0.042946193
222	0x3c9649ea	0.018345792
223	0xbd5e2c73	-0.05424161
224	0x3c749b8a	0.0149296615
225	0x3cc18187	0.023621334
226	0xbb2be019	-0.0026226102
227	0x3c9aba7f	0.018887756
228	0xbd9c69ed	-0.07637391
229	0xbd8512f0	-0.06497753
230	0xbdc5098c	-0.096209615
231	0x3c46580a	0.012105951
232	0x3a4859d6	0.0007642781
233	0x3d8a7d45	0.067621745
234	0x3c1dcf0b	0.009631882
235	0xbc8cee3f	-0.017203448
236	0xbd39193a	-0.045190074
237	0x3c4d9fc8	0.012550302
238	0xbc532ef3	-0.012889612
239	0xbd6b1aa1	-0.057398442
240	0xbda4b76d	-0.08042798
241	0x3d5c95d4	0.053853825
242	0xbc1b9b01	-0.009497405
243	0xbd8851eb	-0.066562496
244	0x3d72048d	0.05908637
245	0x3ce32875	0.027729252
246	0xbd9f1c08	-0.077690184
247	0xbd780244	-0.060549036
248	0xbcb50659	-0.022097753
249	0xbd010ee0	-0.031508327
250	0x3d01a089	0.03164724
251	0xbc9383ac	-0.018007122
252	0xbd048268	-0.032350928
253	0x3d3500e4	0.044190302
254	0xbdb206db	-0.08692714
255	0x3c9f3a3c	0.019436948

item_tower.fc.3.bias f4 [64]
0	0xbd6365a6	-0.05551686
1	0xbd2f9c9a	-0.042873956
2	0xbb0b1560	-0.0021222457
3	0xbca5a47e	-0.020220038
4	0x3c9b4eff	0.018958567
5	0xbd94c276	-0.07263653
6	0x3d45df59	0.048308704
7	0xbca47920	-0.020077288
8	0x3cc5a97c	0.024128668
9	0xbd7847c0	-0.0606153
10	0xbd8a0c15	-0.06740586
11	0xbcd04193	-0.025421893
12	0x3d1f3791	0.03887135
13	0xbcea916c	-0.028633796
14	0x3d650971	0.055917207
15	0x3d88d289	0.066807814
16	0x3d7870d0	0.06065446
17	0x3b767b83	0.003761024
18	0x3ce5e198	0.028061673
19	0x3d75255e	0.05985009
20	0xbda7e7fe	-0.08198546
21	0xbd170a78	-0.03687522
22	0x3d2058fc	0.039147362
23	0xbcfd9b42	-0.030957822
24	0x3d710a36	0.05884763
25	0xbd8f0950	-0.06984198
26	0x3dbdb323	0.09262683
27	0xbcc4877f	-0.02399039
28	0xbd0bd96a	-0.03414289
29	0xbce8b512	-0.028406654
30	0xbd077e3e	-0.03307938
31	0x3cdb1848	0.026744977
32	0x3d1cdbc4	0.038295522
33	0x3dade76f	0.08491408
34	0x3d84e402	0.064888015
35	0x3c3f7fae	0.011688156
36	0x3d559292	0.052141733
37	0x3d8af98c	0.067858785
38	0x3c2e7565	0.010648106
39	0xbd74d0da	-0.05976949
40	0xbd2da641	-0.04239488
41	0xbd405eae	-0.046965294
42	0xbd867c60	-0.065666914
43	0x3d706c4c	0.05869703
44	0x3d97073e	0.07374428
45	0x3d47a796	0.048743807
46	0x3b42fb56	0.0029751859
47	0x3d7b8540	0.061406374
48	0x3d9116ee	0.070844516
49	0xbd6d7f68	-0.057982832
50	0x3d8e7d99	0.069575496
51	0x3db8809f	0.090089075
52	0x3d6e0c41	0.058117155
53	0x3b393de8	0.0028265659
54	0x3bfb6524	0.007671969
55	0xbd1db8fe	-0.0385065
56	0xbd04999a	-0.03237305
57	0x3d5114aa	0.051045097
58	0x3d406b05	0.04697706
59	0x3c3d7d26	0.011565482
60	0xbd6e336a	-0.0581545
61	0x3c963b86	0.01833893
62	0xbd8b784e	-0.06810056
63	0x3c28b8fa	0.010298008
