models/dumps/TwoTowerModelV1_v2.pth (torch, 359714 bytes, 12 tensors)

user_tower.fc.0.weight f4 [256, 11]
00000000: 64c6 ddbd 4112 56be 17a6 c93d de10 f9bd
00000010: b656 60bd 8024 073d 0769 503d 92a1 8c3e
00000020: ebc7 553e 4d90 83be 9193 22be 52b1 623e
00000030: 76f5 743e 9c4e 1b3e bc51 4abe 901a 0f3c
00000040: e923 043e 7faa 8abd 7242 463d 83ff 8f3e
00000050: 2ed7 3b3e c88a 3f3e b4d2 953e 0e4a 65be
00000060: c295 b4bd 1401 1e3c 2acd 53bc 44a5 773e
00000070: 75a4 75bd e2fc 293e 9d7b 673e 486d 49be
00000080: 475f 433e 725f 15be 48c6 66be bc8f 4c3e
00000090: 1faa abbd 121c 673c 0e81 de3d b72e e93d
000000a0: 9077 423e 0833 46be ed41 483e 77f9 8c3e
000000b0: b1f5 f43d fdb5 a0bd 81da 67bd 2f56 d93d
000000c0: cb73 afbd bf5c 76be d88b a33d 9325 8bbe
000000d0: ed72 3abe 29e8 3f3e 19d8 35bd b418 a5ba
000000e0: ce8e 8b3e f230 43be 097c 09be 74e9 233e
000000f0: 203e 42be b843 26be 8dc6 663e ae47 78be
00000100: 9e49 203e 283f 0c3d a1f9 4bbd ffb1 6b3e
00000110: 1ded e23d b4dc 50be bc19 63be 3fad bbbb
00000120: 77dc b13c 7ee2 663e b63a 213e 2533 bbbd
00000130: 84f7 2ebd 508a 093e 707f 093e be4f 3ebe
00000140: fdb8 543e 508b 05be 3cca 79be 77ee 57be
00000150: 2e55 6cbc e559 63be a86b 01bd f4ee 1cbe
00000160: 9d42 08be ea7b e2bd c59c 5e3e dfe8 743c
00000170: f20f 893e da25 aa3d 2fd6 763e 229b 393e
00000180: 2149 61be f3ad c8bd 14aa 0f3d e053 76be
00000190: 2b03 293e 7d6a 54bd 0d8c a93d 457a d3bb
000001a0: ad5e 573e cf90 21be bc21 a3bd 5a26 7dbe
000001b0: 7cc7 febd aa8d 03be 2195 ea3d 1359 343e
000001c0: 0261 90be 3841 5b3e 0e89 463e 8ff2 fcbd
000001d0: 4a49 373e 149e 823e 4c4d 8c3e 5a74 0ebe
000001e0: a432 433e 18aa 08be f527 37be 1263 833e
000001f0: a5a8 2dbe 7a46 84be a327 0d3e a632 59ba
00000200: a65c 6fbd 7598 273e 3836 ca3a 8e60 47bd
00000210: 2caa 3ebe ea38 183d df9c 5e3e 3fe1 c8bc
00000220: f603 8b3e d4b3 1abe 5ff1 413e 2d33 e63d
00000230: 5a44 db3d c56e 943e dabe 283e e4f2 5dbe
00000240: ff32 df3d 63e6 4abe 5d30 53be d28b c4bd
00000250: 696a 4f3d 69ff 49be c711 12be 5267 653e
00000260: cde1 8ebd 28bd 613e 11c6 f6bc 8b46 6ebe
00000270: 4a9f 063e 3bb0 c83c 8e91 26be a421 0e3e
00000280: a798 ac3d a0dc 77bd 1a61 103d a244 5fbe
00000290: d10d 663e 1615 ccbc a154 56be daca c83c
000002a0: acc4 05be 84c5 1b3e 0ef6 313d fdba 59be
000002b0: 8cda 60bd 605f 85be c5ba 88be 363b b73c
000002c0: 5865 7e3e e212 113e dc24 b7bd d063 afbd
000002d0: a12a 03bd 7f4f 873e d945 473e aaf5 623e
000002e0: e88d 80bc 48f5 9e3d 012b 153e 4d08 ad3d
000002f0: ed1e 263e 1a6b 2ebe 36b5 0cbe 3220 a33d
00000300: 4dec a63d 1486 20bd 474f 663e 988b f53d
00000310: 7788 9f3d 1f3a 3bbe 8c7a 603e 1866 063e
00000320: 4e0f 543e c433 d3bd 8608 63bd c46e 1dbe
00000330: a189 31bd 6de3 273c 41a8 363e 39bd 653e
00000340: 4cb0 803e 24d0 9e3d 2b21 fc3d 20cb 97bd
00000350: 4c8d 093e c7d3 d1b8 b379 593e 088f 703e
00000360: 4580 d03c 60b8 5e3c 982e 61be 7afc a6bd
00000370: c8f8 0bbe 7b50 7ebe d034 47be b170 ffbd
00000380: 3947 4d3e 1ce4 e43d 399f 303e 93d6 313e
00000390: 4890 4d3b 221a 01bd 405e 28be 1a45 6ebe
000003a0: 44ec 04be fe92 393d 1fa8 643e 15ca 49bd
000003b0: 396a cd3c 3db2 d6bd 1048 343b c6b7 49bd
000003c0: 1781 523d 8eaf 053e e321 81be d633 743d
000003d0: a0cb e93d a1c5 46bd cffa be3d 8e72 89bd
000003e0: fa53 7ebe 4916 8b3e fc38 0dbd f7d0 8abc
000003f0: 9030 ffbd 441c 84be f88b 883e 43bd cbbd
-0.10828856 -0.20905401 0.09846132 -0.1216142 -0.054770194 0.032993793 0.050881412 0.27467018
0.20877044 -0.2569603 -0.15876605 0.22137955 0.23921761 0.15166706 -0.19757742 0.00873436
0.12904324 -0.06770801 0.04840321 0.28124627 0.18343803 0.18705285 0.29262316 -0.22391531
-0.088176265 0.009643812 -0.012927333 0.24184138 -0.05997129 0.16600373 0.22605748 -0.19670594
0.19079314 -0.14587191 -0.22536576 0.19976705 -0.083820574 0.014105814 0.10864459 0.11385863
0.18990922 -0.19355404 0.19556399 0.27534077 0.119609244 -0.078472115 -0.056604866 0.10612141
-0.08567008 -0.24058817 0.079856575 -0.27177104 -0.18207903 0.18740906 -0.04439554 -0.0012595863
0.2725739 -0.1906164 -0.13426222 0.16007024 -0.18969011 -0.1623677 0.22536679 -0.24246094
0.15653083 0.034239918 -0.04979861 0.23017119 0.11080382 -0.20396692 -0.22177786 -0.0057274397
0.021711571 0.22547337 0.15745053 -0.091406144 -0.042716518 0.13431668 0.1342752 -0.18585107
0.20773692 -0.13041425 -0.24393553 -0.21087061 -0.014424605 -0.22202261 -0.03159681 -0.15325528
-0.13306661 -0.11058791 0.2173949 0.014948099 0.26769978 0.08308001 0.24105142 0.18125585
-0.22000553 -0.09798803 0.03507431 -0.24055433 0.16505115 -0.051859368 0.08278666 -0.0064537846
0.2103221 -0.15777896 -0.07965419 -0.24721661 -0.124403924 -0.1284701 0.11454225 0.17612104
-0.2819901 0.21411598 0.1938822 -0.12350952 0.17899051 0.2551123 0.27402723 -0.13911572
0.19062287 -0.13346136 -0.17886336 0.25661522 -0.16958864 -0.2583502 0.13784651 -0.000828544
-0.058437966 0.16366751 0.0015427535 -0.048676066 -0.18619603 0.037163652 0.21739529 -0.024521468
0.2715146 -0.15107661 0.18939732 0.1124023 0.107063964 0.2899076 0.16479054 -0.21674687
0.108983986 -0.19814448 -0.20623918 -0.09596981 0.05063859 -0.19726337 -0.14264594 0.22402695
-0.06976662 0.22044814 -0.030123742 -0.23269098 0.13146701 0.024498096 -0.16266462 0.1388002
0.084275536 -0.06051314 0.035248853 -0.21803525 0.22466208 -0.024912398 -0.20930721 0.02451079
-0.13063306 0.15212065 0.043447547 -0.21262737 -0.054895923 -0.26049328 -0.26704994 0.022367101
0.24843347 0.1416736 -0.08942577 -0.085639596 -0.032023076 0.26427838 0.19460239 0.22164026
-0.015692666 0.077616274 0.14567186 0.08448849 0.16222735 -0.17033044 -0.13741001 0.07965125
0.081505395 -0.039190367 0.2249118 0.11989516 0.077897005 -0.1828389 0.21921748 0.13124883
0.20708963 -0.10312608 -0.05542805 -0.15374285 -0.043344144 0.010247094 0.17837621 0.22435464
0.25134504 0.077545434 0.12311014 -0.0741179 0.13432807 -0.00010005343 0.21237831 0.23492062
0.025451789 0.013593763 -0.2199043 -0.08153625 -0.13669121 -0.24835388 -0.1945374 -0.12472666
0.200467 0.11176321 0.17248239 0.1736701 0.0031366516 -0.031519063 -0.16442204 -0.23268548
-0.12980753 0.0453062 0.22329758 -0.049264986 0.025075065 -0.10483215 0.0027508773 -0.049247526
0.05139264 0.1305525 -0.25221166 0.059619747 0.114157915 -0.048528317 0.09325182 -0.06711303
-0.24836722 0.2716544 -0.034478173 -0.016945345 -0.124604344 -0.25802815 0.26669288 -0.09948208

user_tower.fc.0.bias f4 [256]
00000000: 0c17 223e e03e 913e 8a1e 9e3d 45db 373e
00000010: f05f 943d fb6d 51be 5ec3 23be e237 973e
00000020: 0fd1 8d3e 156c 083e 51a7 c5bd a54c 84bd
00000030: abae 243e 2e54 603e ce30 4cbe b022 8b3e
00000040: 66c7 5c3d 1022 243e 3237 a33d fa05 87bd
00000050: 459b c0bc 9bce 1ebe 8737 8f3e 9085 1d3e
00000060: 082f 1cbe 3a16 38be 7bf1 88be bdb8 803e
00000070: 04b0 6b3d 1470 03bd ccd3 88bd 6163 273e
00000080: fcbb b0bd 2c7b 36be 4f75 42bd 7a38 04be
00000090: 13a1 5ebe 02b1 f2bd 797f 39be 7c2f 38be
000000a0: af8d 6dbd 7727 51be ba44 713e f9cb b23d
000000b0: ef73 0a3e dece 883e b299 963e 06a5 0cbe
000000c0: 4a5b 993e ee18 22be a7fa 89be c12c 53bd
000000d0: 1cd7 2e3e c7cc 5c3e cae9 cbbd 1043 963d
000000e0: 049b 1dbe 6818 71be 3cd4 6cbe 685e e3bc
000000f0: 26be 7abe 9416 63bd 8ff7 503e 3c0a a13d
00000100: 931b f63d 7e34 2e3e f04b 63bc a135 393e
00000110: 8e47 873d ea84 103e 842b 873e a1e4 2f3e
00000120: 1d00 90bd aac5 953e e49c 72be 4b23 6c3e
00000130: b3bd b1bd fa34 54be 8657 4b3e 3649 a5bc
00000140: c4e3 823e a1ab 31be 1f2b 72be 8f3b f33d
00000150: 5c25 44be 42a1 62be feb7 cdbc 1660 af3b
00000160: b762 37be 4adc f33d 40ab 7abe 910e e73d
00000170: 84d3 2e3e 0fb5 83be 44b0 eabd 112f 68be
00000180: 1ee5 4b3e b6bb 6a3e 9a89 57bd 4380 113d
00000190: 6199 873a 8a8b 76bc 80d6 7cbe eaaa a23d
000001a0: e989 0fbd b378 e9bc 7747 20be 4453 853e
000001b0: caf6 103e 4f9b 4ebe 84c2 843e bb85 11be
000001c0: 1555 c1bd 1303 85be c614 d3bc ee9a 863e
000001d0: 4a50 13bd 0b43 783d a385 103e 1461 e73c
000001e0: 234a d03c 439c 9cbe 3731 e13d 70f9 f2bd
000001f0: 4fdf 573e ba19 49be 9f3f 923e 7519 973e
00000200: 02a0 313c 4663 ae3d 2b46 eb3d 025c 8a3e
00000210: b264 0b3e cf5a 58be 9d06 bf3d 0fc8 ecbd
00000220: 9062 85bd 5c77 7b3e 34d4 9bbd 132b 493e
00000230: 88cc 77bc e72f fe3d d38b 833e a8b8 273e
00000240: ed56 193e 511e 54be 0785 413e 6879 94be
00000250: 67f0 5e3e 2e34 30be 4cba 28be e74d 27be
00000260: df74 723e 029b 333c c354 6fbe 5f1a 0bbd
00000270: 91cd 863e ed1c 12be fc4e 4cbd 540d 023e
00000280: e787 2dbe 0d5d d0bc b8a3 483e be57 51bd
00000290: 3589 1e3e f48c 8d3e 1d9f 153e 7f22 6abe
000002a0: 044f c9bd 14d6 adbd 7055 15be 9114 90be
000002b0: 563a ca3d 10ea 573d b4d0 7cbe ee0e 57be
000002c0: 477b 7a3d 221b 4b3e 7e07 5ebe f5f4 8abe
000002d0: 69aa ecbc 0669 8cbe f63e d13d 0d4e 7c3e
000002e0: 6338 553e 352c 45bc 2f01 77be b4b8 20be
000002f0: 16cf e43d a7d0 2a3e 7e7d 0c3c 7232 6bbe
00000300: c9c7 543e 9f68 b63d c2d1 903e bdff 1a3e
00000310: 0348 5ebe b635 a2bd 5afc b0bd de9e 84be
00000320: be89 38be a21a f43a 0386 7b3e 040d 8abe
00000330: ee1b 1b3d ce30 d43d 1635 ae3d 13b9 933d
00000340: fd4a 623e a639 d2bd a21a 853d a539 8d3e
00000350: 6c85 873e bfc1 f03c 3f3c 5a3d f36e 663d
00000360: ac0e f1bc 07b3 853e ca73 903e 719c 93bd
00000370: a998 3ebe 3526 7c3e 9ec7 59be d1b8 903d
00000380: e717 0a3e ab4b 923d 9e90 80be 2f74 843e
00000390: d659 d93c 8b8c b8bd 3b4e 6b3e 8bf6 293e
000003a0: b731 54be 62ab 65be 1606 c53c 17a0 df3d
000003b0: 29a2 123e 09fa 653d e6bf 3f3e 3a83 7a3e
000003c0: 1328 5f3e d18c 84be 900a f0bd 5d6c 8b3d
000003d0: 0a2b b83d dc17 51bd 5d45 11bd 7108 293c
000003e0: eddd 67bd 8262 dabd d601 4a3d 73a7 633d
000003f0: ccec 80be b0af 053e 9d63 2fbe 2d2a 9f3d
0.15829104 0.28368282 0.077206686 0.17954738 0.07244861 -0.2045211 -0.15992495 0.29534823
0.27698562 0.1332248 -0.09651054 -0.06459931 0.16082256 0.21907112 -0.19940493 0.27174902
0.0539011 0.16028619 0.07969512 -0.06592937 -0.023511538 -0.15508501 0.27972052 0.15382981
-0.15252316 -0.17977229 -0.26746735 0.25140944 0.05754091 -0.032089308 -0.06681022 0.16346504
-0.08629605 -0.17820424 -0.047475155 -0.12912169 -0.21741132 -0.11850168 -0.18115033 -0.17986864
-0.057996448 -0.20425211 0.23561373 0.08730311 0.13520788 0.26720327 0.29414135 -0.13734826
0.2995246 -0.15829822 -0.26949045 -0.051556353 0.17074245 0.21562491 -0.09956701 0.0733701
-0.15391165 -0.23544466 -0.23127836 -0.027754977 -0.24486598 -0.055441454 0.20406936 0.0786328
0.12016978 0.17012212 -0.013873085 0.18086864 0.06605445 0.14113203 0.26400387 0.17177059
-0.070312716 0.29252368 -0.23692662 0.23060338 -0.086787604 -0.20723334 0.19857606 -0.020176511
0.25564396 -0.17350627 -0.23649262 0.11876594 -0.19154876 -0.22131827 -0.025112148 0.0053520305
-0.1790875 0.11907251 -0.24479389 0.11282075 0.17072874 -0.25724074 -0.11459401 -0.22674204
0.1991162 0.22923169 -0.05262146 0.03552271 0.0010345393 -0.015047917 -0.246912 0.079427555
-0.03504363 -0.028499937 -0.15652262 0.2604009 0.14156643 -0.20176433 0.25929654 -0.1421117
-0.09440056 -0.25978908 -0.025766741 0.26290077 -0.03596524 0.060610812 0.14113478 0.028244533
0.025425976 -0.30587968 0.10995715 -0.11863983 0.21081279 -0.1963872 0.28564164 0.2951161
0.0108413715 0.08515029 0.11487993 0.2702332 0.13612631 -0.2112839 0.09327433 -0.11561596
-0.0651294 0.2455725 -0.07608834 0.19645338 -0.015124448 0.124114804 0.25692615 0.16379035
0.14974566 -0.2071469 0.18898402 -0.28998876 0.21771394 -0.17207405 -0.16477317 -0.16338311
0.23677395 0.01096225 -0.23372178 -0.033960696 0.2632871 -0.14268847 -0.049880013 0.12700397
-0.16946374 -0.025434995 0.19593704 -0.051109068 0.15482028 0.276466 0.14611478 -0.22864722
-0.09829524 -0.08488098 -0.14583373 -0.2814069 0.09874408 0.052713454 -0.24688989 -0.21001789
0.061152723 0.19834569 -0.21682546 -0.27140012 -0.028889852 -0.27423877 0.10217087 0.24639149
0.20822291 -0.012034466 -0.24121545 -0.15695459 0.11172311 0.16681157 0.008574842 -0.22968462
0.20779337 0.08906674 0.28285033 0.15136619 -0.21707158 -0.07920401 -0.08641882 -0.25902456
-0.18021294 0.001862366 0.2456284 -0.26963055 0.037868433 0.10360871 0.08506219 0.072130345
0.22098918 -0.10264902 0.064992204 0.27583042 0.2646898 0.02938926 0.05328011 0.056258153
-0.029425941 0.2611315 0.2821334 -0.07207573 -0.18612923 0.2462395 -0.21267554 0.07066501
0.1348568 0.07143339 -0.25110334 0.2586989 0.026532095 -0.090111814 0.22979061 0.16597955
-0.2072209 -0.22428659 0.024050754 0.109192066 0.14319672 0.056146655 0.18725547 0.24464121
0.21792631 -0.25888684 -0.11720765 0.06807778 0.08992584 -0.051048145 -0.03546654 0.010316954
-0.05660813 -0.1066332 0.049318157 0.055579614 -0.25180662 0.130553 -0.17127843 0.07771716

user_tower.fc.2.weight f4 [128, 256]
00000000: df50 0cbd b348 e2bc aea4 1b3d b587 483b
00000010: 7337 80bb a51d 1d3d f3fd 3b3d f9ba e3bc
00000020: fba6 bbbc 11d9 053d e1e0 203d 2343 8fbb
00000030: 171a 643d 8fa0 93bc 32f1 0cbd 71a9 b13c
00000040: 3ae8 3cbd 533f 423d 205a 6e3d c1ae 233d
00000050: 6faa 503d 967d 26bd 32b3 343c 2190 26bd
00000060: 09be f93b a332 17bd bd92 1d3b a6b1 673d
00000070: 0dd8 3c3d 30c5 3ebc b52f 953b cd73 6abc
00000080: 6ef8 48bd 4e47 25bb b382 643c b520 743c
00000090: 3879 abbc 77e3 2a3d a9e0 093b b62b 0bbd
000000a0: 93c6 39bc 965e 3f3c ae20 2f3c 6486 17bb
000000b0: 894d 69bb 918a 12bd 8fe9 bfbc 0ebe 6d3c
000000c0: 70b4 203d d124 d2bc d050 edb6 4cfb eb3b
000000d0: 186a 1cbd fbc0 173d 31af 163c 9d70 413d
000000e0: 8416 dcbb 33a6 9e3c 7d3f 763c 5eb0 1f3d
000000f0: fe1b ef3a 5fa5 13bd ce7e 3cbd e55e 7dbd
00000100: dd82 84bb 6ea7 6b3d 8e50 93bc 7fd0 813b
00000110: b1d5 573c c54a 383d 9d22 4d3d e19a 493d
00000120: 5c35 8c3c 8622 253c 372d e5bb 8b47 57bd
00000130: 5584 253d fe64 0bbb eff9 953a b33d cdbc
00000140: e7ff e8bc 110a 563d 15f0 6e3c e5b1 f73b
00000150: be66 3d3c 9061 84bc 16e3 68bc b498 643d
00000160: 36ff e8ba cc96 40bd 8939 c1b8 27e4 593d
00000170: 14c2 66bc a67b b7bc 92a5 8aba fd01 e1bb
00000180: be6f 1b3c 8122 303d 0487 733d 251a b73c
00000190: 0f28 013b 609b 5cbd 5cf4 cd3c 28fa 97bb
000001a0: 00c3 0a3d 872c 61bb b0a0 cf3c 55e1 f1bc
000001b0: 3c82 2d3c 57e9 333d fac7 863b c05b 8a3c
000001c0: ed5a 1c3d 1352 1ebb 741b 0cbb 439f 563c
000001d0: 9331 013c 60da 483d 7bab e2bb 9a3d 97bc
000001e0: b56b 6ebd 58b0 22bd 2ce0 7ebc cdbd 8b3c
000001f0: 462a 1dbd fe58 71bd b00f 16bd f415 81bd
00000200: d530 c43b 8a0f b8bb 792f 72bd 82d8 843c
00000210: 48d2 5cbd f73e 1c3c b927 f7bc 3011 7fbc
00000220: d70d 1f3d 35a0 1cbd 1b9a 553d 66dc d83c
00000230: 2ec8 36bd 7157 2c3d 5b85 0e3d cc73 e6bb
00000240: 0669 423d 6a9f 0fbd 45dd 48bc 40f3 70bc
00000250: 433d 19bd c8b3 bebc 8444 19bc 7e9f 5abd
00000260: 56d1 a03b 4b72 8b3c e05a 0ebc 6982 bdbc
00000270: d183 013d 092d 5d3c 424a 0f3c 9d1c 0f3d
00000280: 9753 2abd 0672 523d d9e3 41bc 6b21 6a3d
00000290: 7078 eebc bde0 143c fe54 6b3d b191 01bd
000002a0: 54a0 2b3d 324d 0ebd 9352 dabc cf38 1c3d
000002b0: 5234 ab3c 545a 463d 7ebc cb3b bd2c 083d
000002c0: 0b48 f03b 8a17 81bd 0d29 23bd 624f 0a3d
000002d0: 5910 fd3c b9eb 223d be6b a73c e640 e83c
000002e0: a75a 133c 00d2 403d 2d58 08bb da68 9bbc
000002f0: 7ba8 1abd 921b 473d fef2 a7bc 9707 95bb
00000300: e80a 3f3b d702 b73c f746 523d bef0 2ebc
00000310: 2f5d c6b9 6659 a23c 01b2 a93c a0d6 3a3d
00000320: 6892 123d 9132 06bb 3d92 5dbd e76d ecbc
00000330: e8da 243d fb29 03bd da78 453c b3a4 81bb
00000340: 4259 3e3d 628e aabc 3db6 05bd 201f 053c
00000350: 0244 d03c 2153 e7bc aa82 7bbd cf83 27bd
00000360: 2878 7539 804a 00bd ad15 fe3c 953a 1c3d
00000370: 83d6 2739 427d 70bd 361b b93c 971f 18bd
00000380: f920 74bd 7509 123d 97a8 24bc b285 613d
00000390: a046 84bc d697 3d3d e2db 71bd bd5e 57bd
000003a0: 1c6a 223d 3140 133c 5bcd bb3c 8c38 133d
000003b0: 911f 0f3d 41de 9a3c 1f49 74bd 1baf 653d
000003c0: c6c7 55bd 86ef b3bc 1608 3fbd 7afc 003d
000003d0: 1418 47bd 23b2 713d 5728 213d 91a8 203b
000003e0: ab4e 73bb 072e 143c af46 233d c750 57bd
000003f0: 3313 07bb 8dc0 2d3d 86ab 403d 8852 063d
-0.034256812 -0.027622556 0.037998848 0.0030598466 -0.00391286 0.03835835 0.04589648 -0.027799116
-0.02290677 0.032677714 0.03927696 -0.004372017 0.055688944 -0.018020896 -0.03440971 0.021687241
-0.046119906 0.047423672 0.05819142 0.03996158 0.05094379 -0.04064711 0.011029052 -0.040664796
0.007621531 -0.036913525 0.0024043762 0.056565903 0.04610448 -0.011643693 0.0045528063 -0.014309836
-0.049065046 -0.0025219503 0.013947177 0.014900376 -0.020931825 0.041720834 0.002103845 -0.033977233
-0.011338848 0.011680266 0.010688944 -0.0023120875 -0.0035599193 -0.03577668 -0.0234268 0.014510645
0.03923458 -0.025652321 -7.072558e-06 0.007201588 -0.038187116 0.037049275 0.009197042 0.047226537
-0.0067165513 0.01936636 0.015029785 0.038986556 0.0018242595 -0.036046382 -0.046019368 -0.061858077
-0.0040439204 0.05753272 -0.017982747 0.0039616222 0.013173507 0.04499318 0.050081838 0.04921997
0.017115287 0.010079032 -0.0069939154 -0.052558463 0.040409405 -0.0021269913 0.0011442284 -0.025053835
-0.028442336 0.052255694 0.014583607 0.0075590485 0.01156014 -0.016159803 -0.014214298 0.05580969
-0.0017776254 -0.04701881 -9.213674e-05 0.0531961 -0.014084358 -0.022397827 -0.0010577908 -0.006866692
0.009487091 0.043001655 0.059454933 0.022351334 0.0019707715 -0.053859115 0.025140934 -0.0046379752
0.033877373 -0.0034358816 0.025345176 -0.029526392 0.010590132 0.043923702 0.0041131945 0.016889453
0.03817265 -0.0024157807 -0.0021378668 0.013099494 0.007885355 0.049036384 -0.0069174147 -0.018461991
-0.058208186 -0.039718956 -0.015556376 0.017058278 -0.038370393 -0.05892276 -0.036636055 -0.06303015
0.0059872665 -0.005617087 -0.059127305 0.01621652 -0.053911477 0.009536496 -0.030170308 -0.015568063
0.038831558 -0.038238723 0.05214892 0.026472282 -0.0446245 0.042075578 0.034795146 -0.007032847
0.04746344 -0.03506414 -0.012259786 -0.014706433 -0.03741194 -0.023279086 -0.009354714 -0.05337476
0.0049077673 0.017022273 -0.0086886585 -0.023133473 0.03161985 0.013499507 0.008745732 0.034939397
-0.041583624 0.051378272 -0.011834108 0.057160776 -0.029110163 0.009086785 0.0574541 -0.031633083
0.041900948 -0.034741588 -0.026650703 0.038140114 0.020898972 0.048425987 0.0062175384 0.03324579
0.007332807 -0.06303318 -0.03983407 0.03376711 0.030891584 0.039775584 0.020437118 0.028351258
0.008993781 0.04707527 -0.002080451 -0.018970896 -0.03775833 0.048610277 -0.02050161 -0.004548024
0.0029150788 0.022340221 0.05133721 -0.010677515 -0.0003783493 0.01981802 0.020714762 0.04561484
0.035784155 -0.0020476917 -0.05409454 -0.028861 0.040247828 -0.032022458 0.012052739 -0.0039564013
0.04647184 -0.020819847 -0.0326445 0.008125097 0.025423054 -0.028237881 -0.061403908 -0.040897187
0.00023409782 -0.03132105 0.031016195 0.038141806 0.00016006273 -0.058713205 0.022595983 -0.0371395
-0.059601758 0.03565355 -0.010049961 0.055059142 -0.016146958 0.04628738 -0.059047587 -0.052580584
0.039651975 0.008987472 0.02292507 0.0359426 0.034942213 0.018904807 -0.059640046 0.056075197
-0.052192472 -0.0219648 -0.04663857 0.03149078 -0.048606947 0.059007775 0.03934511 0.0024514536
-0.0037125747 0.009044177 0.03986233 -0.05256727 -0.002061081 0.04241996 0.047038577 0.03279355

user_tower.fc.2.bias f4 [128]
00000000: a50f d5bc a470 323c d7da 6fbd 5e02 4ebc
00000010: 6702 6b3d 0a90 64bc 5af1 183d 96d7 93bc
00000020: 4c4e c4bb b7fa 423d 1e9a e53c 3a9e b33a
00000030: 6b0b 0f3c 042a bd3b ddf8 303d 2297 123d
00000040: 1fc2 103d f8d9 fabc abdd e0bb 0233 d4bc
00000050: 2d3a a63b 9fde d0bb 3f8e 0ebd 4ede 8c3c
00000060: 50d3 043d 8eb3 ed3c c691 103d 70af 993c
00000070: 6aeb a33c 7632 4d3d 6b88 2d3d 006e cfbc
00000080: 6c28 06bd 8685 5c3c 6fc1 ecbc a077 42bb
00000090: 2a5d f33c 0942 54bc 8e06 82bd e0db 2a3d
000000a0: 8100 92ba 1083 d63c 68c6 703c 1085 4f3d
000000b0: 3e50 4c3d 52c6 c7bb 05ae 1ebc 7dca fd3b
000000c0: 8368 32bd f281 143c 251b bebc 47ba 01bb
000000d0: 14c7 3f3d 3c0a fc3c 04f0 ad3c f6e5 a33c
000000e0: 395c acbb a952 42bd b3cf d73c fe8d 843c
000000f0: b54f ba3b 0659 443a 833f adbc 2ca4 47bd
00000100: a5c1 0d3c 68aa bdbb b766 063d 7d34 9fbc
00000110: ca02 cfbc be31 083d 1124 113d d63a 72bb
00000120: d670 063d 5cc5 f9bc 0c0b 08bd 7e11 7e3d
00000130: a751 f3bc 672a a53c 00fa 3b3c 6056 4c3d
00000140: 10aa 7e3b 522f a73c 16d5 6ebd 2cd3 4a3d
00000150: 5e93 51bd e74a 0c3d 2c1c a1bb b139 54bd
00000160: 5552 843c b378 7cba 68f6 38bd 27de 833c
00000170: 23db 853d 82af 923b 40de 81bd 79c3 5f3d
00000180: c900 2ebd 24b3 f93c fc0a dfbc ef34 51bd
00000190: c3b5 483d 4e72 8a3d f419 f23c d2d6 483d
000001a0: b096 f1bc 8d63 cebc 8dba aa3b 18d9 8bbd
000001b0: 2643 b33c 39cd ef3c 146f 193d dcf8 6b3d
000001c0: 17c3 f93c 3c32 babc 53c2 383c 5683 babb
000001d0: 22fc 5abd 17c2 f43c e826 2b3d da24 983c
000001e0: 9798 8bbc 6665 21bd 0f7b b0bc f9e1 143b
000001f0: e613 653d 2b2c a93c 4af2 f53c ca3b bb3c
-0.026008436 0.010891113 -0.05855831 -0.012573807 0.057375338 -0.013950357 0.037339546 -0.018047135
-0.005990779 0.04760238 0.02802759 0.0013703771 0.00873075 0.005772831 0.043206085 0.035788663
0.03534138 -0.030621514 -0.0068623624 -0.025903229 0.005072853 -0.0063741948 -0.034803625 0.017195847
0.032428086 0.029016282 0.03529527 0.018760413 0.020009715 0.05009695 0.042366426 -0.025321007
-0.032753393 0.013459569 -0.02890083 -0.0029673353 0.02970751 -0.012955197 -0.063489065 0.041713595
-0.0011139066 0.026185542 0.014695741 0.050664008 0.049881212 -0.0060966397 -0.009685044 0.0077450857
-0.0435567 0.0090641845 -0.023206303 -0.0019794868 0.046820715 0.030766599 0.021232612 0.020007115
-0.0052600172 -0.047442112 0.026344156 0.016180988 0.0056857713 0.0007490072 -0.021148449 -0.04874055
0.0086521255 -0.0057881363 0.0328128 -0.019434208 -0.025269885 0.033250563 0.035434786 -0.0036961338
0.032822452 -0.030489616 -0.03321366 0.0620284 -0.02970202 0.02016182 0.011473179 0.04988706
0.003885869 0.020408306 -0.058308683 0.049517795 -0.05116593 0.03425112 -0.0049166884 -0.05181283
0.01615254 -0.00096310227 -0.045156866 0.016097141 0.06535938 0.0044764886 -0.06341219 0.054629777
-0.042481218 0.030480929 -0.027226917 -0.051075872 0.049001466 0.06760083 0.029553391 0.049032994
-0.029490799 -0.025193954 0.005210227 -0.06828517 0.021882605 0.029272662 0.037459448 0.057610378
0.030488534 -0.022729032 0.011276799 -0.005691926 -0.05346311 0.029877705 0.04178515 0.01857226
-0.017040534 -0.03940334 -0.021543054 0.0022717698 0.05592718 0.020650944 0.030022759 0.022855658

user_tower.fc.5.weight f4 [64, 128]
00000000: ca8d 8bbd b019 69bd 3ef7 0fbd ff0f 333d
00000010: 2790 1ebd 6cce 543c 72c5 c1bc da6b ae3b
00000020: 03b8 7dbc 8c53 343d c57f 693d e510 633d
00000030: 00ad fc36 eca1 b6bb cc9b 4cbd 558b b6bd
00000040: 8b51 56bc 91a7 1e3d 8fbe 6e3d 3652 75bc
00000050: 9101 c83c cba2 31bd e0e4 fc3c f7d7 833d
00000060: 4c18 d1bc 275a 983c 3f7a 4c3d 0cc7 5bbd
00000070: 0c31 08bc 234a 0a3d 371b 16bd 2bda 26bd
00000080: af29 143d d60d 9f3a e650 0e3d 073d c2bd
00000090: b318 51bb b6bd 603d 4bc6 c73c 47b3 20bd
000000a0: 5aae d1bd 3743 a93c c490 cfbc 6f64 f5bc
000000b0: d9cb 8bbd 9db1 9dbd a31d f2bc 43e0 79bd
000000c0: 7476 4c3c 1d04 72bd a444 91ba f4ff 92bc
000000d0: 6743 303d 50d6 fbbc a876 1abd 297e 47bd
000000e0: 21cc 1bbc 099a 613d 882e 1abd 81b8 9ebd
000000f0: 80df 2abd 0a50 cbbd 1734 203d 156d cb3c
00000100: 967c 8c3d 9f4f 28bd 96d4 d1bd edb3 1cbd
00000110: 34db 37bd de9e b63a 1632 32bc e9f7 b9bd
00000120: e9ee 0ebd bc1d 033d 87cc 36bd c980 13bd
00000130: 8751 80ba b257 b1bd 9457 cbbb 2741 ed3c
00000140: 1be5 71bd 6812 45bc 808c 2abd a7bb d7bd
00000150: f347 5fbd e9de 65bd 66e0 07bb 6123 21bc
00000160: fca3 fd3c f7e3 45bd cf9c 73bd be1f 883a
00000170: 51ba a4bb 8517 033d 0440 25bd c19d 533c
00000180: e3f2 6b3d d96d 0abd fc87 c5bd 625a 7cbd
00000190: 43d6 813d 96e7 89bd 74da 6dbd 3186 993c
000001a0: f962 7dbc a4c6 a6bb a600 3fbd 884f 56bd
000001b0: 91e2 9d3d b653 1bbd 2a87 c4bd d525 853c
000001c0: a356 673d dd42 e63c 242f 293d adc5 bb3c
000001d0: 6642 113c 88e9 4bbd 23be 53bd fb67 13bd
000001e0: ff35 a4bd 888b 8bbd 4094 f2bc 3047 5fb9
000001f0: 0e41 6e3d d811 95bd d901 35bd ac9c de3c
00000200: f04f 6cbd 7dce aa3d 96b8 993c bf01 a7ba
00000210: 7def 7f3d ad48 ae3d 657e 4bbd 0fc9 6d3d
00000220: 8fe6 c83d 0086 013d 543a 50bd 8d63 0f3d
00000230: 3fca d03c 2bea d43d 47f2 3e3d 6f0b 45bc
00000240: dfa6 dcbc 5f03 61bc 6c97 563a 9b5a 96bc
00000250: f30d 72bc 41f0 6b3d 8789 ca3d fb55 bdbc
00000260: e6e9 e53c a793 393c 2410 9bbc ecbb 81b9
00000270: 28c1 803c 6a3f ca3c 8cc8 3dbd 96b8 34bd
00000280: 8c8e f73c fde9 e53a 3a34 313b 3f12 60bd
00000290: 2488 71bd ed39 f33c 6c16 a83d 3c77 90bd
000002a0: cb77 23bd ec67 d43d d7e9 9f3c dca9 cf3d
000002b0: c633 5b3d 3ff5 c63b 6865 083c 3e7f d13d
000002c0: 0ef3 e1b8 3298 843d d353 b23d 2d3b 8d3d
000002d0: 9fe7 18bd 9300 383d 6a5e 70bb 2d8f 943d
000002e0: 97ea 9a3c d9c1 42bc cb8e a93d 4e37 03bd
000002f0: 3404 d93c 89a3 9f3d 726a c33c 4f7e a7ba
00000300: 6014 9a3d b5ff 003c 164a 68bc 62c7 21bb
00000310: 211f 59bd 2d7e 4b3d 5f1a efbc b5c0 53bd
00000320: ab87 873d c7fd 2bbd 9eec e83b 9f36 823d
00000330: 95d5 243d 03e7 60bd 066a 803d 497c e63c
00000340: 8109 b53b 6609 04bb 99ec 58bd 3929 b13c
00000350: f913 09bd 8a80 b63c e7b8 623d 68fc d6bb
00000360: 72c1 c73d e73d 623d fc2b 2c3d d22e 90ba
00000370: a8ec ac3d 60a6 233b 065b a83d 0b22 d93c
00000380: f846 37bd 0bac 843d bd82 2c3d f8e2 4f3d
00000390: c415 d43d f22c c6bc 11fa 2d3d 8c26 24bd
000003a0: 4b0b 883d 0fce 593d d590 8abb add1 abbc
000003b0: 962d 5dbd e9b4 1c3d 29ee 653d aa1b d13d
000003c0: 3ce3 5d3b 1f6f fc3c ac0e 853c 3924 8b3d
000003d0: 9e76 d03c 27ca 6639 2105 1a3d fafd 4a3c
000003e0: 4976 7bbd c8c2 d03d 3cf9 b33d 7062 e4b8
000003f0: f471 693d 3256 fabc 0951 9abc 924a 143b
-0.068141535 -0.056909263 -0.035147898 0.043716427 -0.038711693 0.012988668 -0.02365372 0.0053229155
-0.015485766 0.04402499 0.057006616 0.055436034 7.530325e-06 -0.005573502 -0.049953267 -0.08913294
-0.013080965 0.038734023 0.0582872 -0.014973214 0.02441481 -0.043368142 0.030870855 0.064376764
-0.025524281 0.018597675 0.04992127 -0.053656623 -0.008312475 0.03376211 -0.036647048 -0.040735405
0.036172565 0.0012134861 0.03474512 -0.09484296 -0.003190559 0.054868422 0.024386546 -0.039233472
-0.10238333 0.020661933 -0.025337584 -0.029955117 -0.0682599 -0.07699893 -0.029555148 -0.06100489
0.012479413 -0.059085954 -0.0011083079 -0.017944314 0.04303303 -0.03074184 -0.037710816 -0.0487043
-0.009509117 0.05507854 -0.037642032 -0.07750035 -0.041717052 -0.099273756 0.039112177 0.024832288
0.068597004 -0.041091558 -0.10245626 -0.038257528 -0.044886783 0.0013932844 -0.010876199 -0.09080488
-0.03489581 0.03201078 -0.044628646 -0.03601149 -0.0009789922 -0.08659305 -0.0062055085 0.028961731
-0.059056383 -0.012028314 -0.041637897 -0.10533839 -0.054511975 -0.056120787 -0.0020733117 -0.009835095
0.030961983 -0.048313107 -0.059475716 0.0010385436 -0.0050270935 0.03200485 -0.040344253 0.012916029
0.05760468 -0.033796165 -0.096450776 -0.061609633 0.06339695 -0.06733625 -0.05806966 0.018740745
-0.015465491 -0.005089598 -0.046631478 -0.05232194 0.0770923 -0.03792163 -0.09596093 0.016253391
0.056479108 0.028108055 0.041304722 0.022921408 0.008865928 -0.04978326 -0.051695 -0.035987835
-0.080181114 -0.06813723 -0.029611707 -0.00021293457 0.05816751 -0.07278794 -0.044191215 0.027174316
-0.05769342 0.08340166 0.018764775 -0.0012741609 0.062484253 0.085099556 -0.049681086 0.058053073
0.098096006 0.031621933 -0.050836876 0.03500705 0.025487063 0.103962265 0.046617772 -0.012026652
-0.02693504 -0.013733714 0.0008186016 -0.01835375 -0.014773834 0.05760217 0.098895125 -0.023112288
0.028065633 0.011326707 -0.018928595 -0.0002474481 0.015717104 0.024688441 -0.046333835 -0.044121347
0.030219339 0.0017541047 0.0027039186 -0.0547049 -0.058967724 0.029690707 0.08207402 -0.07053992
-0.039909165 0.10371384 0.019520683 0.1013982 0.053516172 0.006071716 0.008324958 0.10229348
-0.000107741085 0.064743415 0.087073945 0.068960525 -0.037330266 0.044922423 -0.003667737 0.07253871
0.01891069 -0.011887037 0.08279189 -0.032035165 0.026491262 0.07794864 0.023854468 -0.0012778732
0.075234175 0.007873465 -0.01417782 -0.0024685492 -0.053008202 0.049680877 -0.02918738 -0.05169745
0.066176735 -0.041990068 0.007108285 0.063580744 0.04024275 -0.05490781 0.06270222 0.028135436
0.0055248146 -0.0020147203 -0.052960012 0.021626102 -0.033466313 0.02227809 0.055352118 -0.006560851
0.09753694 0.055234816 0.042034134 -0.0011000282 0.08443576 0.0024970993 0.08220486 0.02650549
-0.044745415 0.06478127 0.04211687 0.050753564 0.10355714 -0.024191353 0.04247481 -0.040075824
0.06642779 0.05317503 -0.004228691 -0.020974005 -0.053998552 0.038258467 0.05613533 0.102103546
0.0033857366 0.030814705 0.016242348 0.06794018 0.025447186 0.00022009817 0.037602548 0.012389654
-0.061392102 0.101934016 0.08787772 -0.000108902226 0.05699344 -0.03055868 -0.018837469 0.0022627455

user_tower.fc.5.bias f4 [64]
00000000: 4267 87bd 66c6 b03d e7bd 6e3d da01 c63d
00000010: 67ee ac3c ebea 7f3d bfbc 143c 07bb a8bc
00000020: 3edd cbbb 0d1e 853d b4e2 753d 3fd3 c23d
00000030: e783 7e3d f52d 95bd b6de 30bd 0a01 773c
00000040: e7d4 4bbd 0ed2 d43c a01f 953c cecc 8e3b
00000050: 722f 893d e7ec 153d 5690 3fbd ce3b 973c
00000060: 5085 56bc d113 a23c e524 0dbc 49b6 3abd
00000070: 9c95 88bc 235a 24bc d5ad 5d3d 7a9b 9e3d
00000080: dd3a ab3d 761a afbd aa37 d2bd 40e9 5cb6
00000090: 4c5b 05bd 95a5 bdbd 0879 133c 88db c13d
000000a0: 1b19 9f3d a671 b73d fc27 dcbd 56fb f53c
000000b0: 2a21 96bd 1e87 953d 86b8 9dbc 002a e3bc
000000c0: e7d0 acb9 fe74 c33d 85f8 02bd 6c1d f63c
000000d0: d365 d33d cbb6 753d f8e3 9b3d 2b82 4b3d
000000e0: 76e2 eeba 4582 54bd 724a d2bc 3b68 503d
000000f0: c65d 3b3c 1ea8 8dbd 0998 83bd abfa 47bc
-0.06611492 0.086315915 0.058286574 0.09668322 0.021109773 0.062479895 0.009078204 -0.020596994
-0.0062214425 0.06499872 0.060030654 0.09512948 0.06213751 -0.07284156 -0.043181144 0.015075931
-0.049763586 0.025979068 0.018203557 0.0043579107 0.066985026 0.03660288 -0.04676851 0.018461134
-0.013093308 0.01978484 -0.008614753 -0.045583997 -0.016672902 -0.010031256 0.054120857 0.077444986
0.08360837 -0.08549969 -0.10264523 -3.2918324e-06 -0.03255777 -0.09260098 0.009001024 0.094657004
0.0776846 0.089572236 -0.10749814 0.030027073 -0.07330544 0.07301162 -0.019253027 -0.027729988
-0.0003296204 0.09543799 -0.031975288 0.030043326 0.10322156 0.059988778 0.07611841 0.049684685
-0.001822545 -0.051882047 -0.025670264 0.050880652 0.011435932 -0.069168314 -0.06425483 -0.01220576

item_tower.fc.0.weight f4 [256, 12]
00000000: ae5b 28be 3ef8 81be 7233 dd3d c8dd 4c3e
00000010: f23e d33d 63f8 03bb 848b 323e 0871 2abe
00000020: 37ce 9cbc b22c 09be 4b42 12be d342 10be
00000030: 87a3 d5bc 9be0 29be 7c0e 933d 95d0 053e
00000040: 2781 7a3e de85 4ebd c158 233e 9420 83be
00000050: bfa1 723d b061 1dbe e1f5 193e ee9b 1c3e
00000060: c1f6 eb3d 9bd0 35be 8ad7 86bd 30ab 81be
00000070: 34c5 913c b1e8 073e 5cfe 15be c380 e7bc
00000080: 1002 753e 04b8 0abe b2b8 873d 12e7 7b3e
00000090: e990 79be 3163 ba3d ed80 e83d 993b 47be
000000a0: 6f7c 90be 39b2 e93a bebe 6fbe dbce 083c
000000b0: 4450 c93d c9e5 13bc e570 743e d3b0 71be
000000c0: eaa1 70bc d7b3 74be 4f3e 77be 20a5 723e
000000d0: 200b 93b9 33e5 5d3e 88d6 89bd 011e 2d3e
000000e0: 63e5 05be 6d2c 823d 9d39 643d d014 a8bd
000000f0: 74d0 803a 489d 82bd dd75 033e 90e0 93be
00000100: 086d 83be f611 24be e23a 2a3e 64f9 1d3e
00000110: 330e 89bd f12e 853e 62ff ac3d 20ac 2b3c
00000120: 3f18 28bb 5bc6 f23d 3699 393e 75d1 173e
00000130: b6ec ecbd 399d 1a3e 3d33 933e e5ef 8c3e
00000140: 240b 833e ac4a f6bd 8351 c43d 5798 3fbd
00000150: 1767 05be 0f9d 7c3e 8d2f 05be 01d8 9bba
00000160: 3089 5e3e bf2a 1b3e 84e0 cc3a 9b88 093b
00000170: 04c4 5b3e c3c9 49bd 3d0f 00bc a37d 78be
00000180: 84e0 44b8 e6b8 983c 49a5 2d3e c733 f2bd
00000190: 86f1 2a3e 6403 8e3e 8e01 133e ece5 0fbe
000001a0: 6804 743e 5b1f e13d 0e08 9f3d d51c f23c
000001b0: b001 adbb 4056 303d 7bff e5bc 5b7b 9dbd
000001c0: 72a7 553e 98b2 cf3d beca 3f3e 36ca e43d
000001d0: 16ae febd ad2f 253e c350 8d3c 1bf9 47be
000001e0: 6ac3 023e c65d 3d3e 285b bebd 3a5b 063b
000001f0: 6e24 073e 4968 a7bd 406d 2ebd b126 7d3e
00000200: 6773 61bd 010d 323e c711 473c d290 a5bd
00000210: c674 fdbd 0ede 05be 76d3 69be 775d 013e
00000220: 95d5 e23d 596f c0bd b5bf 89be bd68 d83d
00000230: 62af 4f3d c8ea 50be 3c13 933e b2ff 373e
00000240: 93b6 20be 384d 673e bb0c 333d 2358 253e
00000250: a399 cabd f2f2 2c3d 9d3d 59bc b930 833d
00000260: aca0 4f3e cacb a23d 9ca1 38be 5392 663e
00000270: 11c7 823e 72bd e8bb aedb 153e f13f 72be
00000280: 6874 023d 6be2 1dbe f78e 813e b0d8 9d3d
00000290: b9e9 2abe 3246 82be 147b ebbc 03c0 7cbe
000002a0: 6031 9939 e0d5 afbd 15cd 413e 8808 233e
000002b0: e165 58be feed a63a 7069 623e d1dd 9a3d
000002c0: dc67 78bd 212b 2cbe 9b19 583e 76df 86bc
000002d0: d6f3 26be 2726 a93c 9314 5ebd 181d 1dbb
000002e0: e144 243e 45c8 79be ec32 28bb cb20 c03b
000002f0: 0c12 9fbd cda8 3bbe 5e70 bdbd a179 a0bd
00000300: 656c 67bd b8d1 993e b8f0 f63d 7cb9 27be
00000310: 5bb2 0e3e fc3f 82be bb56 843e 005f 6f3e
00000320: 28ff 3a3c 06b8 dcbd 6262 17bd 44ef 353c
00000330: a1fd 2ebe 8ca2 3abc de38 043e cbad cdbd
00000340: 2a76 79be aaa7 323e 0414 1c3e b8e2 7d3e
00000350: 5cc7 82bc 0332 6b3e 13f7 303e 8ebc 933d
00000360: 31a5 483e 26ef 03bc 3f5a 49bc 0fbc 043b
00000370: 8536 8c3e 7f5a 77bd 2120 9a3e 7378 823c
00000380: fe17 52bd 0476 f8bd 3234 4b3c f38f 203e
00000390: d8a3 043e e18c 7f3d 17de 553e 7111 8dbd
000003a0: a6b6 3c3e 6612 a6bb 7920 613e 48b4 3f3e
000003b0: adf9 59be b751 a2bd 28c1 323e 7c1e 673d
000003c0: a85f 30bc 8574 a53d 752b e53d 7420 58be
000003d0: 6212 633e 0861 4f3e 5f6e 723e dc6d 0abe
000003e0: 6e3a 813e 925a 0dbe 9a35 89be efe2 3e3e
000003f0: 6222 4dbc b1dd cebd 1c0a 7ebc b492 c03d
-0.16441223 -0.25384706 0.10800828 0.20006478 0.1031474 -0.0020137064 0.17436033 -0.1664468
-0.0191413 -0.13395956 -0.14283101 -0.14087991 -0.026078952 -0.16589586 0.07180497 0.13067849
0.2446333 -0.050420634 0.15951826 -0.25610793 0.059236284 -0.15369296 0.15035202 0.15293857
0.11521674 -0.17755358 -0.065840796 -0.25325918 0.01779423 0.13272358 -0.14647812 -0.02825964
0.23926568 -0.13546759 0.06627025 0.24599865 -0.24371685 0.091009505 0.11352716 -0.19456328
-0.28219935 0.0017829604 -0.23412606 0.008350099 0.098297626 -0.009026953 0.23871191 -0.2360261
-0.014687041 -0.23896728 -0.24144863 0.23695803 -0.00028046314 0.21669464 -0.06730372 0.16905977
-0.13075785 0.0635613 0.055719007 -0.08207095 0.0009827749 -0.06377655 0.1283793 -0.28882265
-0.25669122 -0.16022477 0.16624025 0.15427166 -0.066921614 0.26012376 0.08447148 0.0104780495
-0.0025649217 0.118542396 0.18124852 0.14825995 -0.115685865 0.15099038 0.2875003 0.27526775
0.25594437 -0.12025961 0.095858596 -0.046776142 -0.13027607 0.24669288 -0.1300642 -0.0011889936
0.2173202 0.15153025 0.0015630876 0.0020985964 0.21461493 -0.04926468 -0.007816133 -0.24266677
-4.6939138e-05 0.018642854 0.16957583 -0.11826282 0.16693696 0.27736962 0.14356062 -0.14052552
0.23829806 0.10992309 0.07765208 0.029554764 -0.005279742 0.043051004 -0.028075924 -0.07689544
0.20864657 0.10141486 0.18729684 0.11171381 -0.12435548 0.16131468 0.017250424 -0.1952862
0.12769857 0.18492803 -0.092947304 0.0020501153 0.1319749 -0.08174188 -0.042584658 0.24721791
-0.055041697 0.17387773 0.012150235 -0.08084263 -0.123757884 -0.13072988 -0.22834572 0.1263331
0.11075894 -0.09396238 -0.26904073 0.10566852 0.050704367 -0.20402062 0.28725612 0.17968634
-0.15694647 0.2258805 0.043713313 0.16146903 -0.09892585 0.04222388 -0.013259319 0.064057775
0.20276135 0.07949026 -0.18030399 0.22516756 0.255425 -0.0071026618 0.14634582 -0.23657204
0.031849295 -0.15418403 0.25304386 0.077073455 -0.1669072 -0.2544418 -0.028745212 -0.24682622
0.0002921922 -0.08585715 0.18925889 0.15921223 -0.21132614 0.0012735722 0.22110534 0.07561839
-0.060645923 -0.16813327 0.21103518 -0.016463976 -0.16303954 0.020648075 -0.05421884 -0.002397364
0.160419 -0.24392803 -0.0025665117 0.005863284 -0.07767114 -0.18326111 -0.09249948 -0.07835699
-0.056499857 0.30042815 0.12057632 -0.1637935 0.13935225 -0.2543944 0.2584742 0.23376083
0.011413373 -0.10777287 -0.03695906 0.011104409 -0.17088939 -0.011391293 0.12912318 -0.10042914
-0.24361482 0.17446771 0.1524201 0.24793518 -0.015964203 0.22968297 0.17281751 0.07213698
0.19594266 -0.008052623 -0.012289583 0.0020253693 0.27385345 -0.06038904 0.30102637 0.015926575
-0.051292412 -0.12131885 0.012402581 0.15679912 0.12953126 0.062390212 0.20885502 -0.06888092
0.1842905 -0.0050681112 0.21985044 0.18721116 -0.2128665 -0.07925742 0.17456496 0.056425557
-0.010764994 0.08078865 0.111899294 -0.2110613 0.22174981 0.20251858 0.23674916 -0.1351847
0.2523989 -0.13804081 -0.26798707 0.18641256 -0.0125204045 -0.10100878 -0.01550534 0.094029814

item_tower.fc.0.bias f4 [256]
00000000: ad97 97bd 802b 53be 6cdc 923e 0a93 803e
00000010: b952 15be 0ede 0c3e 23c8 363e 0f7d 223e
00000020: 8141 4a3e 3089 19bd 4fc5 71bc 498c 16be
00000030: 2955 04be 2488 693e b513 f13c 2cf7 13bc
00000040: f0fb 763e 5962 8d3e 2c87 0ebe 2474 d1bd
00000050: 87b6 a4bd 5c6a 33be 5a4e 41be 7962 1dbe
00000060: 8ab0 25bd dec9 7dbe 8eff 3bbe 2744 e6bc
00000070: 6681 813d 491a 80be e362 1abe 567c 61bd
00000080: 2807 abbd c385 203e cf02 28bd 1c94 463c
00000090: 05b5 f13d 2404 08be d2d0 0a3c d453 7fbe
000000a0: ce6f 49be 388d e6bd 2319 8e3e ceae 18be
000000b0: 8910 513e ba70 edbd 7b17 8e3e d42d a43d
000000c0: c972 f73a 033f b4bd df78 8ebe 8b21 c2bd
000000d0: 8ff3 9ebb fd88 48be f64c 423d f077 a23d
000000e0: 11cb cdbd 66dd 863e 3869 5fbe 16c8 833e
000000f0: fcb4 673e d028 fabd 9cb0 8f3e a0c9 67be
00000100: 57c1 6d3e aad6 f4bd ca13 873d 34da 39bd
00000110: 89f9 1dbe 74f9 dd3d 50ad 3a3e 4b51 683e
00000120: b21c 31bc 52d1 203e cb12 fa3d 246d 673e
00000130: c3ce e0bd f7e9 cbbb f67a 283e 5cc9 363c
00000140: ef12 773e 389b 283e cb23 793e 907d 393e
00000150: f35c 27be e49a f43d a6af 18be 152b 6e3d
00000160: 8191 393d 59a4 5abd bf35 78be 61a5 06be
00000170: f214 80be 4bdd 56be 2bcd d2bd 7deb 783e
00000180: bfe3 46be 1069 133e d857 03bc 60e6 c9bd
00000190: 5f03 17be aadd 193c 936c 963e eb8b 73bb
000001a0: 1c9d 253c b4a2 0e3e 7523 9e3d ca34 b1bd
000001b0: 2e6c 973d 080c 0ebe 5c27 1cbe a0b2 2a3e
000001c0: 64ec c4bd c89c 613e b07a 643e 86ba 283e
000001d0: 4c93 10be e833 683e 87a4 8b3c d98c 653e
000001e0: b415 673e 82e6 5e3d 703f a9bd 1754 8ebe
000001f0: 629a 71be 3316 ee3d 9738 543e efb6 8bbb
00000200: 4d26 5f3e 2edd 603e 9a16 0ebe 2102 4bbd
00000210: d43a 52bd fc3e 5abe d30f 063e 9777 0cbe
00000220: 58fe 54bd c31b de3d 4a59 6abe fcea 583e
00000230: a931 ea3d a932 763d f040 0cbe 7f0f 283b
00000240: b53b 573e 99c0 d8bc 83a3 55be 3368 3c3e
00000250: 9ee4 383e 5d9e ccbd f0af b63d ffaf 8e3e
00000260: 1e32 0cbe 09cc 883b 9766 d33c 7382 b7ba
00000270: ad7a c3bd d41f 0bbe 6847 763e e44d 86be
00000280: 75dd c7bd b067 0abd 431e b5bd 56fb babd
00000290: 5339 c23d 9a73 fabd 6f88 743e 04e8 7b3d
000002a0: f2b4 74be ad34 123c 29e6 8fbe 6da7 853e
000002b0: 7d58 263d 8c61 183e 0188 7b3e 905b eebd
000002c0: e40e 4bbe 0f2c bcbd 7266 97bd 42ad 40be
000002d0: fff3 163d 9721 1b3e 249d 143e cfc6 5c3e
000002e0: d7d8 263e 8c1a 90bc 5807 2abe 7a56 fbbd
000002f0: fa0e 55be 9af6 bd3d bf07 3f3e 12d9 36be
00000300: 3b3f 863e 4230 0ebe 3601 7f3e 1a84 84bd
00000310: 7e46 ff3c 9421 62be 9efe d5bc 204f 043e
00000320: 1d15 823e db6b 49be ed5c 71be 9ed4 443e
00000330: 43c7 1c3d f3a6 08be 1043 6f3d 7f92 53be
00000340: 014e 8d3e 1f92 88bd 3d29 063e 935a d63d
00000350: 1dfd 8abe 8031 a2bb 834d 713d 4e5a 5cbe
00000360: d968 1e3e ffc6 013e 73d1 22bd 7f78 9c3c
00000370: 9604 143e 2e91 48be 8f17 723d a896 133e
00000380: c45b 5fbe f7af 03be 6ebe 863e 826f 333e
00000390: 7fa4 06be 8278 e7bd 3bf5 3dbd 32fa 34be
000003a0: 709f 77be f738 d23c c0b9 04bc b1ab 583e
000003b0: ae14 8fbe 564b 0ebe a30d 35be ce12 073e
000003c0: 27cb 213e e33c 9c3d 5a96 1cbe 1213 9dbc
000003d0: 3b31 ec3d 9424 97bc 070a 62be d347 053e
000003e0: cf3e 273d 4eee 80be d5a2 6cbe 4f12 94bd
000003f0: e7bc ba3d bcd5 103e ba15 bebd 2213 1ebe
-0.07401977 -0.20622063 0.28683794 0.25112182 -0.14582337 0.13756582 0.17849784 0.15868019
0.1975155 -0.037484348 -0.014756515 -0.14701952 -0.12923111 0.2280584 0.029428342 -0.009031098
0.24119544 0.27614096 -0.13918751 -0.1022723 -0.08042627 -0.17521042 -0.18877545 -0.15369596
-0.040451564 -0.24784037 -0.18359205 -0.02810867 0.06323509 -0.25020054 -0.15076785 -0.055050217
-0.08350974 0.15676026 -0.041018303 0.012120273 0.11802105 -0.1328283 0.008472638 -0.24934322
-0.19671556 -0.11257404 0.27753553 -0.14910433 0.20416464 -0.115937665 0.2775229 0.080165535
0.0018878813 -0.08801081 -0.27826592 -0.09479054 -0.004850812 -0.19583507 0.047436677 0.079330325
-0.100484975 0.2634079 -0.21817482 0.2573859 0.22627634 -0.122148156 0.2806443 -0.22635508
0.23218285 -0.119550064 0.06595571 -0.04537411 -0.15427221 0.10838595 0.18230176 0.22687261
-0.010810064 0.1570485 0.12210616 0.22600228 -0.10976937 -0.006222959 0.16453156 0.011156406
0.24128316 0.16465461 0.2433006 0.18114305 -0.16344051 0.119436055 -0.14910755 0.058146555
0.04530478 -0.05337939 -0.24239253 -0.13149025 -0.2501598 -0.20982854 -0.10293039 0.24308582
-0.19422816 0.14395547 -0.008016549 -0.09858394 -0.1474738 0.009391228 0.2937971 -0.0037162255
0.010108259 0.13929254 0.07721607 -0.08652647 0.073936805 -0.13871777 -0.1524939 0.16669703
-0.096154004 0.22032464 0.22312427 0.16477403 -0.1411869 0.2267605 0.017046226 0.2241701
0.22566873 0.054419048 -0.08264053 -0.2779853 -0.23594049 0.11625328 0.20724712 -0.0042637507
0.21791954 0.21959373 -0.1387581 -0.049562577 -0.051325634 -0.21313089 0.13091974 -0.13717495
-0.052000374 0.10845139 -0.22885624 0.2118339 0.11435253 0.060106907 -0.13696647 0.0025644002
0.2101887 -0.026459025 -0.20863156 0.18399124 0.1805596 -0.09991143 0.08920276 0.2786865
-0.13690993 0.0041747135 0.025805755 -0.0014000669 -0.09544883 -0.1358636 0.24050677 -0.262313
-0.097590365 -0.03379029 -0.088436626 -0.0912997 0.0948359 -0.122290805 0.2388017 0.061500564
-0.2389715 0.008923692 -0.28105286 0.26104298 0.040611733 0.14880961 0.245636 -0.11638558
-0.19829899 -0.09188091 -0.07392587 -0.18816093 0.036853787 0.15149532 0.1451307 0.21560214
0.16293655 -0.017590784 -0.16604364 -0.122723535 -0.20806494 0.09275551 0.18655299 -0.17856243
0.26220116 -0.13885596 0.24902806 -0.06470509 0.031161543 -0.22083122 -0.026122387 0.12920809
0.25406733 -0.1967005 -0.23570605 0.19221732 0.03827597 -0.13344936 0.058413565 -0.20661353
0.27598575 -0.066684954 0.13101669 0.104664944 -0.27146235 -0.0049497485 0.05891181 -0.21518824
0.15469684 0.12673567 -0.039750528 0.019100426 0.14454874 -0.19586632 0.0591045 0.1441294
-0.2181235 -0.12860094 0.2631716 0.17523006 -0.13148688 -0.11302282 -0.046376448 -0.17673567
-0.24181914 0.025661929 -0.008100927 0.21159245 -0.27945465 -0.13895926 -0.17680983 0.13190767
0.15800153 0.07628801 -0.1529173 -0.019174132 0.115328275 -0.018450059 -0.22074138 0.1301568
0.040831383 -0.25181812 -0.2310899 -0.072300546 0.091180615 0.14144033 -0.09281488 -0.15436986

item_tower.fc.2.weight f4 [128, 256]
00000000: 32b9 b93c 8a9c b8bc d8e8 35bb a00f 4abd
00000010: 3c11 dd3c f77c fe3c af1b eb3b 3b06 863d
00000020: ab0b 923d 159e cc3c d435 edbc 0a97 643a
00000030: 6bfd 77bb f66a 55bc 166b 6b3c f2f9 c1bc
00000040: 82e3 333d 84c7 03bc 74ac 35bd 5e42 48bd
00000050: 922b e8bc 23b7 6c3d 37f5 a0bc e706 4cbc
00000060: 48dd 663b ac49 4bbc 78dc 133d ee82 86bc
00000070: f6f8 7a3d 3c91 003d 4532 163b d157 193d
00000080: 9d44 973c 5e3c edbc b1f7 3cbb 8da2 f0bc
00000090: 5e4c ea3c 24a2 b93c 8f2c 42bc 67eb f0ba
000000a0: 8695 1bba 0b1c 253d 42bf ac3c 8c58 833d
000000b0: b2b2 5abd 2aeb 43bd 5542 ef3c 19ec 323d
000000c0: bfc0 e1ba 4256 48bd 0aec 013c 5b55 12bd
000000d0: 4e63 1a3d 73ce 8a3a c5d8 8ebc bbe3 4fbd
000000e0: bf00 eeb9 d886 70bb 987a 7abc 579c 08bd
000000f0: c082 62bc c7f5 f0bb a780 05bd afbc 843a
00000100: 6c50 0dbd 6b87 2d3d 019d 44bd 1610 2bbc
00000110: 9814 1238 ac14 88bc 8f4f 74bd 8f1e dd39
00000120: e6a8 89bc aa9d 713d 0c6b 133d 8370 413d
00000130: 745a 88bc f8be 8cbd 52a2 a13b f719 4fbc
00000140: 33ff 5bbd a9a0 593d 159c aabc 5fd3 303b
00000150: d3f9 093d c146 dabc ae9a 843d a8d2 d5bc
00000160: 118e 2ebd 8450 99bd 1b92 753b 11e6 563d
00000170: e168 483d 6cb5 943d 32bc d239 053d cfbc
00000180: 36a8 bc39 2b5a 25bc c3f5 fdbb 03ab e3bc
00000190: b668 e63b fcbb 43bd f648 36bd 04fe af3c
000001a0: 709e 603d 5166 f33c f155 233d 5ad0 823c
000001b0: 519d 873d f18e 013c f725 1dba 1d61 e3bc
000001c0: d6e9 09bd 4721 b33c 1330 91bd 0e68 db3c
000001d0: ba5e 023d 97f0 263d 7dc2 64bd e02e 043d
000001e0: c8bf d33c fc9e 91bc 147b 463d 3870 11bc
000001f0: deda b8bc d3ef 703c 4b4a 8fbd a8d2 2fbd
00000200: b45a 543d 984d 69bc 2550 bf3c c835 823d
00000210: 56e9 903d fd62 8e3a c60a 183d ba8e 3ab9
00000220: bfd8 913d a15e 94bc 30c6 0c3c 7107 4f3d
00000230: 6d65 103d 113d 4c3d da38 fb3c 35a4 043c
00000240: da67 42bc ca2c 3fba e6c0 093d fae5 793d
00000250: 5d8a 41bc 2671 d7bc e482 3e3c a8b3 a53c
00000260: 4834 143d 88fc 18bd f417 adbc cb40 253d
00000270: 8b32 8d3d d8da c938 286c bb3c 5abb b73c
00000280: da7a 103c 79d4 2cbc b595 633d 610f 27bd
00000290: 5059 1bbc eefc 0bbd 33f9 813c 74d5 55bd
000002a0: 9bd3 f43c 44a1 623d b2ca 473d 1103 463c
000002b0: 08fa 273c a5c1 52bd 8216 3e3d 5b76 ea3c
000002c0: 7c9c a039 00f0 18bc fa40 903d dc71 cbbc
000002d0: 6a63 a23c 64a5 b538 02a7 ee3b c240 27bd
000002e0: 59cc 02bd 90e8 de3c fd34 fdbb 6430 fa3c
000002f0: 79bd 0e3c 7e32 14bd 9e98 f93c e689 243d
00000300: b100 813c 26e5 883d 3578 813d 5000 8fbd
00000310: d000 373c d044 41bd 98d6 ac3c e8a4 40bd
00000320: eeb7 e93c ab4e 3c3a 021b d83c ec7e 323a
00000330: 6e0f a33c 88ea 3f3d ebd1 763d 3e52 68bd
00000340: a6e8 6a3c 1bb3 4e3d b6e4 e63c 48cc 843c
00000350: 03c4 893d 7469 953d f116 f1ba d797 0a3d
00000360: 5adb 80bd 712e 0c3d 1683 b83c e764 9e3c
00000370: 381d 81bd 661f 1ebb 4a0f ed3c 4078 5abd
00000380: bbc1 bf3c f2f8 983c 48c1 0b3d 36fe b23b
00000390: 317c 553d 1ee7 d0bc 77b8 e0bb cf14 1cbb
000003a0: 44a9 f1ba cc75 603d 0fb8 883d 5f80 583c
000003b0: 6d54 823c 8947 42bd 2ea9 74bd 2e65 8c39
000003c0: 2ab1 59bc 5ea7 6d3d f8f2 173d 4b2d 7c3c
000003d0: d76e 10bd 1a1d 613d 9f9b c5bc 9c56 553b
000003e0: c67e 583d 35aa eb3b 2328 05bd 3e50 7b3d
000003f0: fede de3c ed86 353d 94ee 5e3b 1f97 443c
0.022671316 -0.022535581 -0.0027757194 -0.049331307 0.026985757 0.031065447 0.007174931 0.06544157
0.07131132 0.024977723 -0.028956331 0.00087200163 -0.0037840258 -0.01302599 0.014368793 -0.023678754
0.04391814 -0.008043174 -0.044353917 -0.048891418 -0.028341088 0.05779184 -0.019648178 -0.0124528175
0.0035227109 -0.012407701 0.036098927 -0.016419854 0.061272584 0.031388506 0.0022918147 0.037437264
0.018465335 -0.02895945 -0.002883416 -0.029374385 0.028600868 0.022660322 -0.011851444 -0.0018380702
-0.00059350615 0.040309947 0.021087293 0.06413373 -0.053393073 -0.04783169 0.029206434 0.04368219
-0.001722358 -0.048910387 0.007929811 -0.035725933 0.03769236 0.0010590091 -0.017437348 -0.05075429
-0.00045395453 -0.0036701467 -0.015288018 -0.033352222 -0.013825119 -0.0073535177 -0.032593396 0.0010127033
-0.034500524 0.042365473 -0.048001293 -0.010440847 3.4828292e-05 -0.01661142 -0.059646185 0.00042175173
-0.01680417 0.05898825 0.03599076 0.04722644 -0.016644694 -0.06872362 0.00493268 -0.012640468
-0.053710174 0.053131733 -0.020826379 0.0026981456 0.033685517 -0.026645066 0.06474815 -0.026101425
-0.042615954 -0.0748606 0.003747112 0.052465502 0.048928145 0.07261166 0.00040194538 -0.025297651
0.0003598348 -0.0100922985 -0.0077502443 -0.027791506 0.0070315255 -0.047786698 -0.044503175 0.021483429
0.054838598 0.029711874 0.039876882 0.01596849 0.066218026 0.007907615 -0.0005994732 -0.027756268
-0.03367027 0.021866454 -0.070892476 0.026783016 0.03182862 0.040756788 -0.05584954 0.032271266
0.025848284 -0.017776005 0.04845722 -0.008876853 -0.022565302 0.014705616 -0.06996592 -0.042925507
0.051844314 -0.014239691 0.023353646 0.06357914 0.07075755 0.0010863241 0.03711965 -0.00017791512
0.07121419 -0.018111529 0.008592173 0.050544206 0.035252977 0.049862925 0.030666757 0.008095791
-0.01186558 -0.0007292746 0.033631228 0.06101034 -0.0118127735 -0.02629907 0.011627886 0.020227268
0.03618267 -0.037350208 -0.021129586 0.040344995 0.06894406 9.62519e-05 0.022878721 0.022428203
0.008818353 -0.010548704 0.055562694 -0.04078615 -0.009481743 -0.03417676 0.015865898 -0.052205518
0.029886058 0.055329576 0.04877729 0.012085692 0.010252483 -0.051454205 0.046408184 0.02862089
0.00030634168 -0.009334564 0.07043643 -0.024834566 0.019822795 8.661559e-05 0.0072830925 -0.040833242
-0.031933162 0.027210504 -0.007727264 0.030540653 0.008712166 -0.036180966 0.030468281 0.040170573
0.0157474 0.066843316 0.06321756 -0.069824815 0.011169627 -0.047184765 0.02109842 -0.047032267
0.028530087 0.00071833533 0.026380066 0.0006809074 0.019904818 0.046854526 0.060258787 -0.056719057
0.014337694 0.050463777 0.02818523 0.01621069 0.067268394 0.07295504 -0.0018393678 0.033836212
-0.06291838 0.034223977 0.022523444 0.019335223 -0.06304401 -0.0024127602 0.028937954 -0.053337336
0.023407808 0.018673394 0.034119874 0.005462433 0.05212039 -0.02550083 -0.0068579274 -0.0023816114
-0.0018437286 0.05479984 0.066757314 0.0132142 0.015909398 -0.047431502 -0.059731655 0.00026778266
-0.013286868 0.058020942 0.037096947 0.015391658 -0.035261955 0.054959394 -0.024122057 0.0032552844
0.052855276 0.007191921 -0.03250898 0.06135582 0.02720594 0.04431813 0.0034016715 0.011998921
