models/dumps/TwoTowerModelV2_v3.pth (torch, 394178 bytes, 15 tensors)

user_tower.fc.0.weight f4 [256, 11]
-0.27141944 0.12446339 0.07835117 -0.035672612 -0.1877667 0.26283872 -0.1252264 -0.1514911
0.24226978 0.04196423 0.28133953 -0.17115927 -0.035078235 -0.06937453 -0.27567646 -0.074699365
0.2784431 -0.1396743 0.286934 -0.1583647 0.0015170953 -0.069676444 -0.27305722 0.17764607
-0.10176481 -0.08750733 0.25673673 -0.0014460909 0.20458317 0.23919988 -0.038956545 0.0913002
0.037744462 -0.09475084 0.112431385 -0.23687108 -0.06417797 0.11827338 -0.12979051 0.053516176
0.16836669 -0.27770674 -0.10858371 -0.10194943 0.07010807 -0.13553385 0.089564115 -0.14948793
-0.08641629 0.25548866 0.25695336 -0.11263212 -0.05095467 -0.234285 0.10006122 0.0059492867
-0.03379483 -0.09947449 0.09416706 0.007405968 -0.16901553 -0.06962096 0.17452763 0.071244165
-0.1462662 0.0013614653 0.060034826 -0.043019217 0.03883212 -0.2062844 -0.25756666 0.28833276
-0.19857049 -0.17163868 0.28553855 -0.024809541 0.21299018 -0.14239424 -0.0445083 0.09456153
0.19478178 -0.24070711 0.08098849 -0.16800186 0.22124803 0.20311642 -0.2111808 0.10122377
0.18239877 0.13101274 0.23578292 -0.21542396 0.14166145 -0.2688414 0.19356646 0.0044795936
-0.25278446 -0.12932134 -0.031133775 -0.06314027 0.2589074 -0.27987978 -0.1573135 -0.013583652
-0.28467157 0.01596704 0.010055141 0.27282852 0.151861 -0.22262415 -0.21827313 0.027997708
-0.1482733 0.18682986 -0.07519956 -0.10029245 0.050990112 -0.2360746 -0.048881542 -0.15258674
-0.060647096 -0.068217136 -0.14761253 0.11962095 0.13633753 0.14524335 -0.11557926 -0.0004689714
0.2627918 0.14149836 0.09141397 0.14946876 0.1544977 0.24570361 -0.08236168 0.07746326
-0.10363095 0.24322042 0.04655554 0.23876019 -0.18389697 -0.24026008 0.12421719 -0.22560962
0.027483061 -0.14903603 0.02193986 -0.19217925 0.17333397 0.17551942 0.17049533 -0.074751765
0.27301154 -0.24646677 -0.07152887 -0.2613992 0.026255945 0.022426657 0.16708721 -0.034013458
0.15361059 0.2579223 -0.18593772 -0.21913143 -0.17365916 -0.21608135 0.19891968 0.044905946
-0.031865463 0.06680938 0.2705543 -0.20793505 0.039999638 0.0085748015 0.034062494 0.25640282
0.17672756 -0.25841105 -0.04222443 -0.071370155 -0.09936902 0.040290464 0.032483857 -0.26604477
-0.13158149 0.14073503 0.2497288 -0.032987025 0.025943492 0.25608602 0.0423649 -0.07218635
-0.157596 0.20620334 0.04822716 -0.21163085 -0.093029946 0.05531842 0.15790045 -0.114336446
0.1081091 -0.04709941 0.21090269 -0.05968331 -0.05254268 0.027825901 -0.18667145 0.087855056
-0.23727009 -0.048133157 0.09061088 -0.23871988 0.23329887 -0.16416954 0.09396629 -0.20026584
0.14476164 -0.008245161 0.25046974 0.028491702 -0.24647172 -0.2459098 0.09017303 -0.12855525
0.16649254 -0.018759063 -0.14430548 -0.09618738 0.060005244 -0.05528105 -0.20315123 -0.19894345
0.226908 0.0036980305 0.26550034 -0.24580425 -0.19912624 0.14949942 0.060717016 -0.2819511
-0.062410705 0.18952863 -0.23456228 0.21533862 0.23743373 0.24697861 0.23464805 0.06940851
-0.009323616 0.24008857 -0.19128804 0.26606396 -0.2629687 0.20679426 -0.2131047 -0.22311614
00000000: 7df7 8abe a9e6 fe3d 9476 a03d 721d 12bd
00000010: ea45 40be cc92 863e 593b 00be 7c20 1bbe
00000020: 9215 783e afe2 2b3d bc0b 903e 6044 2fbe
00000030: 32ae 0fbd 3c14 8ebd 7725 8dbe fbfb 98bd
00000040: 1890 8e3e c806 0fbe 03e9 923e 5b2a 22be
00000050: 45d9 c63a 86b2 8ebd 28ce 8bbe dae8 353e
00000060: 126a d0bd 0b37 b3bd ff72 833e c28a bdba
00000070: 407e 513e d0f0 743e e690 1fbd 99fb ba3d
00000080: f099 1a3d ba0c c2bd 6d42 e63d 558e 72be
00000090: bd6f 83bd 5039 f23d cee7 04be c733 5b3d
000000a0: 5168 2c3e 942f 8ebe 2361 debd ddca d0bd
000000b0: d294 8f3d 63c9 0abe 646d b73d 5d13 19be
000000c0: 06fb b0bd 69cf 823e 648f 833e abab e6bd
000000d0: d8b5 50bd 68e8 6fbe e6ec cc3d 3cf2 c23b
000000e0: 736c 0abd 48b9 cbbd a9da c03d c3ad f23b
000000f0: 6812 2dbe 6f95 8ebd 5fb7 323e 76e8 913d
00000100: cfc6 15be 3273 b23a 14e7 753d eb34 30bd
00000110: 6e0e 1f3d 383c 53be c7df 83be 5aa0 933e
00000120: 1056 4bbe 0dc2 2fbe 1c32 923e 613d cbbc
00000130: 191a 5a3e cccf 11be 564e 36bd 7aa9 c13d
00000140: e074 473e ed7b 76be 4bdd a53d ae08 2cbe
00000150: d88e 623e c0fd 4f3e c83f 58be 684e cf3d
00000160: bec6 3a3e 3428 063e 1471 713e 1998 5cbe
00000170: b30f 113e 94a5 89be 4936 463e 8ec9 923b
00000180: f76c 81be d06c 04be 420c ffbc b04f 81bd
00000190: 838f 843e 674c 8fbe ca16 21be f78d 5ebc
000001a0: 79c0 91be 4fcd 823c 51be 243c 2eb0 8b3e
000001b0: 7381 1b3e 96f7 63be fe82 5fbe 735b e53c
000001c0: f5d4 17be 5450 3f3e 3a02 9abd 2166 cdbd
000001d0: 02db 503d 8abd 71be 0338 48bd b33f 1cbe
000001e0: 1769 78bd 6db5 8bbd bd27 17be d4fb f43d
000001f0: 119c 0b3e acba 143e d2b4 ecbd 47e0 f5b9
00000200: a68c 863e f2e4 103e 3f37 bb3d 570e 193e
00000210: a534 1e3e ba99 7b3e 3ead a8bd 0fa5 9e3d
00000220: 773c d4bd c60e 793e 06b1 3e3d 8d7d 743e
00000230: 7d4f 3cbe bd06 76be 9565 fe3d 3506 67be
00000240: 2824 e13c e79c 18be 39bb b33c a3ca 44be
00000250: 767e 313e 5dbb 333e 5496 2e3e 7417 99bd
00000260: 2bc8 8b3e c961 7cbe ba7d 92bd 1ed6 85be
00000270: b516 d73c 1cb8 b73c e918 2b3e b251 0bbd
00000280: 184c 1d3e 640e 843e 7566 3ebe fd63 60be
00000290: b5d3 31be 6e44 5dbe 9ab1 4b3e 4cef 373d
000002a0: 5c85 02bd 5bd3 883d 1886 8a3e edec 54be
000002b0: a9d6 233d 537d 0c3c 1d85 0b3d 3b47 833e
000002c0: 12f8 343e 744e 84be 86f3 2cbd 842a 92bd
000002d0: fc81 cbbd 9d07 253d cb0d 053d 0537 88be
000002e0: 4cbd 06be d81c 103e e8b8 7f3e 671d 07bd
000002f0: 7287 d43c b51d 833e d186 2d3d 70d6 93bd
00000300: d960 21be f826 533e d889 453d c2b5 58be
00000310: 7c86 bebd 9195 623d a8b0 213e 3a29 eabd
00000320: 4e68 dd3d 50eb 40bd e0f6 573e 7d76 74bd
00000330: fe36 57bd 25f3 e33c cd26 3fbe 5aed b33d
00000340: eef6 72be 4627 45bd 3292 b93d fc72 74be
00000350: e6e5 6e3e 0f1c 28be 6671 c03d 7d12 4dbe
00000360: 653c 143e b616 07bc 923d 803e 6e67 e93c
00000370: 1563 7cbe c7cf 7bbe a3ac b83d fda3 03be
00000380: 057d 2a3e 9bac 99bc d1c4 13be e4fd c4bd
00000390: 0fc8 753d 626e 62bd e006 50be d5b7 4bbe
000003a0: 925a 683e a85a 723b a9ef 873e 1cb4 7bbe
000003b0: c0e7 4bbe 6016 193e 68b2 783d e55b 90be
000003c0: 5ea2 7fbd cb13 423e 1831 70be ba81 5c3e
000003d0: d421 733e f6e7 7c3e 9447 703e 0d26 8e3d
000003e0: 14c2 18bc c7d9 753e 03e1 43be 8939 883e
000003f0: d5a3 86be e0c1 533e 1e38 5abe 8f78 64be

user_tower.fc.0.bias f4 [256]
-0.083988555 0.20560052 -0.22292 -0.038285006 0.23284398 -0.021810304 -0.08918648 -0.2103067
0.030694528 0.14539936 0.0794023 -0.2677224 -0.06502056 -0.07871901 -0.03526646 0.11732097
0.15693717 -0.0064413 -0.25584522 0.17499518 -0.123088494 -0.067850895 -0.1670298 0.07115647
-0.064159214 -0.048016705 0.02214329 -0.27089337 0.113899045 0.12377749 0.09603558 -0.1288366
-0.19837177 0.26327386 0.17391695 -0.14263453 -0.01525285 0.06384307 0.14725733 0.15534434
0.16118628 0.17664015 -0.21255946 -0.024395095 -0.23213875 -0.13803755 0.17344321 0.18211263
-0.28051186 0.10693188 0.24965551 0.18166405 -0.0035615964 0.23923957 0.27311316 -0.11196737
-0.1300097 -0.06291021 0.062696375 -0.19591069 -0.022976285 -0.12654565 0.18884555 -0.23135129
0.29872715 0.24957158 0.2398899 0.027194006 -0.118025936 0.13571511 -0.2671184 0.025184534
0.19894893 -0.19435008 -0.20258053 0.28192487 0.14694926 0.03996048 -0.028554356 -0.18413144
0.019034157 0.28448597 0.24590096 -0.21510917 -0.117449366 0.1770091 -0.040460818 -0.04480415
0.15669325 -0.058665123 0.21030585 -0.030208828 -0.21586736 -0.023014927 0.060191736 -0.2186377
0.13346054 -0.08987417 -0.0586467 -0.027358685 0.26749137 -0.2840458 -0.078341424 -0.15876366
0.0043011843 0.13950853 0.24104246 -0.25470096 -0.14173488 -0.08673933 0.25881666 0.15376487
0.19958933 0.20662501 -0.10949079 0.13479537 -0.15515499 -0.045571968 0.064300805 -0.14004362
0.10256876 -0.08570498 -0.16736591 -0.22125117 -0.037755027 0.23774104 -0.01319115 -0.078173175
0.18643995 0.012462838 0.2387827 0.16922389 -0.20519558 0.28036427 -0.24566363 0.0060386322
-0.05936919 0.17037524 0.29247665 0.1114579 -0.023038622 -0.24890761 -0.17003259 -0.26406386
0.04446119 0.24458745 0.007145884 0.0049969936 -0.16382165 0.062483843 -0.2760571 -0.19088118
0.21942843 -0.03687281 0.21475829 -0.21207362 0.07972365 0.102534406 0.2845649 0.033427455
-0.058914967 -0.24440716 0.17695911 0.2945676 -0.16761589 -0.23519167 0.25513223 0.12454878
-0.13416223 -0.2237026 -0.15004347 -0.20090021 -0.086315304 -0.071141295 -0.24912037 -0.21838455
-0.21508296 0.29120204 -0.28123 0.13633168 0.13151893 0.02496642 -0.02819148 -0.005206808
0.28342107 0.27908877 0.20434377 0.18574426 0.15671654 0.052218884 0.0580975 -0.24799949
-0.25828004 0.15024236 0.009565598 0.12916419 -0.1750499 -0.26571056 0.10196855 -0.24242078
0.013100869 -0.09486758 0.19081557 -0.07738148 0.031932388 0.13723168 -0.010081743 -0.19683109
0.21865574 0.10511091 -0.2306853 0.05221682 0.12942712 -0.23339091 -0.09356724 -0.14466356
-0.084741324 -0.067088746 -0.036429115 0.23723343 -0.14090891 0.15552539 -0.15690736 0.26697385
-0.26841074 0.057261888 0.009064437 -0.11206286 0.029315917 0.059383593 0.22498885 0.19947502
-0.06329052 -0.1876807 0.10572053 0.08197716 0.13488336 0.15812895 -0.2588145 -0.1759719
0.11760274 0.1680233 0.06530675 0.005717465 -0.019602034 -0.14593755 -0.056516252 0.14152065
0.097642235 0.215588 0.122536294 0.23387212 0.2935718 -0.19152802 -0.184585 0.22916232
00000000: 3102 acbd f188 523e 2445 64be bdd0 1cbd
00000010: a76e 6e3e 86ab b2bc 67a7 b6bd a45a 57be
00000020: 1773 fb3c 92e3 143e ac9d a23d e912 89be
00000030: 8029 85bd 6f37 a1bd 9073 10bd fa45 f03d
00000040: 23b4 203e 8a11 d3bb 25fe 82be f031 333e
00000050: d215 fcbd 69f5 8abd dc09 2bbe 7cba 913d
00000060: e865 83bd 2aad 44bd d865 b53c 89b2 8abe
00000070: e743 e93d 0d7f fd3d 4dae c43d beed 03be
00000080: f821 4bbe d5cb 863e 4917 323e c90e 12be
00000090: 17e7 79bc 28c0 823d a0ca 163e 9612 1f3e
000000a0: 040e 253e 28e1 343e 30a9 59be 39d8 c7bc
000000b0: c8b5 6dbe b759 0dbe 199b 313e bc7b 3a3e
000000c0: 409f 8fbe 1aff da3d b2a5 7f3e 2406 3a3e
000000d0: ac69 69bb 38fb 743e 7dd5 8b3e 264f e5bd
000000e0: 4321 05be 11d7 80bd f566 803d d09c 48be
000000f0: c338 bcbc 2f95 01be ba60 413e 5ae7 6cbe
00000100: c4f2 983e b18f 7f3e b3a5 753e f7c5 de3c
00000110: 95b7 f1bd e7f8 0a3e bec3 88be cc4f ce3c
00000120: 45b9 4b3e b503 47be 4571 4fbe 7558 903e
00000130: de79 163e 9aad 233d d3ea e9bc f48c 3cbe
00000140: 85ed 9b3c 25a8 913e 76cd 7b3e 9445 5cbe
00000150: 4b89 f0bd e041 353e 3eba 25bd 8e84 37bd
00000160: 3274 203e d74a 70bd 6b5a 573e 8178 f7bc
00000170: 550c 5dbe cd89 bcbc 9c8b 763d 90e2 5fbe
00000180: e1a9 083e f30f b8bd 8637 70bd 521f e0bc
00000190: a1f4 883e 736e 91be 7871 a0bd f192 22be
000001a0: f3f0 8c3b 53db 0e3e d6d3 763e 2a68 82be
000001b0: f322 11be 64a4 b1bd 9e83 843e 8a74 1d3e
000001c0: 2561 4c3e 8295 533e b53c e0bd cc07 0a3e
000001d0: f3e0 1ebe aca9 3abd 24b0 833d 9867 0fbe
000001e0: 920f d23d 1886 afbd f861 2bbe ab8f 62be
000001f0: 04a5 1abd 6372 733e b11f 58bc 4219 a0bd
00000200: 1dea 3e3e ee30 4c3c 7483 743e 0749 2d3e
00000210: ca1e 52be e88b 8f3e 3f8f 7bbe b8df c53b
00000220: 1c2d 73bd d976 2e3e 80bf 953e 0a44 e43d
00000230: 7ebb bcbc a3e1 7ebe 061d 2ebe 6133 87be
00000240: f01c 363d 2275 7a3e 0528 ea3b d2bd a33b
00000250: ddc0 27be 0fef 7f3d 5b57 8dbe 5b76 43be
00000260: d9b1 603e f207 17bd 99e9 5b3e d429 59be
00000270: 2746 a33d 8ffd d13d 7eb2 913e 3aeb 083d
00000280: d250 71bd df45 7abe c534 353e 91d1 963e
00000290: 80a3 2bbe 16d6 70be b1a0 823e 6e13 ff3d
000002a0: d361 09be 4b12 65be ffa4 19be c9b8 4dbe
000002b0: 14c6 b0bd 87b2 91bd 6919 7fbe 33a0 5fbe
000002c0: b53e 5cbe 6f18 953e 61fd 8fbe 889a 0b3e
000002d0: e6ac 063e 6186 cc3c d2f1 e6bc df9d aabb
000002e0: 911c 913e b9e4 8e3e 7e3f 513e be33 3e3e
000002f0: 4d7a 203e 78e3 553d a5f7 6d3d 94f3 7dbe
00000300: 483d 84be 22d9 193e 07b9 1c3c 9e43 043e
00000310: 4840 33be 370b 88be e3d4 d03d 273d 78be
00000320: 07a5 563c ef49 c2bd 2865 433e 2e7a 9ebd
00000330: 89cb 023d 7686 0c3e e52d 25bc 178e 49be
00000340: 4ae7 5f3e 6444 d73d c438 6cbe 4ee1 553d
00000350: 8b88 043e 07fe 6ebe 2ea0 bfbd af22 14be
00000360: dc8c adbd d365 89bd b236 15bd 52ed 723e
00000370: 6d4a 10be 0c42 1f3e 53ac 20be ccb0 883e
00000380: 226d 89be 718b 6a3d 0183 143c 3681 e5bd
00000390: ef27 f03c 363c 733d 7a63 663e 2e43 4c3e
000003a0: 769e 81bd 5f2f 40be 0184 d83d a4e3 a73d
000003b0: dd1e 0a3e 8eec 213e 5683 84be fa31 34be
000003c0: b5d9 f03d 4d0e 2c3e 8cbf 853d 9359 bb3b
000003d0: 7294 a0bc a770 15be 967d 67bd caea 103e
000003e0: a7f8 c73d 1ac3 5c3e 4ff4 fa3d 2c7c 6f3e
000003f0: 0b4f 963e ec1f 44be da03 3dbe 87a9 6a3e

user_tower.fc.3.weight f4 [128, 256]
0.011698144 0.040930673 0.016962204 -0.014758647 -0.06881668 0.0069172997 0.03317283 0.004165283
-0.0007825216 -0.018824173 0.0070202397 -0.032585517 -0.036512498 0.009837175 -0.025960134 -0.07142301
0.014175392 -0.00957094 -0.0077547138 -0.010227476 -0.0155230835 0.012293255 -0.056203637 -0.0014815303
-0.017403198 0.029221874 -0.020083549 -0.00034046697 -0.030717745 -0.010695339 0.010876896 0.02129419
-0.011204406 -0.032461576 -0.04738308 -0.002259508 -0.0815725 0.0020777094 -0.051524527 -0.07394237
-0.03703731 -0.033759873 -0.00732322 -0.084089614 -0.009381693 0.0117386 -0.018254807 -0.06155371
-0.024835464 -0.0033137014 0.023220833 -0.05112601 -0.008048437 0.0140232695 0.033338245 0.020657156
-0.052056417 -0.0080008125 0.035939146 -0.01919035 -0.0031739683 0.033460908 -0.028945163 0.0068503716
0.019023094 -0.07004586 -0.035334967 -0.0056016967 0.02051466 0.024838105 0.0081885 -0.06612108
0.03629046 -0.022156462 0.014228956 -0.03480845 -0.0495354 -0.015163925 -0.037330605 0.032911025
-0.032518834 0.0006470173 -0.07867779 0.019115124 0.0033864477 -0.028179916 -0.018679332 -0.024480525
0.03335655 0.0013733117 -0.068817586 0.0004760729 0.022480652 -0.049970828 0.008166757 -0.013112033
-0.022902085 -0.006994082 0.032938093 0.011186292 -0.074656054 -0.01848853 -0.013700089 0.0074625816
0.011265118 0.020318564 0.016704809 0.030397717 0.034064032 0.023982164 0.02948694 -0.0012358744
-0.038473126 0.012711417 -0.038769938 -0.016555354 -0.022867272 -0.03977923 0.03124212 -0.014861334
0.002845202 0.0067702695 0.023688905 0.0170769 -0.06441242 0.039334115 0.0009009184 -0.013216292
0.034944285 0.0142841805 -0.023905449 -0.005451897 0.022301111 -0.03602831 -0.030652227 -0.01947997
0.034632526 -0.03940638 0.026855614 0.008575237 0.020666895 0.026541771 -0.002838361 0.020161608
0.030040674 -0.026582021 -0.07060299 -0.07800145 -0.007019473 0.01660887 0.031916372 0.007661665
0.017389122 -0.0039630197 -0.06447822 -0.010810085 -0.020096205 0.03116469 -0.024821976 -0.010132366
-0.061731305 -0.005759641 -0.0357534 -0.0050520375 0.016174955 -0.044843137 -0.032651328 -0.07289787
0.011938687 -0.020638159 0.0095619 -0.013829969 -0.04698091 -0.015392363 -0.031983953 -0.006079176
-0.004146621 0.028779265 -0.015698966 -0.045932792 -0.02993497 -0.0064629065 0.0045902305 -0.012076419
-0.03087076 0.025767576 0.010603986 0.021822603 -0.07584899 0.009751886 -0.0018759365 0.037311614
0.009420788 -0.06942425 0.006223768 -0.038488798 0.025752477 -0.07085051 -0.01827943 -0.046245143
0.012563751 0.01933276 -0.064482726 0.0019118639 0.015556007 -0.014549564 -0.0019309805 0.019578867
-0.074342586 -0.046843357 0.03870623 -0.04651253 -0.025909644 -0.011441102 0.0050410926 0.034428157
0.0044305786 -0.025643043 0.028062828 0.01719519 0.007845785 0.019155115 -0.018323675 -0.012411761
-0.0045874803 -0.048372548 -0.036373254 -0.02241679 0.01764188 -0.007505787 -0.021551521 0.0071173357
-0.036616012 0.011645427 -0.020225393 0.0062784865 0.0125766685 -0.07216305 -0.026109178 -0.030805824
-0.045680016 -0.0065102126 0.018276615 0.018933125 0.03215958 0.021131957 -0.06856778 0.020568663
-0.07249108 -0.03536476 -0.028524395 -0.015693856 0.016630594 0.002239858 -0.005868998 -0.052385382
00000000: 92a9 3f3c eca6 273d 52f4 8a3c 41ce 71bc
00000010: c2ef 8cbd 84aa e23b 3ce0 073d ed7c 883b
00000020: 2322 4dba 2735 9abc 0a0a e63b 6478 05bd
00000030: 218e 15bd 1a2c 213c 59aa d4bc 3a46 92bd
00000040: e73f 683c 6fcf 1cbc 411b febb 2591 27bc
00000050: 8854 7ebc a669 493c c935 66bd e82f c2ba
00000060: 2791 8ebc b662 ef3c 4186 a4bc b480 b2b9
00000070: c8a3 fbbc 813b 2fbc 0235 323c 2771 ae3c
00000080: af92 37bc 6ef6 04bd c314 42bd 4114 14bb
00000090: 7c0f a7bd 2e2a 083b 620b 53bd 196f 97bd
000000a0: 6fb4 17bd cb47 0abd 9ff7 efbb 2d37 acbd
000000b0: acb5 19bc 4253 403c 1b8b 95bc be1f 7cbd
000000c0: be73 cbbc af2a 59bb 9e39 be3c 8269 51bd
000000d0: 97dd 03bc dbc1 653c af8d 083d 3239 a93c
000000e0: 1c39 55bd d715 03bc ed34 133d 1535 9dbc
000000f0: 5a02 50bb 4e0e 093d 681e edbc 1579 e03b
00000100: 52d6 9b3c 3474 8fbd 66bb 10bd 708e b7bb
00000110: 5c0e a83c 4879 cb3c 0f29 063c 7d6a 87bd
00000120: 4ea5 143d 7881 b5bc 9120 693c 4e93 0ebd
00000130: a2e5 4abd 1c72 78bc fae7 18bd b6cd 063d
00000140: 7832 05bd 999c 293a d221 a1bd 5297 9c3c
00000150: 2aef 5d3b 91d9 e6bc 6605 99bc 628b c8bc
00000160: e1a0 083d b200 b43a 3cf0 8cbd 6c99 f939
00000170: 5829 b83c 36ae 4cbd ddcd 053c dad3 56bc
00000180: 279d bbbc 9d2e e5bb 18ea 063d b646 373c
00000190: 46e5 98bd 4275 97bc 5776 60bc ac88 f43b
000001a0: 5491 383c 1e73 a63c 86d8 883c a204 f93c
000001b0: ba86 0b3d 3e76 c43c 988e f13c 10fd a1ba
000001c0: ff95 1dbd 8c43 503c 3acd 1ebd 189f 87bc
000001d0: 2554 bbbc 8cef 22bd 79ef ff3c f47c 73bc
000001e0: 9276 3a3b 23d9 dd3b 3c0f c23c dbe4 8b3c
000001f0: a9ea 83bd cf1c 213d 9c2b 6c3a 2589 58bc
00000200: bd21 0f3d 3208 6a3c 5cd5 c3bc d4a5 b2bb
00000210: d2b0 b63c 6c92 13bd 611a fbbc 7594 9fbc
00000220: d6da 0d3d 9668 21bd 4e00 dc3c 277f 0c3c
00000230: 9f4d a93c 216e d93c cc03 3abb f529 a53c
00000240: dc17 f63c 8ac2 d9bc 4d98 90bd 39bf 9fbd
00000250: 9b03 e6bb 530f 883c beba 023d b40e fb3b
00000260: a273 8e3c 38dc 81bb 280d 84bd c81c 31bc
00000270: cca0 a4bc 184d ff3c 7557 cbbc 3902 26bc
00000280: f7d9 7cbd 5fbb bcbb 2872 12bd 908b a5bb
00000290: 5781 843c 70ad 37bd 66bd 05bd 7a4b 95bd
000002a0: 7c9a 433c 5b11 a9bc 84a9 1c3c 1897 62bc
000002b0: 0e6f 40bd 4030 7cbc 9b01 03bd d333 c7bb
000002c0: 61e0 87bb 7ec2 eb3c 1e9b 80bc 0624 3cbd
000002d0: 2f3a f5bc cac6 d3bb a569 963b 2cdc 45bc
000002e0: ade4 fcbc 8616 d33c 57bc 2d3c 51c5 b23c
000002f0: b756 9bbd 60c6 1f3c fce1 f5ba 10d4 183d
00000300: a659 1a3c 4d2e 8ebd c0f0 cb3b 6ea6 1dbd
00000310: dcf6 d23c 121a 91bd bebe 95bc 8c6b 3dbd
00000320: 31d8 4d3c bc5f 9e3c 850f 84bd 8297 fa3a
00000330: 9fde 7e3c 4b61 6ebc f418 fdba dc63 a03c
00000340: ed40 98bd d2de 3fbd 6d8a 1e3d ec83 3ebd
00000350: 7640 d4bc 7673 3bbc c02f a53b 8a04 0d3d
00000360: 632e 913b 5c11 d2bc 04e4 e53c eddc 8c3c
00000370: 9b8b 003c 30eb 9c3c 881b 96bc b35a 4bbc
00000380: 9352 96bb 4b22 46bd 1ffc 14bd 6aa3 b7bc
00000390: b485 903c 1bf3 f5bb d18c b0bc 8a38 e93b
000003a0: acfa 15bd 76cc 3e3c b9af a5bc c3bb cd3b
000003b0: 5f0e 4e3c 39ca 93bd eae2 d5bc 7f5c fcbc
000003c0: f81a 3bbd 9f53 d5bb d7b8 953c a419 9b3c
000003d0: c4b9 033d ed1c ad3c 446d 8cbd 9d7f a83c
000003e0: 3476 94bd a3da 10bd feab e9bc 6790 80bc
000003f0: e23c 883c 95ca 123b b950 c0bb 0e92 56bd

user_tower.fc.3.bias f4 [128]
0.0041373386 -0.030814894 0.013899873 -0.04176233 -0.025231995 0.027227076 0.022415737 -0.031398766
-0.010658803 0.05609583 -0.040106222 0.04664103 -0.041576177 -0.059496377 -0.05521301 0.038517166
0.03541516 0.022504875 0.030233819 0.048973028 0.048637874 0.053238064 -0.004191753 0.030881183
0.013092223 -0.029151412 0.04317039 -0.023206737 0.014131921 0.06285061 0.02469249 0.012555273
0.058526643 -0.048758306 0.02778757 0.05265353 -0.06978636 -0.008439632 0.039958015 0.03726723
0.04573121 -0.061596137 0.02121012 -0.0027813972 -0.03166776 -0.01867042 -0.06439525 0.042327665
-0.047328066 0.013319238 -0.0315122 0.03057391 -0.029155387 0.050357636 0.058255352 0.0022024303
-0.06596327 -0.008373804 -0.014269472 -0.04783463 -0.060618274 -0.057938278 -0.058550417 0.04685294
-0.060545947 -0.02365315 0.026210522 -0.07481509 -0.05056319 0.06318391 -0.03647924 -0.06281563
0.02482989 -0.049435012 0.008100355 0.030890945 0.05024375 -0.017254705 0.06864065 0.00810832
0.051904965 -0.0057006828 0.043095484 -0.017545715 -0.008837017 0.057457652 0.0073784483 -0.052844007
0.01055129 0.01671856 0.007791955 0.009157489 -0.0348543 -0.039636422 -0.071582325 -0.056106158
0.008733066 0.019504664 0.0018284431 0.04816834 0.010619329 0.029551357 -0.032189235 -0.049324993
0.033669233 -0.044765286 -0.026278513 -0.034273073 -0.01854055 0.05478399 -0.04787431 -0.035236392
-0.016363163 0.0185775 0.044192545 -0.059834868 -0.044709325 -0.053902484 -0.051456317 0.05105858
0.01912089 -0.023395184 0.035397 -0.05154346 -0.00517124 0.033610508 0.0045342986 -0.02655575
00000000: 8392 873b 846f fcbc 4bbc 633c fa0e 2bbd
00000010: 54b3 cebc 510b df3c 35a1 b73c fe9b 00bd
00000020: 43a2 2ebc bec4 653d 6c46 24bd aa0a 3f3d
00000030: c84b 2abd 79b2 73bd 0a27 62bd 2dc4 1d3d
00000040: 7d0f 113d 255c b83c eaac f73c f197 483d
00000050: 8238 473d 2810 5a3d f95a 89bb 89fa fc3c
00000060: c380 563c f1ce eebc 6fd3 303d 0e1c bebc
00000070: 9389 673c d2b7 803d e847 ca3c a2b4 4d3c
00000080: a2b9 6f3d cab6 47bd c2a2 e33c 3aab 573d
00000090: 27ec 8ebd 6246 0abc 04ab 233d 86a5 183d
000000a0: a650 3b3d 3b4c 7cbd d8c0 ad3c 1a48 36bb
000000b0: 0eb6 01bd b5f2 98bc a8e1 83bd c65f 2d3d
000000c0: 13db 41bd ef38 5a3c f012 01bd 2376 fa3c
000000d0: 47d7 eebc cf43 4e3d 2a9d 6e3d a656 103b
000000e0: c017 87bd 4832 09bc 81ca 69bc 3fee 43bd
000000f0: de4a 78bd b050 6dbd 90d2 6fbd dee8 3f3d
00000100: 07ff 77bd 40c4 c1bc 73b7 d63c a738 99bd
00000110: 591b 4fbd 9166 813d 416b 15bd 7ba5 80bd
00000120: 0e68 cb3c 5e7c 4abd 5ab7 043c 020f fd3c
00000130: 64cc 4d3d bd59 8dbc 7893 8c3d c2d8 043c
00000140: 4d9a 543d cbcc babb e484 303d 08bc 8fbc
00000150: 23c9 10bc b758 6b3d e9c6 f13b f572 58bd
00000160: 51df 2c3c 5df5 883c a853 ff3b 4b09 163c
00000170: 62c3 0ebd cd59 22bd c199 92bd 92cf 65bd
00000180: 2215 0f3c 3fc8 9f3c 5fa8 ef3a 2a4c 453d
00000190: b2fc 2d3c b015 f23c dcd8 03bd 0109 4abd
000001a0: c0e8 093d ce5b 37bd 0946 d7bc ec61 0cbd
000001b0: 5ae2 97bc 2d65 603d da17 44bd 0954 10bd
000001c0: 0a0c 86bc d72f 983c 3e03 353d 6815 75bd
000001d0: 2021 37bd dac8 5cbd dcc3 52bd cd22 513d
000001e0: 6aa3 9c3c 42a7 bfbc 72fc 103d 3c1f 53bd
000001f0: 8173 a9bb 2cab 093d 7494 943b 728b d9bc

user_tower.fc.6.weight f4 [64, 128]
-0.092302725 0.0160026 -0.02485554 -0.07151136 -0.0306287 -0.018329727 0.050054867 0.026805509
0.080249205 -0.049050238 -0.04744952 -0.035223056 0.0049020182 -0.08167281 0.007387532 0.053398296
-0.04225049 -0.05613665 -0.030946407 0.04309259 0.071130216 -0.05187188 -0.047940716 -0.052771695
-0.044359874 -0.04462943 0.07918981 -0.06612586 -0.056575693 -0.026952807 0.049614705 0.009739513
0.082613155 -0.031801306 -0.031561825 0.068680726 0.056401484 0.00204624 -0.03005893 -0.08309973
0.000592431 0.01160056 -0.02834471 0.034736045 0.020519527 -0.08609733 0.022978844 -0.056122895
-0.0032243032 -0.08234933 0.04198793 0.06452427 0.046645794 0.04172515 -0.014228632 0.04256961
0.015311194 -0.047616545 -0.030756675 -0.008035803 -0.096172914 -0.0108876685 -0.045472093 0.031612802
0.07488899 -0.019292511 -0.06803699 0.038680706 0.017941091 -0.05005954 0.0017616589 0.03597861
0.053134613 0.02019515 -0.015697192 -0.042293895 -0.020406349 -0.054417733 0.023093065 0.04383068
-0.087156564 0.04435982 -0.0022454546 -0.059965517 -0.07805986 -0.078998245 -0.025556613 0.062419895
-0.027839517 0.04555911 0.06984616 -0.08537614 -0.070059486 -0.047519974 0.0689554 -0.05006437
-0.05658565 0.01813071 -0.048222806 -0.04177187 -0.07639442 -0.07950967 -0.03883875 -0.08324484
-0.0139430305 -0.0003148759 0.06877638 -0.014710346 0.04510393 0.10573897 -0.05082869 -0.036139984
0.07153835 0.060473192 0.077258244 -0.043353297 -0.057720684 0.022218829 -0.02030733 0.040999115
-0.02982338 0.009085778 -0.044187576 0.007868202 -0.012937832 0.071607016 -0.061527185 -0.02086558
0.045095235 0.076342866 0.05993493 -0.04330151 0.0034093861 0.028230622 0.00993674 -0.08850171
-0.085355 0.025642147 -0.032033388 -0.0780432 -0.07901344 0.03299553 0.021797393 -0.0494368
0.061432775 0.045347918 0.079607934 -0.031182302 -0.03817267 -0.044026416 0.01782228 -0.028408533
0.06913371 -0.05752001 0.025921756 0.07881777 -0.024005288 -0.08188008 -0.05421613 -0.053884227
0.073350266 -0.00043252693 0.007360999 0.010219454 -0.062484194 -0.015398805 0.06716502 -0.023738062
-0.066256054 0.054385815 -0.021476667 -0.0671416 0.046763755 0.019261872 -0.05995092 -0.045367565
0.047243413 0.080955826 0.022869768 0.01825426 -0.03595961 -0.07661572 0.08203684 -0.03110226
0.028249558 0.061097562 0.059159037 0.00022520816 0.02595922 -0.055313937 0.045088693 -0.04229371
-0.04909813 -0.06414489 -0.034726307 0.05591537 -0.01113383 0.028223043 -0.050162125 0.07804845
-0.07268398 -0.037044324 -0.06304735 0.04442573 -0.0023049442 0.012963275 0.029351342 -0.030359428
-0.026981905 0.005744932 -0.059219964 0.07449498 -0.036673218 0.06303287 -0.0315827 -0.02973667
-0.08088479 -0.07768386 0.048971057 0.025314486 0.0010542944 -0.028810998 -0.0152522735 0.084109165
0.021068798 -0.07298414 -0.073887154 -0.0028609997 0.02384794 0.027511192 -0.080766246 -0.06331872
-0.032221258 0.01906287 0.07235232 0.016510233 0.07322008 -0.011087055 -0.05698594 0.084748164
0.010637889 -0.050455894 0.08106961 0.04421743 -0.02737082 -0.038713872 -0.053775255 0.02052182
0.04465606 0.069493964 0.0069544353 0.032299455 -0.036064398 -0.027451161 0.0063899113 0.012652756
00000000: 3609 bdbd e217 833c d89d cbbc 8c74 92bd
00000010: 0ae9 fabc 3928 96bc 5506 4d3d 3a97 db3c
00000020: b259 a43d e7e8 48bd 6e5a 42bd 0d46 10bd
00000030: 1ca1 a03b 1344 a7bd 1c13 f23b 2cb8 5a3d
00000040: da0e 2dbd 8bef 65bd 5283 fdbc db81 303d
00000050: b8ac 913d 9c77 54bd 7c5d 44bd 2227 58bd
00000060: b3b2 35bd 59cd 36bd 442e a23d ff6c 87bd
00000070: eabb 67bd 22cc dcbc ca38 4b3d 7a92 1f3c
00000080: 1631 a93d 1642 02bd f946 01bd 7ba8 8c3d
00000090: 3e05 673d 361a 063b 253e f6bc 3130 aabd
000000a0: 5f4d 1b3a 4610 3e3c 2a33 e8bc 6247 0e3d
000000b0: 9118 a83c cc53 b0bd 213e bc3c 1fe1 65bd
000000c0: d54e 53bb c4a6 a8bd 89fb 2b3d 4d25 843d
000000d0: a90f 3f3d fee7 2a3d 351f 69bc 795d 2e3d
000000e0: cddb 7a3c 9109 43bd 6cf5 fbbc 9aa8 03bc
000000f0: 4ef6 c4bd 3162 32bc f240 3abd 6d7c 013d
00000100: 665f 993d 540b 9ebc fa56 8bbd a96f 1e3d
00000110: 32f9 923c 3b0b 4dbd 77e7 e63a 4f5e 133d
00000120: aea3 593d 4d70 a53c 6697 80bc 5d3c 2dbd
00000130: 372b a7bc 21e5 5ebd ab2d bd3c cd87 333d
00000140: 247f b2bd a5b2 353d 7a28 13bb 679e 75bd
00000150: d9dd 9fbd d5c9 a1bd 1a5c d1bc 01ac 7f3d
00000160: b30f e4bc 309c 3a3d 810b 8f3d b0d9 aebd
00000170: 597b 8fbd 4ea4 42bd 7d38 8d3d 4c10 4dbd
00000180: 5bc6 67bd db86 943c 4785 45bd fb18 2bbd
00000190: ad74 9cbd f7d5 a2bd 6215 1fbd 457c aabd
000001a0: 4f71 64bc ee15 a5b9 a1da 8c3d aa03 71bc
000001b0: e6be 383d ac8d d83d bf31 50bd 8507 14bd
000001c0: b382 923d bdb2 773d 9239 9e3d 3a93 31bd
000001d0: 866c 6cbd 4304 b63c 8f5b a6bc b0ee 273d
000001e0: 2950 f4bc 84dc 143c 08fe 34bd a2e9 003c
000001f0: 33f9 53bc b3a6 923d ee03 7cbd 4bee aabc
00000200: c8b5 383d a659 9c3d 547e 753d ed5c 31bd
00000210: 0270 5f3b e843 e73c b5cd 223c 6240 b5bd
00000220: 9ace aebd 7b0f d23c 7135 03bd 1dd5 9fbd
00000230: ccd1 a1bd 5226 073d 7290 b23c 3e7e 4abd
00000240: efa0 7b3d bdbe 393d 7c09 a33d 0772 ffbc
00000250: f25a 1cbd 0b55 34bd 0800 923c 03b9 e8bc
00000260: f995 8d3d 1a9a 6bbd dd59 d43c 366b a13d
00000270: bda6 c4bc beb0 a7bd bc11 5ebd b5b5 5cbd
00000280: aa38 963d c8c4 e2b9 8934 f13b 7f6f 273c
00000290: 6def 7fbd 454b 7cbc d08d 893d 5376 c2bc
000002a0: 41b1 87bd a9c3 5e3d d6ef afbc 8981 89bd
000002b0: 5a8b 3f3d 13cb 9d3c 198f 75bd 57d3 39bd
000002c0: 4f82 413d 2bcc a53d 6159 bb3c f589 953c
000002d0: 624a 13bd b4e8 9cbd ee02 a83d 2bca febc
000002e0: 9e6b e73c 7041 7a3d bf50 723d db25 6c39
000002f0: 6ea8 d43c de90 62bd ecae 383d 2b3c 2dbd
00000300: 1f1b 49bd 655e 83bd 2c3d 0ebd 8407 653d
00000310: ab6a 36bc 0334 e73c cd76 4dbd ded7 9f3d
00000320: 57db 94bd cabb 17bd f81e 81bd c1f7 353d
00000330: 8c0e 17bb eb63 543c 3a72 f03c 56b4 f8bc
00000340: 2809 ddbc fc3f bc3b a290 72bd d390 983d
00000350: a836 16bd 6117 813d dc5c 01bd 519a f3bc
00000360: eda6 a5bd b718 9fbd e095 483d 5360 cf3c
00000370: 4030 8a3a 0b05 ecbc ace4 79bc 6d41 ac3d
00000380: 7998 ac3c b578 95bd 2652 97bd 9c7f 3bbb
00000390: c15c c33c 275f e13c c668 a5bd 3fad 81bd
000003a0: 70fa 03bd bc29 9c3c 742d 943d 7840 873c
000003b0: 69f4 953d 7ba6 35bc 176a 69bd 7290 ad3d
000003c0: 8a4a 2e3c d7aa 4ebd d307 a63d 561d 353d
000003d0: c538 e0bc 7092 1ebd 7143 5cbd 601d a83c
000003e0: 46e9 363d da52 8e3d 08e2 e33b 6f4c 043d
000003f0: 43b8 13bd 42e1 e0bc 7662 d13b 814d 4f3c

user_tower.fc.6.bias f4 [64]
-0.07083161 0.044553954 -0.057254802 0.072124735 -0.06634991 -0.07475251 0.021739073 0.09160104
0.035005722 0.07391307 -0.059898388 0.027965069 0.00615011 0.08371707 0.027918525 -0.025470646
0.013041608 -0.008034867 0.026283074 -0.024426831 0.02981769 0.015409786 -0.053089105 0.023640035
0.07267502 0.06913649 -0.016454477 0.02167393 0.048357792 0.050930157 -0.05861063 -0.0044599343
-0.01813461 -0.0028079208 0.00986256 -0.06405084 0.0048669456 -0.026460899 0.031538393 -0.042724498
-0.006038803 0.019020287 0.025080755 -0.021457808 -0.039993145 0.033453215 0.0057141515 0.0069113
0.011178117 -0.034104116 0.08484597 0.06513469 -0.03416811 0.057732757 -0.06114356 -0.059155144
-0.039613236 -0.031271648 0.049707513 -0.003950053 0.053078648 -0.020647949 -0.009026878 -0.061318845
00000000: 2a10 91bd 357e 363d 0384 6abd 22b6 933d
00000010: 76e2 87bd d817 99bd 2416 b23c 5399 bb3d
00000020: 2962 0f3d bc5f 973d 0358 75bd 0017 e53c
00000030: dd86 c93b db73 ab3d 64b5 e43c d1a7 d0bc
00000040: 78ac 553c ada4 03bc 9a4f d73c c71a c8bc
00000050: 3a44 f43c 5479 7c3c f673 59bd bfa8 c13c
00000060: a4d6 943d 6f97 8d3d 8acb 86bc 878d b13c
00000070: d212 463d 249c 503d b311 70bd a424 92bb
00000080: 098f 94bc 1805 38bb 9396 213c 162d 83bd
00000090: e67a 9f3b 87c4 d8bc 672e 013d e2ff 2ebd
000000a0: 27e1 c5bb 6fd0 9b3c 2876 cd3c 49c8 afbc
000000b0: dacf 23bd 3d06 093d c73d bb3b 3078 e23b
000000c0: 6c24 373c c2b0 0bbd b9c3 ad3d 5665 853d
000000d0: dcf3 0bbd 2f79 6c3d ab71 7abd aa4c 72bd
000000e0: 7d41 22bd b316 00bd 1b9a 4b3d 726f 81bb
000000f0: ff68 593d e325 a9bc 78e5 13bc 7829 7bbd

item_tower.fc.0.weight f4 [256, 12]
0.15856802 0.1921832 -0.28595138 -0.05574345 -0.24088845 -0.025979996 -0.06647069 -0.24753305
0.043382652 -0.2742998 0.112675756 0.12887405 -0.2357823 -0.046021245 0.16158378 0.02969678
0.07406365 -0.14567967 -0.27830988 -0.15220697 0.050598036 -0.017713705 -0.2678404 -0.06049086
-0.24150197 -0.202431 -0.008782953 -0.16230132 0.18147595 0.19721009 -0.18361634 0.18059838
0.08197306 0.11119549 0.18783365 -0.057322312 -0.19262488 0.20786822 0.2895112 0.0041732425
0.29559585 0.15010153 -0.14693458 -0.03877835 0.28469062 -0.17497326 0.23274946 -0.04515212
-0.24313805 0.23345709 -0.21500656 0.24657041 -0.29097515 0.083924346 0.0393473 -0.24278247
-0.244648 0.075658806 0.039439354 -0.0806797 -0.0016245228 -0.24761446 0.03475581 -0.08344855
0.25700268 0.1446272 -0.10956127 0.26287025 0.21062794 0.2755185 0.031680834 -0.19754928
0.2274315 -0.20509948 0.18192202 -0.17006357 -0.04240488 0.17861009 -0.067549236 -0.06314246
0.14433551 0.13251543 0.22965997 0.13084123 -0.22467017 -0.25283265 -0.031844947 0.008585973
0.20503815 -0.07180411 -0.14425933 -0.20983036 -0.09295226 0.05268778 0.1951909 0.25234842
-0.12175047 -0.12330951 0.2605867 -0.007091087 0.2794743 -0.07091048 0.052917536 -0.19035532
0.3007375 -0.1962031 -0.21829079 0.20514463 0.13291948 -0.14294334 -0.02800461 0.20070009
-0.15252967 -0.22483073 -0.170204 0.037268993 -0.19021533 0.067371346 0.08390398 0.22439961
-0.20539488 -0.24840125 -0.2515876 0.23136641 -0.096461184 0.16189395 0.18691273 0.052438434
-0.11087754 -0.1326763 -0.123715125 0.23188081 0.036870275 0.06659241 0.11771419 0.18138584
0.057978548 -0.1539997 -0.28360245 -0.1496296 0.13251993 -0.23268227 -0.23930019 -0.08421043
0.19597949 -0.13795616 -0.26309985 0.07610659 0.20089276 0.016711289 -0.015311143 -0.16127706
-0.07001502 -0.13711597 0.18718193 -0.22451186 0.24529569 0.22440945 -0.05257453 -0.05191205
0.0021020612 0.20393261 0.013736391 -0.1503596 -0.23218372 -0.27727866 0.16299793 0.08250696
-0.13579305 0.040031012 -0.02740786 -0.20217857 -0.1906956 0.13699588 0.012971898 -0.062211037
-0.07973106 -0.24687706 -0.24420816 -0.016899852 0.00570663 0.10827848 -0.25153905 0.2509753
-0.06759895 0.2723366 0.26418328 -0.19583036 0.05329148 -0.026807647 0.11905108 0.037896685
-0.11739207 -0.1476318 -0.013983791 0.21159284 -0.016717337 0.25205678 0.13727571 -0.017073855
-0.16888732 -0.12076134 -0.04604082 0.28718007 0.21378244 -0.0003134776 0.050081894 0.13846938
0.10656026 0.23212132 -0.005058168 -0.21609508 -0.1384612 0.15947035 0.13602993 0.15537469
-0.17524521 0.26958197 0.19868349 0.25890484 0.111196786 0.18776384 -0.0339368 -0.14412422
0.00782796 0.21617058 -0.07662458 0.20789886 0.20363025 0.21455674 -0.14914665 0.17516987
-0.12485962 -0.25263974 -0.10233 -0.011477895 -0.049735267 0.14878987 0.1911393 -0.19870484
0.09002905 0.14540622 0.031462103 0.19105834 -0.21562496 -0.08249655 0.24414796 -0.20035836
-0.20071118 0.2076713 -0.11787173 -0.08894576 -0.18431328 0.015900211 0.2527157 -0.24210191
00000000: a85f 223e accb 443e 3868 92be 3e53 64bd
00000010: 76ab 76be 00d4 d4bc c921 88bd 4e79 7dbe
00000020: 02b2 313d 0671 8cbe 8cc2 e63d 8ff7 033e
00000030: ea70 71be c680 3cbd 3876 253e a946 f33c
00000040: afae 973d 0d2d 15be a27e 8ebe 25dc 1bbe
00000050: e33f 4f3d 551c 91bc 6022 89be 44c5 77bd
00000060: 4b4c 77be 124a 4fbe 60e6 0fbc 5132 26be
00000070: d5d4 393e 71f1 493e ec05 3cbe c8ee 383e
00000080: 7ee1 a73d 76ba e33d 7757 403e cdca 6abd
00000090: 753f 45be 68db 543e d03a 943e b2bf 883b
000000a0: 5758 973e 37b4 193e 0576 16be 0cd6 1ebd
000000b0: f8c2 913e 312c 33be e055 6e3e 6ef1 38bd
000000c0: 2ef9 78be 600f 6f3e ae2a 5cbe f47c 7c3e
000000d0: b2fa 94be 87e0 ab3d a22a 213d f89b 78be
000000e0: 0185 7abe 01f3 9a3d 298b 213d 663b a5bd
000000f0: f1ed d4ba a58e 7dbe 1c5c 0e3d 13e7 aabd
00000100: db95 833e 2719 143e a961 e0bd ee96 863e
00000110: daae 573e c310 8d3e c3c3 013d 5c4a 4abe
00000120: cee3 683e 9905 52be c449 3a3e 2525 2ebe
00000130: bdb0 2dbd 90e5 363e 4157 8abd d650 81bd
00000140: b0cc 133e 20b2 073e fc2b 6b3e 3efb 053e
00000150: f00f 66be 4873 81be d96f 02bd 2eac 0c3c
00000160: 85f5 513e 090e 93bd b8b8 13be c5dd 56be
00000170: c15d bebd 24cf 573d 20e0 473e d033 813e
00000180: 4f58 f9bd b289 fcbd 9f6b 853e 595c e8bb
00000190: 4117 8f3e 8439 91bd 0fc0 583d 81ec 42be
000001a0: 44fa 993e 77e9 48be 9f87 5fbe 6f11 523e
000001b0: 0b1c 083e bd5f 12be ed69 e5bc 5384 4d3e
000001c0: bd30 1cbe 073a 66be f549 2ebe 5fa7 183d
000001d0: cfc7 42be fdf9 893d dad5 ab3d 03c9 653e
000001e0: 0953 52be e65c 7ebe 17d0 80be 51eb 6c3e
000001f0: 718d c5bd 87c7 253e 0d66 3f3e afc9 563d
00000200: c413 e3bd 4cdc 07be 5b5e fdbd 2a72 6d3e
00000210: 4905 173d 9a61 883d 2314 f13d 36bd 393e
00000220: ea7a 6d3d 19b2 1dbe 5734 91be 8038 19be
00000230: 4eb3 073e 4344 6ebe 1c0b 75be 8576 acbd
00000240: d9ae 483e 6144 0dbe 06b5 86be c6dd 9b3d
00000250: d5b6 4d3e 1de6 883c 97db 7abc d025 25be
00000260: 0964 8fbd 2168 0cbe 9fac 3f3e 70e6 65be
00000270: cb2e 7b3e 97cb 653e 6458 57bd bba1 54bd
00000280: bcc2 093b b6d3 503e 9a0e 613c def7 19be
00000290: 92c1 6dbe 78f7 8dbe eee8 263e 69f9 a83d
000002a0: 550d 0bbe 8ff7 233d 7386 e0bc e607 4fbe
000002b0: b545 43be a648 0c3e 1588 543c 00d1 7ebd
000002c0: 0a4a a3bd 57cd 7cbe b411 7abe 8f71 8abc
000002d0: affe ba3b 1cc1 dd3d bac9 80be d67f 803e
000002e0: 5171 8abd b46f 8b3e 0843 873e c187 48be
000002f0: 2b48 5a3d b69b dbbc 0dd1 f33d 8e39 1b3d
00000300: 416b f0bd ca2c 17be 451c 65bc cbab 583e
00000310: ccf2 88bc 960d 813e 0192 0c3e 78de 8bbc
00000320: ccf0 2cbe b951 f7bd 4d95 3cbd 4409 933e
00000330: c9e9 5a3e 405a a4b9 ac22 4d3d ebca 0d3e
00000340: 443c da3d 36b1 6d3e fdbe a5bb 0748 5dbe
00000350: c6c8 0dbe 324c 233e 6e4b 0b3e 8b1a 1f3e
00000360: 7b73 33be a606 8a3e af73 4b3e 2d8f 843e
00000370: 24bb e33d 2a45 403e 5001 0bbd 4d95 13be
00000380: d840 003c d25b 5d3e 59ed 9cbd 70e3 543e
00000390: 7384 503e c3b4 5b3e e6b9 18be bb5f 333e
000003a0: 67b6 ffbd ff59 81be 6492 d1bd c80d 3cbc
000003b0: 35b7 4bbd 5f5c 183e 05ba 433e 4879 4bbe
000003c0: 2761 b83d 5ee5 143e 68de 003d cca4 433e
000003d0: cacc 5cbe f4f3 a8bd ec01 7a3e be2a 4dbe
000003e0: 3b87 4dbe c9a7 543e bc66 f1bd 3229 b6bd
000003f0: 9fbc 3cbe 2941 823c f463 813e 90e9 77be

item_tower.fc.0.bias f4 [256]
-0.0537008 0.017862935 0.16657245 -0.22216895 0.25500923 0.018015258 0.15747869 0.06112705
-0.24191105 0.08865765 -0.044239715 0.28666443 -0.052676123 0.10355575 -0.19020826 0.25670847
-0.027187906 0.051853545 -0.28212896 0.20862828 0.13586865 -0.15591867 -0.10727666 0.060648184
-0.014769465 0.014350763 0.21452741 -0.19279438 0.26641744 -0.16477576 0.1321163 -0.20481692
-0.11835282 0.07603921 0.1592272 0.19136763 -0.08594656 0.22678168 0.082053214 -0.18544522
-0.2269166 -0.21810196 -0.11010329 -0.109479316 -0.22242136 0.25664607 -0.050389808 -0.0070945024
-0.049955502 0.025891373 0.12104446 0.23130444 0.006067104 -0.23564193 0.2025025 0.21859534
-0.037571266 -0.03917314 -0.23672935 -0.039572023 -0.23039456 0.1492647 0.16573904 -0.21787147
-0.09994949 -0.035625886 -0.15358332 0.13631983 -0.06634273 -0.15482585 -0.0049896436 -0.053377908
-0.15272723 0.10779879 -0.09661874 -0.123160034 0.008012717 -0.26048732 -0.024288572 -0.023222249
0.09421987 -0.009561031 0.09400786 -0.035295922 0.17818867 -0.19654384 -0.143695 -0.17599007
-0.022945987 0.1988836 -0.2067835 0.012183515 0.28049892 -0.09018294 0.19125724 0.17029336
-0.24012971 -0.22983119 -0.13093714 -0.26076126 0.038469285 0.0868686 -0.12515908 -0.07780194
0.1855055 -0.094099455 -0.19135252 -0.13525173 -0.19789532 -0.14268066 -0.02913976 -0.05817825
0.26867923 -0.12823275 -0.11444754 -0.24820279 -0.17342298 0.025948921 0.28445086 0.0310588
0.2045086 0.09235643 0.020066347 -0.22555749 0.22768249 0.09766516 -0.20392127 0.09690617
-0.023783265 -0.08375398 0.06422193 -0.09933126 0.06795016 -0.035055645 0.2679876 0.1317768
-0.21725322 -0.07230448 0.20533888 0.062628716 0.13879062 -0.10288147 0.19913907 0.095960476
-0.22183833 -0.18054417 0.019533621 -0.032902036 -0.06069471 -0.2679797 0.24382141 -0.20309289
-0.18955912 -0.12319839 0.06156141 -0.028312108 -0.14748918 -0.26230812 0.03689472 0.25947613
-0.14054956 0.26102895 -0.26846135 0.111114085 -0.0021303622 -0.00015818863 0.08045958 -0.24045628
-0.16974862 0.09237964 -0.20970118 0.23645057 0.24217878 -0.088474855 0.08043476 0.11583857
-0.13414752 -0.22410528 0.11793522 0.17900312 0.010440251 -0.28504595 -0.13729298 0.20583315
-0.010453329 0.13143016 0.11488246 -0.23976758 -0.15789075 0.21015868 -0.10396498 0.23837766
-0.037956953 -0.12492119 0.1734544 -0.08026847 -0.19872439 0.034451813 -0.07523631 -0.019994894
0.019447349 -0.15287761 -0.2661384 -0.25932178 -0.24258915 -0.054761223 0.17513832 0.27849892
0.22884244 0.03462295 -0.2055736 0.0411307 -0.18249547 -0.271436 -0.00071570894 -0.21299838
0.012979133 -0.16633755 -0.14003895 -0.21992671 0.26556006 -0.041014504 0.27827492 0.27120602
0.13841096 0.26854435 0.047697127 0.25600556 0.06392606 0.010828418 -0.23045543 0.19285677
0.0008551978 -0.04299111 0.10087395 -0.13787621 0.07129279 0.18219316 0.17131372 0.23099484
-0.030051963 -0.13507693 -0.106191434 0.082240485 0.2528185 0.19369707 0.08858201 -0.1680267
0.24335337 0.08828994 -0.086485624 -0.14280996 0.24852784 -0.050872024 -0.14260118 -0.08196082
00000000: 5ff5 5bbd 4a55 923c f891 2a3e 4280 63be
00000010: 9290 823e bc94 933c 1842 213e 5c60 7a3d
00000020: 88b7 77be 2492 b53d b434 35bd aec5 923e
00000030: ebc2 57bd 0915 d43d f4c5 42be 4b6f 833e
00000040: 2cb9 debc 6264 543d 3573 90be a7a2 553e
00000050: 2721 0b3e 25a9 1fbe deb3 dbbd 3b6a 783d
00000060: a0fb 71bc 761f 6b3c 13ad 5b3e e46b 45be
00000070: de67 883e faba 28be 7f49 073e 87bb 51be
00000080: f762 f2bd 72ba 9b3d 750c 233e e0f5 433e
00000090: c004 b0bd 7539 683e 840b a83d 5ae5 3dbe
000000a0: d35c 68be 1f56 5fbe d57d e1bd b136 e0bd
000000b0: 6dc2 63be 1d67 833e 8b65 4ebd 0079 e8bb
000000c0: 249e 4cbd 251a d43c 28e6 f73d 12db 6c3e
000000d0: 8fce c63b 1e4c 71be d15c 4f3e 75d7 5f3e
000000e0: 54e4 19bd 0474 20bd 2e69 72be 4616 22bd
000000f0: 8dec 6bbe d8d8 183e 7fb7 293e b319 5fbe
00000100: 51b2 ccbd 73ec 11bd f244 1dbe 6d97 0b3e
00000110: b2de 87bd ab8a 1ebe 2a80 a3bb cba2 5abd
00000120: 8764 1cbe 9dc5 dc3d 0ce0 c5bd 543b fcbd
00000130: c547 033c 985e 85be d4f8 c6bc 963c bebc
00000140: 59f6 c03d dfa5 1cbc 3187 c03d 7592 10bd
00000150: 1777 363e ca42 49be c824 13be be36 34be
00000160: 39f9 bbbc 24a8 4b3e 0ebf 53be 5e9d 473c
00000170: 8e9d 8f3e d5b1 b8bd f0d8 433e 6261 2e3e
00000180: 90e4 75be de58 6bbe 6314 06be 8082 85be
00000190: f891 1d3d 2ae8 b13d b429 00be a056 9fbd
000001a0: 27f5 3d3e 37b7 c0bd eaf1 43be 6e7f 0abe
000001b0: 12a5 4abe e11a 12be 82b6 eebc 514c 6ebd
000001c0: 5390 893e 724f 03be 7963 eabd df28 7ebe
000001d0: cb95 31be d592 d43c 8ba3 913e 066f fe3c
000001e0: b46a 513e 5e25 bd3d 2e62 a43c 8bf8 66be
000001f0: 9925 693e ac04 c83d bdd0 50be be76 c63d
00000200: 1fd5 c2bc 3587 abbd ca86 833d 306e cbbd
00000210: 7429 8b3d 8296 0fbd ac35 893e 7ff0 063e
00000220: a177 5ebe 5f14 94bd 5b44 523e 7c43 803d
00000230: 211f 0e3e 85b3 d2bd 1deb 4b3e ed86 c43d
00000240: 9629 63be 92e0 38be f904 a03c 49c4 06bd
00000250: 049b 78bd a334 89be 52ac 793e 95f7 4fbe
00000260: c91b 42be 704f fcbd d127 7c3d cbee e7bc
00000270: 6707 17be 404d 86be eb1e 173d 0eda 843e
00000280: 39ec 0fbe 96a5 853e c473 89be c88f e33d
00000290: 8c9d 0bbb 70df 25b9 fec7 a43d 2c3a 76be
000002a0: 95d2 2dbe 8931 bd3d e8bb 56be 1920 723e
000002b0: b7fd 773e 4e32 b5bd fbba a43d c63c ed3d
000002c0: f85d 09be db7b 65be 0588 f13d 984c 373e
000002d0: 960d 2b3c 8bf1 91be 8896 0cbe edc5 523e
000002e0: 7144 2bbc a195 063e 7f47 eb3d a285 75be
000002f0: 1dae 21be d633 573e 97eb d4bd 4619 743e
00000300: c078 1bbd aed6 ffbd 089e 313e cc63 a4bd
00000310: 687e 4bbe 581d 0d3d 7f15 9abd 55cc a3bc
00000320: 0c50 9f3c f38b 1cbe 4b43 88be d3c5 84be
00000330: 4a69 78be 4e4d 60bd 7657 333e 6997 8e3e
00000340: ac55 6a3e cbd0 0d3d e381 52be aa78 283d
00000350: 18e0 3abe a9f9 8abe 6a9e 3bba 3f1c 5abe
00000360: 6ea6 543c 6454 2abe 5f66 0fbe 7834 61be
00000370: 7df7 873e d3fe 27bd 0d7a 8e3e 84db 8a3e
00000380: 9abb 0d3e a57e 893e 105e 433d 2913 833e
00000390: abeb 823d ad69 313c 82fc 6bbe 3f7c 453e
000003a0: 5a2f 603a 7217 30bd 0097 ce3d 6c2f 0dbe
000003b0: f401 923d d890 3a3e dd6c 2f3e e989 6c3e
000003c0: 892f f6bc 9b51 0abe e57a d9bd b36d a83d
000003d0: 6d71 813e 8658 463e 7c6a b53d 310f 2cbe
000003e0: a031 793e 5bd1 b43d 601f b1bd c63c 12be
000003f0: 157e 7e3e 2f5f 50bd 0b06 12be 13db a7bd

item_tower.fc.3.weight f4 [128, 256]
0.037418976 -0.0056724446 0.050139703 -0.048675176 0.030487213 0.02597054 0.03905791 0.07455661
-0.040760312 0.07804669 -0.029855771 -0.0007935022 0.05640354 0.01665311 0.015546542 0.0664431
-0.032017194 -0.041025396 -0.0023072953 -0.0270971 0.019740429 -0.04181166 0.017604046 -0.069367856
0.052062485 0.020762442 -0.00606257 -0.039712127 -0.023288662 -0.0026278228 -0.022958498 -0.037259553
-0.047148943 0.025187375 0.053755663 0.04980586 -0.018428246 -0.020325374 -0.017185256 -0.04702309
0.04235126 0.051473316 0.006756761 -0.031094782 -0.056892294 0.024407463 0.014847801 0.042395268
0.014435091 -0.02949511 -0.04520532 0.007041913 0.040737886 0.004783386 0.020191938 0.0535486
-0.039414007 0.02857343 0.037573278 -0.034690294 -0.01061531 -0.03869808 -0.008893337 -2.985599e-05
0.06223714 0.06898602 -0.032276966 0.025252149 -0.04632622 0.054185785 0.025606493 -0.012142674
0.046911187 -0.0360769 -0.01427255 0.009532385 -0.06382044 0.06962247 0.028911002 0.02264005
-0.0016257387 -0.04860952 -0.018373776 -0.004659848 0.03910271 -0.06539219 -0.0008995314 0.00027332356
0.056676976 -0.01114425 -0.0433 0.06989535 0.012184391 -0.061065312 -0.00606626 -0.039440818
0.018053219 -0.05131571 -0.06205793 0.034179877 0.023498245 0.018683758 -0.060749475 -0.019019049
0.049208827 -0.0397672 0.019412683 0.033592585 0.06126623 0.029228572 0.0015254375 -0.06477803
0.058111094 0.0072940057 -0.0046397573 0.022520578 -0.039347187 0.00827869 -0.0064592515 -0.004232205
0.051563162 -0.035635367 0.002272593 0.06972804 -0.017460816 0.040869307 -0.05017171 0.00238537
0.015717223 0.02345112 -0.032109566 0.009146794 0.025429135 -0.042949013 -0.04435027 0.011309246
-0.055686083 -0.06569926 0.014359264 -0.009846289 -0.0022176132 -0.062422708 -0.03380187 -0.002939422
-0.03772543 -0.033081092 -0.013603804 -0.0024507607 0.013096349 -0.0057817213 -0.0086615365 -0.04643546
-0.011338209 -0.039704766 -0.036071267 0.01294546 -0.02812377 -0.027591575 -0.013789512 0.03557074
0.016467227 -0.0027858089 0.012004398 -0.024721134 -0.03647174 -0.025742691 0.051578168 -0.03483715
-0.054835375 0.0016219831 -0.05256 0.04607293 0.029995367 -0.009364448 0.012300464 0.043266267
-0.0733824 -0.03921337 0.024077864 0.0695137 0.061290007 -0.046969213 -0.01877523 -0.008094742
0.0024201202 0.046415616 -0.026886959 -0.0781316 0.02461209 0.045856476 -0.054351497 0.039965857
-0.027983977 0.030598743 0.026772706 0.018945679 -0.010988087 -0.027300963 0.024308126 0.013430809
-0.0105684465 0.020927195 -0.049950242 0.022193467 -0.026393665 0.015476849 -0.04171864 -0.03624627
0.0652328 -0.002871875 0.024031572 -0.07538557 -0.053922564 0.017579006 0.05371197 0.03379203
0.0588413 0.0106880935 -0.06671389 0.013493227 0.058726337 0.041048657 -0.052580807 -0.0010311864
-0.0266919 0.06845884 -0.037375566 0.038588412 0.04456784 0.0028496922 0.010051734 0.007167286
0.06245397 0.017341884 -0.0030026382 0.006788317 0.038891453 0.026305279 -0.036941383 0.019342585
0.052528568 0.022072576 -0.060367994 0.0005103565 0.06145725 0.05263742 0.027293563 0.0365164
0.07461224 -0.0041916384 -0.06761305 -0.024219744 0.008947186 -0.0016139857 -0.04367959 0.020910287
00000000: a444 193d eadf b9bb 4a5f 4d3d 9f5f 47bd
00000010: 52c0 f93c 2bc0 d43c 30fb 1f3d 23b1 983d
00000020: 49f4 26bd f1d6 9f3d 1794 f4bc 0803 50ba
00000030: 6607 673d 1a6c 883c ecb6 7e3c 5213 883d
00000040: 7624 03bd 3f0a 28bd fe35 17bb bdfa ddbc
00000050: aeb6 a13c b442 2bbd 5c36 903c bc10 8ebd
00000060: 793f 553d ff15 aa3c 86a8 c6bb 2fa9 22bd
00000070: ddc7 bebc 8d37 2cbb 7613 bcbc 799d 18bd
00000080: 401f 41bd c155 ce3c e62e 5c3d 3b01 4c3d
00000090: d5f6 96bc 6681 a6bc 18c8 8cbc 499b 40bd
000000a0: 8478 2d3d afd5 523d d267 dd3b 7cba febc
000000b0: e507 69bd 29f2 c73c 3144 733c a9a6 2d3d
000000c0: 2981 6c3c bb9f f1bc 3729 39bd d9bf e63b
000000d0: c5dc 263d f3bd 9c3b 9069 a53c c755 5b3d
000000e0: 9570 21bd d312 ea3c 70e6 193d 6917 0ebd
000000f0: d6eb 2dbc e181 1ebd 5cb5 11bc 4073 fab7
00000100: 5fec 7e3d 8b48 8d3d da34 04bd 98dd ce3c
00000110: 90c0 3dbd eaf1 5d3d b5c4 d13c 11f2 46bc
00000120: f225 403d 5fc5 13bd 6ad7 69bc b82d 1c3c
00000130: 4ab4 82bd 3a96 8e3d c4d6 ec3c a077 b93c
00000140: bd16 d5ba c71a 47bd 9a84 96bc a3b1 98bb
00000150: 2a2a 203d 57ec 85bd 88ce 6bba de4c 8f39
00000160: 1e26 683d 5f96 36bc 575b 31bd 4b25 8f3d
00000170: 0aa1 473c 9f1f 7abd 7ac7 c6bb b28c 21bd
00000180: 58e4 933c 6c30 52bd 7530 7ebd 3300 0c3d
00000190: 647f c03c ae0e 993c 71d4 78bd d6cd 9bbc
000001a0: 328f 493d eee2 22bd 5907 9f3c 6198 093d
000001b0: 4cf2 7a3d c270 ef3c 30f1 c73a 58aa 84bd
000001c0: e605 6e3d 8e02 ef3b 1b09 98bb 137d b83c
000001d0: 842a 21bd 58a3 073c 21a8 d3bb 4fae 8abb
000001e0: e533 533d 64f6 11bd c9ef 143b 93cd 8e3d
000001f0: fc09 8fbc 9366 273d da80 4dbd de53 1c3b
00000200: 68c1 803c 901c c03c 5285 03bd 6fdc 153c
00000210: c350 d03c 4eeb 2fbd a1a8 35bd 6a4a 393c
00000220: 1717 64bd 558d 86bd 1e43 6b3c 5452 21bc
00000230: 6055 11bb f4ae 7fbd d473 0abd 51a3 40bb
00000240: fb85 1abd 0a80 07bd 7de2 5ebc f19c 20bb
00000250: 1292 563c 9874 bdbb 1ee9 0dbc 1c33 3ebd
00000260: e5c3 39bc 77a1 22bd 77bf 13bd 3219 543c
00000270: d263 e6bc ba07 e2bc 68ed 61bc a0b2 113d
00000280: 47e6 863c 1e92 36bb 18ae 443c fa83 cabc
00000290: 6463 15bd 56e2 d2bc a143 533d 66b1 0ebd
000002a0: 0f9b 60bd b998 d43a 2849 57bd f8b6 3c3d
000002b0: d8b8 f53c 576d 19bc e387 493c f837 313d
000002c0: 8349 96bd 339e 20bd f13e c53c 335d 8e3d
000002d0: 3b0b 7b3d ca62 40bd 83ce 99bc cf9f 04bc
000002e0: e19a 1e3b 4d1e 3e3d 0a42 dcbc 7603 a0bd
000002f0: 4b9f c93c 00d4 3b3d ad9f 5ebd 3db3 233d
00000300: a73e e5bc 37aa fa3c 6f52 db3c f833 9b3c
00000310: 6107 34bc 45a6 dfbc d621 c73c e50c 5c3c
00000320: 4727 2dbc 826f ab3c a098 4cbd 13cf b53c
00000330: 8737 d8bc 9c92 7d3c 2ae1 2abd f876 14bd
00000340: c698 853d 1136 3cbb dcdd c43c c063 9abd
00000350: e8dd 5cbd d901 903c 1501 5c3d 8369 0a3d
00000360: 9303 713d 1d1d 2f3c 4ba1 88bd b212 5d3c
00000370: 078b 703d a322 283d f95e 57bd e028 87ba
00000380: f9a8 dabc 2634 8c3d 1f17 19bd e20e 1e3d
00000390: c48c 363d e7c1 3a3b 07b0 243c 8ddb ea3b
000003a0: bccf 7f3d 9110 8e3c e9c7 44bb 8870 de3b
000003b0: a54c 1f3d 2b7e d73c d94f 17bd 5774 9e3c
000003c0: 3228 573d 8cd1 b43c 6e44 77bd 72c9 053a
000003d0: 99ba 7b3d 569a 573d c096 df3c 3892 153d
000003e0: 4dce 983d 035a 89bb b678 8abd 7c68 c6bc
000003f0: 3897 123c 608c d3ba 5fe9 32bd 0d4c ab3c
