models/dumps/TwoTowerModel_v3.pth (torch, 359746 bytes, 12 tensors)

user_tower.fc.0.weight f4 [256, 11]
000000 e4 b1 83 be a5 a2 6c be 5e c3 9d be 94 fb cf 3d
       -0.25721657 -0.23108919 -0.30813116 0.101554066
000010 50 11 19 3e 6f 12 94 3c 42 4c 5b 3e 16 44 78 bd
       0.1494801 0.018075196 0.21415809 -0.060611807
000020 df c9 05 3e 06 c8 cc 3b ee b0 32 3d bd 33 4c be
       0.13065289 0.0062494306 0.043625765 -0.19941612
000030 7d 1b 7d 3d 6f 7e ef bd 45 98 40 3e ec 35 31 be
       0.061793793 -0.11694037 0.18808086 -0.17305726
000040 bb 53 8e 3e 15 0d 09 be 9d 4e d7 3d 54 53 81 3e
       0.27798256 -0.13383897 0.10513041 0.25258887
000050 81 c8 89 3c 91 2e 16 3e 5d 13 9f bc 25 37 1e bd
       0.01681924 0.14666201 -0.019418413 -0.03862681
000060 39 02 b3 3d aa 16 72 3e 32 48 82 be c0 d3 61 3e
       0.08740658 0.23641458 -0.25445706 0.22053432
000070 c6 58 5d be 44 fa 7f be c6 c2 25 3e 5b 77 5f bd
       -0.21615896 -0.24997813 0.16187581 -0.054557186
000080 7b 3d 68 3e 05 db 8b 3e aa 4b 20 3d 1e 8d 57 3e
       0.22679703 0.27315536 0.03913466 0.21049926
000090 8a bf 14 be 99 33 d7 3c 74 c3 86 3e 4d b7 0d 3e
       -0.14526191 0.02626972 0.26320994 0.13839455
0000a0 d9 39 14 3e 46 0a 89 3e fb 83 76 3e f0 65 ec 3c
       0.14475192 0.2676565 0.24073784 0.028857201
0000b0 62 10 20 3e b1 b0 30 be d7 7d 1c 3d 86 2b 65 3e
       0.1563125 -0.17254902 0.038205948 0.22379884
0000c0 84 7a ab bd e6 ec 86 3d fa f0 1d bc 94 bc 8c be
       -0.083729774 0.065881535 -0.009639973 -0.27487624
0000d0 2c f8 00 be 6e 27 46 bd f4 80 b9 3d bc e0 4d 3e
       -0.1259467 -0.048377447 0.09057799 0.2010526
0000e0 20 61 00 be 21 ed fe bc c0 20 b7 bd 4c 0f 0c bd
       -0.1253705 -0.031118931 -0.089417934 -0.034194276
0000f0 13 02 8f 3e 4d c6 29 3d 8a 4d 39 3e ca 5f e8 3d
       0.2793127 0.04144888 0.18095985 0.11346395
000100 a7 4f 13 be 77 6d 15 3e 0b 2b 8f be a5 eb 8a be
       -0.14385854 0.14592539 -0.27962527 -0.27132908
000110 e7 e3 70 3e 04 30 e1 3d 30 fe 56 3e e4 c4 b4 bb
       0.23524438 0.109954864 0.20995402 -0.0055166353
000120 77 4d b9 3d 6f fc 8a 3d 5a 0c 6d be dd e2 4a 3e
       0.09047978 0.06786429 -0.23149243 0.19813104
000130 8d a2 d1 bd 14 1b 92 be 81 9a bf 3d 3b a6 34 3e
       -0.10236082 -0.28536284 0.09355641 0.17641537
000140 81 d7 77 bc 95 2d 96 be 41 15 83 3e 80 f7 da 3d
       -0.015127064 -0.2933165 0.25602153 0.10691738
000150 26 14 d8 3d e8 27 80 bd 84 52 1c 3e 57 a5 a9 3d
       0.10550718 -0.062576115 0.15265852 0.08283489
000160 7b 6b 49 bd 82 eb b2 3d 40 74 13 3e 19 31 14 bd
       -0.049174767 0.08736326 0.14399815 -0.036179636
000170 bd 9e 54 3e 07 8b 0a 3e 39 10 ac 3b d9 ea c7 3d
       0.20763679 0.13529597 0.0052509573 0.097615905
000180 fa 8d 36 3d 7b 52 c4 3d 59 9e ba 3c c8 60 53 3d
       0.044568993 0.095860444 0.022780584 0.05160597
000190 02 87 5d be 42 1d b3 bd 48 f8 5e be 32 81 91 3d
       -0.21633533 -0.08745815 -0.217744 0.0710472
0001a0 b1 a0 48 be e2 dd 9e bc bb 4c 8c be 34 88 41 3e
       -0.19592549 -0.019392911 -0.2740229 0.18899614
0001b0 fe 88 3b be 22 44 bf bd f3 0a 8d 3e f0 3a 10 be
       -0.18313977 -0.09339167 0.27547416 -0.14084983
0001c0 44 2c 4f 3e 41 00 76 bd 27 d4 7f 3e 30 ab 5d 3c
       0.2023173 -0.060058836 0.24983273 0.013529584
0001d0 17 a6 c3 3d f4 48 23 be fb 6e 72 be a5 8e 81 be
       0.095531635 -0.15945798 -0.23675148 -0.25304142
0001e0 32 c7 e4 bc c1 ec 51 be d2 e4 05 3e e2 66 a7 3b
       -0.027927015 -0.2050047 0.1307557 0.0051087
0001f0 46 96 60 bd 2a 38 a4 bd 27 21 9c 3d c5 e7 15 be
       -0.054830812 -0.08018525 0.07623511 -0.14639194
000200 c6 91 4e 3d 6b 11 bc bd 81 5f 40 be 3a fc 83 3d
       0.05043199 -0.0918301 -0.18786432 0.06444593
000210 c4 f3 86 3c 88 55 56 be 32 b3 a1 be d2 46 8f 3e
       0.016473658 -0.20931065 -0.31582028 0.2798372
000220 47 c8 f7 3d 24 f2 8b 3b b0 ff da 3d c5 bf 2e 3e
       0.12098747 0.004270809 0.106933 0.17065342
000230 96 ae 98 3e 93 28 95 3d 35 ff 96 3d 60 5c 91 3e
       0.29820698 0.072831295 0.07372896 0.2839079
000240 f4 bb 0c bd b0 2b 12 3e 8f 35 b6 3d 92 a6 9f 3d
       -0.034358934 0.14274478 0.08896934 0.07795443
000250 5f c9 3e 3d 90 ff 64 3e 08 3d e0 bd 3d ef 55 be
       0.04657876 0.22363114 -0.10949141 -0.20892043
000260 3b ba 06 3e 37 4e c9 bd 83 ff 70 bd a2 79 ee 3c
       0.13156979 -0.098293714 -0.058837425 0.029110733
000270 61 d4 82 3e ca 3e ac 3d 8b f5 67 3e eb 2e 87 3e
       0.25552657 0.084104136 0.22652261 0.26402983
000280 72 73 26 be 7c 9d 73 3d 85 0c d7 bd b7 f6 70 be
       -0.16254976 0.05947636 -0.10500435 -0.23531614
000290 7b a4 7e be d6 d3 6e 3e fb a9 4b 3e ed be dc 3d
       -0.24867432 0.23322996 0.19889061 0.10778604
0002a0 65 b0 29 be 94 09 53 3c a8 32 19 be 66 65 e0 bc
       -0.16571195 0.012880702 -0.1496073 -0.0273921
0002b0 2d 1e aa bd 75 90 89 3b 24 6a 8c 3e a7 9e cf 3b
       -0.08306537 0.004198129 0.2742473 0.0063360515
0002c0 ec 50 3d be e6 15 a7 bd 16 a1 69 bd 62 90 1e be
       -0.184879 -0.08158474 -0.05703839 -0.15484765
0002d0 d0 f7 57 bd a6 2f b8 3d 33 24 25 be a3 22 5d 3e
       -0.052726567 0.08993463 -0.1612709 0.21595244
0002e0 d1 5e d2 3d 99 09 8e 3e 8d 29 17 be f4 fe 1e 3d
       0.10271991 0.27741697 -0.14761944 0.03881736
0002f0 48 44 05 3e d5 94 68 3d 6b b3 44 3e b1 fc 60 bd
       0.13014328 0.056782562 0.19209068 -0.054928485
000300 68 60 1c 3e 35 2f 45 3d 8d db 05 be 61 bc 0e be
       0.15271151 0.048140723 -0.13072033 -0.13939048
000310 2f 4f 8c 3e ef 4a 21 3e 9f 28 79 3e 87 cd e1 3d
       0.27404162 0.15751241 0.24331902 0.11025529
000320 56 fa dc 3d de 2d 4e be c7 f7 dd 3d 85 16 aa bb
       0.10789935 -0.20134684 0.108382754 -0.005190673
000330 1c c2 8d 3d 02 73 95 3d 49 a1 8c be 39 c3 e8 bb
       0.06921789 0.072973266 -0.274668 -0.0071033505
000340 75 33 b5 3d 88 fd 16 3c 05 df 1a bd d2 a3 6c 3e
       0.08847705 0.00921572 -0.037810344 0.23109367
000350 be e4 13 3e 15 51 b6 3d ab 1d f9 3d 72 8e 13 be
       0.14442727 0.08902184 0.12163862 -0.14409807
000360 8e 8f 5a 3c ad 3d 3b 3e af c5 1f 3e d7 91 21 3d
       0.01333989 0.18285246 0.15602754 0.039445724
000370 b8 01 9d bd 19 24 60 bd 21 d4 26 be 04 8e a3 3d
       -0.076663435 -0.054721925 -0.16291858 0.07986072
000380 30 89 1c 3e 4e 40 87 3e be d8 92 bd 2e 5c 2c 3e
       0.15286708 0.26416248 -0.071702465 0.16832039
000390 2a 73 4b be 84 4b 21 3e 82 5f 6f 3e aa 11 ab bd
       -0.1986815 0.15751463 0.23376277 -0.083529785
0003a0 e5 19 30 bd 6c 82 df 3d e0 a2 46 3e fd 94 df bc
       -0.042993445 0.10913548 0.1939807 -0.027292723
0003b0 8a 55 82 3e 29 f4 07 3e 9b e5 8e bd b2 8a b0 bd
       0.25455886 0.13276733 -0.069773875 -0.08620204
0003c0 f4 66 03 be 32 59 3c bd 19 61 81 3e 5e bd 06 be
       -0.12832242 -0.0459835 0.25269392 -0.13158175
0003d0 de 32 e0 3d b3 59 8d 3e 29 f5 3b be 74 ca 82 be
       0.10947202 0.27607498 -0.1835524 -0.25545084
0003e0 3b 63 8a be 2f 80 fd 3d 0f 28 9a 3c 7f 86 f9 bb
       -0.27028832 0.12377965 0.01881793 -0.00761491
0003f0 f9 fe 65 3e cf d4 90 3e e4 da fe bd 48 8f 33 3e
       0.22460546 0.2828736 -0.12444094 0.17535126

user_tower.fc.0.bias f4 [256]
000000 d8 97 11 3e 4f c5 20 3d fc 8c 78 3d 87 a3 41 be
       0.1421808 0.03925067 0.06068133 -0.18910037
000010 bc e1 78 be ef c4 3e be 28 a8 87 be e1 47 ea 3c
       -0.24304861 -0.18629812 -0.2649548 0.028598728
000020 78 71 ce 3d 8d a1 f1 bd 4c 92 e8 bc 27 92 ce 3c
       0.10080236 -0.117983915 -0.028390072 0.025216175
000030 8c 1b 93 3d 9d e5 72 be 4e 6c 4c be b0 57 bd b9
       0.071829885 -0.23720403 -0.1996319 -0.0003611422
000040 51 69 df 3d 66 bd 20 3d ac 89 8f be 03 d6 04 be
       0.109087594 0.039243124 -0.28034723 -0.12972264
000050 9c 9e 80 be de 8c 88 3d d5 2d ac bd 52 d3 00 be
       -0.2512101 0.06667493 -0.08407179 -0.12580612
000060 16 a7 cf bd 66 f0 2e 3d cf 35 82 3b 63 7b 35 be
       -0.10139291 0.04270973 0.0039736996 -0.1772285
000070 91 4a 88 3d eb 08 29 be d5 c0 83 be 0e 3e 2d be
       0.066548474 -0.16507308 -0.25733057 -0.16918203
000080 bd ee 0b 3e 3c f0 26 3d b2 45 90 be 4e 1a af 3d
       0.1366529 0.04075645 -0.28178173 0.08549939
000090 bd 0a 52 be ab cd 68 3e 9d 2d 43 bd 5e e1 5e be
       -0.20511909 0.22734706 -0.047650922 -0.21765658
0000a0 3b 65 10 be a4 5d fc bd ff ac 8e 3e 42 1a ba 3d
       -0.14101116 -0.12322548 0.2786636 0.090870395
0000b0 20 f8 4b be 3e d9 8e 3e 74 1d af b9 0a fe 8d 3e
       -0.19918871 0.27900118 -0.00033400545 0.2773288
0000c0 41 81 63 3e 2b 69 80 be 22 c9 82 bc bf 38 9b 3c
       0.22217275 -0.25080237 -0.015965048 0.018947957
0000d0 ee 21 88 3e d5 10 41 3e 2f c1 93 bc 19 8e 73 be
       0.26588386 0.18854077 -0.018036453 -0.23784675
0000e0 91 a1 c8 bd 82 83 01 be 32 66 0b be 7a 4a 69 3d
       -0.09796441 -0.12647822 -0.13613203 0.056955792
0000f0 58 09 13 3e c2 97 4c 3e 10 aa 22 bd ea 6e 88 3e
       0.14359033 0.19979766 -0.039712965 0.2664712
000100 d6 bf 15 be 94 94 99 be 5b 41 88 be fe 4e e3 bd
       -0.14623961 -0.2999617 -0.26612362 -0.11099051
000110 c4 9a aa 3d d9 45 60 3d 8c 25 73 be 7a 62 74 3e
       0.083303005 0.054754112 -0.23744792 0.23865691
000120 c7 4c 3a 3e ea 40 77 3e 6d 4e 47 be fe fb 8a 3d
       0.1819335 0.24145856 -0.19463511 0.06786345
000130 87 e6 1a bc a4 4b f8 3c c7 f3 8c 3e d2 40 9f bd
       -0.009454376 0.030309506 0.27529737 -0.07776035
000140 cb 00 b4 bc fe 7a 6b bd b2 5a 5c be a7 c3 06 be
       -0.021973034 -0.05749034 -0.21518973 -0.13160573
000150 3b 2b 27 be 78 f3 14 3e 0b 4c 14 3e d0 54 0a 3d
       -0.16325085 0.14546001 0.14482133 0.03377229
000160 8f 4c 7d bc 19 60 e9 bd c5 42 78 bd 24 3a 31 be
       -0.0154601475 -0.11395282 -0.06061055 -0.17307335
000170 dd 52 4e be 27 34 0f be f8 97 77 bc e5 5c 61 be
       -0.20148797 -0.13984738 -0.015111916 -0.22008093
000180 68 65 3b 3e 88 09 8a bd 95 33 8f 3e b1 2b 74 3d
       0.18300402 -0.06740099 0.2796904 0.05961198
000190 8f 2d 6c 3d b8 35 4b 3e 86 6c 73 be dd 85 84 be
       0.057660636 0.19844711 -0.23771867 -0.2588338
0001a0 dc 98 c2 3d 5c dc 26 be e4 a9 82 bc 86 27 a9 3d
       0.09501812 -0.16294998 -0.01595015 0.082594916
0001b0 94 cd 59 be 69 99 ac bd 5b 76 0e bd eb b0 91 bd
       -0.21269828 -0.08427698 -0.03478084 -0.071138225
0001c0 7d 97 2b 3d 22 34 0b be 32 21 74 be e7 9f 01 3e
       0.041892517 -0.13594106 -0.23840788 0.12658654
0001d0 5e b1 18 3d 27 3c 93 3e 24 ea 4c 3d 5e a7 83 3e
       0.037278526 0.2875683 0.05002798 0.2571363
0001e0 7a 89 55 3e 19 11 8d 3c d8 e8 a4 bd fc ae de 3b
       0.20853224 0.017220067 -0.08052224 0.006795762
0001f0 63 2d 93 be b8 fd 84 3e bc c2 3c 3e 6f 93 59 3e
       -0.28745565 0.25974822 0.1843366 0.21247648
000200 91 70 2d bd 69 cb 8d be 32 95 ce bd 91 f2 39 3e
       -0.04234368 -0.27694252 -0.100870505 0.18158938
000210 af 03 cc 3d 6e 62 e5 bc 89 c4 7e be 4e 26 7d 3e
       0.0996164 -0.028001036 -0.2487966 0.24721643
000220 68 14 04 be 05 81 bc 3d df 14 8a be 85 ed 90 be
       -0.1289841 0.09204296 -0.26969048 -0.28306213
000230 0d 60 45 3e 04 f4 d0 bd 73 3d 01 3d 4c 01 59 3e
       0.19274922 -0.10202792 0.031552743 0.21191901
000240 d6 12 d4 3d 60 ce 91 3d c9 4d 44 3d af a8 84 3e
       0.10355155 0.07119441 0.047925744 0.25909945
000250 55 02 67 3e 07 b3 23 3d 81 75 a2 3c ee 1b 38 3e
       0.22559483 0.039965656 0.01983142 0.17979404
000260 d9 1e 0c be 94 68 0a be f1 3f c2 3d 98 98 4d 3e
       -0.13683642 -0.13516456 0.09484852 0.20077741
000270 b0 53 3a be 7a c7 13 3e 96 af a3 3d 08 f2 3e be
       -0.18195987 0.14431563 0.07992475 -0.18647015
000280 6f 85 38 3e d0 55 bc 3d e9 f6 5d 3d 06 a7 94 3e
       0.18019651 0.09196055 0.05419055 0.2903368
000290 df cd 8b 3e 24 ec a6 bd f6 d1 b9 3d 31 ef fe bd
       0.27305505 -0.08150509 0.0907325 -0.12447966
0002a0 b8 14 8d be 5c c7 b1 bd ce 5e ac bd 7c 15 43 be
       -0.2755487 -0.08680603 -0.0841652 -0.19051164
0002b0 e4 49 01 be 14 dc 8e be ab 97 98 3e 01 0d b6 3d
       -0.12625843 -0.2790228 0.29803213 0.08889199
0002c0 fb a2 4b bc 13 ca 55 be 7d 94 ad 3d 10 89 9b be
       -0.012428994 -0.20877866 0.084755875 -0.30378008
0002d0 fc d6 5f be 4c 19 79 3e e4 13 8e be 4a 35 49 3e
       -0.21859354 0.24326056 -0.2774955 0.19649234
0002e0 71 65 4d be f7 4f 7c 3e 1c e3 01 be 10 68 9d bc
       -0.20058228 0.24639879 -0.12684292 -0.01921466
0002f0 de f3 ab bd 7b b7 a9 bc f9 78 2b 3e 52 58 8c be
       -0.08396123 -0.020717373 0.16745366 -0.27411133
000300 e2 22 7d 3e 53 3a c6 bd 40 5c cc 3d 33 40 89 be
       0.24720338 -0.09679093 0.09978533 -0.26806793
000310 36 36 80 be 4d 0e 84 bb 7f 5f 84 be c9 c6 8e be
       -0.2504136 -0.004030025 -0.25854108 -0.27886036
000320 dc ce 09 3e 7b a9 0a 3d 27 e8 d6 bd da b1 6f be
       0.13457817 0.033853035 -0.10493498 -0.23407689
000330 02 41 56 3e dd 18 6f 3e dd 03 89 be 08 9d 8c be
       0.20923236 0.23349328 -0.2676076 -0.27463555
000340 34 3f 47 be 50 65 48 be 24 c6 7e 3e c8 df 37 3e
       -0.19457704 -0.19569898 0.24880272 0.1795646
000350 2d 7c 87 3e 6f a9 47 be 92 38 a5 3d e8 28 0a 3e
       0.26461926 -0.19498228 0.080674306 0.13492167
000360 57 63 f1 3d 03 3e 33 be 9f c4 58 3e 17 70 3b 3d
       0.11786526 -0.17504124 0.21168755 0.045761194
000370 26 06 7f 3e b9 28 5a 3e 52 13 13 bd 38 ae 8e be
       0.24904689 0.21304597 -0.035907097 -0.27867293
000380 38 30 43 3e d5 3b 37 be 61 6b 49 be 9f 32 31 be
       0.19061363 -0.17893918 -0.19669868 -0.17304467
000390 7a e1 7a 3e d3 54 97 3d ca f5 03 be 4a 50 6c 3e
       0.24500075 0.07389226 -0.1288673 0.23077503
0003a0 98 7e 32 3d 9b 4b 3e be c2 57 a8 3b da 55 8e be
       0.04357776 -0.18583529 0.0051374147 -0.27799875
0003b0 66 3f 7e bc 45 de 0c 3e e9 53 8b 3e df a0 d9 bd
       -0.015518045 0.13756664 0.27212456 -0.10626387
0003c0 1e fd 32 3e 9d 49 87 3e 40 7f 83 bd 9e dd 8a bd
       0.17479369 0.2642335 -0.064207554 -0.067805514
0003d0 99 21 a2 3d 38 e4 40 be 9e 0d 2d 3c 20 24 57 be
       0.079165645 -0.18837059 0.010562329 -0.21009874
0003e0 35 e1 46 bc c9 c9 30 3e 84 1d 7c bd 9c 43 ed bd
       -0.0121386545 0.17264475 -0.061551586 -0.11585161
0003f0 2f 7a 5b 3e be 2d 8d bd 63 21 a9 3d 74 62 a7 3d
       0.21433328 -0.0689349 0.08258321 0.08173075

user_tower.fc.3.weight f4 [128, 256]
000000 6e 69 63 3d 81 a9 76 3d ee e4 64 3d bf b8 11 bd
       0.055520467 0.060220245 0.055882387 -0.03557658
000010 a4 66 03 bd 7f 42 86 3d 90 d1 f4 3c 02 fd 44 3d
       -0.032080308 0.06555652 0.029885083 0.04809285
000020 42 19 40 3d 15 b7 29 bc d1 ca 40 bd 73 ca f5 bb
       0.046899088 -0.010358592 -0.04706842 -0.0075009405
000030 67 22 4a 3d db 60 45 3b e6 57 10 3d 1a 81 0c 3d
       0.049349215 0.0030117545 0.035240076 0.03430281
000040 b0 05 d0 3c ab 4a 5f 3d fa dd 9c bd ea 09 80 bc
       0.025393337 0.05451457 -0.07659526 -0.015629727
000050 29 64 65 bd a3 98 19 bd bd a7 20 3d ac 51 61 3c
       -0.056003723 -0.03749908 0.039222468 0.013752382
000060 38 58 81 3a db 34 4e 3d 91 de 95 bd f7 9f e3 3c
       0.000986821 0.050343376 -0.07317842 0.027786238
000070 f9 0c 09 3d 00 10 c5 3c 05 08 47 bd a5 7e 5c bd
       0.033459637 0.024055481 -0.048591632 -0.053831715
000080 58 1d 3a bd 5c c7 52 3d 4a d5 10 bd 36 97 c4 3c
       -0.04543814 0.051459655 -0.03535966 0.023997884
000090 f3 13 6c bd 06 ef 84 ba 92 76 a9 3a 5a 5a b3 bb
       -0.057636213 -0.0010142035 0.0012929013 -0.005473417
0000a0 9a d4 9a 3b 8b 96 1b 3c d9 58 a6 3d 63 b3 05 bd
       0.004725051 0.009496341 0.08122415 -0.03264178
0000b0 d7 c6 ad bc b3 04 1a bd ce 66 19 bd 8c 37 ae bc
       -0.021212978 -0.037602138 -0.037451558 -0.021266721
0000c0 a8 0b 90 bc 58 a9 5b 3d f2 93 a6 bc 1c e4 88 3d
       -0.017583683 0.053628296 -0.020334218 0.066841334
0000d0 a7 9c 27 3d 13 fc 75 bc dc 5d 14 3d 77 5d 28 3d
       0.04092088 -0.015013712 0.036222324 0.04110476
0000e0 15 e8 72 3d dd 10 65 3d a8 5b 8d bb 04 30 e0 bc
       0.059303362 0.055924285 -0.004313905 -0.027366646
0000f0 bf 91 a6 3b 98 c4 91 bc 40 62 fc 3a 1a ed 65 3d
       0.0050832923 -0.017793939 0.0019255355 0.05613432
000100 21 ab f1 3c da 81 80 bd 40 ba 96 bd 00 14 a6 3c
       0.029500546 -0.06274767 -0.07359743 0.020273209
000110 c9 ac 13 3d e9 20 ce bc 8c bb b0 bc 2f de 13 bc
       0.036053453 -0.025162177 -0.021573804 -0.009025141
000120 07 81 50 3c 59 e5 6a 3d 5f 1b 29 bb 8d fd 2e bd
       0.012726075 0.05734763 -0.0025803668 -0.042722274
000130 97 1a 85 3d f9 70 55 bd 98 6b 66 3d 2d 74 ff bc
       0.06499212 -0.052109692 0.056254953 -0.031183327
000140 78 87 cb 3c ae 4b 08 3c f7 40 07 bb 88 81 23 bd
       0.02484487 0.008318825 -0.0020638087 -0.039918453
000150 74 7e 39 bd 4a cc e6 3c 98 8a be 3c 67 10 97 3d
       -0.04528661 0.028173584 0.023259446 0.073761754
000160 c3 c0 21 3d ae 2d 42 bd 40 45 21 bd 62 21 cb 3b
       0.039490473 -0.047406845 -0.039372683 0.006199048
000170 6b 16 b4 3b ea 7e e9 3c b1 b2 17 bd b1 63 d8 bc
       0.0054958365 0.0285029 -0.037035648 -0.026414724
000180 49 c3 35 3d 4b b0 85 bc 87 12 31 bd 23 6f b8 bc
       0.04437569 -0.016319415 -0.04323056 -0.022513932
000190 c7 95 74 3d 9a 42 01 3d 43 c7 1a 3d 07 cb 92 bd
       0.05971315 0.031557657 0.037787687 -0.07167631
0001a0 3b 02 ee bb a0 41 e7 bc ec 57 46 3c b9 f0 78 3d
       -0.0072634495 -0.028229535 0.012105923 0.060776446
0001b0 f0 31 20 bc 0a d7 1b bd 84 be 31 3d 2e 40 02 3d
       -0.009777531 -0.038046874 0.04339458 0.031799488
0001c0 d5 5c cb 3c af 51 46 3d 8a 3a 2a bd d8 3a 03 3c
       0.02482454 0.048417743 -0.041559733 0.008009635
0001d0 18 cc 17 3d 73 af 2f 3d 80 15 84 3b 35 e2 48 3d
       0.037059873 0.04289193 0.0040308833 0.049043853
0001e0 46 ca 3a bc 08 44 c9 3b 9b 4a 21 bd 67 b6 ff bc
       -0.011400765 0.006142143 -0.03937779 -0.031214906
0001f0 52 46 d4 3c 79 7a 1e bd 16 36 ff bc 5a d9 30 bd
       0.025912438 -0.038691018 -0.03115372 -0.043176033
000200 ec 91 a9 bb 2f 49 0c 3d fc 3f 89 bd e5 ab e5 bc
       -0.005174866 0.03424948 -0.06701657 -0.028036067
000210 a8 f8 76 bb 8d 92 fb bc a2 d5 2b 3d 24 d0 fa bc
       -0.0037684832 -0.03070953 0.041951783 -0.030616827
000220 e3 ce 72 3d 42 68 17 bc da a5 53 bd c6 f6 42 bd
       0.059279334 -0.009241166 -0.05167184 -0.047598623
000230 57 46 16 3d 62 82 83 3c 70 98 80 3d f6 b8 ea 3b
       0.036688175 0.016053382 0.06279075 0.0071631623
000240 25 bf 77 3d e5 a0 b3 3c eb a7 b6 3c 29 a8 ac 3c
       0.060485024 0.021927306 0.022296866 0.021076279
000250 cc b7 03 bd 15 d5 15 3d 7d 85 3b 3b 71 06 4b 3c
       -0.032157704 0.036580164 0.00286135 0.0123916725
000260 c8 32 5b bd 2a 28 bb 3c 41 9a 08 bd e0 69 4d 3d
       -0.053515226 0.0228463 -0.033350233 0.0501498
000270 bc f8 58 3d 27 85 4b 3d 56 f7 08 bd b5 c6 67 bd
       0.052971587 0.04968753 -0.033439003 -0.056585986
000280 22 b7 6b bc 89 73 22 3d 9b e7 8c 3d 49 ae 8a bc
       -0.014386924 0.039660964 0.06880113 -0.016928809
000290 6d 4e 14 3d 9c 34 ba 3c 77 c0 0a bd e2 a9 14 bd
       0.036207605 0.022730164 -0.033874955 -0.036294825
0002a0 ff c4 61 bd da b2 8f ba 77 c4 16 3d 36 47 38 3c
       -0.05511951 -0.0010963336 0.036808457 0.011247447
0002b0 e8 e3 84 bb c3 c0 68 bd 06 21 37 bd b6 d7 15 bc
       -0.004055489 -0.056824457 -0.044709228 -0.009145668
0002c0 85 c4 47 bd cf a1 2e 3d c6 c4 42 3b 7d 95 c4 bc
       -0.0487714 0.04263478 0.0029719337 -0.023997063
0002d0 3c 2e ae 3c e6 d1 6b bc 2a da 92 bd 76 f8 60 3d
       0.02126228 -0.014393305 -0.07170518 0.05492445
0002e0 21 e3 2c bc ec a6 93 bc 66 eb 5f 3d e9 e8 1c 3d
       -0.010552199 -0.01802393 0.054667853 0.038308058
0002f0 fe 1a d8 3c 4e 26 80 3d 18 bd 20 3d 9a 8e 27 bd
       0.026380058 0.06257306 0.039242834 -0.04090748
000300 88 fa 84 3d f3 fc 88 3d ce bd 5f 3d 94 e1 c4 3c
       0.064930975 0.06688871 0.05462437 0.024033345
000310 9e 7d 7c 3c cf 09 cf bc d5 df 06 3d c4 8e db 3b
       0.015410809 -0.025273232 0.032928307 0.0067003686
000320 4b 8c 93 bc ee 8f f4 3b 68 b6 64 3d 0a 66 e7 bb
       -0.018011233 0.007463447 0.05583802 -0.0070617246
000330 e4 56 37 3d ea f0 7d 3b 1f cd 47 bd 45 c5 f2 bc
       0.0447606 0.0038748332 -0.048779603 -0.029635081
000340 66 2c 28 3b 95 9d 86 3d 2d 7b 8b 3c ae bd ac bc
       0.002566123 0.06573025 0.017026508 -0.02108654
000350 a7 88 7b bc 1b bd c9 bc 3e 76 7b 3d 88 22 eb bb
       -0.015352405 -0.024626305 0.06139206 -0.0071757473
000360 d2 20 ff bc 79 02 03 3d 06 9c 74 3d 5b 90 71 3c
       -0.03114358 0.03198478 0.059719108 0.01474389
000370 a9 99 fd bc 7d e2 8d 3d f7 9e 44 3d c4 a4 d0 bc
       -0.03095706 0.06927965 0.048003163 -0.025469191
000380 e4 00 8d 3d e0 1f 8c bc 07 c3 47 bc fe fc ab bc
       0.068849355 -0.017105043 -0.012192494 -0.02099466
000390 f7 6f 4a 3d 5f 0a e6 bc c2 e7 95 bd 54 5c 82 bc
       0.049423184 -0.028081117 -0.07319595 -0.015913166
0003a0 88 51 03 3d d3 af 96 bd 3a 10 a3 3d d1 4b 74 bc
       0.032060176 -0.073577546 0.07962079 -0.014910654
0003b0 0b a8 1f 3d 22 5b 7e 3c 8d 38 f6 3b aa 71 6f bc
       0.038978618 0.015524657 0.0075140656 -0.014614502
0003c0 08 33 3e bd a1 1a b3 bc 37 42 8b bd dd 47 6d 3d
       -0.046435386 -0.021863284 -0.06799739 0.057929862
0003d0 fb e0 99 3d 40 c3 66 bc 4f c9 35 bc 02 b5 4f 3d
       0.07513615 -0.014084637 -0.011095359 0.050709732
0003e0 04 b5 d6 bc 19 4e 93 3d 57 04 23 bd be b4 05 bd
       -0.026209362 0.0719263 -0.03979906 -0.032643072
0003f0 5f a3 6e 3c c4 26 5f 3d 47 b7 65 3d 71 d6 3a bd
       0.014565318 0.05448033 0.05608299 -0.045614664

user_tower.fc.3.bias f4 [128]
000000 1f b3 1b bd af b7 05 bd 52 c9 ea 3c 1e 1c 86 bc
       -0.03801262 -0.032645877 0.02866045 -0.01637083
000010 7a 8b 7d 3c e6 ee 1f 3d 7d ce 3f bd cf 0b 06 bd
       0.015475148 0.03904619 -0.046827782 -0.032726105
000020 9b 19 1e bd 5b 9a 6b 3d 7a da 48 bd 5f ed cb 3c
       -0.038598638 0.05752025 -0.04903648 0.02489346
000030 4c a8 4f 3d c7 f6 83 3d 2d 73 80 bd f1 b0 1d 3c
       0.05069761 0.064435534 -0.06271968 0.009624706
000040 c8 57 61 bd d7 8b ae 3c 44 e1 c4 3c 7b e1 cd bc
       -0.055015355 0.021306915 0.024033196 -0.025131932
000050 4a 95 19 3c fa 92 cf 3c 19 bb 6a 3d 3c 77 87 3a
       0.009373972 0.025338639 0.057307336 0.0010335217
000060 e3 d0 57 bd a8 df 87 3b de b4 ee 3c 87 19 1f 3c
       -0.052689444 0.004146535 0.029138979 0.009710676
000070 c4 d1 23 bd 54 2b 35 3d de be d3 3c 47 0d c6 3c
       -0.03999497 0.044230774 0.025847849 0.024176253
000080 c6 6e 62 3c fd c3 e8 3c d7 03 5e bd 93 6f 64 bc
       0.013820356 0.028413767 -0.05420288 -0.013942617
000090 71 29 43 bd 42 d8 4e 3c 3d 3e c4 bb 90 3e 2f bd
       -0.047646943 0.012624802 -0.0059888647 -0.042784274
0000a0 06 0a 0f bc 14 2e ba 3c 5c 8f 6f 3d 5b b1 08 3c
       -0.008730417 0.02272705 0.058486328 0.008343066
0000b0 ec 47 18 3c c5 78 18 3d 33 9d 0c bc 2a 9a 60 3d
       0.009294491 0.03722455 -0.008582401 0.054834522
0000c0 e7 da 11 bd 1f 02 12 3c d1 68 49 3d eb 25 e0 bc
       -0.035609152 0.0089116385 0.049172226 -0.02736183
0000d0 fe 1c 97 bc e7 9c bb 3b 90 b9 2b 3b e1 b9 15 3d
       -0.018446442 0.0057254913 0.0026203133 0.03655422
0000e0 4b fa e7 bc b9 bb 5d 3c f5 2d 4c 3d a0 50 81 3c
       -0.028317591 0.013533526 0.049848516 0.015785515
0000f0 21 40 78 bd 07 9a 13 3d 31 57 70 bc 64 80 94 3c
       -0.060608033 0.036035564 -0.014669226 0.018127628
000100 dc c7 b0 bc 83 4c 78 bd 08 cf 8a 3d 70 d6 7a 3d
       -0.021579675 -0.060619842 0.06777769 0.06123966
000110 aa 81 20 3d 3e db fd bc 38 f0 17 bb 30 27 41 3d
       0.039186157 -0.030988332 -0.0023183953 0.047156513
000120 cb 8c ba 3c 7b 70 b7 3b 69 b2 24 3d 36 c8 30 bd
       0.022772213 0.0055981255 0.040209208 -0.043159686
000130 d3 68 0e 3d d0 a0 b2 3b 86 5c 99 3d d0 51 2a bd
       0.034767937 0.0054512993 0.074883506 -0.04158193
000140 f4 b4 6b 3d 97 6e 22 3d b8 bc f1 bb 82 4c 92 3c
       0.057545617 0.039656248 -0.0073772334 0.017858747
000150 23 f0 41 bc 9b 87 5e 3d 01 c5 4e bd e5 6f 4c bd
       -0.011837038 0.054328542 -0.050480846 -0.0499114
000160 1f b0 87 bc d3 f2 16 3a 50 10 90 3b 2b 34 03 3d
       -0.016563473 0.00057582295 0.004396476 0.032032173
000170 51 3d 3e 3d 60 40 d7 3b 57 4b 46 3d c1 62 5e 3b
       0.046445195 0.0065689534 0.048411693 0.0033933374
000180 1c b2 e9 bc ad 02 bb bc 3c 00 bd 3c 07 91 e1 bb
       -0.028527312 -0.022828424 0.0230714 -0.0068837437
000190 c2 e4 5f bd be 7e 43 3d 7f ea 84 3c ef aa 70 3d
       -0.05466152 0.047728293 0.016225098 0.058756765
0001a0 58 6f c1 bc d9 aa 32 3d b5 a0 34 3c 0d ed 65 bd
       -0.023612663 0.043619964 0.011024644 -0.056134272
0001b0 a4 e3 23 bd 9a 63 ed 3c 2b 03 12 3c a9 f4 ed bc
       -0.040012017 0.028978158 0.008911888 -0.029047327
0001c0 c4 fb bd 3c 7f be 41 bd 19 16 3a bd ee fe 0b bd
       0.02319134 -0.04730081 -0.04543123 -0.034178667
0001d0 ae 9f 18 bd c9 e8 ad 3c e5 65 11 bd 60 07 1a 3d
       -0.037261657 0.021229165 -0.035497565 0.03760469
0001e0 b8 43 db bc 05 4b 7a 3d 36 95 20 3d 0a cf d3 3b
       -0.02676569 0.0611067 0.0392048 0.00646389
0001f0 58 59 1e bc 9c d0 1a 3c 2a 1a 18 bb 52 a2 0c bc
       -0.009664856 0.00944915 -0.0023208954 -0.008583622

user_tower.fc.6.weight f4 [64, 128]
000000 cd f7 5f bd ae 6c 3f 3c d8 33 14 bd a6 fa e7 bc
       -0.05467968 0.011683626 -0.036182255 -0.02831776
000010 b2 40 94 bd 5f e1 e5 3c 81 f8 9f bc cd b9 f2 bc
       -0.07238902 0.028061567 -0.019527676 -0.029629612
000020 e6 dd a7 bd 56 59 71 bd 0b 56 1b bd 32 c5 1e ba
       -0.08196621 -0.058923088 -0.037923854 -0.0006056606
000030 68 a3 44 3d 6e 5f 0b 3c 8a 2d 0c 3d 47 f2 28 bd
       0.0480074 0.008506639 0.034223117 -0.04124668
000040 57 bb 60 3d 59 f6 32 3d 2e cf 1d 3d 8f af 66 bd
       0.05486616 0.043691967 0.03852766 -0.05631977
000050 e7 01 89 3c 30 83 07 bc de 00 66 3c 7b bf b6 bb
       0.01672454 -0.008271024 0.014038293 -0.0055770255
000060 a9 8a 3c 3d a7 b6 90 bd 01 5c 1c 3d d7 72 2b 3d
       0.046030674 -0.07066088 0.03817368 0.041857567
000070 8d c3 ac 3d fa f7 84 3d 85 83 9a bd 6c bf 76 3d
       0.08435736 0.0649261 -0.075446166 0.060241148
000080 40 05 4a 3d 63 02 b1 3d 7a f7 c1 bc d3 4d 5a 3d
       0.049321413 0.08643033 -0.023677576 0.053296875
000090 69 1f a6 3d 92 2d 1f bd 81 b7 88 bd e6 e9 1a bb
       0.0811146 -0.03886182 -0.066756256 -0.002363795
0000a0 f3 55 e6 bc 07 63 49 bd a2 20 0d 3c 87 b8 31 3d
       -0.028117156 -0.049166705 0.008613737 0.04338887
0000b0 a5 6d 7c 3d cc 89 8d 3d 11 70 8c 3d b7 25 70 3d
       0.061628003 0.06911048 0.068573125 0.058629718
0000c0 72 2f 8e bd c0 d3 25 3d f9 a6 2b bd f2 c6 45 3c
       -0.06942643 0.040485144 -0.041907284 0.012071358
0000d0 eb cf 33 3d ec d5 10 bd f7 c3 67 bd 2e 9f 8d 3c
       0.043899458 -0.03536026 -0.05658337 0.017287817
0000e0 bd 5b 4d 3d dc 83 81 3d 15 e9 21 3d 40 b4 8f bd
       0.050136317 0.06323978 0.039528925 -0.07016802
0000f0 32 5a 9f 3c 44 21 ae 3d 3a 64 65 bc ce 02 a8 3d
       0.019452188 0.08502439 -0.014000947 0.0820366
000100 bc 2a 37 bd 19 d5 d4 bc 2b 9d 27 3c af af 60 3d
       -0.04471849 -0.02598052 0.010230343 0.054855045
000110 2d a5 36 3d ed c9 d5 3c 7c cd ac 3d 90 3e 96 bc
       0.044591118 0.026097262 0.084376305 -0.018340379
000120 4a ba 8e bd 72 2e a7 3d e4 34 84 bd 6a 92 81 3c
       -0.069691256 0.081631556 -0.064554006 0.015816886
000130 ba 63 75 3c 15 39 87 bd 09 7e 6c bd a4 ce b4 3c
       0.01497739 -0.066026844 -0.057737384 0.02207119
000140 fc 77 06 bd 0e d0 b9 bb 29 b7 7e 3d 40 36 85 3a
       -0.03282927 -0.005670554 0.062186394 0.0010163262
000150 42 64 68 bd 82 49 22 bd 11 5e 57 3d b4 a8 96 bc
       -0.05673624 -0.039620884 0.052579943 -0.01839099
000160 da 2c 79 3d b3 46 1e 3d 26 39 1e bc 30 12 7f bd
       0.06083379 0.038641643 -0.00965718 -0.062273204
000170 74 53 00 bd c5 79 7a bc bf 99 07 3d fa 52 9d 3d
       -0.031329587 -0.015287821 0.033105608 0.07681842
000180 a4 a3 43 bc 9e 9f 50 bd e2 ec 73 bc 49 b7 b5 bc
       -0.01194087 -0.050933473 -0.01488802 -0.022182124
000190 64 7e 9a 3c 8e e9 72 3d d1 23 bc bd b8 1d ff 3c
       0.018859096 0.059304766 -0.09186519 0.0311421
0001a0 b7 37 07 bd 04 71 5f bc da 33 b0 3d 76 15 28 3c
       -0.03301212 -0.013637785 0.0860364 0.010259023
0001b0 97 43 9c 3d e2 ee 19 3c d5 89 07 3d b6 14 51 bd
       0.07630079 0.009395333 0.03309043 -0.051045142
0001c0 ec d4 a8 bd ab 5c a1 bd 4d d1 1b bd dc 98 9b bc
       -0.082437366 -0.07879003 -0.0380414 -0.018993787
0001d0 bc d7 6e bb 74 e9 7f 3d 53 8e b5 bd 25 58 3f bd
       -0.0036444506 0.062478498 -0.08865037 -0.04671492
0001e0 5e b9 d2 3b e6 05 99 3c e6 56 84 bd f1 72 57 bd
       0.006430789 0.01867957 -0.06461887 -0.05259985
0001f0 25 f7 16 bd 83 54 41 3d ab 9d 9a bd f0 a1 e8 bc
       -0.03685679 0.047199737 -0.07549604 -0.02839753
000200 52 31 80 3d 5f 23 13 bb 32 a0 59 3d e9 36 8d bd
       0.06259407 -0.0022451503 0.05313129 -0.06895239
000210 7f 25 06 bd 83 7c 9d 3c d7 1b 17 3c 03 17 be 3d
       -0.032750603 0.01922441 0.009222946 0.09281733
000220 df 32 40 bd b9 96 b7 3b 1f 42 9c 3d bc 6f 9f bd
       -0.046923514 0.0056026843 0.07629799 -0.077849835
000230 ce b4 86 bd d1 8c 85 bd f1 55 2f bc 62 1e 71 bd
       -0.065774545 -0.06520999 -0.010701642 -0.058866866
000240 94 79 7e 3d 8c ef 2d bd 51 c2 3d 3d 39 ad 85 bd
       0.062127665 -0.042464778 0.046327893 -0.0652718
000250 52 17 8c 3c c5 d3 cc 3c 32 f9 45 bd 6b 07 8f bd
       0.017100964 0.025003323 -0.048333354 -0.06983837
000260 4a 04 d0 bb 28 b6 a8 3d ae 04 c3 3c 97 a1 85 3d
       -0.0063481675 0.082378685 0.023805942 0.065249614
000270 83 50 9c 3d 67 50 6c bd 3a a8 47 bc 3a 48 9a 3c
       0.07632544 -0.057693865 -0.012186104 0.018833268
000280 70 40 04 3c f8 70 56 bc 7b 93 0a 3d 18 01 17 3d
       0.008072004 -0.013088457 0.033832055 0.036866277
000290 04 23 ee bc 40 5d 17 3d 2a a4 42 bd cd fc 87 bd
       -0.029069431 0.036954165 -0.04751984 -0.06640015
0002a0 2a 90 30 3d 0a f2 71 3a 6c 5f 95 3d 38 37 ea 3c
       0.043106236 0.0009229487 0.07293591 0.028590783
0002b0 be fd 0e bd 32 2a ee bc 63 d3 ab bd 53 9a e4 3c
       -0.034909956 -0.029072855 -0.08389928 0.027905619
0002c0 76 e8 34 bd 4b ec 82 bc d3 73 91 bd 13 77 b8 bc
       -0.044167005 -0.015981814 -0.0710217 -0.022517717
0002d0 69 81 14 bd 66 82 88 bd 37 b7 1f bd 4f de 1b 3d
       -0.036256228 -0.066654965 -0.038993087 0.038053807
0002e0 1f 90 c2 3c e5 20 ac bc 90 63 88 3c 9a cb 89 3c
       0.023750363 -0.02101178 0.016649038 0.016820718
0002f0 a5 da 8b 3c 57 88 f4 bc 0a 28 dd 3c e9 21 ac 3d
       0.017072031 -0.029850168 0.026996631 0.08404905
000300 e5 9a 54 bd 35 0f 44 bd 0e 8d cd 3c b1 8e c4 3d
       -0.05190553 -0.047866065 0.025091674 0.09597529
000310 79 52 96 3d c7 50 13 3b 83 74 5c bd 16 46 f9 bc
       0.07339949 0.0022478567 -0.05382205 -0.030428927
000320 49 84 05 3d db 0a 97 bd 18 0d 3f 3d a2 37 9f 3c
       0.03259686 -0.073751174 0.046643347 0.019435707
000330 e6 a3 be 3d 2d fd 15 3d 30 4b a7 3d 2e f5 50 bd
       0.09308605 0.0366184 0.08168638 -0.05101507
000340 91 7a 27 bd c5 5e 40 3d 13 32 e8 bc 19 f5 de bc
       -0.040888373 0.04696538 -0.02834419 -0.027216481
000350 1d 77 9d 3d 8b 74 aa 3c 1f e4 e0 bc 25 88 48 3d
       0.07688735 0.020807525 -0.027452527 0.048957963
000360 b0 26 25 bd 8c 10 b8 3a 08 81 12 3c ca e8 9e bd
       -0.0403201 0.0014043017 0.008941896 -0.07759245
000370 3a df 87 bc 05 09 54 bd 6e 64 ed bc e4 e5 10 3d
       -0.016585935 -0.051766414 -0.028978553 0.03537549
000380 0f 7e 38 bd 32 3d 87 3c 67 ec 65 3d de 27 e9 3c
       -0.045042094 0.016508672 0.056133654 0.028461393
000390 91 e5 03 ba 62 13 09 bd b2 d7 a2 bd a0 1c 8e 3d
       -0.00050314615 -0.03346575 -0.07951297 0.069390535
0003a0 af 2c 11 3d e6 37 93 bd 06 cf 5c bd 1e 2f 25 3d
       0.035443004 -0.07188396 -0.05390837 0.040328138
0003b0 2a 4d 5e bc 15 7d 92 bd 23 ee 62 bd db 77 1f bd
       -0.013568202 -0.07152764 -0.055402886 -0.038932662
0003c0 fd 40 24 bd 61 75 04 bd 79 83 56 3d 09 b3 19 3c
       -0.04010104 -0.032338504 0.052371476 0.009381064
0003d0 d0 86 35 3d f4 bb 82 bd a3 38 04 3d 96 b3 ca 3c
       0.04431802 -0.063835055 0.032280575 0.024743836
0003e0 29 3c 65 3c 1a 31 c1 3d c3 bd a8 3d bc 9b 11 bd
       0.013991394 0.094331935 0.08239319 -0.03554891
0003f0 f9 0a ca bb e1 2a 8f 3d fe 23 f0 3b 54 df 69 3d
       -0.006165859 0.069906004 0.0073285094 0.057097748

user_tower.fc.6.bias f4 [64]
000000 90 36 3c bc 25 0e 52 bd dc c3 52 bd 96 0f 86 3c
       -0.011487618 -0.05128302 -0.051456317 0.016364854
000010 fe bb 93 bc 5f 7f 91 3d 8e 7e 5c 3b b1 cd 74 bc
       -0.018033978 0.07104372 0.0033644768 -0.014941619
000020 2c b9 4a 3d 35 c8 ae 3d e2 a1 86 bc 14 46 28 bd
       0.049493 0.0853428 -0.016434614 -0.041082457
000030 a5 f9 3d bd 2b fa a1 bd ac 58 4e 3d 9e e9 8a 3d
       -0.046380658 -0.07909044 0.050377533 0.0678284
000040 0a f7 b2 bd 4a b7 ab 3c ea ec 94 3d e4 c6 28 bd
       -0.08738525 0.020961422 0.0727175 -0.041205302
000050 34 50 b8 3d c6 37 b5 3d f8 49 c4 3c a0 8b 80 3c
       0.089996725 0.088485286 0.023961052 0.015691578
000060 ba fb b1 bd e0 dd 3c bd 8f a1 71 3d 8f 2a 2f 3d
       -0.08690591 -0.046110034 0.058991965 0.042765196
000070 2b 8b 88 bd cb a2 6a 3d 4b ed c1 3c b4 5d e7 3c
       -0.06667169 0.057284158 0.02367272 0.028242923
000080 8e f4 49 3c 64 1c 20 bd f9 7c 41 bc a4 a8 ee bc
       0.012326373 -0.039089575 -0.011809581 -0.029133148
000090 0d 91 43 bd 1f aa 49 bd d5 1e 0e bd d1 93 85 bd
       -0.047745753 -0.049234506 -0.034697372 -0.06522334
0000a0 30 7c a4 3d 61 af 1e bd 98 e5 8b bb 92 63 2f bd
       0.080314994 -0.038741473 -0.004269313 -0.042819567
0000b0 8c ce 4b 3d 87 31 b1 3d 85 60 a3 3c f3 4b 89 bb
       0.049757525 0.08652025 0.019943485 -0.004189962
0000c0 e8 40 bf bd 6b 8f a6 bd 83 70 b0 3d af 5e a3 3c
       -0.09338552 -0.081328236 0.0861521 0.01994261
0000d0 cc d4 07 bd 37 88 ac 3d 55 b4 a9 bc 00 86 1e 3d
       -0.033161923 0.084244184 -0.020715872 0.03870201
0000e0 01 8e 95 bc 32 52 3f bd ae 55 9b bd f4 84 6b 3d
       -0.01825619 -0.046709247 -0.075847015 0.05749984
0000f0 13 14 38 3d e8 1b c8 bb 5f cc 08 3d 43 a5 07 bd
       0.04494102 -0.0061068423 0.03339803 -0.03311659

item_tower.fc.0.weight f4 [256, 12]
000000 91 3c 7d 3e fb 4a cf bd a4 11 20 3e eb 05 b8 bd
       0.24730136 -0.10121723 0.1563173 -0.08985504
000010 15 e4 1b 3e 94 5c 67 be a3 4a 4b be 51 95 6b 3e
       0.15223725 -0.2259391 -0.1985269 0.23006178
000020 5d fb 84 bd 39 dd d9 3d 7a 94 8e 3d 88 45 94 bd
       -0.06493256 0.10637898 0.069619134 -0.072398245
000030 1e 98 32 be 8d 19 04 3d b8 b6 77 be 6f 98 66 3e
       -0.1744084 0.03225093 -0.24190795 0.22519086
000040 60 1b 4f 3c 3a 84 25 be 1c e3 32 bb 53 4d 21 be
       0.012640804 -0.16163722 -0.0027296012 -0.15752153
000050 f3 6d 83 3d ea 97 1f be 4c 75 82 bd 01 9d fb bd
       0.064174555 -0.15585294 -0.06370029 -0.122858055
000060 6a 6d 26 bd 2c 9a d5 bc 45 ae 3f be 50 c7 2a 3e
       -0.04063169 -0.026074491 -0.18718822 0.16677594
000070 14 58 5e be ab b4 74 3e 0b 60 81 bd 19 d4 83 be
       -0.21713287 0.23897044 -0.06317147 -0.25747755
000080 c4 e2 7d bd bf e7 11 be 9e 09 38 3e 47 89 93 bd
       -0.06198384 -0.1424856 0.17972419 -0.07203918
000090 a6 37 77 be 2a 5c 98 3d ea ee 50 3d 65 bd 08 3e
       -0.24142322 0.07439454 0.051009096 0.13353498
0000a0 0b 36 4c bd 41 9c ba bd 27 19 e1 bd ac 4e eb 3d
       -0.049856227 -0.09111834 -0.109911256 0.11489615
0000b0 4e b1 4d bd ce 65 9c bd 92 9d a1 3d 70 8f 81 be
       -0.05021792 -0.07636605 0.07891382 -0.25304747
0000c0 23 1e 4a 39 a6 66 89 be 57 d3 30 3e 4d 0a 4e 3e
       0.00019275448 -0.26836127 0.1726812 0.20121117
0000d0 14 41 64 bd 5a 28 e7 3d 36 93 bd bd 3d 7d 8d 3e
       -0.055726126 0.11286993 -0.09256594 0.27634612
0000e0 87 40 82 be 20 1b 67 be 84 c2 e6 3d 4c 6d 41 be
       -0.25439855 -0.22568941 0.1126757 -0.1888935
0000f0 da 05 00 3e 7d e7 70 3c 4d 46 04 bc c4 2a 01 bc
       0.12502232 0.014703629 -0.008073402 -0.007883731
000100 e9 4d 7a be d9 56 8e be 47 25 d0 bd 56 f8 81 be
       -0.24443783 -0.27800635 -0.1016336 -0.25384778
000110 bf 27 88 be 02 03 30 be b6 07 66 be 42 61 99 bc
       -0.26592824 -0.17188647 -0.22463879 -0.018723134
000120 0c c4 c7 3a 71 f3 34 3e 5a e5 0e 3e 24 83 84 bd
       0.0015240922 0.1767099 0.13954678 -0.064703256
000130 e7 78 e3 bd 44 f6 6d 3e 34 1b e6 bd d4 7a 53 3d
       -0.11107045 0.23238474 -0.11235657 0.05163081
000140 d1 7f d2 3d 28 ef c7 3d f0 d1 60 3d 8d 9f 50 3e
       0.10278285 0.09762412 0.054887712 0.20373364
000150 a6 62 b4 3a 87 6c 1f bd a9 d8 05 3d a2 bc 91 3d
       0.001376231 -0.03892186 0.032677326 0.07116057
000160 1c 2b 2d be a9 e1 41 bd 0a 24 98 3e d2 1c 45 3d
       -0.16910976 -0.047334347 0.29714996 0.04812319
000170 cc 2e 68 be a0 5f 33 3e f1 88 7e bd 83 46 79 be
       -0.22674102 0.17516947 -0.062142316 -0.24343304
000180 90 c5 02 bd 5a e1 c3 bd bf 30 e6 3d 81 34 42 3e
       -0.03192669 -0.09564467 0.11239766 0.18965341
000190 a3 08 d1 bd e0 64 e7 bd cc 3c b5 bd 89 65 86 3e
       -0.102067254 -0.11298537 -0.08849487 0.2624934
0001a0 c5 ba f2 3b bd 74 67 3e 6b 73 ec bc aa 6d bc bd
       0.0074075186 0.22603126 -0.02886363 -0.09200604
0001b0 63 9a e8 3d 19 5a 5f 3e e0 56 2c be 68 d8 a0 3d
       0.11357572 0.21811713 -0.16830015 0.07853776
0001c0 62 b8 8a be 48 96 80 3e db df 5d 3e 7a ac 87 be
       -0.27093798 0.25114655 0.21667425 -0.26498777
0001d0 ea 54 92 bc 54 c2 3d be f1 5a 49 be 5c bc 50 3e
       -0.017862756 -0.18531162 -0.19663598 0.20384353
0001e0 ba 4c 11 be 9f dd 80 3e 2b ac 95 3e cb f1 5e be
       -0.14189425 0.25169083 0.29232916 -0.21771924
0001f0 95 88 7b be 31 b4 99 3e 3e 51 59 bd 5d f5 34 be
       -0.2456382 0.30020288 -0.053055994 -0.17671724
000200 53 7b 99 3e 0b 9c 66 be c3 0f fc bc 9c 13 44 be
       0.299769 -0.22520463 -0.030769235 -0.19148105
000210 d3 51 61 be dc f4 50 be 52 3a 42 be f8 f7 02 3e
       -0.2200387 -0.20405906 -0.1896756 0.12789905
000220 c7 16 08 3e f5 38 e0 bd a2 70 39 3e 28 91 25 3e
       0.13289939 -0.10948364 0.18109372 0.16168654
000230 9a 80 d1 3d 46 eb 0d bd 56 24 c5 3c 34 fe 80 3e
       0.10229607 -0.034648202 0.024065178 0.25193942
000240 0a 60 e8 bd a1 59 71 bd a6 ac 5f 3e 85 5b 1f be
       -0.11346443 -0.058923367 0.21843204 -0.15562256
000250 c8 8f 9d 3d 07 f3 42 be cb 61 cc bd 64 b7 14 be
       0.0769344 -0.1903802 -0.0997959 -0.14523083
000260 c9 d6 38 be b5 b5 91 3e 01 1b 24 be 48 0a 04 be
       -0.18050684 0.28458944 -0.16025926 -0.12894547
000270 b4 37 d8 b9 13 e2 1d 3e f3 62 38 3e 71 9b 8d be
       -0.00041240233 0.15418272 0.18006496 -0.27657655
000280 f5 d8 5a 3d 64 af 25 3e 9f be 90 be c9 e1 06 be
       0.053429563 0.16180187 -0.28270432 -0.13172068
000290 c6 2a 82 be a6 84 43 3e d5 43 c1 bd e3 c1 f7 bc
       -0.2542326 0.1909357 -0.09436766 -0.03024382
0002a0 02 a8 41 3e 20 c3 74 bd 65 cf 85 be fb f4 6d be
       0.18911746 -0.0597564 -0.26134792 -0.23237984
0002b0 14 76 5e bd d4 a6 04 3e 08 0d 7e 3e f3 f3 03 be
       -0.054311827 0.12954265 0.24809659 -0.12886028
0002c0 1d 19 ee 3d 97 f5 78 be 82 de 5c be 27 de 25 3d
       0.11625884 -0.24312435 -0.21569255 0.040495064
0002d0 af e7 d9 3a 9f 97 4d 3e ed 15 6d 3e e4 ee 67 be
       0.0016624833 0.2007737 0.23152895 -0.22649723
0002e0 d0 07 a7 3d 56 e5 79 3d e2 f7 e2 bb f9 3b 81 be
       0.08155787 0.061009727 -0.0069265226 -0.25241068
0002f0 b3 28 46 be b2 e7 d0 3b b0 de 28 3e 78 76 55 3e
       -0.19351463 0.0063752765 0.16491199 0.20845973
000300 d1 63 45 3d d6 4a 7d 3e 53 86 04 be 44 e9 85 bd
       0.048190895 0.24735579 -0.12941866 -0.065386325
000310 4f 78 b4 3d 00 b1 08 be 4b 13 4f 3e bc 39 d9 bd
       0.088120095 -0.1334877 0.20222203 -0.10606715
000320 f4 4b 6b be 37 51 62 3e 48 fb 46 3e b3 8b 78 3e
       -0.22978193 0.22101294 0.19431794 0.24272041
000330 f1 88 f4 bb 0a 12 18 be 09 5d 69 be d2 41 97 be
       -0.0074626138 -0.14850631 -0.22789396 -0.29542404
000340 16 25 94 3e cd a2 2e be 89 7f dc bd a5 6c d0 bd
       0.28934544 -0.17054291 -0.10766513 -0.10176972
000350 8b 3b f6 bd d9 ab 53 3e d1 19 85 3d c9 e9 59 3e
       -0.12023076 0.20671023 0.06499065 0.21280588
000360 06 f3 6f be ba 0b 10 3e 46 14 f6 3d 01 08 81 be
       -0.2343255 0.14066973 0.120155856 -0.2520142
000370 dd 47 9a 3e 24 69 8f 3d b0 aa 3c 3e f7 90 0f 3e
       0.30132952 0.07002476 0.18424487 0.14020143
000380 7d 17 61 3e ba df f0 3d e0 95 dc 3d 58 2f 70 be
       0.21981616 0.117614225 0.10770774 -0.2345556
000390 66 bd 0a 3d a0 30 3f be 8f 59 8c be 6f 24 7d bd
       0.03387203 -0.18670893 -0.27412078 -0.061802324
0003a0 2a f3 3b be d0 0c d4 3d a7 eb 71 be c1 e6 5c 3e
       -0.18354478 0.10354006 -0.2362505 0.215724
0003b0 d1 ea 4b 3e 95 71 88 3e 65 a0 a7 3d 5c 7f 23 3e
       0.19913794 0.26649156 0.0818489 0.15966552
0003c0 30 b6 01 be ae a7 41 3e 15 a5 c9 3d 1a ce c8 3d
       -0.12667155 0.18911621 0.0984594 0.09804936
0003d0 51 cd 59 be f8 bf 0c 3e d4 81 49 3e 21 d7 4d 3e
       -0.21269728 0.13745105 0.19678432 0.20101596
0003e0 9f 34 84 3e 33 3b d7 3d c4 48 2c 3d 45 f5 20 bc
       0.25821397 0.10509338 0.042061582 -0.009824102
0003f0 7b e0 c8 bd 6a 8b 1d 3e 66 27 89 3e 56 76 9e 3d
       -0.09808441 0.15385213 0.2678787 0.077374145

item_tower.fc.0.bias f4 [256]
000000 82 5d 11 be 06 75 65 3e 31 b4 81 be 53 73 a9 bd
       -0.14195827 0.22407922 -0.25332788 -0.082739495
000010 32 bf 6f 3d fb 42 03 3d b5 6f 0a bd 2f a2 b1 3d
       0.058531947 0.0320463 -0.03379794 0.08673512
000020 5c 4a 01 be 8e 38 6c 3e 34 43 3e be f0 67 eb bd
       -0.12626022 0.23068449 -0.18580323 -0.11494434
000030 f3 64 ab bd 1f d0 20 bd 91 02 b5 3d e1 58 7c be
       -0.08368864 -0.03926098 0.0883838 -0.2464328
000040 c1 b3 1a be 39 3d 1c be 36 61 8a be e8 69 f0 3d
       -0.15107633 -0.1525773 -0.2702729 0.1173895
000050 b5 ac 8c be 02 06 1e 3e e2 f8 b8 bd a9 e5 a0 3d
       -0.27475515 0.1543198 -0.09031846 0.07856304
000060 a1 c3 43 be 40 9d ff 3b ae e8 97 3d 5c f2 f2 bd
       -0.19117595 0.007800728 0.07417427 -0.11862633
000070 98 a2 72 be 44 cc 98 3c 60 d0 80 3e 1f d1 5c 3e
       -0.23694837 0.018652089 0.25158978 0.21564148
000080 77 3d ba bd cd ca e2 3d cc 0a 87 3e d1 07 60 bd
       -0.09093755 0.110738374 0.26375425 -0.054694954
000090 6b 16 1b be 80 19 8c 3e 71 df 43 bd f9 4c c8 3d
       -0.1514527 0.27363205 -0.047820512 0.09780306
0000a0 ee 2e 33 3d b9 65 ff bd 5a a5 9e 3d 20 6a 5a 3e
       0.043745928 -0.12470574 0.07746382 0.21329546
0000b0 f2 0b 00 3e 2c 0c 44 be 98 48 36 be 50 be 21 be
       0.12504557 -0.19145268 -0.1780113 -0.15795255
0000c0 f5 5d 40 be 06 1f 0a 3e b2 70 6d 3e 42 9b 38 3d
       -0.18785842 0.13488397 0.23187521 0.04506994
0000d0 82 dc 2e be b4 89 66 bd 68 cb 7d 3e 5c 79 ab bd
       -0.17076305 -0.056283668 0.24784625 -0.08372757
0000e0 ce a3 db 3d e7 18 8e 3e 34 15 2d be 84 4b 89 be
       0.10724603 0.27753374 -0.1690262 -0.26815426
0000f0 e3 0a 46 be 4e 20 7e bd 50 ae 19 be 46 a7 84 3e
       -0.1934009 -0.062042527 -0.15007901 0.2590887
000100 a3 b0 8a be 98 9f 69 3d 11 a1 43 3e 59 47 82 3e
       -0.27087888 0.057036966 0.1910441 0.2544506
000110 56 fc 11 3e d6 04 c7 3d 83 ef 0a bc 68 9b 7b bd
       0.14256415 0.09717719 -0.008479956 -0.061427504
000120 cb 4e ed bd 3e 0c 13 3d 25 24 be 3d b0 c8 41 bd
       -0.11587294 0.035900347 0.09284238 -0.04731053
000130 3f 85 a5 bd 48 17 78 be c0 d4 ce bd 7d 84 59 be
       -0.08082055 -0.24227631 -0.100991726 -0.21241947
000140 cd 1b 63 3e 0f df 88 be 1f 24 2e 3e 99 bc 5d 3d
       0.22178574 -0.2673268 0.17005967 0.05413494
000150 0d dd f5 bb 56 86 35 be f7 28 17 be 4d b7 2d be
       -0.007503158 -0.17727026 -0.1476172 -0.16964455
000160 c7 53 1b 3e 8d 7d 87 be 3c e5 8a be ae a1 48 be
       0.15168677 -0.26462975 -0.27128017 -0.19592926
000170 70 b7 6e be 03 01 3c 3e 96 c3 3c be 35 ed fc 3d
       -0.23312163 0.18359761 -0.18433985 0.12349931
000180 f5 e9 55 be e3 a1 f7 3c af b5 80 be fa 1e 85 bd
       -0.20890029 0.03022856 -0.25138614 -0.06500049
000190 0a 4b 48 3d 55 db 64 3e 1e 7a bd 3c 99 18 04 be
       0.048899688 0.22349294 0.02312952 -0.12900008
0001a0 a8 a2 8c bd fa 66 70 be 99 b9 52 be 1e 21 85 be
       -0.06866962 -0.23476782 -0.20578612 -0.2600183
0001b0 b0 41 8a 3e 33 8b 19 3e 42 bf 8b 3d 62 0b 84 be
       0.2700324 0.14994507 0.06823589 -0.25789934
0001c0 70 40 bc 3c 41 29 cc 3d 37 16 19 3d 41 bc 78 3e
       0.022979945 0.09968806 0.0373747 0.24290563
0001d0 1d 95 17 3e dd 4a a1 bd 80 86 28 be fb 35 36 3e
       0.14802976 -0.07875607 -0.16457558 0.1779403
0001e0 7c dd fd 3d 75 cc 3f 3d db dc 81 3e 2e 5e 7b 3e
       0.123957604 0.046825845 0.25363812 0.24547645
0001f0 41 d9 8d 3e 6d 28 55 be e0 e7 02 be d6 77 28 3e
       0.27704814 -0.20816202 -0.12783766 0.16451964
000200 95 f1 cf 3d c3 1c 9d bd bc 93 82 be 2b a3 27 bd
       0.101535 -0.076715015 -0.25503337 -0.040927093
000210 0a cc 40 3d 11 b5 a1 3c d6 e5 24 bd 09 48 88 3e
       0.047069587 0.01973966 -0.04025825 0.26617458
000220 e8 51 b6 3d 5b d8 99 3d 88 23 9a 3d 4e fd ef 3c
       0.08902341 0.0751197 0.07526308 0.02929559
000230 21 8a 46 3e c4 da 47 3e 73 b6 91 be 99 25 db bc
       0.1938863 0.19517046 -0.2845951 -0.026751326
000240 36 fc 70 3e 3d 90 ae 3d 9b 32 6e be 3e f1 d0 bd
       0.23533711 0.08523605 -0.23261492 -0.10202263
000250 c3 fe 2d 3e 15 ca 2c be 48 8d 82 be cf fc 73 3e
       0.16991715 -0.16873963 -0.25498414 0.23826908
000260 30 73 c0 3c 3d 53 57 3e e7 00 e3 bd 40 ea 8f bd
       0.023492426 0.21027847 -0.110841565 -0.070271015
000270 ae 31 89 3e 32 8d 50 bd 03 a1 04 be c7 ff 09 3e
       0.26795715 -0.050915904 -0.12952046 0.13476478
000280 85 69 c0 3d 48 d5 7f be a6 d6 ba 3d d6 65 82 be
       0.09395126 -0.24983704 0.09122972 -0.2546832
000290 ce bd 27 be 67 3d b6 3d 5a 03 8a bc 2c a6 7c be
       -0.16380998 0.0889843 -0.016847301 -0.24672765
0002a0 7d 65 8a be 0d a9 05 3e 72 9d 7e be aa f7 04 be
       -0.27030554 0.13052769 -0.24864748 -0.12985101
0002b0 67 29 1a 3e ca 40 7e 3e 27 9f 04 be 58 ae 81 be
       0.15054856 0.24829403 -0.12951337 -0.25328326
0002c0 a5 a7 8c bd de 0a d7 bc 54 06 4f be fe ed 5c be
       -0.06867913 -0.026250299 -0.20217258 -0.21575162
0002d0 3c 91 55 be 0f 66 6b 3e 6a d0 6a 3e 15 66 c2 3c
       -0.20856184 0.22988151 0.22931066 0.023730317
0002e0 2f 44 16 be 9c c1 46 3d 9f 43 27 bd b6 65 88 3d
       -0.14674447 0.048524484 -0.040835973 0.06660025
0002f0 5e e0 75 3e 37 98 e2 3b bb da 76 be b8 24 8d bd
       0.2401137 0.006915118 -0.24106877 -0.06891769
000300 d6 08 37 be 92 29 4b be b9 c7 89 3e 8c eb 3b 3e
       -0.17874464 -0.19840077 0.2691019 0.18351573
000310 75 64 22 3e d2 b6 6b 3e 30 14 35 3d 84 f9 40 3e
       0.15858634 0.23018959 0.044208705 0.18845183
000320 fc 7c f8 3d 26 3e c3 bc f2 c8 68 3e 5f e3 da bc
       0.12133214 -0.023833346 0.22732905 -0.026719747
000330 a0 0d 98 ba 04 e5 a4 bd d0 7d 63 3e c2 2d 60 be
       -0.001160074 -0.08051494 0.22215962 -0.21892455
000340 3b 19 ba 3d 78 01 ec 3b 69 fc 08 3e 99 0f 61 be
       0.090868436 0.0072023235 0.13377537 -0.21978606
000350 98 ff b6 3c b3 53 6b 3e 03 48 b6 3d 15 59 1a bd
       0.022338673 0.22981147 0.08900454 -0.03768261
000360 3c bf 84 3e 16 a9 64 be f4 52 0a bd 8c f3 ef bd
       0.2592715 -0.22330126 -0.033770517 -0.11716375
000370 b1 66 06 be c1 12 66 3e 15 d9 d5 3d 47 37 93 be
       -0.13125111 0.22468092 0.10441796 -0.2875311
000380 96 05 5b bd e3 63 17 3e 49 09 07 be 25 37 64 be
       -0.053472124 0.14784198 -0.13187136 -0.22286661
000390 fb 6f 46 3e 43 9a 74 3e af 84 f0 bb c4 c0 cb bb
       0.19378655 0.23886971 -0.007340036 -0.006218048
0003a0 0c cc 44 3e a5 e7 ca 3d 70 f3 90 3d 15 2d 85 be
       0.19218463 0.09907464 0.07077682 -0.26010957
0003b0 a0 54 c7 3d ce da 81 3e 57 8c 1a bd 96 a2 16 be
       0.09732938 0.25362247 -0.037731495 -0.14710459
0003c0 84 f7 54 3d a4 10 06 be bd 34 6a 3b bd 96 f3 3d
       0.05199386 -0.13092285 0.0035737 0.118939854
0003d0 c7 53 4f 3e aa 10 6c be 75 7a c5 bd 38 44 27 3d
       0.20246802 -0.23053232 -0.096424975 0.040836543
0003e0 28 61 ed 3c c8 8f 2f be 36 c7 86 be bf 1b 55 3e
       0.028976992 -0.17144692 -0.2632386 0.20811366
0003f0 8c ce 8f bd 2e 6a 39 be fa 26 80 be 52 d8 8e be
       -0.070218176 -0.1810691 -0.25029737 -0.27899414
