models/dumps/TwoTowerModel_v2.pth (torch, 359682 bytes, 12 tensors)

user_tower.fc.0.weight f4 [256, 11]
00000000: 326c b13d a250 0bbe 020f 7abe 2e3c f43d
00000010: 6fe4 803e dbc6 d13d 2542 dabd 8573 623e
00000020: 9069 62be c2f0 3ebe 180a 9a3d 2608 87be
00000030: aef4 68be c7eb 1a3e e691 a2bd 3e79 d9bd
00000040: 3c11 073e 057f 71bd 91b8 0a3e acce 133e
00000050: c07e 24be 4be3 653e 33fc fcbd 523b 3d3e
00000060: 6be6 533d 54ee 87bd 90d1 bd3d 7c94 d8bc
00000070: 3f28 1fbe 2cc0 e1bd 5976 30be f136 ce3d
00000080: e81c 8b3e 8521 62bd 0523 813e 911d 01bb
00000090: f6a5 5d3e fedf 4abe 600d 5fbd 02ed 04bd
000000a0: ae8e 24be f12d 26be 9038 bb3d 0c26 8fbe
000000b0: 1a53 c7ba 1d9a 81b9 1792 70be 05bf 64be
000000c0: 8182 b5bc f5f8 a8bd 3984 dabd cf4a 13bb
000000d0: 6f1a 1f3d cc1d d1bd bd88 9c3d 35db 23be
000000e0: fcde 9d3d 28ca 89be 8234 323e c4b6 193e
000000f0: 6ac5 393c 3ff8 5f3e c178 ef3d 05dd 0b3e
00000100: 9eb1 453a ec71 6bbe 59a3 f43d 7949 7d3e
00000110: 2163 fb3d ebaa 593d 4bf4 7dbe 7a23 5bbe
00000120: bef9 663d 11ea 353e f2c3 423e fd8b ad3d
00000130: 585a b9bd 1a32 183e 6b59 d7bd 1709 043d
00000140: 3dc0 2d3d 7a46 18be fb3e 2f3e c595 88be
00000150: 8fe2 4abd a74e 933e 71d9 863e 8311 57be
00000160: 2e43 e2bc c1e8 a4bd 6757 d3bd 6abf 6dbe
00000170: 5dc8 2bbe 4ebe f63d 0d1a 413d 0342 853c
00000180: c796 253e 76e7 49bd d7d5 2f3a f799 dcbd
00000190: 72e6 cdbd a03d 2a3e 0a0b afbd 959e 8e3d
000001a0: f88b 9b3d b4bf 483e 6b98 febc 4f76 423e
000001b0: f183 053e 3022 e83d 3d66 2cbd bd27 9c3d
000001c0: 92d3 1dbe 2d6f 72be ce0b 593e 2e9b 62be
000001d0: 7ee6 5a3e 7591 5f3e fb81 bdbd 43d1 e13d
000001e0: 5e41 483e 1a29 aabd 3ac4 cd3c fa95 79be
000001f0: 0c3b e2bd 916b 633e c8b4 1b3e bc4b 353d
00000200: cfe8 1f3e bd02 5abe f97b c03d 12cd 25be
00000210: dd46 993e 62f1 38be 3642 87be 779a 7bbe
00000220: c3b7 163e 17b2 4d3d cf34 26ba b91c 473e
00000230: 4ddb 1bbe 582e 873e 8432 4a3e 781e 28bc
00000240: 55a3 3ebe dda5 fd3c 5362 813e 7123 96be
00000250: 6cd8 62be ae61 443e 1fdf 553e 066d 153e
00000260: 603d 043e 080c 85be 628d 8cbd 0c2f 623c
00000270: 2727 12be e67e 78be ac03 eabd a1bb da3d
00000280: 302d edbd 0aa7 27be 5773 5d3e 007f 993d
00000290: ae08 613e 4e3f 803d c793 4a3e a295 37be
000002a0: 1372 6f3e dc19 68be 458c 84be 55ac 7a3c
000002b0: 10a5 42be 5b0b 8bbe 8174 e3bd 152a 2c3e
000002c0: 7a19 91be 7402 36bd 16fa 8abe d990 0e3e
000002d0: d51d 8ebe 7584 38be b371 14be 4995 523e
000002e0: 4390 153e b51b 3fbe ef68 173e 644f 443d
000002f0: d9d7 5abe 7361 45be 1c08 2c3e 613a 423d
00000300: 2b67 e53d 6657 0c3e 903d 6dbe 11ef 16be
00000310: b7bf 5ebe 00d5 f8bd 1feb 93be 7124 81be
00000320: 983f debd a5a9 853e f844 023e eb2c 8f3e
00000330: f68b cb3c 3672 04bc db99 d13d 5862 c8bc
00000340: d33a 413d bdae 68be daff 8f3e 453a 85be
00000350: d6c7 f13d 3cf3 90be 0b8f 86bd efcd bd3c
00000360: d257 943e ee24 c0bd 9a8c 243d 642c 763e
00000370: 7dc2 b93d 9c5f 3ebe 02af 5bbc 5961 70be
00000380: 4752 753e 3bdf 0a3e 61c5 3fbd 3964 c23d
00000390: ddbf b63d c0c1 69be c537 4f3e 9c60 253e
000003a0: 8061 073d 1796 05be e810 803e 17ed d1bd
000003b0: aed1 e53d 1772 fa3c 1503 18be 63ab eabd
000003c0: 54f4 5cbe 5ded 17bc 27fb b6bc f5a3 80be
000003d0: 9123 393d 3e06 88be 5a6f 37bd 0ace 523d
000003e0: 48b0 5bbd 9c5e 08be 60de 2bbd 8ebc 563d
000003f0: e33b dd3c e0b1 3d3e af85 4b3e 72d3 45be
0.08663215 -0.13604978 -0.24419788 0.11925541 0.2517428 0.10243007 -0.10657147 0.2211438
-0.22110581 -0.1864653 0.075214565 -0.26373404 -0.22749588 0.15129004 -0.07937984 -0.10618828
0.13190168 -0.058959026 0.13546969 0.14434308 -0.16063976 0.22449987 -0.12352791 0.1847966
0.051733416 -0.06637254 0.092684865 -0.02643799 -0.15542696 -0.11022982 -0.17232646 0.10069073
0.2717049 -0.055207748 0.2522203 -0.001970146 0.2164534 -0.19812009 -0.054456115 -0.03245259
-0.16070053 -0.16228463 0.09141648 -0.27958715 -0.0015207261 -0.0002471962 -0.23493229 -0.22338493
-0.022156956 -0.0825061 -0.10669751 -0.002247501 0.03884357 -0.102107614 0.07643268 -0.1600159
0.077085465 -0.26912045 0.17402843 0.15011126 0.011338571 0.21872042 0.11692954 0.13658531
0.00075414206 -0.22992676 0.119452186 0.24735059 0.12274767 0.053141516 -0.24800222 -0.21400252
0.056390516 0.1776507 0.1902006 0.08473966 -0.09050435 0.14862862 -0.10515102 0.03223523
0.04241966 -0.14870635 0.17113869 -0.26676765 -0.04953247 0.28770944 0.2633777 -0.21002774
-0.027619924 -0.08052207 -0.10319405 -0.2321755 -0.16775651 0.120480165 0.047143985 0.016266828
0.16170798 -0.049293004 0.0006707585 -0.10771554 -0.100537196 0.1662507 -0.085470274 0.06963841
0.07595056 0.19604379 -0.031078538 0.18990444 0.13038613 0.11334646 -0.04208969 0.07624767
-0.15412739 -0.23675223 0.2119591 -0.22129509 0.21376988 0.21832831 -0.092533074 0.11026242
0.19556186 -0.08308621 0.025117982 -0.24373618 -0.110464185 0.22209002 0.15205681 0.04426168
0.15616153 -0.21290107 0.09398646 -0.1619151 0.29936877 -0.1806083 -0.26417702 -0.24570642
0.14718537 0.050218668 -0.00063402666 0.1944455 -0.15220375 0.26402545 0.19745833 -0.010261171
-0.18616994 0.030962879 0.25270328 -0.29323915 -0.22152871 0.19177887 0.20885895 0.1459237
0.12914038 -0.25985742 -0.06862904 0.013805162 -0.14272748 -0.24267158 -0.114264816 0.106803186
-0.115808845 -0.16372314 0.2162603 0.074949265 0.21975967 0.062620744 0.19782935 -0.17928174
0.2338336 -0.22666115 -0.25888267 0.015299876 -0.19008279 -0.271571 -0.11106206 0.16812928
-0.2833975 -0.044435933 -0.27143925 0.13922442 -0.27757135 -0.18019278 -0.14496498 0.2056476
0.14605813 -0.18662913 0.14786123 0.047927275 -0.21371402 -0.19275455 0.16799968 0.047418956
0.11201318 0.13705215 -0.23168015 -0.14739634 -0.21752821 -0.121500015 -0.2889032 -0.25223115
-0.10851973 0.2610599 0.12721622 0.27963957 0.024847012 -0.008083871 0.10234424 -0.024460956
0.04717524 -0.22722907 0.28124887 -0.2602102 0.11805694 -0.28310573 -0.06570252 0.023169486
0.28973252 -0.09382044 0.04017315 0.24040371 0.09070299 -0.1859116 -0.013408424 -0.23474635
0.23957168 0.13561718 -0.046819095 0.09491772 0.08923314 -0.22827816 0.20236118 0.16150135
0.033051968 -0.13045536 0.25012898 -0.102502994 0.11221634 0.03057198 -0.14844926 -0.11458471
-0.21577579 -0.0092729 -0.022336556 -0.2512509 0.045199934 -0.26567262 -0.044783928 0.051466025
-0.05363491 -0.1331734 -0.04196012 0.052425914 0.027006095 0.18524885 0.19875215 -0.19318941

user_tower.fc.0.bias f4 [256]
00000000: 4c85 1b3e 1a69 c6bc 07c0 523e 020a 7c3e
00000010: 9aed 5fbe e285 8cbe 8ea3 993e 32f8 e4bd
00000020: d879 cdbd deb0 693e a237 883e e4ca d43c
00000030: 9d32 68be 395b 2abd f87e 023e 780b 2fbb
00000040: ce62 fe3d e80d 083e 5b47 3ebd 214e 2e3e
00000050: feea 973e ec4f bfbd ca3b 833e 3acd b5bd
00000060: 5911 29be 5e45 fabd 04c7 39be b640 663e
00000070: 07a1 ea3d 15f7 a5bd c0d2 4f3e ab4a eebd
00000080: 1ee3 b8bd c151 073e 2568 9a3d 691d 0d3e
00000090: 3055 813d 0675 5e3e 7c95 303e 99c4 89be
000000a0: f0dc 71be d741 a13c 1c2f 82be a600 193e
000000b0: 1f06 55be 3a37 57bc 58c1 10bd 3b70 403e
000000c0: 8c9f 08be 4b06 dd3d 8370 8cbe 45ff 553e
000000d0: 5ebb 2fbd ff19 433e a5d6 5fbe 530a 8cbe
000000e0: 706f 77be f252 173e 2b42 36be c60e fd3d
000000f0: b8cd 063e 1b0b b4bd 28a0 263d 04bc 8abd
00000100: f5eb 9d3e 7028 31be 1a7c 953e baab 453d
00000110: 59a3 94bd 1bcb 1f3c 2fee 763e ee9c e33d
00000120: e1d5 0bbe d002 393e 7f77 06be f7b1 76be
00000130: 5da0 5bbe d64d 0a3e 0f4e a9bd 7c94 373e
00000140: 1164 e9bd a0cb 473e 344b dc3d ea19 443e
00000150: e827 17be 2a88 f6bd b09b 8abe d31b b43d
00000160: b47c 853d fa1d 81be 571f c2bd a690 c8bb
00000170: e9a5 3dbe e916 1c3e ba41 213e 7e9d 053e
00000180: fa83 f3bd 4077 8d3e 15f2 a33d 3757 4f3e
00000190: be9c 7e3e 8585 8ebd 00e3 56be 3082 36be
000001a0: 9f8f 83be 76dd 983e 3878 bbbd 0fc5 623c
000001b0: 513e 39be 9825 7bbe 3c43 45be df28 1bbe
000001c0: 2d8d 88bd 7e49 d53c 2e60 5b3e 5a41 3b3d
000001d0: 3963 d23c cf43 c6bd d1c9 54be 9fe1 d1bd
000001e0: 27ea 1a3e bbe4 803d d2b2 4ebe ddd3 9d3e
000001f0: 497f 413e afc9 2bbe 7a75 00be 78a9 44bc
00000200: 8104 38bd bb6e 88be a773 523e 54e9 87be
00000210: 52e2 4a3d 177a 203c 4030 2d3d 4a44 b4bd
00000220: 3b78 773d 3b91 13be 2835 6ebe ba61 803e
00000230: c895 333e 06ec 9dbd befb a2bd 8b2b 95bd
00000240: 2f4a 07be 5e89 383e 49d9 2dbd bef4 5ebe
00000250: c4ae 34be dba3 7abe 07ef 9abd 9d25 453e
00000260: efa8 e5bd 0893 863e 5837 ef3d faed 403e
00000270: 018b 26be c73d 4fbe a185 c6bd e156 4abe
00000280: b936 89be c08f 77be 6f78 dfbd c890 e5bd
00000290: 43c8 833e 5852 a43c 0ec5 083d 8cf2 2dbe
000002a0: 3851 dbbd fcb8 ac3d 7c78 1a3e e6dc 35bc
000002b0: 741a 5d3d a73e 9fbd cd81 d83d 6c08 643e
000002c0: d137 1fbd a4f0 20be 7f1d 17be 27c1 e83d
000002d0: f0c1 973d c7d3 4dbe 3c71 96be 5560 1ebe
000002e0: 402c 8fbd 6a8b 8dbe c596 9d3e abdf 533d
000002f0: 78b4 5c3e f577 e5bc 3cd6 7cbe f7ce febd
00000300: 04a4 c43d 8633 0a3e d546 f13d 54eb 63be
00000310: b7b4 e6bd 7a08 2bbc 2cf0 0d3e 1343 56bd
00000320: 0946 ec3c 5652 e03a ac74 02be f476 343e
00000330: 718c b3bc 4811 18be 381f d9bd b9a1 d93d
00000340: 870e 86be f606 6fbd e012 603e 9030 cbbd
00000350: ef5d 903d ddc1 13be 4999 45be 017c 86bc
00000360: aee1 f23d 5a76 bfbc 6bf4 ef3d 2720 ee3c
00000370: 4bd9 803e 57ef 0b3d 9a25 0cbd efeb 5cbe
00000380: dcc8 29be 40e3 6b3e f0a1 24be 2d76 333e
00000390: 04c8 9cbd a5b3 f8bd 810e 4e3e 7de8 05bd
000003a0: 4824 333e c28f 89be 296e 4e3e de60 933e
000003b0: f431 503e 44bb 1ebe fd4b 11bd c019 56be
000003c0: 0981 adbc 4eca 71be 57e5 f63d 4093 883d
000003d0: 5487 703e 1b3d 553e 525d e83d bb5e 53bd
000003e0: f872 24bd 3402 8d3e 1de5 833e e4e6 103e
000003f0: 3922 853d 6b37 c63d 8a54 33be dd07 7d3e
0.15187567 -0.024220038 0.20581065 0.24613193 -0.21867982 -0.27445894 0.30007595 -0.11180152
-0.100330055 0.22821376 0.26604944 0.025975652 -0.22675557 -0.041590903 0.12743747 -0.0026709717
0.12421189 0.13286555 -0.04645477 0.17021991 0.29671472 -0.09341416 0.25631553 -0.088770345
-0.16510524 -0.12220262 -0.18142325 0.22485623 0.11456495 -0.08103768 0.20295238 -0.116353355
-0.09027694 0.1321478 0.07539395 0.1378075 0.06315076 0.21724328 0.17244524 -0.26907805
-0.23619437 0.019684715 -0.25426567 0.14941654 -0.20803116 -0.013135726 -0.035340637 0.18792813
-0.13342112 0.10792216 -0.2742959 0.20898159 -0.042903297 0.19052885 -0.21859224 -0.27351627
-0.24163604 0.14777735 -0.17798679 0.123563334 0.13164413 -0.08791181 0.04068008 -0.067741424
0.30844083 -0.17300582 0.29196244 0.048259474 -0.072577186 0.009753014 0.24114297 0.11113916
-0.13655807 0.18067479 -0.13131522 -0.24091326 -0.21447892 0.13506255 -0.082668416 0.17927736
-0.11396039 0.1951127 0.10756531 0.1915051 -0.14761317 -0.1203769 -0.27071905 0.087943695
0.06517926 -0.25218183 -0.09478634 -0.006120759 -0.18520321 0.15243115 0.15747729 0.1304836
-0.11890407 0.27630043 0.08005158 0.20248114 0.2486448 -0.069590606 -0.20985031 -0.178231
-0.25695512 0.2985646 -0.09153789 0.013840928 -0.18090178 -0.2452606 -0.19263929 -0.1515231
-0.06667552 0.02603602 0.21423408 0.04571662 0.025682079 -0.09680902 -0.20780112 -0.10248112
0.15128385 0.06293627 -0.20185402 0.308257 0.18896212 -0.16776155 -0.12544814 -0.012003295
-0.04492617 -0.2664698 0.2055193 -0.26545203 0.049532242 0.0097947335 0.042282343 -0.088020876
0.060417395 -0.1441087 -0.23262465 0.2507456 0.17537606 -0.077110335 -0.07958172 -0.07283696
-0.13211893 0.18021151 -0.042443547 -0.21773049 -0.17644793 -0.24476568 -0.07565122 0.1925263
-0.11213862 0.2628405 0.11680478 0.18840781 -0.16263963 -0.2023841 -0.096934564 -0.19759704
-0.26799563 -0.2417593 -0.10911643 -0.112092555 0.25738725 0.020058796 0.03339105 -0.16987056
-0.107088506 0.084337205 0.15085024 -0.01110003 0.053980306 -0.07775622 0.105716325 0.22268838
-0.03887159 -0.15716797 -0.14757346 0.11364966 0.074100375 -0.20100318 -0.29383266 -0.15466435
-0.06990862 -0.27645427 0.3077909 0.05172698 0.21553218 -0.028011302 -0.24691099 -0.12441819
0.09601596 0.13496217 0.11781088 -0.2225774 -0.11264937 -0.010439033 0.1386115 -0.05231006
0.02884199 0.0017114382 -0.1273982 0.17623502 -0.021917554 -0.14850342 -0.10601658 0.10626549
-0.26182958 -0.058356248 0.218822 -0.09921372 0.070491664 -0.14429422 -0.19296755 -0.016416552
0.11859451 -0.023371864 0.11716541 0.029068066 0.2516578 0.0341638 -0.034215547 -0.21574377
-0.16580528 0.23035908 -0.16077399 0.17525549 -0.076553375 -0.121436395 0.2012272 -0.03269242
0.17494309 -0.2686749 0.2015921 0.2878484 0.20331556 -0.15501124 -0.03547286 -0.2090826
-0.021179693 -0.2361233 0.12055462 0.06668711 0.23489124 0.20824091 0.113459244 -0.051604014
-0.040148705 0.27540743 0.25760737 0.14150578 0.06500668 0.09678539 -0.17512718 0.24710031

user_tower.fc.2.weight f4 [128, 256]
00000000: 0c38 08bc f3e7 203c a91c 8d3d dc4b 86bb
00000010: 0f3d 31bb db4a 92bc aaf7 1ebd 8ce8 28bc
00000020: 61a1 973c 9300 52bd 6ddd ebbc 0df9 4d3d
00000030: 4ca4 283d 93b4 7dbc d8a1 443d 131c 703d
00000040: 7268 ed3c edef ffbc 366f 2bbd c373 883d
00000050: 4c7b 8b3d 1e7f 38bd cae5 11bb 5ebb 923d
00000060: 6c44 fbbb b6e4 103d 1274 823b 48b1 71bc
00000070: 6974 893d fa08 25bd cb2c b63c a7d6 debc
00000080: a6bd 263a 50de e53c 3f96 84bc cbe2 56bc
00000090: f664 69bc 7ddc e2bc b4d9 933c c4b0 5ebd
000000a0: 1553 9e3c 8501 e3bb ae59 753c 773b c9bc
000000b0: 5594 98bc c067 1cbb 718b 513c 6161 02bc
000000c0: 566b d23c bada 6e3c b5d3 55bd 322d 223d
000000d0: 5378 633d 68bd 59bd 4071 0638 f1dc 65bd
000000e0: 79d1 1e3d 9737 6b3d 4380 273b de0f 213b
000000f0: 6674 9e3b b23b 153c 5260 f13c 8cb5 6c3d
00000100: 6c5a 6dbc 96a6 913a eeb2 a93c c50b 603d
00000110: 5ef3 dcbc 29f2 3abd cbbb 863d 4ee7 443d
00000120: c0fb eabc 204e 933d 3bb0 75bd 2b01 75bc
00000130: 53ea 523d db1f 01bd fa70 a13d 0de2 5f3d
00000140: c501 233d 8655 393d 76ab 4d3d 59b3 be3b
00000150: c6e1 fcbc d8b4 3b3d 5b38 27bc 92c6 243d
00000160: 0efc 5bbd 4595 963c 4e33 6bbc f7b6 3cbd
00000170: 2631 c4bc ca23 dfbc 3c17 f03a fe7e f93c
00000180: 78fd c1bc 126c 573d ca13 c8bb 4449 2f3d
00000190: 29c8 9d3d 48d2 903d a3f8 493d 10a1 583d
000001a0: 6899 c73a 4e80 92bc d908 2c3d a01d 133d
000001b0: 1f3a 263d 0b73 f03b 87eb 3ebc 6b18 9cb9
000001c0: 205b 38bc 34c9 243d e040 d4bc ad0a 81bd
000001d0: 596f 20bd ef16 843d 3c9a 96bc 8ba2 cd3c
000001e0: cbc2 b23c f10a 23bd af0a 28bd 55d0 123d
000001f0: 4825 9b3d 0493 0a3d 2f2b 2e3d a53c 8a3b
00000200: 8123 243c f73c 12bd 973f 183d 9fb0 67bb
00000210: e130 873d 3822 c2bc 0e8d 613b 9607 f33c
00000220: 0989 41bd aa0b 25bc ccc4 5cbc 3dce 5cbb
00000230: 0047 083d a14b 3b3c 42da 44bd 40dd 30bc
00000240: f7e7 fc3a 27f3 a0bc 14b9 b8bc b8a5 a6bc
00000250: 5524 34bd e0b8 033d f062 523c 4dbc 12bd
00000260: be9e 1cbc 278e 40bb 1b1c 6cbc 987a a2bb
00000270: 19b8 15bd 6a0a 6bbc 06a3 a3ba e1d9 463d
00000280: 5021 62bd 482a 0bbd b84a 2c3d 03e0 163d
00000290: e991 8f3d f368 4cbd f9b7 0c3d a2d8 103d
000002a0: 7758 813d 4619 023c 9e22 223d 7f84 833d
000002b0: fd90 603c 9c9b 413c 08cb 023d fa40 0fbc
000002c0: 320f 2abd 1531 833a c31f e43c 1754 88bc
000002d0: e8d0 253c 7240 d7ba e3f4 b4bb 5182 16bd
000002e0: ccab 8b39 af23 30bc d558 963a 4873 ccbb
000002f0: a4a5 90bc 1086 873d de5f 833d c8b1 1cbc
00000300: 76e3 60bd 291b 1e3d 41fb d9bc ca78 783d
00000310: e75a 603c 255d 4ebc 1a8a 863b 74a4 643c
00000320: c758 69bd 8330 0ebc 351f 143c 86b7 b03c
00000330: c249 dbbc 443e 3e3d f6c3 953c 8b17 24bd
00000340: 0970 1cbd 5697 633b 72b0 86bc 0644 033b
00000350: 550d 9c3d 2f84 67bc cacc d9bc 43b9 92bc
00000360: 7cd3 263d eec3 0fbd 69b7 8e3c 3874 0ebc
00000370: 897c ef3c fdb6 633d e465 1b3d cdb9 003a
00000380: 6f50 473d e046 853c 6091 c93c 42de bdbc
00000390: 877d d0bc 0cbe 05bc 2a72 3bbc 2ebb 923b
000003a0: 7511 a53d 601d e43c 2a7e 403d bd4e 8a3d
000003b0: d718 33bd 4026 34bb 0880 d3bb 19a1 803d
000003c0: 009e 793c e1a0 55bc 84fd 01bd 1910 c63c
000003d0: 7b96 333d d639 ba3a 1045 0a3d a660 a8bb
000003e0: b1f7 8d3c 7293 11bd 4b9c 94bc f8db 7f3c
000003f0: 4391 5d3d d783 933c 8587 44bd 8fdb 4bbd
-0.008314144 0.009820926 0.06890232 -0.0040983986 -0.002704445 -0.01785796 -0.03881041 -0.01030935
0.018509569 -0.05127008 -0.028792107 0.05028634 0.04117231 -0.015484947 0.04800591 0.058620524
0.028980467 -0.031242335 -0.041854106 0.06662705 0.068106264 -0.045043103 -0.002226221 0.07164644
-0.0076680686 0.035374366 0.003981122 -0.01475174 0.067116566 -0.040291764 0.022238156 -0.027201964
0.0006360657 0.028060108 -0.016184924 -0.013115595 -0.014245262 -0.027693028 0.018048145 -0.054367796
0.019326726 -0.0069276714 0.014974995 -0.024564488 -0.018625418 -0.002386555 0.012789593 -0.007957787
0.025685947 0.014578516 -0.052203853 0.039593883 0.055534672 -0.053159148 3.2053562e-05 -0.05611891
0.038773987 0.05742606 0.0025558628 0.0024576108 0.004835653 0.009108471 0.029464874 0.057790324
-0.01448689 0.0011112269 0.020715203 0.054698724 -0.026971515 -0.0456411 0.065787874 0.04807215
-0.028684497 0.071926355 -0.05998252 -0.014953892 0.051493 -0.03152452 0.07882877 0.05465894
0.03979661 0.045247577 0.050212346 0.0058197198 -0.030869376 0.045826763 -0.010206307 0.040228434
-0.053707175 0.018381724 -0.014355494 -0.046072926 -0.023949217 -0.027238745 0.0018317471 0.030456062
-0.023680434 0.0525933 -0.0061058747 0.04279448 0.07704193 0.07071358 0.049309384 0.052887976
0.0015228214 -0.017883446 0.042000625 0.035916924 0.040582772 0.007337933 -0.011652834 -0.00029772831
-0.011252195 0.040230945 -0.025909841 -0.06300864 -0.03916869 0.06449687 -0.018384092 0.02510192
0.0218214 -0.039805356 -0.041025814 0.035843212 0.0757547 0.03383161 0.04252165 0.004218655
0.01001823 -0.03570267 0.03717002 -0.0035353077 0.0660112 -0.023697957 0.003441635 0.029666703
-0.047249828 -0.010073582 -0.013474654 -0.0033692264 0.033270836 0.011431606 -0.04805971 -0.010794938
0.0019295205 -0.019647194 -0.02254919 -0.020342693 -0.04397996 0.032158732 0.012840971 -0.03582411
-0.009559331 -0.0029381604 -0.014410998 -0.004958462 -0.036552522 -0.014345745 -0.0012484498 0.04854763
-0.05520755 -0.03397587 0.042063445 0.036834728 0.07010252 -0.049904775 0.034355137 0.035362847
0.063157015 0.007940596 0.039583795 0.06421756 0.013706443 0.011816885 0.031931907 -0.008743519
-0.041518398 0.0010009134 0.027847176 -0.01664166 0.010120608 -0.0016422404 -0.005522357 -0.036745373
0.00026640145 -0.010750695 0.0011470566 -0.0062393285 -0.017657109 0.06617367 0.064147696 -0.009563871
-0.054904424 0.03860012 -0.026609065 0.06066207 0.013693548 -0.01259545 0.0041058185 0.013955224
-0.05696943 -0.008678558 0.009040643 0.021571886 -0.026768569 0.0464461 0.018281918 -0.040061515
-0.038192783 0.0034727654 -0.016441558 0.0020029559 0.076197304 -0.014130636 -0.026586909 -0.017910605
0.04072903 -0.035098962 0.017421441 -0.008694701 0.029234188 0.055594433 0.037938967 0.0004910499
0.04866069 0.016269147 0.024605453 -0.02317727 -0.025450481 -0.0081629865 -0.011440793 0.00447788
0.0805997 0.027846038 0.04699532 0.067532994 -0.04372486 -0.002748862 -0.0064544715 0.06280727
0.015235424 -0.013038845 -0.031735912 0.024177598 0.04384468 0.001420791 0.03375727 -0.0051384745
0.017330023 -0.035541005 -0.018140933 0.0156164095 0.05409361 0.018007202 -0.047980804 -0.049769934

user_tower.fc.2.bias f4 [128]
00000000: ca3e eb3c 83d4 253d 7df2 9ebc 033f 1bbd
00000010: 4bdf 32bd 271d f9bc c0df 8fbc 0d78 283d
00000020: f55b 123c 16ca 853d 10e2 d33c 4cd1 3cbd
00000030: eda7 38bd b5ea 10bd dd30 753d 2e1c 823c
00000040: 9fda 2d3d ba64 9dbc 6b06 ad3c 5e84 80bd
00000050: 3e13 fd3b 5d86 a5bc 065c 723d 5ed0 6cbd
00000060: 1f4e 9dbc 9625 823d d0c2 d43c b750 ea3b
00000070: 657b 2bbd cb94 0cbd b649 953d e53b 5ebc
00000080: 7eb7 88bc edb9 d0bc 3a2e 40bc 9f04 72ba
00000090: df17 1c3c 7d3b 27bc 9659 6bbd 8d83 eebc
000000a0: 0ee2 093b 79a1 c53a a6b2 58bd 1d6d d9bc
000000b0: 0e93 88bc c933 643d 3937 f2bc 7911 d23c
000000c0: f2e0 15bc e2cd 3a3d b1c4 d03c e3ea 2ebd
000000d0: 6315 42bd 197e 373d f423 67bd 8d28 3abb
000000e0: 3d2a 27bd 3be2 223d 0d94 9ebc 6c95 bcba
000000f0: 3d29 d9bc 9550 37bd 9b7e 18bd df83 3c3c
00000100: e5f9 00bd e39c 953c c6b1 7cbc a2e3 7d3d
00000110: 5e71 21bd fe8e 553d 4301 3ebd 02d0 2f3d
00000120: 49f2 563b b430 adba 158c 343d 0279 923c
00000130: 4799 ebbc ed7a 353d 6bf0 dfb8 b482 12bd
00000140: 280f 5d3c d385 fcbc e2ec 873d 6d06 0bbd
00000150: 7300 103d 6129 1dbd 6469 493d 0bc5 eebc
00000160: 61fa 643c 2638 49bd eb62 84bb 9c56 fe3b
00000170: be96 193d d79b b1bc 6e0b 553d 1b1e a2bc
00000180: f105 b83c 6bf4 40bc 79a8 37b9 ca99 be3c
00000190: a74b 00bd ef0d 2b3d aa66 45bd c694 643d
000001a0: bf76 b0bc 3847 09bd e46b 093d f6b7 0fbc
000001b0: dc47 1c3d ac8d 82bb 7e52 4a3d ea2a ec3c
000001c0: 1968 f73a 7049 20bd 694f 3e3b 361b 393b
000001d0: 2475 603d b462 f4bc 3a2b 7f3d 11f5 053d
000001e0: 1104 183c c845 1b3d 1498 183c 1b6d c6bc
000001f0: 9b3a c83c a088 4abd f337 073d cf57 8e3c
0.028716464 0.04048587 -0.019402737 -0.03790189 -0.04366998 -0.030409409 -0.017562747 0.041130114
0.008933057 0.065326855 0.025864631 -0.04609804 -0.04508202 -0.035380084 0.059861053 0.015882578
0.04244482 -0.01921307 0.021121224 -0.06275247 0.007723241 -0.020205671 0.05916979 -0.057815902
-0.01920229 0.06354825 0.0259718 0.0071507352 -0.041865725 -0.034321588 0.0728945 -0.013564085
-0.016689058 -0.025479281 -0.011729771 -0.0009232256 0.009527176 -0.010207054 -0.057458483 -0.029115463
0.002103928 0.001507803 -0.052904747 -0.026541287 -0.016671684 0.05571345 -0.029567348 0.025643097
-0.009147869 0.0456065 0.025484415 -0.042704474 -0.047383677 0.04479799 -0.056430772 -0.0028405518
-0.040811766 0.03976653 -0.019357705 -0.0014387793 -0.026508922 -0.044754583 -0.037230115 0.01150605
-0.031488318 0.018263286 -0.015423244 0.061984666 -0.039414756 0.05213832 -0.046387922 0.04292298
0.0032798222 -0.0013213367 0.044078905 0.017879967 -0.028759612 0.044306684 -0.0001067825 -0.03576918
0.013492383 -0.030825531 0.06636979 -0.033941675 0.03515668 -0.03836954 0.049172774 -0.029146692
0.013975711 -0.049125813 -0.0040401123 0.0077617895 0.037497275 -0.021680756 0.052012853 -0.019789746
0.02246377 -0.011777024 -0.00017515001 0.023266692 -0.031322148 0.041761335 -0.04819361 0.055805944
-0.021540998 -0.033515185 0.03355016 -0.008771887 0.038154468 -0.0039841738 0.049395077 0.028829057
0.0018875628 -0.039132535 0.0029039031 0.0028244979 0.054799214 -0.029832222 0.062297083 0.032704417
0.009278313 0.037908345 0.009313602 -0.024221947 0.024442008 -0.049446702 0.03301234 0.017375855

user_tower.fc.5.weight f4 [64, 128]
00000000: 70c7 47bd b0c3 7dbd cef8 9ebd 9eaf 97bd
00000010: a536 9e3c 34dd 1cbc 8598 73bd dfdf dcbd
00000020: 0aaf f43c d8bd ccbb e0b4 9e3c a33c f53c
00000030: 82d8 653d e511 173d 9a43 863c e66e c33c
00000040: 9bb4 a4bd 0846 b5bc 7a74 a1bc 4ef3 cbbc
00000050: 56eb 48bd 2dea 763d 75d9 803d 100d a9bc
00000060: 7cef 2b3d fa7f 28bd baaa b3bd 7056 14bd
00000070: b4f4 583d 74ff 033d 940c a4bd ac3a 8dbc
00000080: f791 723d f56f 6ebd 8793 e43c 6e18 1c3c
00000090: 12c6 4039 1933 e0bc bc82 8a3a 2220 b1ba
000000a0: c6ea eabc 2310 3fbd 1ea3 65bd dafe dfbb
000000b0: 4953 643d 7697 25bd c771 863d bb94 a9bd
000000c0: 0e50 853d b48f c5bd 70d0 edb9 63a0 0e3d
000000d0: e03a 4d3c d5f6 893d 6a89 22bd 8804 8fbc
000000e0: f4cf d53b 4e5d 833d 1a3a 373a 474d 84ba
000000f0: 9a08 4f3b 3190 87bd 2c88 14bd a91e 4b3d
00000100: 2e0e bcbd 63cc 7b3d 62dd e83c 9d97 84bc
00000110: 4987 713d bd95 b8bd bcc7 eebc 1c49 07bd
00000120: c575 f33c b791 d1bb b700 143d 240c 4ebd
00000130: 0a0e 1c3c fad6 123d 05a5 103a 1df9 b6bc
00000140: 184d 9ab9 f0ba 5c3d ef3c 6cbd e133 a0bc
00000150: e655 0fbd f621 d5bb 7c49 ba3c 16a9 7ebc
00000160: 9af1 f23c d862 aabd e6e2 80bc 7a25 83bd
00000170: 0dd7 9ebb 7161 b13b bd9b a6bd e224 113d
00000180: b6af 023c 731d 5f3a ff5a 19bb ecb3 103d
00000190: 5678 90bb 4c85 4cbd 7d98 053d ae54 853d
000001a0: 9932 2a3d eb74 463d 72df 41bd 8311 86bd
000001b0: a5e1 0c3d ba3b 56bc ab9b babb 2afe 8fbd
000001c0: 314d c3ba 2488 4bbd 8a68 83bd 4111 b3bc
000001d0: 0cf5 97bd c1de 9db9 78a9 ad3c a941 8fbd
000001e0: 5137 06bd 5ebf db3c af9c bebc 3a30 13ba
000001f0: 44ab a33c 7af3 d8bc 2c0f 9dbd 6a1d 123d
00000200: 809a c73d dff3 67bd f736 4dbd 748f 2ebd
00000210: e34b 89bc bfae 263b 3e45 98bd f76b c1bc
00000220: eb2c 773b be17 97bd b4cd 353c 6828 1abd
00000230: 4e53 31bd 076a 23bd 4d14 ad3d 9382 a43b
00000240: 18da febc 9725 96bd 3695 b93d e25c 5b3d
00000250: 8be9 963c 10ff a73c a533 9f3d 9100 15bd
00000260: 219d 8bbd 2877 e33c c884 b5bd 4641 543d
00000270: a468 70bd f876 02bd 84a7 45bc d496 5a3d
00000280: f57c 1bbc 8dde f8bc 7964 803d 5cf5 b93c
00000290: 2ab2 0d3d 8575 cdbc 9f9a e73a 679d 143b
000002a0: 6988 6ebd 9c16 1bbb 4c8e ebbc 6377 693c
000002b0: c025 4c3b c19e 0a3b 5ccf b13a d972 f2bc
000002c0: bbae e5bc 6e06 363b 0fd7 10bb 5cf8 2d3d
000002d0: 014b 873d ddb4 b83d 5a4b a43c fc14 843b
000002e0: 1612 95bd 7153 50bd 2960 0f3c bde1 5fbc
000002f0: deff 9bbd 47cf 68bd e782 293d 0eb4 86bd
00000300: eb3f 94bc 4df9 8cbd 937f 17bd 8bc3 b33d
00000310: 27fd ba3b 3ab7 bb3d 0b15 3a3d 1257 973d
00000320: 1e0c 533d 0b53 41bc dd54 983d a1ed 763d
00000330: fec4 b63c f232 ce3c 5434 3dbd d2c3 043d
00000340: 505f 743d 5f06 723d d958 163d 6e1a f43c
00000350: 85e5 f3bc 4bab ba3c 9137 2abd a55f 20ba
00000360: 0547 4ebd a6e1 95bc 4ce5 1b3c 3b18 e7bc
00000370: 1eac adbd 45da 8a3d 0e50 ae3d 968c ac3c
00000380: 5f44 90bd 1172 31bd 4fb8 0fbb 51fa b6bc
00000390: 4890 d43b 4c0c 573d d813 42bc bb46 b23d
000003a0: cf21 b83d 9350 febb 0353 9f3d 40f1 b03d
000003b0: 92a0 7a3b 7819 0fb9 ba0d 61bd 244b b53d
000003c0: c493 b0b7 8e9d 89bc b948 9dbd 58d3 94bd
000003d0: 0872 00bb 0486 0a3c 40b5 0fbc d930 72bd
000003e0: 637c 3d3c 3d8f bc3d f36f 06bd 04da 6bbd
000003f0: 5f7a b7bc f6dd 083a 18c9 73bd 5e42 583d
-0.048774183 -0.0619542 -0.077622995 -0.07406543 0.019313166 -0.009574223 -0.059471626 -0.107848875
0.029868621 -0.006248217 0.019373357 0.02993614 0.05611468 0.0368823 0.016389657 0.023856591
-0.0804226 -0.02212812 -0.01970886 -0.02489629 -0.04905256 0.06028192 0.06291477 -0.020636111
0.041976437 -0.041137673 -0.08772798 -0.036215246 0.052967742 0.03222604 -0.080102116 -0.017239891
0.059221234 -0.05821224 0.027902378 0.009527309 0.00018384334 -0.027368115 0.0010567526 -0.0013513605
-0.028676402 -0.04664625 -0.056063764 -0.0068358006 0.05574349 -0.040427648 0.0656467 -0.08280321
0.0650941 -0.0964655 -0.0004535946 0.034820925 0.012526244 0.067365326 -0.03968183 -0.017458215
0.006525034 0.06414281 0.0006989554 -0.0010093831 0.003159082 -0.06619299 -0.036262676 0.049589787
-0.09182392 0.061474215 0.028425876 -0.016185576 0.05896691 -0.09012935 -0.029147975 -0.033028707
0.029719243 -0.0063955444 0.036133494 -0.050304547 0.009524832 0.03584955 0.0005517754 -0.022335583
-0.00029430608 0.053889215 -0.0576753 -0.019555988 -0.03499403 -0.0065042926 0.022740118 -0.015543243
0.02965622 -0.08319634 -0.015733194 -0.064036325 -0.0048474134 0.0054132272 -0.081351735 0.035435565
0.007976463 0.0008511163 -0.0023400185 0.035327837 -0.0044088764 -0.04993181 0.032616127 0.06510292
0.04155216 0.048451345 -0.047332235 -0.06546309 0.03439488 -0.013075763 -0.0056948266 -0.070309
-0.0014900324 -0.04969038 -0.064164236 -0.021858813 -0.07419786 -0.00030111338 0.021198973 -0.069949456
-0.032767598 0.02682465 -0.023268072 -0.00056147913 0.019979127 -0.026483286 -0.076689094 0.035672583
0.097462654 -0.056629058 -0.050101247 -0.042617276 -0.016759818 0.0025433747 -0.07435082 -0.023611052
0.0037715982 -0.07377575 0.011096407 -0.03763619 -0.043292336 -0.039896037 0.08451138 0.0050204485
-0.031109855 -0.073313884 0.09061663 0.053555377 0.018421909 0.020507365 0.07773522 -0.036377493
-0.06817079 0.027766779 -0.08863217 0.051820062 -0.058693543 -0.03185174 -0.012063865 0.053366497
-0.009490241 -0.030379558 0.06269164 0.022700004 0.03459374 -0.025080452 0.0017669982 0.0022676827
-0.05823556 -0.00236646 -0.028754376 0.014249655 0.003115043 0.0021151754 0.0013565826 -0.02959578
-0.02803742 0.0027774828 -0.002210084 0.042473182 0.06606103 0.09018872 0.020055462 0.004030822
-0.0727884 -0.050860826 0.008750954 -0.01366466 -0.07617162 -0.0568383 0.041384604 -0.065773115
-0.018096885 -0.06883488 -0.0369869 0.08777531 0.0057064476 0.09165807 0.045430224 0.07389654
0.051525228 -0.011799584 0.074380614 0.060285214 0.02231073 0.025170777 -0.046192482 0.03241331
0.05966121 0.059088107 0.036705825 0.029797759 -0.02977253 0.022786757 -0.0415569 -0.0006117768
-0.0503607 -0.018296074 0.009515118 -0.028209796 -0.084800944 0.06779913 0.08511363 0.02106313
-0.07044291 -0.043321673 -0.0021929925 -0.022336157 0.006486926 0.05250196 -0.011845551 0.08704897
0.089908235 -0.00776107 0.07779505 0.08639765 0.003824268 -0.0001364703 -0.05494473 0.088522226
-2.1049644e-05 -0.01679876 -0.07679886 -0.07266873 -0.0019599218 0.008454803 -0.008771241 -0.059128616
0.011565301 0.09207008 -0.032821607 -0.057580963 -0.022397218 0.0005221063 -0.05951795 0.052797668

user_tower.fc.5.bias f4 [64]
00000000: 86f7 4e3d 57a5 843d bacb 063c 985f 98ba
00000010: 987f 83bd b040 433d 7fa4 173d 189d e23b
00000020: 90e3 c13c c524 843d d6d3 59bd 1bc8 bfbd
00000030: d5c9 9a3d 205a b83d c211 c1bd 0049 18bc
00000040: 1748 323c d450 933d 2521 4cbd ded8 8e3c
00000050: 6a0d adbd 4c2c 7c3d 302b 9abd 26fc 773c
00000060: 98d9 a83d 0d9a e1bc 8cc7 aebd 3841 313d
00000070: 358e 0cbd 6b51 6b3d f6f6 cf3b 83bb 8d3d
00000080: 724d bebd a0fd cc3c 602b 913d a215 25bd
00000090: e11e 79bd cf16 c6bc ad6c 15bd 823e 293d
000000a0: 2883 82bd 45db 82bd 99d5 383c 2aa4 013c
000000b0: d884 b33d 2f29 b7b9 43d7 483d 88d6 a13c
000000c0: ca53 1dbd b900 723c 3a1d 14bd b571 2cbd
000000d0: a528 983d 1fce a93d 44b8 6fbd 9547 a2bd
000000e0: b8bc 60bb 6ce7 e93c ef1b f0bc 1a97 723d
000000f0: 50ab 44bc 2070 133d 3228 903c dde2 89bd
0.050529025 0.064768486 0.008227283 -0.0011625169 -0.06420821 0.047669113 0.03702211 0.0069156997
0.02366808 0.06452326 -0.053180538 -0.09364339 0.07558028 0.09001565 -0.09427215 -0.009294748
0.010881445 0.07193151 -0.049836297 0.017437395 -0.08449824 0.061565682 -0.075277686 0.0151358005
0.08244628 -0.027539277 -0.08534154 0.043275088 -0.034315307 0.057450693 0.0063465787 0.06920531
-0.09292115 0.025023282 0.07088351 -0.040303834 -0.060820464 -0.024180798 -0.036480594 0.041319378
-0.06372672 -0.063894786 0.011281394 0.007912675 0.08765572 -0.00034935164 0.049033415 0.019755617
-0.038409986 0.01477068 -0.036160685 -0.042100627 0.07429627 0.082912676 -0.05852534 -0.079238094
-0.0034292173 0.028552733 -0.029310195 0.059226133 -0.012003735 0.035995603 0.017597292 -0.06732724

item_tower.fc.0.weight f4 [256, 12]
00000000: ffda 633e 9473 983c c649 133e 3ed8 143e
00000010: 54b8 023e 9474 3ebe af1a a0bd 4eb9 993d
00000020: 411b 3f3e 8a77 3bbc 1b91 8b3e cca7 7ebe
00000030: 4c54 32be 5573 e83b a6d4 36be c47f 503e
00000040: 06ca 80be 0db9 d53d 6b59 833e aa78 8d3e
00000050: 902a 753e 820a fcbd 8082 8cbe 8657 873b
00000060: 16a9 173e 2c97 eebd d34a 7abe 8efb 7ebd
00000070: 5df5 1b3e b13c a93d c689 54be 6215 6abe
00000080: 7e30 073d 3f1c 4b3e 0249 f6bd 645d 83be
00000090: ebf3 5b3e 343a 55be 0f32 03be 0d3f bbbc
000000a0: 960b 03be 8026 893e 8e1d ce3d be67 753e
000000b0: 969f 2f3e 6f3c b43d e656 00be 6dc7 a13d
000000c0: b4e1 2e3e 7abd 5e3d 4229 0d3e 5cc5 53bd
000000d0: 92d8 33bb f866 183e 778c b33a 43df 893d
000000e0: ebdf d03d e94f 90bc 7856 eebc 7fab 733d
000000f0: 4cc0 0dbe e5b4 243e c189 69be efe9 20bd
00000100: 5a80 99bc 5610 81be eefd 493e 62df dbbd
00000110: 55bc 4e3d ddd5 c33c 2428 4b3e 73d0 2bbe
00000120: 5053 733d 8dca a13d d0ae 13bb edd6 47be
00000130: 568a 33bd b16f f0bb f609 0c3e d877 73be
00000140: 605f 873c 03f0 dd3b b574 34be 0f27 50be
00000150: 1c63 513e 1930 7f3d 7393 123e 5026 4bbe
00000160: f014 3bbd 7ef7 d83c 559a 443e 1160 8fbe
00000170: c290 70bc 3feb b4bc 6b4b 47be e25d 7f3e
00000180: ccd6 623e 99cc 513d a08c 5d3e 90e0 693e
00000190: b561 f2bd d8d5 8e3e 1b3e 8cbe 2aac 403e
000001a0: 667b a9bd 0547 0c3e b588 6f3e 6b22 24be
000001b0: a9b5 86bd 9c33 7ebb 3de6 f5bd 651e d23d
000001c0: f560 603c 7471 8b3e fd3d 6abe a025 2e3e
000001d0: 4727 8cbe 5b63 e8bd d1c9 333d 598c 743e
000001e0: e951 38be 5279 9a3e 5dbe 5f3e 2e47 7a3e
000001f0: c861 0f3e aa9c 4d3e 1f69 4f3d a42e acbd
00000200: a1f4 11be 9379 523e fffe 5ebc b33e 2d3d
00000210: fee8 fb3c 7f69 3b3e fb46 0cbe 172c 283e
00000220: 5880 89bc 2d6f 28be 1246 823e ce78 1ebd
00000230: cfc7 18be a1ef ad3d f146 93be 7d6e 8c3e
00000240: c027 eabd 7146 46be 9435 55be 9337 acbd
00000250: 5347 80be e652 4f3e bb25 633c d07b 373e
00000260: 884e f5b8 4fd8 d6bd 4665 41be 1c98 013c
00000270: d903 b23d ca4c d3bd 65a6 33be 1173 c4bd
00000280: 08ee 923e 11d8 273e 6f90 523e 2b68 d33d
00000290: 0868 a4bd 3229 06bd 2dbe ab3d 069a 3a3e
000002a0: 7b14 3b3e 45ae 663b f9f6 3d3e e486 8dbe
000002b0: 692d cf3d 03a2 33ba 62f1 5f3e 8867 35be
000002c0: a1ae 073d b44a 283e 4b9e 3dbe a905 d93d
000002d0: 4f0e 8c3d d919 11be 9947 14be 3cec fbbd
000002e0: 0885 6d3e 28f0 53be 27b3 2b3e cebf 0e3e
000002f0: 362d 873e 5379 783e aea0 9bbd 750f 153e
00000300: 2b24 a8bd d22e 8d3e f481 f3bd 9e34 fa3d
00000310: a661 903e 3b12 95bc 9f0f 85bd 3484 46be
00000320: 623a db3d 8aae 953e 84e6 923e 70e9 6b3e
00000330: 10ce 83be 5120 23be 911e 893e 1a9f d8b9
00000340: 9351 eebd 77c4 be3d bfe1 6d3e 6752 f63d
00000350: bdb2 1d3e 8c34 46bd 6aa7 a33d 92cd 8fbe
00000360: b24f c5bd 1410 44be 2367 6b3e 07d8 8e3e
00000370: 4797 8abd adcc 813e e8d2 683e 139a 7c3e
00000380: 746e f3bd 4baf d03d e3f7 223e a527 673d
00000390: bb64 03ba 08af 49be c331 3abe 14fa a3bd
000003a0: 8c83 8dbd 677e cebc 1216 25be d8dc 4cbe
000003b0: 9eef c3bd 2ca9 943e 82da a53a 05ff 10bd
000003c0: fcf1 2ebb 91fb 55be 267f f5bd e760 afbd
000003d0: 7325 97bd a937 80be 44f1 143d 16fb 3e3e
000003e0: bd29 883a a24b c73d c43e 85be 9727 173e
000003f0: 0e85 5dbe d878 9bbe 8055 21be eca3 1f3e
0.22251509 0.0186098 0.14383611 0.14535615 0.12765628 -0.18599159 -0.078175895 0.07506047
0.1866274 -0.011442075 0.27259144 -0.24868697 -0.17414969 0.007093827 -0.17854556 0.20361239
-0.25154132 0.10435686 0.25654158 0.27631122 0.23942018 -0.12306692 -0.27443314 0.0041303067
0.14810595 -0.116499275 -0.24442606 -0.06225162 0.15230317 0.08263529 -0.20755681 -0.2285972
0.03300523 0.19834994 -0.12025644 -0.2565719 0.21479766 -0.20822984 -0.12812065 -0.022857213
-0.12797388 0.26787186 0.10064231 0.23965356 0.17150721 0.08800589 -0.12533149 0.078993656
0.17078286 0.054379918 0.1378527 -0.05170189 -0.0027442318 0.1488303 0.0013698478 0.06732037
0.10198959 -0.01761623 -0.029093966 0.059489723 -0.13842887 0.16084631 -0.22806455 -0.039285596
-0.01873796 -0.25207776 0.19725773 -0.10735966 0.050472576 0.023905689 0.19839531 -0.16778736
0.059405625 0.078999616 -0.0022534616 -0.19515581 -0.0438331 -0.0073375334 0.13675675 -0.23776186
0.01652497 0.0067729964 -0.17622645 -0.203274 0.20447963 0.06230173 0.1431406 -0.19838834
-0.045674264 0.026485201 0.19199498 -0.2800298 -0.01468295 -0.02208483 -0.19462363 0.24938157
0.22152251 0.05122051 0.21635675 0.2283957 -0.118350424 0.27897525 -0.27391133 0.18815675
-0.082754895 0.13698967 0.23391993 -0.16028754 -0.06577618 -0.0038788086 -0.12006805 0.102597035
0.013694991 0.27234995 -0.22875209 0.1700654 -0.27373716 -0.113470756 0.04389364 0.23881663
-0.17999996 0.30170685 0.21849962 0.24441215 0.14002144 0.20079294 0.05063736 -0.084073335
-0.14253475 0.2055419 -0.0136106005 0.042296123 0.030750748 0.18301962 -0.13698952 0.16423069
-0.016784832 -0.1644866 0.25444084 -0.038689427 -0.14919971 0.08492971 -0.28765061 0.27428046
-0.11433363 -0.19362809 -0.2082122 -0.084090374 -0.25054416 0.20246467 0.013863976 0.17918324
-0.00011697138 -0.10490476 -0.18886289 0.007909801 0.0869214 -0.10317381 -0.17543943 -0.0959226
0.28697228 0.16391017 0.2056291 0.10322603 -0.08027655 -0.03275413 0.083858825 0.18222818
0.18269531 0.0035199088 0.18551244 -0.27641976 0.10116083 -0.000685245 0.21869424 -0.17715275
0.033125523 0.16434747 -0.18517415 0.10596783 0.06838667 -0.14170016 -0.14480437 -0.123009175
0.23195279 -0.20697081 0.1676756 0.13940355 0.2640168 0.24265032 -0.075990066 0.14556678
-0.082100235 0.27574784 -0.11890021 0.12217067 0.281995 -0.01819717 -0.0649712 -0.19386369
0.10704495 0.29234725 0.28691494 0.23038268 -0.2574315 -0.15930296 0.26781133 -0.0004131727
-0.11636653 0.093148164 0.23230647 0.12027436 0.15400214 -0.048389956 0.07990916 -0.28086525
-0.09634341 -0.19146758 0.22988562 0.2789919 -0.06767135 0.25351468 0.22736704 0.2466815
-0.11886302 0.101896845 0.15914874 0.056434292 -0.00050122634 -0.19695675 -0.18183045 -0.08006683
-0.06909856 -0.025206758 -0.161217 -0.2000612 -0.09567188 0.29035318 0.0012653621 -0.035399456
-0.0026694527 -0.20896746 -0.11987142 -0.085634045 -0.0738019 -0.25042465 0.0363629 0.18650469
0.0010388416 0.09731223 -0.2602445 0.14761196 -0.21632788 -0.30365634 -0.15755272 0.15589875

item_tower.fc.0.bias f4 [256]
00000000: 3cf7 6b3e 4843 2e3e a7f9 b4bd 3b62 853d
00000010: 5145 84be 7bc0 123e 7608 d3bd afe8 593e
00000020: f3d0 e53d 6ad2 f83b b0a7 8f3d 7fae 573e
00000030: 7ad0 6bbe 3eb6 8bbe b3f5 f8bd 7b78 8bbe
00000040: 8a00 2abe d36a 2b3e c82c 1ebe f6d0 d93d
00000050: 03bf aabd a8c1 273d c0e3 34bd 1975 c73c
00000060: 7c7e c53d 2650 d23d ff82 743e 049b d23d
00000070: 8f78 d73d 0567 34be fbab 603e 4bed 3b3d
00000080: 6b0f 82bc 6e98 b6bd 42cc 873e b3dd 233c
00000090: ef43 7e3e c04b 24bc a83c b1bd 0935 01be
000000a0: 823e b4bd cd3d 933e dfdf 493e 8657 3f3e
000000b0: 2269 fe3c 0db8 ee3c 7d9f 033e 850d d1bc
000000c0: b16c efbd 3c47 27be 4629 6c3e c220 733e
000000d0: d7cf 163c b280 a03d 638d 4abe f907 33be
000000e0: c6d4 b4bd 7314 33be 1a0b 7c3e 2d49 1cbe
000000f0: c5e9 86be 0955 4a3d 62d1 bebd 5be4 1d3e
00000100: 8c5e 433e 1377 16be 77bb 3ebe 261a e5bd
00000110: 32eb 153e 00e1 1e3e 8530 8f3e 242e 47bd
00000120: 9458 8b3e 53e0 6dbd 48f2 253e 3042 1e3e
00000130: c2d0 863e 7244 6a3e e03f 253e 84d4 533e
00000140: 6350 98be 2185 61be d022 02be ee93 443d
00000150: a63e 863e ded9 2abc e048 15be af1c 553e
00000160: c714 f8bc d13c 573e 3c28 f2bd fb81 0dbe
00000170: de8b 483e f686 eabd 6704 12bd 1463 92be
00000180: 4540 2dbe d464 6d3c 9794 afbd 5596 943e
00000190: 1bee 02be 40fd d9bd fba0 633e c493 05bd
000001a0: 3e40 5c3e 8831 a1bd f027 553e b139 18be
000001b0: ff9f 6f3e 87c9 ed3d 502e 14be 8829 433e
000001c0: 5b18 c43d 5aaa a7bd 9482 30be 6684 9abb
000001d0: 5759 5d3e f10a 5bbe 4edd 9f3d 632b dc3c
000001e0: ff4c 2fbe 066e 77be f848 7b3e 79b7 b6bd
000001f0: 81a1 0abe a516 523e f9e7 8e3d a644 8abd
00000200: 41d6 e13c 6908 2c3e ec70 13be 47df 0d3e
00000210: 5100 e53d ddbb e03d 2dea 93bc 8c9c 333e
00000220: bb8d 54bd 4990 943e d02c 1c3d d10e 3e3e
00000230: 44a3 e23c 697b a1bd 28e4 543e 45b9 b5bd
00000240: 10e8 1bbe 38ce 753e c483 d63d eda3 cf3c
00000250: a47c 8abe 8c6e 51be c89f 7bbd 55c1 00be
00000260: 4c4f 843e f0e6 6c3c 49a8 613e b5f0 653e
00000270: 3a29 49be f239 86be 0878 523e b4f6 19be
00000280: 8345 20be 30a9 85be 9d36 763e 489f 75be
00000290: 6f7c 74bc 6ae4 783d 85d6 31be 0737 95bd
000002a0: 13be 863e df07 edbb 07e8 85be c036 123e
000002b0: d359 1b3e bb39 593b 3769 fabc 056e f6bd
000002c0: 7a3b c83d 7dca 7b3d 5b51 73be 7af0 4c3e
000002d0: 3664 1d3e 7b9f 523e ac6b 693e a092 8a3e
000002e0: 53c8 803e 6579 39be cdb9 14bd 9835 78be
000002f0: 363a 523e cbe5 26be cf3d d63d 6eeb 393d
00000300: 4b83 a53d 9fdd 28be e1f8 1d3e fc35 1eb9
00000310: 7639 67be d40a e43d 25d2 90bc c32c 2d3e
00000320: fec0 ee3d 5593 5c3c ad53 03be b5ed 6ebd
00000330: 004e 7fbe 74cb 333e 930a 88ba fa22 e53d
00000340: 7e33 473d 5a00 5b3d 4479 79be cf4b a73d
00000350: 8ab4 833e d198 2dbe ca60 1d3e 8392 62be
00000360: b2b7 8dbe 0984 1a3e 0ee1 84be 1856 2e3e
00000370: 2b10 94be dae0 18be 234e 9cbd 461d 71be
00000380: 3e4c f73d 54d2 a53d 1a0c b8bd 2fe7 76bd
00000390: dfcc 0f3d 96d2 e9ba 0fd6 47be 5635 643e
000003a0: 38d2 013e 0965 1a3e 7db5 1a3e 4b05 533e
000003b0: d47d 8cbe 96c7 ac3d 0cb3 f43c f7c5 62bd
000003c0: 41f8 e6bc 192a 4ebe 97fd a13d a055 df3d
000003d0: 099e abbd cecb 3d3e 1eaf 053d 42ed 7fbe
000003e0: 5ada f5bd 915d 0ebd b3af be3d 83f3 85bc
000003f0: 0305 b83d d9a5 0bbd e12c c53d a85d 0cbe
0.23043531 0.17017853 -0.0883668 0.065128766 -0.25834134 0.14331238 -0.10304348 0.21280168
0.112214945 0.0075934427 0.07014406 0.21062659 -0.23028746 -0.27287477 -0.121562384 -0.27240357
-0.16601768 0.16739969 -0.1544677 0.10635559 -0.08337214 0.04095617 -0.04416251 0.024347829
0.096432656 0.10269193 0.23878096 0.10283473 0.105210416 -0.17617424 0.21940605 0.045880597
-0.015876492 -0.089157924 0.26523024 0.010001588 0.24830602 -0.010027826 -0.086541474 -0.12617888
-0.08800985 0.28758088 0.19714306 0.18685731 0.03105599 0.029140497 0.12853809 -0.025519142
-0.11690653 -0.16335768 0.2306262 0.23742965 0.009204826 0.07837047 -0.19780497 -0.1748351
-0.08829646 -0.1748827 0.2461361 -0.1526229 -0.26350227 0.049397502 -0.0931728 0.15419142
0.19079036 -0.1469386 -0.186262 -0.11186628 0.14640501 0.15515518 0.27966705 -0.048627988
0.27216017 -0.05807526 0.16205704 0.15454936 0.26331145 0.22877672 0.16137648 0.20686537
-0.2974883 -0.22023441 -0.12708592 0.04799264 0.26219672 -0.01042792 -0.14578581 0.20811723
-0.030283345 0.21019293 -0.1182408 -0.13819115 0.19584605 -0.11451523 -0.03564873 -0.28591216
-0.16919048 0.014489371 -0.08573263 0.29020944 -0.12786143 -0.10644007 0.22229378 -0.032611623
0.21508881 -0.078707755 0.20816016 -0.14865758 0.23400877 0.11610704 -0.14470792 0.19058812
0.09574958 -0.08186789 -0.17237312 -0.00471549 0.21616112 -0.21390893 0.078058824 0.026876157
-0.17119215 -0.24163064 0.24539554 -0.089217134 -0.13538171 0.2051645 0.06977839 -0.06751375
0.027567985 0.16800083 -0.14398545 0.13854705 0.11181701 0.10973332 -0.018056 0.17540187
-0.051892977 0.2901633 0.038128674 0.1856034 0.027665742 -0.07884867 0.2079016 -0.08873228
-0.15225244 0.24004447 0.10474351 0.02534672 -0.27048218 -0.20452327 -0.061431676 -0.1257375
0.2584175 0.014459357 0.22036852 0.22455104 -0.19644633 -0.26216084 0.20553601 -0.15035516
-0.15651517 -0.26105642 0.24044271 -0.23986542 -0.014922245 0.060764708 -0.17366989 -0.07285886
0.2631689 -0.0072336043 -0.26153585 0.14278698 0.15170984 0.0033145982 -0.030567748 -0.12032703
0.09776969 0.061472405 -0.23761503 0.2001361 0.15370259 0.2056865 0.2279498 0.2706499
0.25152835 -0.18112715 -0.036310006 -0.24239194 0.20530018 -0.16298597 0.10461008 0.04539054
0.08081683 -0.16490792 0.15426971 -0.00015088165 -0.22580513 0.11134878 -0.01767833 0.16911606
0.11657904 0.013462861 -0.12824889 -0.058332164 -0.24932098 0.1755808 -0.0010379128 0.11188312
0.04863309 0.053467132 -0.24362665 0.08168756 0.25723678 -0.16952826 0.15368953 -0.22126202
-0.2767921 0.1508943 -0.25952953 0.1702503 -0.28918585 -0.14929524 -0.07632091 -0.23546323
0.12075089 0.080967575 -0.08986683 -0.060279068 0.03510749 -0.0017839249 -0.1951525 0.22285971
0.12677848 0.15077604 0.15108295 0.20607488 -0.2743975 0.084365055 0.029870532 -0.055364575
-0.028194549 -0.20133246 0.079096965 0.109050035 -0.08379752 0.18534777 0.032637708 -0.2499285
-0.12004538 -0.0347572 0.09310856 -0.016351467 0.08985331 -0.03409371 0.096277006 -0.13707602

item_tower.fc.2.weight f4 [128, 256]
00000000: 2e1b 0ebc 5fd8 5c3b c559 2e3a 767c c1bc
00000010: 4fa2 dab9 a00d 3c3a f94a cebc 9569 c2bc
00000020: 1273 1a3b 2c1c 83bc 79db 40b9 934d 0c3b
00000030: c80d 78b8 e13b 273b b67a 143c 6b8f b7ba
00000040: f026 43b9 6b70 29bc 4f83 96bc 81d8 bebc
00000050: 7364 87bc 0a08 bcbb 79c5 19bc ac37 06bd
00000060: 560e 993c 4e18 5bbc 803c 0a3b 28c5 a438
00000070: 84eb 013d e55e 08bb f42c 71bc 6f7d 4dbc
00000080: 7a3c e43c 809a ac36 0d3d d63c 9de2 79bb
00000090: c330 133b b754 59bc 2e06 d0bc db62 67bc
000000a0: 2af6 f73c 044d 90ba 3420 8139 0c5e 81ba
000000b0: 91cc bebb 188e afbc 47e2 ddbc 61ed 2bba
000000c0: 75a4 13ba 2cab a0bc 200d f53a d4b8 eeba
000000d0: f2f0 fdb8 e223 b7bc 4057 34bb ad67 01bb
000000e0: ce33 afba ad47 8cbc 2fb0 723c 6470 e33a
000000f0: d918 f639 91dd f93c 1e0d 3939 0a55 06b9
00000100: e0aa 2b3b 5144 fcbc e1b5 c1bc e220 103b
00000110: ebb3 c43c 906c 00bb e444 073d 61c8 81ba
00000120: cd0c e53c 8f05 f03a 284d 2dbb c537 a13a
00000130: 39f3 ca3c f8e3 b4bc 674c 73bc e137 9b3c
00000140: 5053 abbc 288d 06bd f2bb 2bbb 2c23 003b
00000150: e8cf d838 8f60 ef3c 5ca1 cb3c b2d6 4f3b
00000160: 4d02 683c a850 f5bc e2a9 243c b358 a23c
00000170: 7b71 53bc 3f9f 023b 1b17 eebc 3cd8 fb3a
00000180: bc2f ea3c fe98 593b 03a7 293b e34d b039
00000190: 252e ddbc 001e 1abb 0d7b bf3b c887 ca3a
000001a0: 544f 0ebc 420d c6bc cf26 c0bc 5f54 dbbc
000001b0: cd8c d83c d439 b03a ca8f 07bc 14a3 5f3c
000001c0: 89b9 00bd a2e9 d33c 8a99 5ebb 1e56 b3bc
000001d0: 7d75 06ba 14cf 48ba 123e 423b 1165 23ba
000001e0: f7b1 b6bc 4091 5dbc 9f4a 733c 6769 193b
000001f0: 93a7 ccb9 65b2 343c e099 1b3c 08da e93c
00000200: bc77 143a f68e a2bb 2796 aa3a 194a 9ebc
00000210: eba6 093d 7f8e cbbc 2086 c63c 31d6 93b9
00000220: 6cb1 f73b ceee e0bc 0045 b5b5 017e 72bc
00000230: b5cd 2cbb 8f54 023d f41b 5738 b384 0f3c
00000240: 7ac7 d83c 2a84 873a b96b 64ba 01ca 853c
00000250: 6dac 61bc 28bf 14bb 1e54 a6ba 0e57 04bd
00000260: e9ee a53b 11bc 1739 aabc f2b9 52eb 743a
00000270: 5500 24bb 4024 04b9 3326 09bc 8a70 2ebb
00000280: fa10 c43c 5d75 ddba 1074 723c ae1a 30bc
00000290: bcf6 2a3b 5596 ff3c 1589 fcbc e12f 093b
000002a0: 9afa 803b b3f3 bcbc a0bc 23bb d71f 1d3c
000002b0: fcb6 bd3a 1b98 d33a 0d69 fe3c 9db4 873a
000002c0: ebe2 33bb 7418 8a3c 954f 03bd f515 79bc
000002d0: 42b7 06bd 15b9 833a 74a4 5cba d9af 13bc
000002e0: 58d3 ccbc 5922 063d dba1 8c39 1ace 8cba
000002f0: 1531 8d3c 69f2 79bc 77bd 2dbb 4013 0f3a
00000300: 7ce5 00bc e6d3 c03c 7612 883b 56b5 3cbc
00000310: 12c2 d1bc 6a59 9939 fc5f c1bc dd34 0ebb
00000320: 901d aabc e6ad 0f3b 896c 0fbc 2654 f4bc
00000330: e915 e0ba d653 ccbc 19d8 d9bc f3a4 8bbc
00000340: e6b3 d5bb 8d2f e6bc 000e 59b8 07ca fbbc
00000350: acfa dcbc 2a2a 723c ffba dcba 1d22 1cbb
00000360: f07a 94ba f0c8 ffbc 4a7d ff3a 5469 17bb
00000370: 8a5d e9bc e237 a5ba aec7 cabc 362d 0539
00000380: 4305 b3ba 8b2a d8bc 90b1 453c 1578 0a3c
00000390: c483 59ba 7705 6dba 78e8 053c 290a ec3a
000003a0: 83a1 1e3c f5a0 f7bc 4c6c 1d3b e1f8 77bc
000003b0: 86c6 1e3c 58bc 353a 9b65 32bb c2f4 cabc
000003c0: 969b 953b d337 13bb 9c55 2d3b f069 abba
000003d0: a1f0 29bb a2fe 4bbc e2eb 7dbc 4eb6 f4b9
000003e0: 756e 073b dfdf f1ba 75ad 273b 0802 93ba
000003f0: 1a07 96bc 73ba 953c 0812 d2bc 76d5 8abc
-0.008673472 0.0033698303 0.000665095 -0.023618918 -0.0004170113 0.0007173661 -0.025182234 -0.023731986
0.0023567122 -0.016004644 -0.00018392307 0.0021408543 -5.9140642e-05 0.0025517868 0.00906246 -0.0014004534
-0.00018611155 -0.010341744 -0.01837316 -0.023296596 -0.01652739 -0.005738263 -0.00938546 -0.032767937
0.018683594 -0.013372494 0.002109319 7.8568526e-05 0.031718746 -0.0020808515 -0.01472019 -0.012542113
0.027860869 5.1439856e-06 0.026152158 -0.0038129457 0.0022459484 -0.0132648265 -0.025393572 -0.01412269
0.030268747 -0.001100928 0.0002462879 -0.0009869947 -0.005822726 -0.02143006 -0.027085437 -0.00065585045
-0.0005632111 -0.019612871 0.0018695928 -0.0018213042 -0.0001210886 -0.022355977 -0.0027517825 -0.0019745633
-0.001336688 -0.017124021 0.014812513 0.0017352221 0.0004693929 0.030501159 0.00017647861 -0.00012810915
0.0026194379 -0.030794295 -0.023646297 0.0021992256 0.024011573 -0.0019595958 0.033024684 -0.0009901637
0.027960205 0.0018312203 -0.0026443694 0.0012299946 0.02477418 -0.02208136 -0.014849759 0.018947544
-0.02091375 -0.03284946 -0.0026204553 0.0019552214 0.00010338408 0.029220847 0.024857216 0.0031713662
0.014160705 -0.029945686 0.010050269 0.019817686 -0.012905474 0.0019931344 -0.029063752 0.0019214223
0.028587215 0.0033202763 0.00258869 0.00033627366 -0.026999542 -0.0023516417 0.005843526 0.0015451843
-0.0086859055 -0.024176244 -0.023456005 -0.02677363 0.026434327 0.0013444968 -0.008274028 0.013649721
-0.03142694 0.02586824 -0.0033966028 -0.02189165 -0.00051292015 -0.00076602516 0.0029639048 -0.00062330166
-0.022301657 -0.0135234 0.014849334 0.0023408772 -0.00039034765 0.011028861 0.009497136 0.028546348
0.0005663594 -0.00496089 0.001301472 -0.019322442 0.03360645 -0.02484822 0.024233878 -0.0002819761
0.007558992 -0.027457621 -1.3505633e-06 -0.0148005495 -0.0026367728 0.031818923 5.1286028e-05 0.008759665
0.026462305 0.001033907 -0.00087135617 0.016331675 -0.01377402 -0.0022696946 -0.0012689864 -0.032309584
0.0050638807 0.00014470542 -0.00046298403 0.0009342927 -0.0025024612 -0.00012602005 -0.008370924 -0.0026617371
0.023933876 -0.0016895939 0.014798179 -0.010748548 0.0026087007 0.031199614 -0.030827085 0.002093308
0.003936124 -0.023065424 -0.0024984255 0.009590111 0.0014474089 0.0016143353 0.031055951 0.001035351
-0.0027448486 0.016857363 -0.032058317 -0.015202989 -0.032889612 0.0010049666 -0.00084168394 -0.009014093
-0.02500312 0.0327476 0.00026823473 -0.0010742575 0.017235318 -0.015255549 -0.0026510635 0.00054578856
-0.007867213 0.023538541 0.0041525913 -0.011517843 -0.025605235 0.00029249053 -0.02360534 -0.002169899
-0.02076605 0.002192372 -0.008753904 -0.029825281 -0.0017096373 -0.02494232 -0.026592301 -0.017046427
-0.0065216897 -0.028098846 -5.174987e-05 -0.030735983 -0.026974998 0.0147805605 -0.0016840397 -0.0023824044
-0.0011328142 -0.031223744 0.0019492295 -0.0023103552 -0.028486986 -0.0012605155 -0.024753418 0.00012700711
-0.0013658184 -0.026387474 0.01206626 0.008451481 -0.00082975277 -0.0009041647 0.008173101 0.0018008399
0.009682062 -0.030228117 0.0024020849 -0.015135021 0.009690886 0.00069326675 -0.0027221206 -0.024774913
0.0045656664 -0.0022463694 0.0026448732 -0.0013077836 -0.002593078 -0.012450846 -0.015498133 -0.00046675134
0.0020665203 -0.001845356 0.0025585566 -0.0011215815 -0.018313933 0.018277382 -0.025643364 -0.01694749
