models/dumps/TwoTowerModelV2_v2.pth (torch, 394114 bytes, 15 tensors)

user_tower.fc.0.weight f4 [256, 11]
0	0x3e7f3258	0.24921548
1	0xbe6592bd	-0.22419257
2	0x3e281de8	0.16417658
3	0xbce0560f	-0.027384786
4	0x3e087161	0.133245
5	0xbdd346e0	-0.10316253
6	0x3e882ad9	0.2659519
7	0x3e4319e3	0.19052844
8	0x3e988d8d	0.29795495
9	0x3d2f2d73	0.042767953
10	0xbd1f1890	-0.038841784
11	0xbdb1654f	-0.08661901
12	0xbe50a885	-0.20376785
13	0x3e879618	0.264817
14	0x3e64e525	0.22353037
15	0xbe983547	-0.29728147
16	0xbe7f3800	-0.24923706
17	0xbd3141f7	-0.0432758
18	0x3e6bb27f	0.2301731
19	0xbe7621eb	-0.24036376
20	0xbe1a4776	-0.15066323
21	0x3e8ea341	0.27858928
22	0xbe5dfeec	-0.21679276
23	0x3e6719b5	0.225684
24	0xbd99f379	-0.07517142
25	0xbe8ea734	-0.2786194
26	0xbe4dc0fb	-0.20093147
27	0x3dad747b	0.084694825
28	0xbe6f0d0d	-0.23344822
29	0x3e6dcd38	0.23222816
30	0xbe247511	-0.16060282
31	0xbe4f366e	-0.20235607
32	0x3cd7f72b	0.026362976
33	0xbc2a40c9	-0.010391423
34	0xbce7e04a	-0.028305192
35	0xbe6279b5	-0.2211674
36	0xbd79f065	-0.061020274
37	0x3e82caf4	0.25545466
38	0xbe8813b5	-0.26577535
39	0xbc1ab0a8	-0.009441532
40	0xbe4884be	-0.19581887
41	0xbe5a623c	-0.21326536
42	0xbba50e83	-0.0050371303
43	0x3e83ca61	0.2574034
44	0xbe907295	-0.2821242
45	0xbdb898dd	-0.09013531
46	0xbc83aaad	-0.016072595
47	0x3c447bb9	0.011992388
48	0x3e84ebb7	0.25961086
49	0xbe964d4f	-0.29355857
50	0x3e282d5a	0.1642355
51	0x3e3d6635	0.1849602
52	0x3e56e165	0.20984419
53	0xbe05b661	-0.13057853
54	0xbda64c83	-0.08120062
55	0x3c22883c	0.009920176
56	0x3e7bd161	0.2459159
57	0x3e8ee8bd	0.2791194
58	0xbd28871a	-0.041144468
59	0xbcde7520	-0.027155459
60	0x3e25bc07	0.16185008
61	0xbe7b0420	-0.24513292
62	0x3e44da8c	0.19223994
63	0xbe9a27c6	-0.3010847
64	0xbe887d79	-0.26658228
65	0x3e263ace	0.1623337
66	0x3e7548da	0.23953572
67	0x3dd0c499	0.10193748
68	0xbd2ec4fe	-0.042668335
69	0xbddcfc3d	-0.10790298
70	0xbd739d02	-0.059475906
71	0xbe92d193	-0.28675517
72	0x3e2bc2fd	0.16773601
73	0x3da95f6a	0.08270152
74	0x3e7da014	0.24768096
75	0xbe243c07	-0.16038524
76	0xbd6e09e4	-0.0581149
77	0xbe75ebf0	-0.24015784
78	0xbe0ca4cb	-0.13734739
79	0x3e6dd928	0.2322737
80	0x3d8dc81d	0.06922934
81	0x3e7d225b	0.24720137
82	0xbcc3d907	-0.023907198
83	0x3e0d6287	0.13807116
84	0x3d8c4a5b	0.0685012
85	0x3d887684	0.0666323
86	0x3dfa89a7	0.12233286
87	0xbc3a9a9e	-0.011389403
88	0x3e84a3e2	0.25906283
89	0xbe5f0366	-0.2177864
90	0x3e5218a1	0.20517208
91	0x3e167d45	0.14696224
92	0x3e396766	0.1810585
93	0xbbb00315	-0.005371461
94	0x3d05929e	0.03261053
95	0xbe305817	-0.17221104
96	0xbdf2a1cf	-0.11847269
97	0x3d611c90	0.05495888
98	0xbd926aaa	-0.07149251
99	0xbdfc57df	-0.123214476
100	0x3d90195f	0.07036089
101	0xbe1bfbf8	-0.15232837
102	0x3e7133b2	0.23554876
103	0x3e83a02f	0.25708148
104	0xbe2dfe6f	-0.1699159
105	0x3a80eaaa	0.000983556
106	0x3e18cafd	0.14921184
107	0xbcdb9ba0	-0.026807606
108	0x3d81ec17	0.06343859
109	0x3e4ca100	0.19983292
110	0xbe509fb5	-0.20373423
111	0xbe85b78a	-0.26116592
112	0xbe5e22bc	-0.21692938
113	0xbe7cd0b2	-0.24688986
114	0xbe7bf42f	-0.24604867
115	0xbdb3abcf	-0.08773004
116	0x3e7f0b3c	0.2490663
117	0xbe874620	-0.2642069
118	0xbe37671d	-0.17910428
119	0x3e251879	0.16122617
120	0xbd148ac9	-0.03626517
121	0xbe595717	-0.21224628
122	0x3e961eea	0.2932046
123	0x3d957eb4	0.07299557
124	0x3e29e7a4	0.1659227
125	0x3e02bd48	0.12767518
126	0x3e80fc4b	0.25192484
127	0x3e289018	0.16461217
128	0x3c78a108	0.015175112
129	0xbe70abfb	-0.23503105
130	0xbe9740e7	-0.29541704
131	0xbd465680	-0.048422337
132	0x3d7e7a22	0.062128194
133	0xbe42d73f	-0.19027422
134	0x3c8441ae	0.0161446
135	0x3d1a545f	0.03767812
136	0xbe45f7d4	-0.1933282
137	0x3e4faa90	0.20279908
138	0xbbb007e6	-0.0053720353
139	0xbd3c9e68	-0.046049505
140	0xbe7a6ad5	-0.24454816
141	0x3c17b2e8	0.009258963
142	0x3db13ebd	0.086545445
143	0x3e0278f6	0.12741455
144	0xbce6c0e3	-0.028168147
145	0xbe32ba6f	-0.17453931
146	0xbdf91038	-0.121612966
147	0x3dd3879b	0.10328599
148	0xbc0817e5	-0.008306478
149	0xbe6ba278	-0.23011196
150	0xbe35dc92	-0.17759922
151	0xbdd5480f	-0.10414135
152	0xbe51b806	-0.20480356
153	0x3e3a019b	0.18164675
154	0x3e086fcb	0.13323896
155	0x3e0eb793	0.13937216
156	0xbe5e425b	-0.21705
157	0xbe54b242	-0.20771125
158	0xbbafe82a	-0.0053682523
159	0xbe8297cb	-0.25506434
160	0x3e843e22	0.25828654
161	0x3db7d544	0.08976224
162	0xbe8931f0	-0.26795912
163	0xbd3dbedc	-0.046324596
164	0xbe2a718e	-0.1664488
165	0xbe840f2c	-0.25792825
166	0xbe83cbec	-0.25741518
167	0x3d11726c	0.03550951
168	0x3e64563f	0.22298525
169	0xbc93d2ea	-0.018044908
170	0x3e84b37b	0.25918183
171	0xbe2d24ad	-0.16908522
172	0xbe231437	-0.1592568
173	0x3b9ac6eb	0.00472342
174	0x3d3cd20c	0.046098754
175	0x3e6bf17b	0.23041336
176	0xbe2ae67a	-0.16689482
177	0xbe43e7fb	-0.19131462
178	0x3d8fabe6	0.07015209
179	0xbe58d233	-0.21173935
180	0xbe727f39	-0.23681344
181	0x3e010334	0.12598878
182	0x3e813e4e	0.25242847
183	0xbe7c5c11	-0.24644496
184	0xbe1a0ea2	-0.15044644
185	0x3e6eea56	0.2333158
186	0xbd88751c	-0.06662962
187	0xbe61930d	-0.22028752
188	0xbe024ee5	-0.12725408
189	0x3d1b8226	0.037965916
190	0xbe48fcfa	-0.19627753
191	0xbd0b0056	-0.033935867
192	0xbd6cdfeb	-0.057830732
193	0xbe3e72d6	-0.18598494
194	0x3e694bc1	0.22782804
195	0xbb9fe246	-0.004879269
196	0x3e8d96d7	0.27654144
197	0xbe4500f4	-0.19238645
198	0xbe8a1334	-0.26967776
199	0xbd299f05	-0.04141142
200	0xbc8af4f5	-0.016962508
201	0x3e82b2ec	0.25527132
202	0xbdfa942a	-0.12235291
203	0x3d4a536f	0.049395975
204	0x3dcd039e	0.100104555
205	0x3e1f5109	0.15558256
206	0xbe7761e3	-0.24158435
207	0xbe1151a4	-0.141913
208	0x3d9752a1	0.07388807
209	0xbe3c8c36	-0.18412861
210	0x3e979215	0.2960364
211	0xbe4e00a8	-0.20117438
212	0x3e1f2004	0.15539557
213	0x3e29ddc5	0.16588505
214	0x3e905037	0.281862
215	0x3de294a9	0.11063511
216	0x3e192f09	0.14959349
217	0x3d876500	0.06611061
218	0x3e0e4f63	0.13897471
219	0x3e202e6d	0.1564271
220	0xbd9d169e	-0.076703295
221	0xbe854c6c	-0.26034868
222	0x3dbfa87c	0.09358308
223	0xbe0744f5	-0.13209899
224	0x3daec363	0.08533361
225	0x3e7639b4	0.2404545
226	0x3e0f7271	0.140085
227	0xbe82bbe1	-0.25533965
228	0xbe90df02	-0.2829514
229	0xbdd53689	-0.104107924
230	0x3e9557fb	0.29168686
231	0x3d024d1b	0.031811815
232	0x397feb20	0.00024406286
233	0x3b1cd060	0.0023927912
234	0xbe71f91f	-0.23630188
235	0xbe6a8ad1	-0.22904517
236	0xbc1b183c	-0.009466227
237	0x3e4cf050	0.20013547
238	0xbdebbbae	-0.115104064
239	0xbe4a62e1	-0.19764282
240	0xbdbba68c	-0.09162626
241	0xbd6729cb	-0.05643634
242	0x3de028a0	0.109452486
243	0xbe290a17	-0.16507755
244	0xbe67cafd	-0.22636028
245	0x3b9061b8	0.00440618
246	0xbda22235	-0.07916681
247	0xbd87e6e9	-0.066358395
248	0x3e08853e	0.13332078
249	0x3dbeb619	0.09312076
250	0xbe12603b	-0.14294522
251	0xbd5504d1	-0.052006546
252	0x3ddf0ed7	0.10891502
253	0xbe58a74a	-0.21157566
254	0xbe21024e	-0.15723535
255	0xbe3515bb	-0.17684071

user_tower.fc.0.bias f4 [256]
0	0xbd52c8ed	-0.05146115
1	0x3e524514	0.20534164
2	0x3c61171d	0.013738421
3	0x3e21100a	0.15728775
4	0x3e4c1b7f	0.19932364
5	0xbce44675	-0.027865628
6	0x3de031cf	0.10947
7	0xbd4a3608	-0.049367934
8	0x3e1e34d4	0.1544984
9	0xbe5765be	-0.21034905
10	0xbe65de3f	-0.22448061
11	0x3e2fcf11	0.17168833
12	0x3db8d471	0.09024895
13	0x3e01b2bd	0.1266584
14	0x3e887d65	0.26658168
15	0xbe1aae2d	-0.15105505
16	0x3d5027e2	0.050819285
17	0x3d809d41	0.06279994
18	0x3e802c0d	0.25033608
19	0xbe4609f1	-0.1933973
20	0x3e2e3096	0.17010722
21	0xbe706700	-0.23476791
22	0x3d797907	0.060906436
23	0xbe7c275b	-0.24624388
24	0x3e968043	0.2939473
25	0xbba135a5	-0.004919725
26	0xbd7dcf28	-0.061965138
27	0x3bff9c59	0.0078006205
28	0x3e6c77f0	0.23092628
29	0x3ca866ed	0.020556891
30	0xbe95e791	-0.29278234
31	0xbe52a268	-0.20569766
32	0x3c079980	0.008276343
33	0xbc8f59d0	-0.01749888
34	0x3e0a4426	0.13502559
35	0xbe11885a	-0.1421217
36	0xbdd54b13	-0.1041471
37	0x3d0e984e	0.034813218
38	0x3e83d516	0.2574851
39	0x3e1c049d	0.15236135
40	0xbc896360	-0.016771019
41	0xbe8793b2	-0.2647987
42	0xbe868eb4	-0.2628075
43	0xbe48933e	-0.19587418
44	0x3e300c7e	0.17192265
45	0x3e0dd477	0.1385058
46	0x3e36edb4	0.17864114
47	0x3e6bc5b5	0.23024638
48	0xbe28f050	-0.16497922
49	0x3de87f74	0.11352435
50	0x3e88deea	0.2673257
51	0x3e0bf662	0.13668206
52	0x3da9c0ba	0.08288713
53	0xbca54991	-0.02017668
54	0xbe706de0	-0.23479414
55	0x3ce08046	0.027404916
56	0xbe7d403e	-0.24731538
57	0xbcfb1d52	-0.03065363
58	0xbe82048f	-0.25394103
59	0xbe486cf7	-0.19572817
60	0xbe83c23c	-0.25734127
61	0xbe4e182f	-0.20126413
62	0xbe753ea6	-0.2394968
63	0x3d284755	0.041083653
64	0x3ce17ac5	0.027524361
65	0xbe82d033	-0.25549468
66	0x3e879e5b	0.26488003
67	0xbe5fbbd9	-0.21849002
68	0xbd1473f7	-0.036243405
69	0x3cd31e03	0.025771147
70	0xbd351f17	-0.044219103
71	0x3e7cd320	0.24689913
72	0x3e006384	0.12537962
73	0xbc5dad1f	-0.013530045
74	0xbd899c29	-0.06719238
75	0x3c4a1423	0.0123339025
76	0x3e38322f	0.17987894
77	0xbbc7d229	-0.006098051
78	0xbdf50495	-0.119637646
79	0xbd55d3ab	-0.052203815
80	0x3da430c5	0.080171145
81	0xbe2927eb	-0.16519134
82	0x3e2c555d	0.16829439
83	0x3d2dc881	0.042427544
84	0xbd967779	-0.07347006
85	0xbdb40b8d	-0.08791266
86	0x3e85289f	0.26007554
87	0xbe6f1fab	-0.23351924
88	0x3e9129cf	0.2835221
89	0xbe7a5633	-0.24446945
90	0xbc81fd02	-0.015867714
91	0x3e8eea9e	0.27913374
92	0xbd16c3e2	-0.036807902
93	0x3db06bfa	0.08614345
94	0xbd182a09	-0.037149463
95	0x3e7a3983	0.24436001
96	0x3e785023	0.2424932
97	0xbe7cf466	-0.24702606
98	0xbe600cb1	-0.21879841
99	0xbe8bbf82	-0.27294546
100	0x3d44c6d1	0.04804117
101	0x3c7b5ee3	0.015342447
102	0xbd370e0e	-0.044691138
103	0x3e17a4c8	0.14808953
104	0x3cb50a7c	0.022099726
105	0x3d0afb7d	0.033931244
106	0x3d242855	0.040077526
107	0x3e276996	0.16348872
108	0x3d9b6285	0.075871505
109	0xbd864f9f	-0.06558155
110	0x3ca4571a	0.020061065
111	0x3dbfbd4d	0.09362278
112	0xbe2b570f	-0.16732429
113	0x3e27f06e	0.1640031
114	0xbac1c2ab	-0.0014782747
115	0xbc9a1664	-0.018809505
116	0xbe56faa6	-0.20994052
117	0x3e6f9405	0.23396309
118	0x3e5d2213	0.2159503
119	0x3c6deb0c	0.014521372
120	0xbe8adcba	-0.27121526
121	0xbe808343	-0.25100145
122	0xbe8aa1cd	-0.2707657
123	0x3e248aa5	0.16068514
124	0xbe24e8d4	-0.16104442
125	0xbe61e0b3	-0.22058372
126	0x3dcfbdcb	0.10143622
127	0xbe3408a3	-0.1758142
128	0xbe80a7d9	-0.25128058
129	0xbcad8a9d	-0.02118426
130	0x3e87907b	0.26477417
131	0xbe4807e4	-0.1953426
132	0xbe590232	-0.21192244
133	0x3d811c9a	0.063042834
134	0x3de5db1c	0.112234324
135	0x3d174a73	0.036936235
136	0x3cb26381	0.021775963
137	0x3e029736	0.12752995
138	0xbe40cea9	-0.18828835
139	0x3e7e08ff	0.24808119
140	0x3e82582c	0.25457895
141	0xbdbc8b61	-0.09206272
142	0x3ce8886d	0.028385365
143	0x3dd0d908	0.101976454
144	0xbe013eb1	-0.12621571
145	0x3e15a4e6	0.14613685
146	0xbcb2cae5	-0.021825263
147	0xbd25b488	-0.04045537
148	0x3e890ce0	0.26767635
149	0xbdd317d5	-0.1030728
150	0x3e1b8fc9	0.15191568
151	0x3e71bd70	0.23607421
152	0x3e2c1b45	0.16807278
153	0x3e2bfa8c	0.16794795
154	0xbe252f51	-0.16131331
155	0xbe36d1bb	-0.17853443
156	0x3e8d74be	0.2762813
157	0x3e489f66	0.19592056
158	0x3e134763	0.143827
159	0xbe591831	-0.21200635
160	0xbe4c157f	-0.19930075
161	0x3e40be1f	0.18822525
162	0x3d96c8ca	0.07362516
163	0x3cf29d13	0.029615914
164	0x3d82d0d2	0.063874856
165	0xbe4dab4d	-0.20084877
166	0x3daac388	0.08338076
167	0x3d27c701	0.04096127
168	0xbe26c0bc	-0.1628446
169	0xbc7015bd	-0.01465362
170	0x3e2ca445	0.16859539
171	0xbdf161c9	-0.11786229
172	0x3d9166bb	0.070996724
173	0x3e4a4b6a	0.1975533
174	0xbd7da931	-0.06192893
175	0x3e1882b4	0.1489361
176	0xbd630746	-0.05542686
177	0x3db66c41	0.089073665
178	0xbd9fca17	-0.078022175
179	0x3e79dc21	0.24400379
180	0x3e2620dc	0.16223472
181	0x3c8aa776	0.016925555
182	0x3e47493e	0.19461533
183	0x3dc96959	0.098345466
184	0x3dd18dac	0.102321
185	0x3e2c4453	0.16822939
186	0x3d6a7d4a	0.05724839
187	0x3d81efc0	0.06344557
188	0x3e0d40e8	0.13794291
189	0xbe831fed	-0.25610295
190	0x3e7b4a1d	0.2453999
191	0x3e02871d	0.12746854
192	0x3e8709f2	0.26374775
193	0xbe0e38b4	-0.13888818
194	0xbe0ba65c	-0.1363768
195	0x3e50abd9	0.20378055
196	0x3e0549af	0.1301639
197	0x3e698b4a	0.22807041
198	0xbe62c035	-0.22143634
199	0x3e666059	0.22497691
200	0xbe8a340a	-0.26992828
201	0xbc4d75cb	-0.012540291
202	0xbe3dab7f	-0.18522452
203	0x3df82f7a	0.121184304
204	0xbd81784b	-0.06321772
205	0x3e516ef3	0.2045248
206	0xbd565f73	-0.05233712
207	0xbdb90484	-0.090340644
208	0xbe99cb69	-0.30038002
209	0x3ceee81d	0.029163415
210	0xbd9a5416	-0.07535569
211	0xbc90ba51	-0.017666968
212	0x3e2bd5fc	0.16780847
213	0x3e956f3d	0.2918643
214	0xbd848899	-0.064713664
215	0x3d086d42	0.03330732
216	0x3ded1fc8	0.115783274
217	0x3e44858c	0.19191569
218	0x3e300667	0.17189942
219	0xbdc6096f	-0.09669768
220	0xbe7ed0aa	-0.24884287
221	0xbe272317	-0.1632198
222	0xbe5aeb79	-0.21378888
223	0xbe351f8d	-0.17687817
224	0x3e95bcc7	0.29245588
225	0x3e4cf128	0.20013869
226	0x3e5ac89a	0.21365586
227	0x3de47c34	0.11156502
228	0xbcb21904	-0.021740444
229	0xbd9f57e6	-0.07780437
230	0x3d146832	0.03623218
231	0xbdf2d333	-0.11856689
232	0x3e68ff80	0.22753716
233	0x3e653d13	0.22386579
234	0x3d13a9d6	0.03605064
235	0xbda8c238	-0.08240169
236	0x3e4a975b	0.197843
237	0xbe5c7d27	-0.21532117
238	0xbe5903df	-0.21192883
239	0x3dc4e105	0.096132316
240	0xbe4f9a91	-0.20273806
241	0x3e6dad78	0.23210704
242	0xbe01dfa6	-0.12682971
243	0xbd8b78cd	-0.0681015
244	0xbd494f20	-0.049147725
245	0xbe57becb	-0.21068875
246	0xbe696add	-0.22794671
247	0x3da398ad	0.07988105
248	0x3e2ff7cf	0.17184375
249	0xbe35bdef	-0.17748235
250	0xbe72116c	-0.23639458
251	0x3e8b1c09	0.27169827
252	0x3e43d967	0.19125901
253	0xbdd2c6fe	-0.10291861
254	0xbd4dbb16	-0.050227247
255	0xbe36eccf	-0.17863773

user_tower.fc.2.weight f4 [128, 256]
0	0xbb822254	-0.0039713774
1	0xbc466a4f	-0.012110307
2	0xbc5f4691	-0.013627664
3	0xbc8f3587	-0.017481579
4	0x3ca6b21d	0.020348603
5	0xbd3629f8	-0.04447362
6	0xbc8c83d8	-0.017152712
7	0x3d0810e4	0.033219233
8	0x3d5945da	0.05304513
9	0x3d4eaf0e	0.050459914
10	0x3882fe22	6.246219e-05
11	0xbd3dd524	-0.046345845
12	0x3ce5cf2d	0.02805289
13	0xbcebe641	-0.028796317
14	0xbcdcc398	-0.026948735
15	0x3d3d9082	0.04628039
16	0xba342292	-0.00068716065
17	0xbd3c95fe	-0.04604148
18	0x3c2f53e8	0.010701157
19	0x3cbbaf42	0.022910718
20	0xbd48f1d0	-0.049058735
21	0x385645fc	5.1086754e-05
22	0xbc0b66c0	-0.008508384
23	0xbcbdae73	-0.023154473
24	0xbcbee8e3	-0.023304408
25	0x3c809ba0	0.015699208
26	0xbc888981	-0.01666713
27	0x3d6e8b31	0.058238212
28	0xbbaf32b6	-0.0053466214
29	0xbd46960a	-0.048482932
30	0xbc36b153	-0.011150676
31	0x3be5f584	0.007017793
32	0xbd37f6bc	-0.04491304
33	0x3d1bdf64	0.03805484
34	0xbccf1e77	-0.025283081
35	0xbbc57fef	-0.0060272138
36	0xbcae76b1	-0.02129683
37	0xbc1b6c76	-0.009486308
38	0x3c9f458c	0.019442342
39	0x3d4b86dd	0.049689163
40	0x3b933328	0.0044921823
41	0xbc61a33e	-0.01377183
42	0x3a97e1bb	0.0011587659
43	0xbce11c95	-0.02747945
44	0xbc9da20e	-0.019242313
45	0x3cfe40dc	0.031036787
46	0xbc5637e7	-0.013074852
47	0x3cc56bf1	0.024099322
48	0xbc6bac7b	-0.014384384
49	0xbab208e5	-0.0013582973
50	0xbcfb7d3e	-0.030699369
51	0xbb41becd	-0.002956319
52	0x3c864cd8	0.016394064
53	0x3d2564d9	0.04037938
54	0x3cc94373	0.024568295
55	0x3c678be8	0.014132477
56	0x3c9532fa	0.018212784
57	0xbc195d86	-0.009360677
58	0x3c5e7370	0.013577327
59	0x3bbbad4c	0.0057274457
60	0x3a98a77c	0.0011646594
61	0xbaeda5f6	-0.0018131125
62	0x3c3d992c	0.011572164
63	0x3d4208be	0.04737162
64	0xbd09df6c	-0.033660337
65	0xbb6ffb5e	-0.0036618332
66	0xbc8daea5	-0.017295191
67	0xbc0b4e56	-0.008502563
68	0x3bb436f9	0.0054997173
69	0x3c27c4b1	0.010239766
70	0xbb6e075c	-0.0036320304
71	0x3cb2c939	0.021824466
72	0x3d853cbc	0.06505725
73	0xbc8e74e6	-0.017389726
74	0xbd4885c1	-0.048955683
75	0x3d698d9a	0.057019807
76	0x3d304504	0.04303457
77	0x3d5ad28a	0.053423442
78	0xbc8eaf02	-0.017417435
79	0x3a0ef620	0.00054535456
80	0xbcdf79f4	-0.027279831
81	0xbb2ff8a7	-0.002685109
82	0x3c0aa7aa	0.008462826
83	0xbcab2007	-0.020889295
84	0xbc593d79	-0.013259285
85	0x3d0284ed	0.03186505
86	0xbb7ecbac	-0.0038878722
87	0x3a9da613	0.0012027643
88	0xbd019db1	-0.031644527
89	0xbb7e9a9c	-0.0038849479
90	0xbd17c9c4	-0.037057653
91	0xbb0e3f71	-0.0021705294
92	0x3d3ffda4	0.04687275
93	0x3cdac753	0.026706373
94	0x3bc9a26a	0.0061533945
95	0x3cc3c93e	0.02389967
96	0x3c8aa691	0.016925128
97	0x3d0afc4a	0.033932008
98	0x3c26e61d	0.010186699
99	0xbd049216	-0.03236588
100	0xbd0f801f	-0.035034295
101	0x3d6d59a4	0.057946816
102	0x3d5faa3d	0.05460571
103	0x3d3a7a4c	0.045526788
104	0xbc82b08d	-0.015953327
105	0xbc4ae807	-0.012384421
106	0x3baabbd7	0.0052103805
107	0xbcf18d5e	-0.029486354
108	0xbcb237c0	-0.0217551
109	0xbb131349	-0.0022441915
110	0x3d37d22e	0.044878177
111	0x3d5ffe5a	0.054685928
112	0xbc6592e7	-0.014012075
113	0xbd210654	-0.039312676
114	0x3cf3ac1b	0.029745152
115	0x3cfba6b4	0.030719139
116	0xbcf86392	-0.030320916
117	0x3bb05534	0.0053812508
118	0xbc9aadbd	-0.018881673
119	0x3bb6fb6f	0.0055841724
120	0x39fc349e	0.00048104388
121	0x3b3e567b	0.0029043246
122	0xbbb7c146	-0.005607757
123	0xbc99b17d	-0.01876139
124	0xba447d97	-0.0007495521
125	0x3a4c4c7e	0.00077933806
126	0x3cb31236	0.02185927
127	0xbd41ac71	-0.047283594
128	0x3d40aee8	0.047041804
129	0x3d5f2451	0.054477993
130	0xbbc0868b	-0.005875414
131	0x3c50740f	0.012722983
132	0x3c6de092	0.014518874
133	0x3c14fa50	0.009092882
134	0x3c803aac	0.015652977
135	0x3ca43623	0.020045346
136	0xbd11033e	-0.035403483
137	0x3d3c2247	0.045931127
138	0x3b78c85e	0.0037961225
139	0xbd231472	-0.03981442
140	0x3cedadbe	0.02901351
141	0x3d33bceb	0.043881338
142	0x3c6a701c	0.0143089555
143	0xbcdbefea	-0.026847798
144	0xbc628bb6	-0.013827255
145	0x3cd2898b	0.025700351
146	0xbbf726b5	-0.007542456
147	0xbc05d63d	-0.008168754
148	0x3d5a87dc	0.05335222
149	0x3b7b6365	0.0038358804
150	0xbd383703	-0.04497434
151	0x3d666ebc	0.05625795
152	0xbd43360e	-0.047658972
153	0x3c14e50d	0.009087813
154	0x3add0d6e	0.0016864964
155	0xba88f590	-0.001044916
156	0xba09c3dc	-0.00052553206
157	0xbcd2876f	-0.025699345
158	0x3d6dc4ef	0.05804914
159	0x3a5209ec	0.0008012343
160	0xbd37757a	-0.04478977
161	0x3d4af105	0.04954626
162	0xbc7bfd26	-0.0153801795
163	0x3c9329de	0.0179643
164	0xbc8463c7	-0.016160859
165	0xbd214cbd	-0.039379824
166	0xbcfc0c87	-0.030767692
167	0x3ca3c5db	0.019991806
168	0x3c40ae9c	0.01176038
169	0xbd237049	-0.039902005
170	0xbd4ddf14	-0.050261572
171	0x3d122520	0.035679936
172	0x3d7ba3d7	0.061435547
173	0x3d7def16	0.06199559
174	0x3bde73b1	0.006788694
175	0x3d1e33b1	0.038623516
176	0x3d018f67	0.0316309
177	0x3d45b89a	0.048271753
178	0xbd48b493	-0.049000334
179	0x3d46bfa6	0.048522614
180	0x3d640ffb	0.055679303
181	0x3cf6b130	0.030113786
182	0x3d5b993d	0.053612936
183	0x3d096025	0.033538956
184	0xbd3275b8	-0.043569297
185	0xbd40ff71	-0.047118608
186	0xbcf101c9	-0.029419797
187	0x3d20be2b	0.03924386
188	0xbc5a7c95	-0.013335367
189	0x3b26888a	0.0025410973
190	0xbce71f66	-0.028213214
191	0x3c969b51	0.018384608
192	0xbc86681e	-0.016407069
193	0xbc920ad8	-0.017827436
194	0xbb94dddc	-0.0045430493
195	0xbd000de3	-0.031263243
196	0x3c0c8a2f	0.008577867
197	0x3c0eab43	0.008707824
198	0xbd04bc56	-0.032406174
199	0x3d60178d	0.05470996
200	0x39179bae	0.00014458477
201	0xbc67f417	-0.014157317
202	0x3a82eac4	0.0009988178
203	0x3d0e82c5	0.03479268
204	0xbcd3d498	-0.025858209
205	0xbd2bf2da	-0.04197965
206	0x3c2c660a	0.010522375
207	0xbc7645c8	-0.015031286
208	0x3c897674	0.016780116
209	0x3c1af4b3	0.009457755
210	0x3d2cdeef	0.042204794
211	0x3c1c12a2	0.009525927
212	0x3ba65ded	0.005077115
213	0x3d6df7be	0.058097593
214	0x3d3655e0	0.04451549
215	0x3d0714fa	0.03297899
216	0x3d7a3118	0.061081976
217	0x3d7b4119	0.06134138
218	0x3ce7f503	0.028315073
219	0x3b49c982	0.0030790274
220	0xbc8d579e	-0.017253693
221	0xbc95d0b9	-0.018288003
222	0xbc4d6fa7	-0.012538827
223	0x3d6286e5	0.055304427
224	0x3c30b3b5	0.010785033
225	0x3d63161b	0.055441003
226	0x3d7bc612	0.06146819
227	0xbc2d9da4	-0.0105966665
228	0x3c8aeb61	0.01695794
229	0xbd28ee3e	-0.04124283
230	0x3d167a22	0.03673757
231	0xbbabf7b0	-0.0052480325
232	0x3d5880b4	0.052857116
233	0x3d5b15b0	0.05348748
234	0x3d21427f	0.039370056
235	0xbc25bd85	-0.010115986
236	0x3cc4a770	0.024005622
237	0x3c35693a	0.011072451
238	0xbd028626	-0.031866215
239	0xbc849802	-0.016185764
240	0x3cdb7773	0.026790356
241	0xbce478b5	-0.027889589
242	0x3d421d83	0.047391426
243	0xbc5152a1	-0.012776048
244	0xbd002ae5	-0.031290907
245	0x3d01951c	0.031636342
246	0xbd0c31a0	-0.034227014
247	0x3d647e87	0.05578473
248	0x3d2e18d6	0.042504154
249	0xbd012b0c	-0.031535193
250	0xba5374bd	-0.00080664066
251	0xbc85a2b0	-0.016312927
252	0xbd3af666	-0.04564514
253	0xbd0c6f0e	-0.034285598
254	0x3d04d510	0.032429755
255	0x3b20aa59	0.0024515598

user_tower.fc.2.bias f4 [128]
0	0xbcd7dccb	-0.0263504
1	0x3d7423df	0.05960452
2	0x3d2a9036	0.041641437
3	0xbd49fba2	-0.04931224
4	0xbbd4f4f4	-0.0064989273
5	0x3d096e18	0.03355226
6	0x3d62ba9c	0.055353746
7	0xbbf1c210	-0.0073778704
8	0xbd048618	-0.032354444
9	0x3d4e541f	0.050373193
10	0x3b5d28fb	0.003374635
11	0x3cb262d4	0.02177564
12	0xbd3020e2	-0.04300011
13	0xbb89f322	-0.004209892
14	0xbac43c84	-0.0014971648
15	0x3d1eaef2	0.03874106
16	0xbd8f6232	-0.07001151
17	0x3b8ac42a	0.0042348104
18	0xbad9b383	-0.0016609285
19	0xbc491e4c	-0.01227529
20	0x3ca64e75	0.020301083
21	0x39fe8ef6	0.0004855317
22	0x3c9f53d3	0.01944915
23	0xbbcfbfec	-0.0063400175
24	0xbce0a03e	-0.02742016
25	0x3b4bb459	0.0031082837
26	0x3d0e20f6	0.034699403
27	0xbd4cb942	-0.049981363
28	0xbbebd38f	-0.0071968506
29	0xbd7f89d7	-0.062387314
30	0x3d69a11c	0.05703841
31	0x3cecce90	0.02890709
32	0x3d52f514	0.051503256
33	0xbd329eff	-0.04360866
34	0xbd2e7f38	-0.042601794
35	0xbcffd9db	-0.031231811
36	0x3cc5cd19	0.02414565
37	0x3cdd3ded	0.027007068
38	0x3d0d09a0	0.034433007
39	0x3c8bac62	0.017049972
40	0x3bcb266a	0.0061996477
41	0xbd091525	-0.03346743
42	0xbcab85b3	-0.020937776
43	0xbd2cf953	-0.04222996
44	0x3d443aef	0.047907766
45	0xbcabd6c5	-0.020976434
46	0xbca7835b	-0.020448377
47	0xbd1d773a	-0.03844378
48	0xbba42c76	-0.005010183
49	0xbc89655c	-0.016771965
50	0xbcbeeb69	-0.023305612
51	0x3cf76ff9	0.03020476
52	0xbc9e1059	-0.019294905
53	0xb9b2f208	-0.00034131133
54	0x3c169487	0.009190685
55	0xbd2eeeca	-0.042708196
56	0xbc50fda3	-0.012755784
57	0xbcad5746	-0.02115978
58	0xbd6e0058	-0.058105797
59	0xbc1b9bf3	-0.00949763
60	0xbd062bc0	-0.032756567
61	0xba0679e8	-0.000512986
62	0xbd56d521	-0.05244935
63	0x3caa7e7c	0.020812266
64	0x3d5ecd03	0.054394733
65	0x3d3aa653	0.045568775
66	0x3d67143c	0.05641578
67	0xbcff75ff	-0.031184195
68	0xba7d76fc	-0.0009668914
69	0x3d36e33b	0.044650298
70	0xbd513240	-0.051073313
71	0x3d25c6b3	0.040472697
72	0x3c221477	0.0098925745
73	0xbcf32413	-0.029680287
74	0xbd1aa879	-0.037758324
75	0xbc8de6b6	-0.017321926
76	0xbcfaf1bf	-0.030632852
77	0x3cf7d1f7	0.030251486
78	0x3c5a018a	0.013306031
79	0xbcba68cf	-0.022755055
80	0x3d36d80c	0.044639632
81	0xbadb52a9	-0.0016733009
82	0x3d2fa0ea	0.04287807
83	0x3d5cbbe1	0.053890113
84	0xbd610aa1	-0.054941777
85	0x3bb976a4	0.005659895
86	0x3c2ac06c	0.0104218535
87	0x3d81ab8d	0.06331549
88	0x3cd00be2	0.025396291
89	0xbc1788d7	-0.009248934
90	0x3d2867ee	0.04111474
91	0x3c2e38c5	0.010633652
92	0xb9b4d80b	-0.0003449324
93	0x3a19ba3e	0.0005864239
94	0xb9976382	-0.00028875103
95	0x3d34075d	0.043952335
96	0x3d041d02	0.032254227
97	0xbd469412	-0.048481055
98	0x3d13ecce	0.036114506
99	0x3c9f56de	0.019450601
100	0x3d527fd1	0.051391426
101	0x3d126576	0.035741292
102	0xbd03cb34	-0.03217621
103	0xbc39059f	-0.011292844
104	0x3bb11d5a	0.0054051103
105	0xbca9745c	-0.020685367
106	0xbc9a250e	-0.018816497
107	0xbb32d97e	-0.002729028
108	0x3b1c7813	0.002387528
109	0x3d2322e7	0.039828207
110	0x3cf63848	0.030056134
111	0xbd841609	-0.06449515
112	0x3c8e048f	0.017336158
113	0xbce6bccc	-0.028166197
114	0xbd276978	-0.040872067
115	0xbc30a548	-0.010781594
116	0x3bd64dea	0.00654005
117	0xbd748607	-0.05969813
118	0x3c7ee2ad	0.015556973
119	0x3cc3492a	0.023838598
120	0x3ce3e79f	0.027820406
121	0xbbaf6fc0	-0.005353898
122	0x3d172f81	0.036910538
123	0xbd08bcf2	-0.033383317
124	0xbbd7ec36	-0.006589438
125	0xbd3ba791	-0.0458141
126	0xbd0abcb0	-0.033871353
127	0xb59cbe00	-1.1678203e-06

user_tower.fc.5.weight f4 [64, 128]
0	0x39be2da8	0.0003627364
1	0xbd546009	-0.0518494
2	0xbd63b4ed	-0.055592466
3	0x3c937238	0.0179988
4	0x3cd4e15f	0.025986372
5	0xbd94e25d	-0.07269738
6	0x3d7c200f	0.06155401
7	0xbc4e70b5	-0.012600114
8	0x3c9005e7	0.01758094
9	0xbc1b6733	-0.009485054
10	0xb838a490	-4.402228e-05
11	0xbdb1d969	-0.08684046
12	0xbcc91575	-0.024546364
13	0xbd9f3548	-0.077738345
14	0x3c93cb17	0.018041177
15	0x3d87f218	0.066379726
16	0x3d9a64c8	0.07538754
17	0xbb2a4312	-0.0025979918
18	0x3d02c775	0.0319285
19	0x3d904c3a	0.07045789
20	0xbb7f8aa3	-0.0038992546
21	0xbceb6f98	-0.028739735
22	0x3d8156a9	0.06315357
23	0xbd1177d3	-0.035514664
24	0xbc9c2575	-0.01906083
25	0x3d81a1ae	0.06329666
26	0xbd0f1914	-0.034936026
27	0x3c8a8ffc	0.01691436
28	0x39638474	0.0002169775
29	0x3d7d60d2	0.061859913
30	0x3d42be2a	0.047544636
31	0x3ca7fd12	0.020506416
32	0x3b15371a	0.0022768439
33	0xbd15cb6e	-0.03657096
34	0xbc0eb3d1	-0.008709864
35	0x3d63b53f	0.05559277
36	0xbd9cd4c4	-0.07657769
37	0xbd396779	-0.045264695
38	0x3d9e70e4	0.07736376
39	0x3c8abc40	0.016935468
40	0x3d61cf1d	0.05512916
41	0xbd284a9f	-0.04108679
42	0x3b05462e	0.002033602
43	0xbd1e201f	-0.03860485
44	0x3d9f3698	0.07774085
45	0x3c2e1df0	0.010627255
46	0xbd5f61a8	-0.05453649
47	0x3d1b76b9	0.03795502
48	0xba36d16e	-0.00069739565
49	0x3a880eaf	0.0010380353
50	0x3b92280d	0.004460341
51	0xbcf4ee20	-0.029898703
52	0x3c38478f	0.01124753
53	0x3b255ab8	0.0025231075
54	0xbd8e1887	-0.06938272
55	0x3a8b7a70	0.0010641348
56	0x3b20cee3	0.0024537377
57	0x3bea4167	0.00714891
58	0xbd8366b4	-0.064160734
59	0xbd084420	-0.033268094
60	0x3d738545	0.059453268
61	0xbca5a20a	-0.020218868
62	0x3d3b1f6c	0.045684263
63	0x3d914b15	0.07094399
64	0xbc87d921	-0.016583027
65	0xbcbc7bcc	-0.02300825
66	0xbd9cd125	-0.07657079
67	0x3c3a7b34	0.011381913
68	0xbb199c89	-0.002343925
69	0xbcbf9896	-0.023388188
70	0xbb880dbb	-0.0041520274
71	0x3d63cc46	0.055614732
72	0x3bbbd736	0.0057324423
73	0x3d22a591	0.039708678
74	0xbd762942	-0.06009794
75	0x3d8acc07	0.067771964
76	0xbd2de106	-0.042450927
77	0xbca10778	-0.019656882
78	0x3d49f689	0.04930738
79	0x3d1f01a7	0.038819935
80	0xbda8cff7	-0.08242791
81	0x3aa7dc38	0.0012806719
82	0xbd8d61c9	-0.06903417
83	0x3baa5b2b	0.0051988564
84	0xbbb169b7	-0.0054142135
85	0x3d8b8326	0.06812124
86	0x3b780798	0.0037846323
87	0xbc013204	-0.00788546
88	0x3bf6be98	0.0075300448
89	0x3d7ab90e	0.06121164
90	0x3d2d9ee3	0.042387854
91	0xbd8a5d76	-0.067561075
92	0x3bf939c3	0.0076057627
93	0x3c5ff55b	0.013669337
94	0x3c70cd45	0.014697378
95	0x3d9b605a	0.07586737
96	0xbd8f9788	-0.07011324
97	0x3c5a713a	0.013332659
98	0x3c67fd3c	0.014159497
99	0xbd047440	-0.032337427
100	0x3d309436	0.043110095
101	0xbd3bb154	-0.04582341
102	0x3d866a59	0.06563253
103	0xbd72a2f7	-0.059237447
104	0x3c9113ae	0.01770958
105	0xbd654488	-0.05597356
106	0x3bcc2e7c	0.0062311273
107	0x3d7171cd	0.05894642
108	0x3a765681	0.00093970454
109	0xbd5f6974	-0.054543927
110	0x3cc19934	0.023632623
111	0x3ca319b4	0.019909717
112	0xbd531210	-0.051530898
113	0xbd737ec7	-0.059447076
114	0x3d9c0836	0.076187536
115	0xbd7ec29c	-0.062197313
116	0xbd36f5bd	-0.044667948
117	0xbd79c25e	-0.06097638
118	0xbd0181b0	-0.03161782
119	0x3d93cda7	0.072169594
120	0xbce9bffa	-0.028533924
121	0x3c47b2ef	0.012188657
122	0x3cadd733	0.021220779
123	0xbb2450bc	-0.0025072535
124	0x3b2d555c	0.0026448583
125	0x3c6fd1ca	0.01463742
126	0x3cb3215c	0.021866493
127	0xb9a9e249	-0.00032402787
128	0x3d69b466	0.057056807
129	0xbd0c01bf	-0.034181353
130	0x3d1a7373	0.037707757
131	0xbd9c3698	-0.076276004
132	0x3b01cef3	0.001980719
133	0xbca3c545	-0.019991526
134	0x3c920769	0.017825799
135	0x3da048e2	0.07826401
136	0xbc765b92	-0.0150364805
137	0xbcfa34a8	-0.030542687
138	0x3c85d1a5	0.016335318
139	0x3d11710d	0.035508204
140	0x3d345bce	0.044032864
141	0x3c4b54ac	0.012410324
142	0xbda23bf8	-0.079215944
143	0xbd5d2dcc	-0.053998753
144	0xbd4ffbab	-0.05077712
145	0x3d57216d	0.05252211
146	0x3cb1b1d5	0.021691242
147	0x3d7cbede	0.061705463
148	0x3b730658	0.0037082639
149	0x3cae60ec	0.02128645
150	0x3d8d186c	0.06889424
151	0x3cd38d59	0.025824236
152	0xbd9335b1	-0.07187975
153	0xbd4a4a0d	-0.049387027
154	0xbd014fed	-0.031570364
155	0xbab0a454	-0.0013476708
156	0x3d55661c	0.052099332
157	0x3d6c35f2	0.057668634
158	0xbd27a91c	-0.04093276
159	0xbd96b9ec	-0.073596805
160	0x3d4e5eb6	0.050383292
161	0x3d496c4f	0.049175557
162	0xbc0fa09e	-0.008766321
163	0x3c493ac2	0.012282075
164	0xbd1e0a74	-0.038584188
165	0x3d73e793	0.05954702
166	0xbcfd69e0	-0.030934274
167	0xbd4fc1ee	-0.050722055
168	0xbcc4dc3c	-0.024030797
169	0x3b9574d7	0.0045610475
170	0x3ccf187f	0.025280235
171	0xbd975310	-0.0738889
172	0x3d963871	0.07334984
173	0xbb05ca6a	-0.0020414838
174	0xbccd5d4c	-0.025068901
175	0x3cbf96a2	0.023387257
176	0x3c8bee7b	0.01708149
177	0xba85fd3c	-0.0010222564
178	0xbc4ed97c	-0.0126250945
179	0x3cdd0d2c	0.02698382
180	0x3952b6bb	0.00020095233
181	0xbd629960	-0.05532205
182	0x3cc8d0e7	0.024513675
183	0xbda96936	-0.082720205
184	0x3d41ea02	0.047342308
185	0x3b1e15ac	0.0024121804
186	0xbc50213a	-0.012703234
187	0xbd36bda4	-0.04461445
188	0xbdb20dbb	-0.08694025
189	0x3b81595b	0.0039474196
190	0x3d9de900	0.07710457
191	0xbd8e411b	-0.06946012
192	0xbd620330	-0.05517882
193	0xbd4056df	-0.046957847
194	0xbd270bfc	-0.040782914
195	0xbcdb7a12	-0.026791606
196	0x3c3f5d64	0.011679981
197	0xbd909bd1	-0.070609696
198	0xbda59f9d	-0.080870844
199	0xbdb5868f	-0.08863556
200	0x3cb82875	0.022480229
201	0xba9a196f	-0.0011756847
202	0x3cd41352	0.025888119
203	0xbd837de6	-0.064204976
204	0xbb8546c8	-0.0040672757
205	0x3a4386f3	0.00074587687
206	0xbcaf0f00	-0.021369457
207	0xbd090af0	-0.033457696
208	0xbd9f4871	-0.07777489
209	0xbad56e37	-0.0016283457
210	0xbd4c1d9a	-0.049832918
211	0xbc980e7b	-0.018561592
212	0x3d9ca32a	0.076483086
213	0x3d2c0e24	0.042005673
214	0xbb32d18b	-0.0027285542
215	0xbd567917	-0.052361574
216	0xbd90f72e	-0.07078396
217	0xbda8b377	-0.08237355
218	0xbd9a606d	-0.07537923
219	0xbc03101a	-0.007999444
220	0xbd047496	-0.032337748
221	0xbd0c0278	-0.034182042
222	0xbc8ecab1	-0.017430635
223	0xbd9398bb	-0.072068654
224	0x3ca3b93f	0.019985793
225	0x3d8c954c	0.068644136
226	0xbd057523	-0.032582413
227	0x3a60394a	0.00085534586
228	0x3bf235c0	0.0073916614
229	0xbce4e2a0	-0.027940094
230	0x3bfc1daf	0.0076939682
231	0x3cfa0314	0.030519046
232	0xbcc2e654	-0.02379147
233	0xbd73551c	-0.05940734
234	0xbd6b3335	-0.05742188
235	0x3b03b6b3	0.002009791
236	0xbd4d2c7b	-0.050091248
237	0xbd55cea9	-0.05219904
238	0xbd86ce9d	-0.06582377
239	0xbc98ebde	-0.018667158
240	0x3c8a78e6	0.016903352
241	0x3d1df9eb	0.03856842
242	0xbd3641cd	-0.044496346
243	0x3d4fa656	0.05069574
244	0xbce894d9	-0.028391289
245	0x3d4b00ce	0.049561314
246	0x3d351ae8	0.044215113
247	0x3d83b621	0.06431223
248	0xbd40f899	-0.04711208
249	0xbcf80f47	-0.030280722
250	0x3d7a9da0	0.06118548
251	0x3c9a0a67	0.018803788
252	0xbcc22068	-0.023697093
253	0xbdc1ad17	-0.094568424
254	0x3d352d23	0.0442325
255	0x3a403f0c	0.00073336135

user_tower.fc.5.bias f4 [64]
0	0xbd802b53	-0.062582634
1	0xbd896e88	-0.06710535
2	0x3d4dbfd4	0.05023177
3	0x3d6cf8cb	0.057854455
4	0x3d31ebfe	0.04343795
5	0xbbcd169a	-0.006258798
6	0x3db28a05	0.087177314
7	0xbc4f50dd	-0.012653557
8	0xbd868a88	-0.065693915
9	0x3db55ba0	0.08855367
10	0x3d346a1c	0.044046506
11	0x3dbc0f9a	0.09182663
12	0xbd850b33	-0.06496277
13	0xbd3bb92b	-0.045830887
14	0x3d458c8c	0.04822974
15	0x3d1f31f2	0.03886599
16	0xbd038d26	-0.03211703
17	0x3d5f0da8	0.054456383
18	0xbca8e5df	-0.020617424
19	0xbd7b7863	-0.061394107
20	0xbd24fe49	-0.040281568
21	0x3d62e082	0.05538989
22	0x3da2cfc0	0.079497814
23	0x3d6b4625	0.057439942
24	0x3d7eca12	0.062204428
25	0x3d0ced04	0.034405723
26	0x3c94b150	0.018150955
27	0x3d026816	0.031837545
28	0x3d6c5c6d	0.05770533
29	0x3d4ab690	0.04949051
30	0xbd8cea5c	-0.06880638
31	0xbd7c867f	-0.061651703
32	0xbd23f17f	-0.04002523
33	0x3afac579	0.0019132338
34	0x3ceb1e98	0.028701112
35	0x3cd81b13	0.026380097
36	0x3ca28c74	0.019842364
37	0xbd6da5b5	-0.05801936
38	0x3cf1b5e2	0.029505674
39	0xbc4f587d	-0.012655375
40	0x3d01d344	0.03169562
41	0xbc842b76	-0.016134005
42	0x3d39dd42	0.045377024
43	0x3d96113f	0.07327508
44	0x3c62a651	0.013833598
45	0x3d31ef44	0.043441072
46	0xbc3a485f	-0.011369794
47	0xbd44ed55	-0.0480779
48	0x3d82e9be	0.06392239
49	0x3bbaec1e	0.005704417
50	0xbd2abc7a	-0.04168365
51	0xbd46c333	-0.048526
52	0xbc119a94	-0.008886952
53	0xbd444a90	-0.04792267
54	0x3cd59e12	0.02607635
55	0x3d02b240	0.031908274
56	0x3b59cdd0	0.0033234246
57	0x3cc02095	0.023453036
58	0xbd173cdb	-0.03692327
59	0xbd8c3928	-0.06846839
60	0xbdb6d0b2	-0.08926524
61	0xbd267235	-0.04063626
62	0xbdb39b02	-0.087698
63	0xbd826660	-0.06367183

item_tower.fc.0.weight f4 [256, 12]
0	0xbc098d44	-0.008395497
1	0x3e701946	0.23447141
2	0xbe0c7b8d	-0.13719006
3	0x3d9f5aee	0.07781015
4	0x3cc67b84	0.024228819
5	0x3e091058	0.13385141
6	0x3e36cd8c	0.17851847
7	0xbe1923c6	-0.14955053
8	0x3e4a3f80	0.19750786
9	0x3c92c2aa	0.017915089
10	0x3e598778	0.21243083
11	0xbe7cb1cf	-0.24677204
12	0x3af474e6	0.0018650561
13	0xbe724906	-0.23660669
14	0xbe8b7393	-0.27236614
15	0x3e264d27	0.16240369
16	0xbdcbc670	-0.09949958
17	0x3e8079a0	0.25092793
18	0x3cd322c8	0.02577342
19	0x3e5ca575	0.21547492
20	0x3e0f5347	0.13996612
21	0xbe2fac68	-0.17155612
22	0xbe1150b9	-0.1419095
23	0x3e7d53b8	0.24738967
24	0xbdee2ca4	-0.11629608
25	0xbe06787c	-0.13131899
26	0x3dd1de5a	0.10247488
27	0x3da04a09	0.07826621
28	0xbe5a1f17	-0.21300922
29	0x3e198262	0.14991143
30	0xbce2d634	-0.02769003
31	0x3b7692bf	0.0037624089
32	0xbe3d9570	-0.18514037
33	0x3e830217	0.25587532
34	0x3d189cef	0.03725904
35	0x3d85d27b	0.065342866
36	0xbe153dca	-0.14574352
37	0xbe4834f7	-0.19551454
38	0xbcdaaefe	-0.02669477
39	0x3e3b1758	0.18270624
40	0xbdeb0b78	-0.11476797
41	0xbe40ea9b	-0.18839495
42	0x3d49c75a	0.049262382
43	0xbd88bae0	-0.066762686
44	0x3e0698fb	0.13144295
45	0x3de0d1d5	0.10977522
46	0xbe159571	-0.14607789
47	0x3e43b4ac	0.1911189
48	0xbd767f72	-0.060180135
49	0x3e5622ed	0.2091176
50	0x3e3f525b	0.1868376
51	0xbe6d0c24	-0.23149163
52	0x3e51c6c0	0.20485973
53	0xbe5376c1	-0.2065077
54	0x3e65f370	0.22456145
55	0xbe765992	-0.24057606
56	0x3d2a1791	0.04152638
57	0x3d577015	0.052597124
58	0xbc22073b	-0.009889419
59	0x3e54b4f0	0.20772147
60	0xbe2443a1	-0.16041423
61	0xbd8fbd19	-0.070184894
62	0x3e75fb85	0.24021728
63	0x3e81e4dc	0.25369918
64	0x3dca1f61	0.09869266
65	0xbe7b0f74	-0.24517614
66	0xbd221813	-0.03957374
67	0xbe67ce99	-0.22637405
68	0xbd9b791e	-0.07591461
69	0x3e1e5de8	0.1546551
70	0x3d874756	0.06605403
71	0xbe6dc909	-0.2322122
72	0xbc113313	-0.008862275
73	0x3e5609fb	0.20902245
74	0xbe3dc2db	-0.18531363
75	0xbe7ce5b1	-0.24696995
76	0xbe1baa9e	-0.15201804
77	0xbe80e3e2	-0.2517386
78	0xbe7738ed	-0.24142809
79	0xbd2dd169	-0.042436037
80	0xb8ac27bc	-8.209e-05
81	0xbe4bed05	-0.19914635
82	0xbd0b3569	-0.033986483
83	0x3cb6f6f2	0.02233455
84	0xbe596dc4	-0.21233279
85	0xbd6b640a	-0.05746845
86	0xbc82b375	-0.015954712
87	0xbe185721	-0.14876987
88	0xbd9a6e4d	-0.075405695
89	0xbb1ccf58	-0.0023927297
90	0xbe831e76	-0.25609177
91	0xbe103498	-0.14082563
92	0xbe16a23b	-0.14710324
93	0xbd1e88e9	-0.038704786
94	0xbda891ec	-0.082309574
95	0x3cec1fd2	0.028823767
96	0xbd41ad59	-0.047284458
97	0x3e0861c0	0.13318539
98	0xbdace9a1	-0.08442999
99	0xbe460eed	-0.19341631
100	0x3e42ee02	0.19036105
101	0x3e6c2e97	0.23064648
102	0x3d998a65	0.074971
103	0xbdf682e9	-0.12036688
104	0x3e1ed6b5	0.15511592
105	0x3e947098	0.28992152
106	0xbe2d936a	-0.16950765
107	0xbe80b051	-0.2513452
108	0x3e82c763	0.25542745
109	0x3dcf1829	0.1011203
110	0x3e4e1b7e	0.20127675
111	0xbc99619d	-0.018723303
112	0x3be7425d	0.0070574717
113	0xbd8605cc	-0.065440744
114	0xbe8183cf	-0.25295874
115	0xbe57c871	-0.21072556
116	0x3e907e0b	0.28221163
117	0x3d8f5e12	0.07000364
118	0xbe6242ab	-0.22095744
119	0x3c585111	0.0132029215
120	0x3c199167	0.0093730455
121	0xbe64b1ca	-0.22333446
122	0xbe108804	-0.14114386
123	0x3e1e8e95	0.15484078
124	0xbdcd4401	-0.10022736
125	0xbe30b706	-0.17257318
126	0x3e827600	0.25480652
127	0xbe3b36a5	-0.18282564
128	0x3e82af35	0.25524297
129	0x3dde7ad5	0.10863272
130	0x3e055a02	0.13022617
131	0x3e4c2090	0.19934297
132	0x3e47e1ca	0.19519725
133	0x3c4ee53e	0.012627898
134	0x3da3af20	0.07992387
135	0xbdf2f2eb	-0.11862739
136	0x3e80450a	0.25052673
137	0xbe594e56	-0.21221289
138	0xbe687153	-0.2269948
139	0x3c91bfbb	0.01779162
140	0x3df4be2e	0.119503364
141	0xbd870c42	-0.06594135
142	0x3d278ea5	0.04090752
143	0x3d09c9c7	0.033639695
144	0x3d1abeeb	0.03777973
145	0xbe4344bc	-0.19069189
146	0xbe489a5c	-0.19590133
147	0x3df7a6ae	0.120923385
148	0xbdb1603c	-0.086609334
149	0xbe1aada4	-0.15105301
150	0xbdea03b3	-0.11426487
151	0x3e7e583d	0.24838348
152	0xbc66a9af	-0.014078542
153	0x3dee66b5	0.116406836
154	0xbda6f63f	-0.081524365
155	0xbd9ef4fd	-0.077615716
156	0xbe00462b	-0.12526767
157	0x3e9ae5f7	0.30253574
158	0xbdedb8f9	-0.11607546
159	0x3dc2accb	0.09505614
160	0x3d2e4556	0.042546593
161	0x3e0babd1	0.13639762
162	0x3dc01f52	0.09380974
163	0xbe39a507	-0.18129359
164	0x3e2b6e69	0.16741337
165	0x3e92fe58	0.28709674
166	0x3de2684b	0.110550486
167	0xbd9dc07e	-0.077027306
168	0x3cf66daf	0.030081598
169	0xbdacd0d6	-0.0843827
170	0x3e8877fa	0.26654035
171	0x3ccf20ae	0.025284138
172	0xbdab30a9	-0.083588906
173	0xbdbff24b	-0.093723856
174	0x3e68a0e5	0.22717626
175	0xbe6434ba	-0.22285739
176	0xbe550abb	-0.20804875
177	0x3c337e84	0.010955457
178	0x3ccac5b7	0.02475248
179	0x3c4f4115	0.012649794
180	0xbe12c3aa	-0.14332452
181	0xbe446946	-0.19180784
182	0xbd4c8f3b	-0.049941283
183	0x3d626661	0.055273417
184	0xbe33bb71	-0.17551972
185	0xbc3be2cd	-0.011467648
186	0x3dd22590	0.10261071
187	0x3e5074c1	0.20357038
188	0x3e9677da	0.29388314
189	0x3d2b8e78	0.041883916
190	0x3e885efe	0.26634973
191	0xbe0ea296	-0.13929209
192	0x3e5ce198	0.21570432
193	0xbc0fac70	-0.00876914
194	0xbd9c691c	-0.076372355
195	0xbdc322e7	-0.095281415
196	0xbde24f29	-0.11050255
197	0x3e7304c4	0.23732287
198	0x3ce0568f	0.027385024
199	0xbe3243ef	-0.17408727
200	0xbe7c3315	-0.24628861
201	0x3e90246b	0.28152785
202	0x3e29985d	0.16562028
203	0x3e37efac	0.17962521
204	0xbc1f2821	-0.009714157
205	0x3e8e84f9	0.27835825
206	0xbcdb48fb	-0.026768198
207	0xbe57a510	-0.2105906
208	0x3e197986	0.14987764
209	0x3db101c6	0.086429164
210	0xbd5069ab	-0.050882023
211	0x3ddff8d1	0.1093613
212	0x3d85029b	0.064946376
213	0xbde7600c	-0.11297616
214	0xbe26ed6c	-0.16301507
215	0xbe02ba76	-0.12766442
216	0xb9d04953	-0.00039727482
217	0x3e314de8	0.17314875
218	0x3e1979f3	0.14987926
219	0x3d20f4d4	0.039295986
220	0x3e8bdcaf	0.27316806
221	0x3cfff877	0.031246407
222	0x3d756d25	0.05991854
223	0xbbc1d4d5	-0.005915264
224	0xbe0c29fd	-0.13687892
225	0x3de7c0ce	0.113160715
226	0x3e744883	0.23855786
227	0x3e80d4c9	0.25162342
228	0x3de2942d	0.110634185
229	0x3e7a68b5	0.24454005
230	0xbe6c0ac8	-0.23050988
231	0xbbe94722	-0.0071190754
232	0xbe1ebf0f	-0.1550257
233	0x3b9dfbfb	0.004821298
234	0x3dcf08bc	0.10109088
235	0xbd83bf4d	-0.06432972
236	0x3df07a2c	0.117420524
237	0x3e3550a7	0.17706548
238	0xbe7a6ff3	-0.24456768
239	0xbe587ca7	-0.21141301
240	0x3a76f133	0.0009420097
241	0xbd63ea54	-0.055643395
242	0x3e83a857	0.2571437
243	0x3e7b2e73	0.24529438
244	0x3dec21a7	0.11529856
245	0xbe3f1762	-0.18661264
246	0x3d9aa34e	0.07550679
247	0x3e6b2eb8	0.2296704
248	0xbe195bc5	-0.14976414
249	0xbd09e8a3	-0.033669125
250	0x3d74aede	0.05973708
251	0xbe7428a5	-0.2384363
252	0x3dd80320	0.10547471
253	0x3e6e8398	0.23292387
254	0xb93e3810	-0.00018140697
255	0x3dd2f382	0.10300352

item_tower.fc.0.bias f4 [256]
0	0xbc4333b1	-0.01191418
1	0x3dd5a178	0.10431188
2	0x3e194acd	0.1496994
3	0xbaeb3714	-0.0017945492
4	0x3db483d9	0.088142104
5	0x3e2d5a6b	0.16929023
6	0x3e47c2c0	0.19507885
7	0x3e581a3b	0.21103756
8	0x3b0b9394	0.002129768
9	0x3b95d342	0.004572303
10	0xbe8c0aec	-0.27352083
11	0x3d44271d	0.047888864
12	0x3e14483f	0.14480685
13	0xbe595b67	-0.21226273
14	0xbdad1bfd	-0.08452604
15	0x3ca1562a	0.019694407
16	0xbdec30aa	-0.115327194
17	0x3e94dc02	0.29074103
18	0x3d90d791	0.07072366
19	0x3e13559b	0.14388125
20	0xbe87ea2c	-0.26545846
21	0xbc322d3f	-0.010875045
22	0xbb13e092	-0.0022564274
23	0x3dfbf851	0.12303222
24	0xbddd0dfd	-0.10793684
25	0x3d374b68	0.044749647
26	0xbc3e7803	-0.011625293
27	0xbe397f9f	-0.1811509
28	0xbd0c0015	-0.034179766
29	0x3e4ed557	0.2019857
30	0x3e20e72b	0.15713184
31	0xbe31cfb5	-0.1736439
32	0xbe48d1bf	-0.19611262
33	0xbcff1f96	-0.031142991
34	0x3d97d5f6	0.07413857
35	0xbc4c2834	-0.012460757
36	0xbe6cb420	-0.23115587
37	0xbe343224	-0.17597252
38	0x3df9130a	0.121618345
39	0x3e9a07ed	0.30084172
40	0x3e7e8670	0.24855971
41	0x3d83759e	0.06418918
42	0x3d4ba273	0.04971547
43	0x3e60d494	0.21956092
44	0x3e4fe5b3	0.20302467
45	0x3c904590	0.017611295
46	0x3de31121	0.110872515
47	0x3ddc2146	0.10748534
48	0x3e05649a	0.13026658
49	0x3e4f6c57	0.20256172
50	0x3e8cac6e	0.27475303
51	0xbe0105c4	-0.12599856
52	0x3d195a45	0.037439603
53	0xbcd477f8	-0.025936112
54	0xbe7af7a4	-0.2450853
55	0xbd8a1cf7	-0.06743806
56	0xba3e5b7e	-0.0007261558
57	0xbe0b8004	-0.13623053
58	0xbe48e52b	-0.1961867
59	0xbde35e69	-0.11101992
60	0x3e84887b	0.25885376
61	0xbdbedcbd	-0.09319446
62	0xbccf5e65	-0.025313566
63	0x3df8ffd7	0.121581726
64	0x3d6093a2	0.054828294
65	0xbe77997b	-0.24179642
66	0x3e00cede	0.12578914
67	0xbe1698d7	-0.14706741
68	0xbd67c29e	-0.056582086
69	0xbe7a759d	-0.24458928
70	0x3e37dc16	0.1795505
71	0x3e668de8	0.2251507
72	0xbe64ba24	-0.22336632
73	0xbddb7dee	-0.107173786
74	0xbd3560f8	-0.04428193
75	0x3c275f9f	0.010215669
76	0x3d27497f	0.040841576
77	0x3d2211d5	0.039567787
78	0xbe2ca675	-0.16860373
79	0xbde9ddb4	-0.1141924
80	0xbd8b3cdf	-0.067987196
81	0x3db76437	0.08954661
82	0xbe0ce759	-0.13760127
83	0xbd94a603	-0.07258227
84	0xbe3b1f36	-0.18273625
85	0x3e466e86	0.19378099
86	0xbe300424	-0.1718908
87	0xbe89b57a	-0.26896268
88	0xbe4834b2	-0.19551352
89	0x3db1ec86	0.086876914
90	0x3e2b0a93	0.16703252
91	0xbd8546af	-0.065076225
92	0x3da3f1b4	0.080050856
93	0x3dcf5fbd	0.101256825
94	0x3e612c1a	0.2198948
95	0xbe286921	-0.16446353
96	0x3e2f1727	0.17098676
97	0x3d1c310f	0.038132723
98	0x3e0fcd14	0.14043075
99	0xbdbea3db	-0.09308597
100	0xbbc68ba3	-0.0060591265
101	0xbcce8239	-0.02520858
102	0x3db0eb6f	0.086386554
103	0x3e2866cf	0.16445468
104	0xbd9aa869	-0.07551653
105	0xbe35359b	-0.1769623
106	0x3e54125f	0.20710133
107	0x3e089d5f	0.13341282
108	0xbdcee8ef	-0.10103022
109	0x3e2e191c	0.17001766
110	0xbe0c3812	-0.13693264
111	0xbe4cac85	-0.19987686
112	0x3e4eaa74	0.2018221
113	0x3e3f8a0e	0.18705007
114	0xbe7e9cde	-0.24864528
115	0x3d901df9	0.07036967
116	0x3e2fe1df	0.17176007
117	0x3d012b88	0.031535655
118	0xbdf56610	-0.119823575
119	0x3e7248b6	0.2366055
120	0x3c94f4a1	0.018183054
121	0xbe26f2f4	-0.16303617
122	0x3e8c1b57	0.2736461
123	0xbe3abfdf	-0.18237256
124	0x3d79924b	0.06093053
125	0xbdb9248c	-0.09040174
126	0xbe21cf46	-0.15801725
127	0xbe33cede	-0.17559382
128	0x3d6ea206	0.058259986
129	0x3d85a4a0	0.0652554
130	0xbc45ba47	-0.012068338
131	0xbdfaa17b	-0.12237831
132	0xbbf37991	-0.0074302633
133	0x3e31227e	0.17298314
134	0xbe34f38b	-0.1767103
135	0xbbda5d6c	-0.006663969
136	0xbe7f200e	-0.24914572
137	0x3e2780e0	0.16357756
138	0xbe73abf0	-0.23796058
139	0x3d04a1b9	0.032380793
140	0x3e397a87	0.18113147
141	0xbdfdac31	-0.123863585
142	0x3cd69e84	0.026198633
143	0xbcdc63c7	-0.026903046
144	0xbe60b34e	-0.219434
145	0x3d78358c	0.06059794
146	0xbd7babdb	-0.06144319
147	0x3e40b1be	0.18817803
148	0xbcc4398e	-0.023953225
149	0xbe28c0c7	-0.16479789
150	0x3e8a7b51	0.27047208
151	0x3d0a5b0b	0.03377823
152	0x3e17f13a	0.14838114
153	0x3d3e085f	0.046394702
154	0x3bac3412	0.0052552307
155	0x3de3ac80	0.11116886
156	0xbdefd311	-0.117101796
157	0x3e2b5b19	0.1673397
158	0x3e87cfad	0.26525632
159	0x3e5635e7	0.20919
160	0xbe3d00ad	-0.18457289
161	0x3e6fad6f	0.23406003
162	0xbd8e90db	-0.06961223
163	0x3e0108e0	0.12601042
164	0x3d072b8b	0.03300051
165	0x3e811adc	0.25215805
166	0xbe75b694	-0.2399543
167	0x3e672fe9	0.2257687
168	0xbe780035	-0.24218829
169	0xbe73c366	-0.23805007
170	0x3d83399c	0.064074725
171	0x3dd48d1f	0.10378479
172	0xbe7d2c24	-0.2472387
173	0x3dc480d1	0.09594882
174	0xbe249616	-0.16072878
175	0x3d905e1e	0.070492014
176	0x3e365af7	0.17808138
177	0xbdb31f58	-0.08746213
178	0x3e8c10ae	0.27356476
179	0x3d810dca	0.06301458
180	0xbe75c24a	-0.23999897
181	0xbe649ac0	-0.22324657
182	0x3e8b8d48	0.27256227
183	0xbe315b03	-0.17319874
184	0x3dcd7ba8	0.10033351
185	0x3e248473	0.1606615
186	0x3d519704	0.05116941
187	0x3e963171	0.29334596
188	0x3d3cb463	0.046070468
189	0x3e871d40	0.26389503
190	0xbd5b0183	-0.05346824
191	0x3e6f6593	0.23378591
192	0x3da37784	0.0798178
193	0xbe354035	-0.17700274
194	0xbe608f0f	-0.21929573
195	0x3e367716	0.17818865
196	0xbd9b309a	-0.075776294
197	0x3decf5f1	0.11570347
198	0xbd236319	-0.03988943
199	0x3d30400d	0.043029834
200	0xbe8c305c	-0.27380645
201	0xbd2c0f31	-0.042006675
202	0x3e679a9d	0.22617574
203	0xbe10dae3	-0.14145999
204	0xbe29c955	-0.16580708
205	0x3d11b001	0.03556824
206	0x3e044bb6	0.12919506
207	0xbe3f6048	-0.18689072
208	0xbe60b91e	-0.21945617
209	0x3e08bc64	0.13353115
210	0x3e87323c	0.26405513
211	0x3d3222d1	0.043490235
212	0x3e75fb4e	0.24021646
213	0xbe30f6e9	-0.17281689
214	0x3e8dd155	0.2769877
215	0x3e5e559f	0.2171235
216	0x3d907776	0.07054035
217	0xbd804ba5	-0.06264428
218	0x3d4178d5	0.047234375
219	0x3e65ad2d	0.22429343
220	0x3e73602a	0.23767152
221	0xbd1938d7	-0.037407722
222	0x3d3b1b3c	0.04568027
223	0x3e633e84	0.22191817
224	0x3e8e6012	0.2780767
225	0x3d71dcca	0.05904845
226	0xbe484976	-0.19559273
227	0xbe5aa25f	-0.21351002
228	0xbdd59d35	-0.104303755
229	0xbc2684ea	-0.010163525
230	0xbe84f592	-0.25968605
231	0x3dfc2859	0.12312383
232	0x3e156f07	0.14593135
233	0x3de5a796	0.11213605
234	0xbdb64122	-0.08899142
235	0x3ca2622e	0.019822206
236	0x3c45632c	0.01204757
237	0xbdd7661d	-0.105175234
238	0x3e918e6e	0.28428978
239	0xbe407ee2	-0.18798402
240	0x3e1497a3	0.1451097
241	0x3bca72f6	0.006178255
242	0x3d27aa0f	0.040933665
243	0xbe1313bb	-0.14362995
244	0xbdf65297	-0.120274715
245	0xbe401cdb	-0.18761007
246	0xbb2af8a9	-0.0026088154
247	0xbe1fc1c9	-0.15601267
248	0xbe47afa3	-0.19500594
249	0xbe27055f	-0.16310643
250	0x3e64edc4	0.22356325
251	0x3e16fbda	0.14744511
252	0x3dc9a986	0.09846787
253	0x3daf644c	0.08564052
254	0xbdcd69fc	-0.100299805
255	0x3e095d5d	0.13414522
