models/dumps/TwoTowerModelV1_v3.pth (torch, 359778 bytes, 12 tensors)

user_tower.fc.0.weight f4 [256, 11]
-0.18841562 0.05310536 -0.109802194 0.16489261 -0.1304487 -0.14847861 0.24295402 0.2172683
0.06769634 0.15362425 -0.04019227 0.010482846 -0.11109402 -0.26588303 -0.25724894 -0.18398042
-0.04096882 -0.2569278 -0.11177495 0.14370625 0.005109424 -0.15045482 -0.114686854 0.017239066
-0.13387316 0.22132938 -0.15028456 0.055628862 0.0045954175 -0.25030017 0.16347085 0.19484152
-0.18607454 0.2549175 -0.10945588 0.119541705 0.21248911 -0.09276865 0.26256275 -0.16010512
0.095304415 0.22172655 0.1682594 -0.022284623 -0.14846677 0.008523837 0.19494162 -0.19645381
-0.22518297 0.2148621 -0.16673969 -0.0044961767 0.008005744 -0.11461468 -0.09608388 -0.2516097
0.043730754 0.11263028 -0.09170687 0.04541533 0.028592814 -0.06206985 0.16988008 -0.17771125
-0.061638016 0.28382316 -0.18008777 0.1678366 0.10311432 -0.059477203 -0.017257093 0.23173511
-0.16143289 -0.26058492 0.26242548 0.022644041 -0.20595296 0.030424658 -0.16900542 -0.022750605
0.21429464 0.26209685 -0.02436742 0.21463533 -0.20214784 0.23630802 0.18227383 -0.12524278
-0.08917798 0.1701179 -0.22158577 -0.26814607 0.03903799 -0.2401657 -0.07147459 -0.14590886
-0.06204838 -0.12265147 0.21532169 -0.07360426 0.19401804 -0.011655472 0.036182992 0.26266575
-0.16052994 -0.13703512 0.00095290877 -0.025053516 -0.2633492 0.16071083 -0.10222156 0.09734405
-0.26642773 -0.061770994 0.046626545 -0.054945238 -0.21087104 -0.20254968 0.16920027 -0.11842726
-0.20592399 0.07815207 0.019231403 0.27151743 0.29239056 -0.15925783 -0.27261296 0.03739061
0.26858404 -0.08755782 -0.13028154 -0.25304592 -0.019107256 0.13558932 -0.15164089 -0.12571798
0.2803997 -0.1339608 0.21333815 0.22752994 -0.04686573 0.012659185 -0.20050512 -0.15937613
0.10042873 -0.13947862 -0.15135069 0.08032512 -0.06430807 0.23050605 0.1362633 0.11714503
-0.045953788 0.04936093 -0.21146506 0.14319034 -0.23953137 -0.18607804 -0.19329646 -0.12966329
0.15267003 -0.08937005 -0.059156872 -0.21743442 0.13304718 -0.23231947 0.17129552 -0.095296964
-0.26111287 -0.25695166 0.23029563 0.188384 -0.26918393 0.053543415 0.27654812 -0.11148972
-0.15197597 0.06968911 -0.05659355 0.118628226 0.26788747 -0.10377902 0.027915893 0.2986315
-0.18166493 0.06941923 -0.025424426 -0.0978781 -0.06946119 0.06586002 -0.19533397 -0.13860877
-0.20508985 0.030931167 0.11669773 -0.10567797 -0.07238917 -0.06357627 -0.24906154 -0.164422
-0.040955186 -0.2601884 -0.27387366 0.24267898 0.10518859 0.24113262 -0.0040938994 -0.025813362
-0.086732976 -0.05187822 0.021193016 0.025276588 -0.26025042 -0.15014337 -0.19234894 -0.0054919384
0.23757485 0.25827932 -0.22328117 -0.020848606 -0.09583992 0.11015263 0.2666642 -0.1885717
-0.09867352 -0.07312095 0.1515018 0.1242058 0.07402923 0.28999797 -0.015086726 -0.22230588
-0.020154689 -0.047623657 -0.24481282 -0.08629651 -0.029708106 -0.19626552 -0.109512694 -0.073816404
-0.21770443 -0.119946405 0.25589612 -0.1341307 -0.06266391 -0.08024325 -0.024392882 0.25892234
0.14827253 0.2161907 -0.09619691 -0.2633557 -0.24768573 0.1422578 0.15474533 -0.24644718
00000000: 06f0 40be 0285 593d f9df e0bd 9cd9 283e
00000010: 5894 05be c70a 18be f0c8 783e 957b 5e3e
00000020: 61a4 8a3d ad4f 1d3e a6a0 24bd 3ec0 2b3c
00000030: 4385 e3bd d221 88be 22b6 83be 5d65 3cbe
00000040: ecce 27bd 0a8c 83be 44ea e4bd bb27 133e
00000050: f46c a73b d410 1abe f1e0 eabd f138 8d3c
00000060: 0c16 09be 2ba4 623e 32e4 19be 17db 633d
00000070: 2895 963b 5827 80be e764 273e 8984 473e
00000080: 538a 3ebe 8c84 823e 682a e0bd 48d2 f43d
00000090: bf96 593e 7dfd bdbd a06e 863e 99f2 23be
000000a0: f62e c33d 490c 633e 314c 2c3e 3e8e b6bc
000000b0: ac07 18be 90a7 0b3c c79e 473e 302b 49be
000000c0: 5d96 66be cf04 5c3e cfbd 2abe aa54 93bb
000000d0: 862a 033c 1abb eabd a0c7 c4bd fdd2 80be
000000e0: 051f 333d b4aa e63d d0d0 bbbd 6d05 3a3d
000000f0: 7a3b ea3c f43c 7ebd 0bf5 2d3e f0f9 35be
00000100: 2578 7cbd 4551 913e ee68 38be 5cdd 2b3e
00000110: 9a2d d33d 5e9e 73bd bf5e 8dbc f84b 6d3e
00000120: aa4e 25be 636b 85be a25c 863e ff7f b93c
00000130: 55e5 52be 223d f93c c20f 2dbe 7a5f babc
00000140: 0e70 5b3e 8f31 863e 2f9e c7bc 5dc9 5b3e
00000150: d8ff 4ebe bbfa 713e fea5 3a3e a53f 00be
00000160: f2a2 b6bd 6333 2e3e 61e7 62be 714a 89be
00000170: 4de6 1f3d ffed 75be 4561 92bd 2269 15be
00000180: 7126 7ebd b230 fbbd 4a7d 5c3e d5bd 96bd
00000190: aaac 463e 98f6 3ebc 9e34 143d 207c 863e
000001a0: f661 24be ef52 0cbe a0cc 793a 083d cdbc
000001b0: b5d5 86be 6191 243e 8a59 d1bd 515c c73d
000001c0: 3769 88be 9503 7dbd 7afb 3e3d 420e 61bd
000001d0: 94ee 57be 2f69 4fbe d642 2d3e fe89 f2bd
000001e0: bddd 52be 310e a03d 2d8b 9d3c 5504 8b3e
000001f0: 37b4 953e 7c14 23be ed93 8bbe e526 193d
00000200: d983 893e 8451 b3bd 8668 05be 3c8f 81be
00000210: d286 9cbc edd7 0a3e c047 1bbe 37bc 00be
00000220: 8d90 8f3e 052d 09be 5175 5a3e 9cfd 683e
00000230: 48f6 3fbd 7868 4f3c 3751 4dbe 7f33 23be
00000240: 94ad cd3d 7cd3 0ebe adfb 1abe 7f81 a43d
00000250: f3b3 83bd c709 6c3e 9b88 0b3e bce9 ef3d
00000260: 0a3a 3cbd b02e 4a3d 4c8a 58be 7da0 123e
00000270: b647 75be 3e8b 3ebe 82ef 45be 74c6 04be
00000280: 8855 1c3e a507 b7bd 7a4e 72bd 21a7 5ebe
00000290: 853d 083e 28e5 6dbe 1868 2f3e 0e2b c3bd
000002a0: 96b0 85be 2b8f 83be 9ed2 6b3e bce7 403e
000002b0: 7ad2 89be 5750 5b3d b797 8d3e b954 e4bd
000002c0: 979f 1bbe 2ab9 8e3d a3ce 67bd 5bf3 f23d
000002d0: 8c28 893e 188a d4bd dfaf e43c 3ae6 983e
000002e0: 5f06 3abe ab2b 8e3d e346 d0bc 5074 c8bd
000002f0: ab41 8ebd 9ee1 863d a105 48be 75ef 0dbe
00000300: 1303 52be 5c63 fd3c 38ff ee3d b16d d8bd
00000310: c640 94bd 4734 82bd fd09 7fbe 3e5e 28be
00000320: a0c0 27bd 6a37 85be 2b39 8cbe d780 783e
00000330: 1e6d d73d 78eb 763e 1e26 86bb 8b76 d3bc
00000340: 0fa1 b1bd 427e 54bd fa9c ad3c d910 cf3c
00000350: 8b3f 85be 2fbf 19be 1ff7 44be b8f5 b3bb
00000360: d246 733e 303d 843e d2a3 64be b2ca aabc
00000370: b847 c4bd b497 e13d 3688 883e f118 41be
00000380: 5815 cabd 70c0 95bd 4a23 1b3e 9c5f fe3d
00000390: a39c 973d 9d7a 943e 512e 77bc 27a4 63be
000003a0: 721b a5bc 0611 43bd 36b0 7abe 3abc b0bd
000003b0: 6a5e f3bc d4f9 48be 3148 e0bd 0e2d 97bd
000003c0: e9ed 5ebe 76a6 f5bd d104 833e 8f59 09be
000003d0: f055 80bd 9356 a4bd 95d3 c7bc 7891 843e
000003e0: c1d4 173e 1861 5d3e e302 c5bd 8fd6 86be
000003f0: 54a1 7dbe 07ac 113e 8f75 1e3e a65c 7cbe

user_tower.fc.0.bias f4 [256]
0.054493874 0.29564586 0.17240137 0.16661975 -0.18408108 -0.20783901 0.23829803 0.27622554
-0.16927353 -0.05903853 0.19749956 -0.021378137 -0.05519987 0.1959326 -0.083361715 -0.057014212
0.21860112 -0.16227956 -6.841018e-05 -0.11587356 -0.09846113 0.3051255 0.1430739 0.0058235447
-0.012321939 0.24361232 -0.2388044 -0.07539293 0.26429465 0.26577136 0.26396984 -0.08056039
-0.2264276 -0.115303405 0.0429184 -0.18342155 0.25640076 0.12802927 -0.173499 0.12575486
-0.2616922 -0.26123098 0.26557085 0.17726286 0.092944585 0.12263379 -0.12802656 0.22652613
-0.021529194 -0.033495422 0.11327115 0.08166754 -0.042138133 -0.16652131 0.14024737 0.10648708
0.124490835 -0.0349889 -0.10365562 -0.12866722 -0.18024282 0.26461035 0.17484197 -0.06014515
0.0052811285 -0.10927692 0.011661301 0.2021971 0.25428522 -0.14281622 -0.21731892 0.036957454
0.11430462 0.25339586 -0.09137258 -0.08035068 -0.28405425 0.088024385 0.117154695 0.11631052
-0.04250847 0.19961639 -0.041703228 0.16099113 -0.20849547 0.12468424 -0.08510247 -0.26130974
-0.2640045 0.22074488 -0.12982365 -0.27377123 -0.03699384 0.04651714 0.045669436 -0.18972258
-0.05981842 0.2450968 -0.24938515 -0.04189637 -0.2446207 0.16429771 0.19920127 0.23665042
0.03320104 0.13003036 -0.022927891 -0.008074644 -0.11835697 -0.14840505 0.060062096 -0.17713432
-0.27956048 0.24906637 0.18932784 0.061987896 -0.011499328 -0.08288117 -0.28893298 -0.07087224
0.19322143 -0.16878511 -0.013024037 0.18966502 -0.09487974 0.26255015 0.263312 -0.0460019
0.09015792 -0.036437094 0.019560665 0.07629624 -0.14641097 0.014175849 -0.22293636 -0.033313327
-0.03070672 0.12904136 0.062522106 -0.16864565 -0.1131662 -0.07825158 -0.11521729 0.27342108
-0.07563671 0.056953747 -0.12678722 -0.0700015 -0.16360047 -0.22468872 0.21673332 0.124350354
-0.029720226 0.13451323 0.27741316 0.18790454 0.00085891696 0.10318447 0.08306045 -0.055603284
-0.20950188 -0.054392334 0.14260983 0.1440152 0.12856476 -0.03901482 -0.02853414 -0.16446057
0.2799128 0.15772028 -0.00451299 -0.26367435 -0.16715574 0.060516194 0.09925775 0.18528114
-0.14093779 0.071838394 0.27038077 -0.16798525 -0.1639197 -0.20507704 0.23381744 -0.013439576
0.23349498 0.2062609 0.2515925 0.21474387 -0.18187165 0.0037187915 -0.21135068 -0.29254282
0.08028534 -0.19553202 -0.2871261 -0.025320765 -0.16668999 0.041306257 0.07207965 -0.08348095
-0.047367416 -0.25431213 -0.08142016 -0.056265153 0.05759028 -0.11495137 0.12036634 -0.20026585
0.05794209 -0.094037555 -0.20113894 0.088310346 0.24345675 -0.1297037 0.23215012 0.08131895
0.19560435 -0.10477953 0.19549069 0.2134614 0.047702957 -0.10907212 0.27161136 0.018310703
0.21386158 0.06364537 -0.008945765 0.08327926 0.0698486 -0.21005152 -0.13978389 -0.11359817
-0.10544786 0.15003836 -0.15170294 0.2605023 0.016110932 0.13005863 -0.25506938 0.17670713
0.108540446 -0.02699536 -0.13149258 0.22083035 -0.17940228 0.02731036 -0.21051158 0.05187023
-0.075429544 -0.29608288 -0.0763879 -0.19280833 0.13045697 0.06658501 -0.2577695 0.28736496
00000000: f834 5f3d e55e 973e fc89 303e 5e9e 2a3e
00000010: c07f 3cbe c0d3 54be 6604 743e 6f6d 8d3e
00000020: 0a56 2dbe 63d2 71bd 533d 4a3e 3421 afbc
00000030: 4219 62bd 8ea2 483e 8cb9 aabd bc87 69bd
00000040: f9d8 5f3e 9d2c 26be 7077 8fb8 1e4f edbd
00000050: fda5 c9bd 6939 9c3e f781 123e 6fd3 be3b
00000060: f5e1 49bc 8275 793e 2489 74be 9c67 9abd
00000070: a151 873e 2f13 883e 0e27 873e d9fc a4bd
00000080: a3dc 67be 3124 ecbd 34cb 2f3d dcd2 3bbe
00000090: f646 833e 1b1a 033e b9a9 31be e2c5 003e
000000a0: 85fc 85be 11c0 85be e7f8 873e 6584 353e
000000b0: bb59 be3d 6d27 fb3d 6519 03be 77f6 673e
000000c0: fe5d b0bc 7f32 09bd b4fa e73d 5041 a73d
000000d0: 0999 2cbd 9084 2abe 029d 0f3e e615 da3d
000000e0: 0df5 fe3d 8550 0fbd 6649 d4bd 57c1 03be
000000f0: 9391 38be 027b 873e c609 333e c35a 76bd
00000100: 510d ad3b 94cc dfbd 0b0f 3f3c c20c 4f3e
00000110: ac31 823e 6a3e 12be da88 5ebe b360 173d
00000120: 8a18 ea3d 1abd 813e 8c21 bbbd e68e a4bd
00000130: 8f6f 91be 2146 b43d cdee ef3d 3634 ee3d
00000140: 5d1d 2ebd 3d68 4c3e 01d1 2abd dcda 243e
00000150: d67f 55be 735a ff3d 344a aebd 64ca 85be
00000160: 992b 87be f20a 623e 7ef0 04be be2b 8cbe
00000170: da86 17bd c288 3e3d e00f 3b3d a346 42be
00000180: 2904 75bd a8fa 7a3e d25e 7fbe 879b 2bbd
00000190: d97d 7abe a93d 283e 6bfb 4b3e 7d54 723e
000001a0: d0fd 073d ae26 053e 46d3 bbbc 834b 04bc
000001b0: 2465 f2bd 7ef7 17be ac03 763d b362 35be
000001c0: 8d22 8fbe 410b 7f3e 28df 413e 05e7 7d3d
000001d0: ad67 3cbc 9abd a9bd 06ef 93be 7725 91bd
000001e0: d7db 453e 01d6 2cbe c562 55bc 8c37 423e
000001f0: 4f50 c2bd f96c 863e d5d0 863e 7d6c 3cbd
00000200: b7a4 b83d 103f 15bd b03d a03c 3441 9c3d
00000210: c2ec 15be d241 683c 6e49 64be 8e73 08bd
00000220: a98c fbbc 6b23 043e 970b 803d 72b1 2cbe
00000230: aec3 e7bd 5d42 a0bd 0bf7 ebbd d9fd 8b3e
00000240: 6be7 9abd 5548 693d 82d4 01be f25c 8fbd
00000250: e286 27be cd14 66be 57ef 5d3e 66ab fe3d
00000260: d577 f3bc d6bd 093e 1909 8e3e 0c6a 403e
00000270: f128 613a 6152 d33d 991b aa3d 45c0 63bd
00000280: a987 56be 7fca 5ebd 5008 123e b878 133e
00000290: 7ba6 033e 01ce 1fbd 6ec0 e9bc 5a68 28be
000002a0: bb50 8f3e 6d81 213e b4e1 93bb 5300 87be
000002b0: e02a 2bbe d4df 773d a647 cb3d 57ba 3d3e
000002c0: ff51 10be 0220 933d 596f 8a3e 5304 2cbe
000002d0: 91da 27be b7ff 51be d76d 6f3e ab31 5cbc
000002e0: 4f19 6f3e 0f36 533e bbd0 803e d1e5 5b3e
000002f0: 903c 3abe f8b6 733b 506c 58be 2cc8 95be
00000300: a46c a43d 8c39 48be 3102 93be 7e6d cfbc
00000310: c8b0 2abe c030 293d 7f9e 933d 0ff8 aabd
00000320: 5604 42bd 3335 82be 9dbf a6bd 4a76 66bd
00000330: c9e3 6b3d a06b ebbd a182 f63d 7e12 4dbe
00000340: af54 6d3d c396 c0bd 5ef7 4dbe 0edc b43d
00000350: ba4c 793e 0cd1 04be c3b8 6d3e 8d8a a63d
00000360: 824c 483e a696 d6bd b62e 483e a095 5a3e
00000370: 2d64 433d 3461 dfbd a510 8b3e 5400 963c
00000380: 88fe 5a3e 8158 823d 4291 12bc 518e aa3d
00000390: c80c 8f3d bf17 57be 8223 0fbe 28a6 e8bd
000003a0: 0cf5 d7bd a8a3 193e 0458 1bbe 8f60 853e
000003b0: 13fb 833c 172e 053e 7498 82be b7f2 343e
000003c0: 744a de3d 6025 ddbc fea5 06be 5a21 623e
000003d0: 3bb5 37be fab9 df3c 5990 57be e175 543d
000003e0: ce7a 9abd 2d98 97be 4271 9cbd 8c6f 45be
000003f0: 8396 053e b95d 883d 5dfa 83be 8021 933e

user_tower.fc.3.weight f4 [128, 256]
-0.04375703 0.029903205 -0.049744625 0.049078166 0.01700527 0.02107069 0.0036442624 -0.031192103
0.04756657 -0.029095763 0.031037718 0.0377169 -0.011404858 -0.01769827 0.05424907 0.010003823
-0.015350486 0.005807015 -0.021061022 0.0009755884 -0.03480167 0.0038151986 -0.015198719 -0.032349672
0.03168236 -0.048898514 0.025022155 0.042828314 -0.016379837 0.034832798 -0.03836187 0.04244517
-0.017277949 0.015539953 0.000374207 0.03651443 -0.009607518 0.039774388 0.01686512 0.008166005
0.003172483 0.002755386 0.02921718 0.034758843 0.008460205 -0.050620552 -0.024467153 0.026266389
-0.014308636 -0.020354917 0.0056740628 -0.041006505 0.04717106 -0.03719735 -0.027815377 -0.0564065
-0.045329764 -0.02201001 -0.0030864025 0.020847796 0.0065295803 -0.03135497 0.03142441 0.03588057
-0.023648217 0.05177457 0.030904714 -0.004593257 0.03154119 -0.02393713 0.047236826 -0.041459523
-0.0049084383 0.016244747 -0.038349364 -0.006792168 0.037777476 -0.05316983 -0.036969747 0.032951668
-0.03301133 -0.0023638105 -0.0094846655 0.03676679 0.038562413 0.00064305885 -0.04075897 -0.0087706465
-0.007290716 0.034205902 0.03875062 0.024303794 0.0080422405 0.021084117 -0.029566549 -0.051297028
-0.016968478 -0.028613264 0.033669073 0.024800537 0.04221923 -0.06349887 0.043612115 0.00644795
-0.020712744 -0.01946121 0.031076215 0.018865302 0.005796245 -0.010044579 0.012947159 -0.04029012
-0.015748153 -0.036080405 -0.022128087 -0.047849346 -0.00643375 -0.038705703 -0.026057286 0.022547748
-0.050765783 0.00331209 0.025298372 0.030931447 0.04569087 0.0074983328 -0.044203203 -0.056645006
-0.030470368 0.032119144 -0.04270867 0.02396077 -0.0284527 -0.01599056 0.016221361 -0.058004666
0.03136199 0.010436717 -0.055096623 -0.023221865 -0.028888555 0.03677746 0.0039256313 0.005238615
0.019613456 -0.05505831 -0.05275783 0.023484971 0.0513681 0.012897494 0.046363894 -0.018045438
-0.044456434 0.027409011 -0.052356213 0.017942855 -0.035777353 -0.011727527 -0.015640883 0.030204944
0.008795822 0.026184047 -0.039444324 -0.03131542 0.0166025 -0.050421566 0.01786699 0.013650895
0.033923406 0.053306196 -0.01879673 0.020177362 0.004649709 -0.033679713 -0.008276378 0.024366815
-0.033853482 -0.058928017 -0.012777158 -0.0033665304 -0.007216989 0.030738493 0.047407746 -0.028532326
0.037813164 -0.060813013 0.00750125 -0.037568305 -0.013846101 0.020281626 -0.0025531615 0.03368624
-0.009484447 -0.0164917 0.017114999 0.018544178 0.03121199 -0.025463682 -0.03968588 -0.019246873
-0.009871067 -0.021995075 0.052142344 -0.015434908 -0.0068100006 0.014346816 -0.013005054 0.026247028
0.032211434 0.008766304 0.020075483 0.0043995646 0.006545015 0.04054482 0.00043769312 0.04163396
0.018189568 0.027772339 -0.0059624948 0.015020896 -0.011538666 0.04469252 -0.05062052 0.0517319
-0.028135974 0.038416192 0.036914054 -0.004434867 -0.012907971 0.016799951 -0.0074296747 -0.038318794
0.044133678 0.015709475 -0.028006379 -0.04137143 0.027478036 0.037337188 0.028796175 -0.019223502
0.022070844 0.04006481 -0.01054257 -0.023546694 0.047022518 -0.041261494 -0.0075411475 0.03841744
-0.027348872 0.05292952 -0.04472242 -0.018580519 -0.036601704 0.03646303 0.009543883 0.015444928
00000000: 923a 33bd 91f7 f43c 05c1 4bbd 3006 493d
00000010: a34e 8b3c 719c ac3c 94d4 6e3b 9586 ffbc
00000020: 2ad5 423d 3d5a eebc d042 fe3c 097d 1a3d
00000030: 71db 3abc f6fb 90bc 4634 5e3d 13e7 233c
00000040: 9b80 7bbc c648 be3b 2a88 acbc a1be 7f3a
00000050: 328c 0ebd 6908 7a3b 0c04 79bc 1781 04bd
00000060: 5dc5 013d cf49 48bd 43fb cc3c be6c 2f3d
00000070: 022f 86bc d6ac 0e3d 5621 1dbd fdda 2d3d
00000080: 7c8a 8dbc 499b 7e3c 3731 c439 2890 153d
00000090: da68 1dbc 78ea 223d b828 8a3c b5ca 053c
000000a0: 6fe9 4f3b b593 343b de58 ef3c 4a5f 0e3d
000000b0: ac9c 0a3c 7f57 4fbd 576f c8bc 9c2c d73c
000000c0: c56e 6abc 5bbf a6bc 7ded b93b 70f6 27bd
000000d0: 7136 413d 405c 18bd 13dd e3bc 810a 67bd
000000e0: b4ab 39bd 564e b4bc 3e45 4abb ffc8 aa3c
000000f0: 17f6 d53b 126e 00bd e2b6 003d 81f7 123d
00000100: e8b9 c1bc 9211 543d e22b fd3c 0883 96bb
00000110: 5631 013d cd17 c4bc 677b 413d 76d1 29bd
00000120: f7d6 a0bb b413 853c 3914 1dbd d690 debb
00000130: 8ebc 1a3d 9cc8 59bd 976d 17bd 54f8 063d
00000140: e336 07bd 29ea 1abb 9265 1bbc c698 163d
00000150: 9ff3 1d3d f392 283a e1f2 26bd c2b2 0fbc
00000160: f5e6 eebb 7d1b 0c3d f8b8 1e3d c018 c73c
00000170: 9ac3 033c 99b8 ac3c 8c35 f2bc d51c 52bd
00000180: 7a01 8bbc 5d66 eabc 95e8 093d 7f2a cb3c
00000190: 12ee 2c3d b20b 82bd 9ea2 323d 5349 d33b
000001a0: c6ad a9bc 1e6d 9fbc 8c93 fe3c 688b 9a3c
000001b0: 6dee bd3b 0592 24bc 5220 543c 4107 25bd
000001c0: 4502 81bc 0cc9 13bd f645 b5bc adfd 43bd
000001d0: 35d2 d2bb df89 1ebd 1776 d5bc 0eb6 b83c
000001e0: c8ef 4fbd a60f 593b 883e cf3c f263 fd3c
000001f0: 5a26 3b3d 93b4 f53b 6b0e 35bd 9804 68bd
00000200: fe9c f9bc 5d8f 033d 49ef 2ebd 6049 c43c
00000210: a315 e9bc a3fe 82bc a9e2 843c 4d96 6dbd
00000220: 6e75 003d c4fe 2a3c ffac 61bd c83b bebc
00000230: b1a7 ecbc f6a3 163d 95a2 803b b0a8 ab3b
00000240: 66ac a03c d384 61bd 9818 58bd 8e63 c03c
00000250: 5b67 523d 0350 533c 11e8 3d3d 07d4 93bc
00000260: f317 36bd dd88 e03c 7873 56bd e5fc 923c
00000270: 468b 12bd d024 40bc 4f21 80bc 5c70 f73c
00000280: 5a1c 103c ed7f d63c 5f90 21bd 9944 00bd
00000290: f701 883c d886 4ebd cb5d 923c 01a8 5f3c
000002a0: 45f3 0a3d 9957 5a3d 9afb 99bc ff4a a53c
000002b0: 965c 983b bdf3 09bd a599 07bc ea9c c73c
000002c0: f3a9 0abd 815e 71bd 4957 51bc 02a1 5cbb
000002d0: 7e7c ecbb 4bcf fb3c a02e 423d a0bc e9bc
000002e0: fae1 1a3d 1117 79bd 0ccd f53b 39e1 19bd
000002f0: c2da 62bc a725 a63c f152 27bb 95fa 093d
00000300: a764 1bbc 9a19 87bc c134 8c3c f6e9 973c
00000310: 4ab0 ff3c 3699 d0bc a98d 22bd 9eab 9dbc
00000320: 41ba 21bc 042f b4bc 3693 553d b2e2 7cbc
00000330: 6d26 dfbb e80e 6b3c 2613 55bc 0204 d73c
00000340: 23f0 033d 8ba0 0f3c 5775 a43c 392a 903b
00000350: 9177 d63b 5312 263d 2d7a e539 5f88 2a3d
00000360: 4a02 953c d182 e33c 0861 c3bb 341a 763c
00000370: ac0c 3dbc 810f 373d 7657 4fbd d4e4 533d
00000380: 6a7d e6bc 4c5a 1d3d 3133 173d 5c52 91bb
00000390: f47b 53bc 0da0 893c a174 f3bb 2bf4 1cbd
000003a0: 84c5 343d 28b1 803c a26d e5bc 1775 29bd
000003b0: 9e19 e13c e1ee 183d f5e5 eb3c 9b7a 9dbc
000003c0: eacd b43c 001b 243d beba 2cbc ffe4 c0bc
000003d0: af9a 403d d001 29bd bb1b f7bb 9b5b 1d3d
000003e0: be0a e0bc a0cc 583d db2e 37bd 2c36 98bc
000003f0: abeb 15bd 425a 153d f25d 1c3c b90c 7d3c

user_tower.fc.3.bias f4 [128]
-0.004820582 -0.009071522 0.012305089 -0.05685556 0.019400299 -0.0035338306 0.03759709 -0.0008554015
0.03175822 -0.0046876497 0.053536233 -0.010992693 0.037262764 -0.041730497 0.06661768 -0.040147685
-0.05255856 -0.022937378 0.053270407 0.041580725 -0.009995816 0.06923303 0.014192235 0.028651053
-0.023006605 -0.06816395 0.056259207 0.0018048384 0.04894218 -0.035436384 0.055740364 -0.01652098
-0.047745414 0.035155814 -0.0012881677 -0.0569337 -0.042296056 0.05135863 -0.07340705 0.015327265
0.043732483 0.06864188 0.05832557 0.038441163 -0.02096603 -0.037699413 -0.006906518 0.043362986
0.034882247 -0.0005555612 0.04961214 -0.00870394 -0.010221293 0.05488576 0.027145058 0.026144488
-0.04504829 0.008359268 0.010889982 -0.04621012 -0.0319402 -0.0045092795 0.044392075 0.0043200674
-0.020400425 -0.006920651 0.004149995 -0.05072029 0.029441921 0.008092936 -0.03860567 -0.032808598
0.020642627 -0.003780334 -0.042967465 -0.005837844 -0.041232005 0.050963175 -0.07198755 -0.030102624
0.009011498 -0.0060037617 -0.03818101 0.06338949 0.04602608 -0.0028561605 0.050950374 -0.040897537
0.0030292664 0.054682005 0.007903998 0.00427341 0.030399974 -0.033161946 0.02610854 -0.0464106
0.078548506 0.025627851 0.036064494 -0.06896029 0.051229775 -0.013487763 -0.074626304 0.073779315
-0.07098389 -0.050834414 0.011959028 0.025638374 -0.015879052 -0.032986917 0.039336503 -0.05680172
0.03989536 -0.035473216 -0.013663442 0.03209362 0.066786274 0.037470415 0.05812053 -0.04974712
-0.043427467 0.038300976 0.026333066 0.050663296 0.035808768 -0.017285623 -0.034946106 0.05579678
00000000: f9f5 9dbb b9a0 14bc 499b 493c 60e1 68bd
00000010: 60ed 9e3c d797 67bb 68ff 193d 063d 60ba
00000020: e814 023d db9a 99bb cf48 5b3d b21a 34bc
00000030: d7a0 183d 99ed 2abd da6e 883d e671 24bd
00000040: a547 57bd 2be7 bbbc 1232 5a3d 8d50 2a3d
00000050: 7ec5 23bc 0cca 8d3d 8c86 683c 9db5 ea3c
00000060: 5978 bcbc 8b99 8bbd 0e70 663d 5490 ec3a
00000070: 9877 483d be25 11bd 0250 643d 0257 87bc
00000080: b290 43bd 8bff 0f3d bcd7 a8ba 5033 69bd
00000090: a13e 2dbd 6d5d 523d 6f56 96bd 351f 7b3c
000000a0: d520 333d 1d94 8c3d cbe6 6e3d 7b74 1d3d
000000b0: f4c0 abbc b36a 1abd 1250 e2bb 639d 313d
000000c0: b0e0 0e3d 15a3 11ba 1936 4b3d f89a 0ebc
000000d0: 3677 27bc e4cf 603d 505f de3c f72c d63c
000000e0: 8e84 38bd 50f5 083c e56b 323c d346 3dbd
000000f0: bad3 02bd 94c2 93bb 77d4 353d 5a8f 8d3b
00000100: cb1e a7bc a1c6 e2bb aefc 873b 14c0 4fbd
00000110: 2f30 f13c 3c98 043c fb20 1ebd 4f62 06bd
00000120: ba1a a93c 7bbf 77bb a7fe 2fbd 634b bfbb
00000130: e4e2 28bd c3be 503d 356e 93bd c799 f6bc
00000140: f6a4 133c 34bb c4bb b163 1cbd 59d2 813d
00000150: d885 3c3d 6c2e 3bbb 57b1 503d 2d84 27bd
00000160: a886 463b 3dfa 5f3d c57f 013c f607 8c3b
00000170: 5e09 f93c d2d4 07bd 94e1 d53c 0b19 3ebd
00000180: 0ade a03d 80f1 d13c 5db8 133d 0d3b 8dbd
00000190: 50d6 513d c7fb 5cbc add5 98bd 9c19 973d
000001a0: 0060 91bd bf37 50bd cdef 433c 9107 d23c
000001b0: c914 82bc 4a1d 07bd 501f 213d eca8 68bd
000001c0: 5169 233d 5d4c 11bd a1dc 5fbc 9a74 033d
000001d0: 3ec7 883d 947a 193d cb0f 6e3d a3c3 4bbd
000001e0: 00e1 31bd 7ce1 1c3d 71b8 d73c 5184 4f3d
000001f0: 37ac 123d 949a 8dbc a623 0fbd 2a8b 643d

user_tower.fc.6.weight f4 [64, 128]
0.068086885 0.026472956 -0.09844372 -0.018966485 -0.050931767 0.092044175 -0.08277565 -0.056832362
-0.062812775 -0.0035978416 -0.046961956 -0.07062347 0.06890542 0.023417756 -0.054301597 -0.060161978
-0.051215194 -0.03267494 0.0024983706 0.03313947 -0.08125706 -0.10776461 -0.03697314 0.020475369
0.0069415937 0.054958653 -0.06832136 -0.045319617 0.018737683 -0.10848618 -0.08779166 -0.030975275
0.021490127 -0.07593352 -0.080140576 0.07206341 0.0838825 0.02634517 -0.0648095 0.042022966
-0.05018878 -0.01569995 0.039066568 -0.032644216 -0.0782559 0.04973396 -0.061059553 -0.04276293
0.03451985 -0.041753877 -0.045742292 -0.03873531 -0.024541756 0.02590723 -0.0036114333 -0.0979937
-0.064940274 -0.04217653 0.07834662 -0.019375563 -0.01807934 -0.012088471 -0.08782272 -0.011980029
-0.06966868 0.028093744 0.025255222 -0.05979114 -0.03235989 -0.094537325 -0.009839359 -0.07257675
-0.03894969 -0.03625507 0.011960817 -0.07704215 -0.057636816 -0.079237245 0.055757936 0.053032763
-0.00038349978 0.034770373 0.008934573 0.00038780476 -0.0036655494 -0.036095254 -0.059536967 -0.11170213
-0.001783317 -0.0592033 -0.013174453 0.014093553 -0.06819356 -0.013620953 -0.04713792 0.006718472
-0.09551989 0.034410514 0.0770885 0.09116477 -0.017145492 -0.019845342 0.05013184 0.044457354
0.044858024 0.06513358 -0.0030858067 0.026841518 -0.01426876 0.03544078 0.0349853 0.02094846
-0.06581002 -0.030900383 -0.010850009 0.045799024 -0.07400558 -0.03304049 -0.07459466 0.089251176
0.07097188 0.043000832 0.025323182 -0.062757075 0.05336905 -0.07018982 -0.049838495 -0.09637242
-0.028033378 0.0369498 -0.08284603 -0.058028236 -0.054607794 0.006502503 0.047066007 -0.030546214
-0.072377026 -0.10149895 0.040054604 -0.029380774 0.05682989 -0.04793136 -0.07970022 0.04981911
0.03849184 -0.061876267 0.032721046 0.03775989 -0.05001474 0.026220363 0.056490794 -0.013464802
-0.047411274 -0.03472577 -0.072463416 -0.06017328 -0.06466886 -0.03698331 0.006880748 0.040168177
-0.06407484 -0.03560457 -0.028026542 -0.052435268 -0.012675853 -0.097647324 0.0055989646 -0.047095675
-0.03771511 -0.02343379 -0.010048174 -0.08978765 -0.06321731 -0.051234536 0.03662889 0.027145805
-0.0700972 -0.04625793 -0.070398964 -0.0858109 -0.024676241 -0.08795376 0.038084373 -0.016919933
0.07843318 -0.06920883 -0.02656921 0.015899928 -0.009664125 0.009099695 -0.089714155 -0.018314913
-0.09480582 0.05853757 -0.042787634 -0.067357615 0.0012493224 -0.04335739 -0.10372868 0.039244123
-0.055323392 -0.00398327 -0.07085259 0.045504045 0.06537656 -0.031725466 0.041665096 -0.09773884
-0.0994025 -0.0036792525 0.03495246 -0.1115153 -0.02602395 -0.067435525 -0.012351897 0.056286693
-0.10545563 0.04623988 0.013100739 -0.0046054595 -0.10299272 -0.03886534 -0.04718197 -0.036639217
-0.07437141 -0.072083384 0.02699846 -0.010031373 0.012472564 0.022465998 0.07785366 0.033999372
0.062648356 0.063086696 -0.07382324 0.01729855 -0.023730822 -0.013542811 0.02707311 -0.009586576
0.0059888754 -0.049973786 0.042032678 0.045553867 -0.09211638 -0.05495314 -0.09993844 -0.065679334
0.0799399 0.0584013 0.06981029 0.051217616 -0.015244011 -0.032142133 -0.017985236 0.055459827
00000000: 2371 8b3d d0dd d83c dc9c c9bd 9a5f 9bbc
00000010: d49d 50bd a881 bc3d 4886 a9bd 0dc9 68bd
00000020: fca3 80bd c4c9 6bbb 2e5b 40bd 0aa3 90bd
00000030: 491e 8d3d 98d6 bf3c 5a6b 5ebd 686c 76bd
00000040: 06c7 51bd 28d6 05bd b4bb 233b 41bd 073d
00000050: 1a6a a6bd b1b3 dcbd 2671 17bd f6bb a73c
00000060: 4f76 e33b 531c 613d 12ec 8bbd 10a1 39bd
00000070: c57f 993c 012e debd 1dcc b3bd dcbf fdbc
00000080: 100c b03c 0983 9bbd be20 a4bd fb95 933d
00000090: 97ca ab3d d3d1 d73c d8ba 84bd 4620 2c3d
000000a0: c092 4dbd 2e9d 80bc 4404 203d f1b5 05bd
000000b0: a144 a0bd d6b5 4b3d 9519 7abd 2f28 2fbd
000000c0: b064 0d3d 1d06 2bbd 455c 3bbd eba8 1ebd
000000d0: cb0b c9bc 663b d43c ccad 6cbb ecb0 c8bd
000000e0: 68ff 84bd 4cc1 2cbd 3174 a03d 80b9 9ebc
000000f0: 201b 94bc b90e 46bc 66dc b3bd e247 44bc
00000100: 74ae 8ebd da24 e63c 0ae4 ce3c 8ee7 74bd
00000110: ce8b 04bd c99c c1bd 4335 21bc 1ea3 94bd
00000120: b689 1fbd 3280 14bd 4df7 433c 46c8 9dbd
00000130: 9514 6cbd 2347 a2bd 6f62 643d e238 593d
00000140: 7810 c9b9 616b 0e3d 5162 123c 4652 cb39
00000150: b739 70bb 9ed8 13bd 09dd 73bd 16c4 e4bd
00000160: 30be e9ba 297f 72bd a9d9 57bc a5e8 663c
00000170: 11a9 8bbd 6b2a 5fbc b113 41bd a126 dc3b
00000180: ef9f c3bd 0af2 0c3d 93e0 9d3d 98b4 ba3d
00000190: b474 8cbc b392 a2bc 0b57 4d3d ea18 363d
000001a0: 0cbd 373d c164 853d 3f3b 4abb bee2 db3c
000001b0: 84c7 69bc 5a2a 113d bf4c 0f3d 1b9c ab3c
000001c0: 67c7 86bd cd22 fdbc 3cc4 31bc c297 3b3d
000001d0: 3d90 97bd 7755 07bd 16c5 98bd 52c9 b63d
000001e0: b459 913d a421 303d 9072 cf3c c886 80bd
000001f0: 8199 5a3d aebf 8fbd 7323 4cbd e75e c5bd
00000200: 41a6 e5bc ac58 173d 2eab a9bd 04af 6dbd
00000210: 6cac 5fbd f312 d53b 49c8 403d 0e3c fabc
00000220: 683a 94bd aede cfbd 4c10 243d f3af f0bc
00000230: 75c6 683d ac53 44bd de39 a3bd 200f 4c3d
00000240: 9fa9 1d3d f871 7dbd 8106 063d 1daa 1a3d
00000250: 42dc 4cbd 16cc d63c e462 673d 799b 5cbc
00000260: 5332 42bd 9c3c 0ebd b367 94bd 4278 76bd
00000270: 1b71 84bd d07b 17bd e677 e13b 6387 243d
00000280: ab39 83bd 19d6 11bd eb97 e5bc 5dc6 56bd
00000290: 62ae 4fbc 52fb c7bd 8577 b73b 65e7 40bd
000002a0: 297b 1abd 38f8 bfbc 19a1 24bc 96e2 b7bd
000002b0: 1478 81bd 4edb 51bd 2d08 163d e160 de3c
000002c0: 1f8f 8fbd f578 3dbd 552d 90bd a0bd afbd
000002d0: d425 cabc 1a21 b4bd 5cfe 1b3d ac9b 8abc
000002e0: 93a1 a03d 5cbd 8dbd aca7 d9bc 9140 823c
000002f0: 4756 1ebc e316 153c 0ebc b7bd 2809 96bc
00000300: 8e29 c2bd 17c5 6f3d 1642 2fbd caf2 89bd
00000310: 4ec0 a33a 8597 31bd b46f d4bd 72be 203d
00000320: c89a 62bd 1786 82bb 2a1b 91bd 7362 3a3d
00000330: 25e4 853d 90f2 01bd 05a9 2a3d 4d2b c8bd
00000340: 8a93 cbbd 9d1f 71bb 502a 0f3d 2262 e4bd
00000350: 2e30 d5bc a31b 8abd 9c5f 4abc e08c 663d
00000360: 1ff9 d7bd 0766 3d3d 7ba4 563c 65e9 96bb
00000370: d9ed d2bd 4331 1fbd e241 41bd 0113 16bd
00000380: 0a50 98bd 74a0 93bd e02b dd3c a15a 24bc
00000390: ba59 4c3c 9d0a b83c bd71 9f3d ed42 0b3d
000003a0: c84d 803d 9933 813d a430 97bd b0b5 8d3c
000003b0: 2467 c2bc abe2 5dbc 6dc8 dd3c 0411 1dbc
000003c0: 543e c43b 50b1 4cbd 752a 2c3d b196 3a3d
000003d0: 83a7 bcbd 8b16 61bd 86ac ccbd e382 86bd
000003e0: 88b7 a33d 3436 6f3d b3f8 8e3d 90c9 513d
000003f0: 04c2 79bc 78a7 03bd c655 93bc d829 633d

user_tower.fc.6.bias f4 [64]
-0.01138571 -0.0384661 -0.028984608 -0.07691484 0.06583706 0.08802959 0.042080276 -0.005395873
-0.006467525 -0.028208585 0.07879802 0.023463199 -0.01878875 -0.040470168 0.05578879 0.02482305
0.061496485 0.042663388 0.03272846 0.03593205 0.017929861 0.012587661 0.022320945 0.061436873
0.07514862 0.06438872 -0.03287609 -0.019304443 0.047440384 0.043298542 -0.059177097 -0.032556567
0.009819188 -0.025661267 -0.03504479 0.0020980071 -0.091595955 -0.022878053 0.07095597 -0.07193754
0.047290113 -0.009098848 -0.06770606 -0.008954822 -0.018585308 -0.06929352 -0.06328715 0.07713217
-0.041267227 0.0038834426 -0.086663336 0.02564105 -0.084328204 -0.0071747433 -0.013257128 -0.011831924
-0.0136441 -0.10531841 0.051725697 0.09341675 0.013068095 -0.09039246 -0.053673178 -0.061592966
00000000: 218b 3abc a18e 1dbd 2171 edbc 8785 9dbd
00000010: 95d5 863d dc48 b43d 5e5c 2c3d ddcf b0bb
00000020: 88ed d3bb b115 e7bc db60 a13d e535 c03c
00000030: ddea 99bc 0cc4 25bd c982 643d b559 cb3c
00000040: bde3 7b3d cebf 2e3d 470e 063d 7c2d 133d
00000050: a5e1 923c 7a3c 4e3c 6ada b63c 3ba5 7b3d
00000060: 85e7 993d 3cde 833d 14a9 06bd 5a24 9ebc
00000070: d950 423d d059 313d af63 72bd 095a 05bd
00000080: a9e0 203c 9437 d2bc 208b 0fbd b87e 093b
00000090: a996 bbbd c16a bbbc 5d51 913d fd53 93bd
000000a0: 47b3 413d 5613 15bc 7aa9 8abd 3fb7 12bc
000000b0: 3740 98bc c3e9 8dbd b19c 81bd 79f7 9d3d
000000c0: d307 29bd 5b81 7e3b 8c7c b1bd 2e0d d23c
000000d0: 44b4 acbd 1c1a ebbb 6d34 59bc b0da 41bc
000000e0: 818b 5fbc 2eb1 d7bd 53de 533d 4851 bf3d
000000f0: 901b 563c af1f b9bd 68d8 5bbd e848 7cbd

item_tower.fc.0.weight f4 [256, 12]
-0.15328646 -0.14729199 0.043129846 -0.18608981 -0.013851211 0.28290915 0.28439257 0.16632363
-0.17146334 0.13024639 0.17480281 0.17991145 0.047099203 0.26865822 -0.16778293 -0.18449219
0.0640007 -0.20242211 0.15774386 0.23179048 -0.022305097 0.27143198 -0.084351406 0.0016353868
0.10336619 0.058129016 -0.036755946 -0.20508663 0.2514162 0.256799 -0.09993212 0.19889201
0.2743043 0.10253346 -0.13953207 0.19294828 0.23524335 -0.11195782 -0.28852972 -0.011729808
-0.06417561 -0.15526745 0.24037263 0.25890744 -0.080220684 0.10387763 -0.20252237 -0.033280905
0.059352677 0.23232818 0.22174114 -0.021301627 -0.1855916 0.07858972 -0.0154313985 -0.034426462
-0.20210893 0.13938628 -0.14937943 0.19033608 -0.13446182 0.030198444 0.22770768 -0.18267901
-0.08913714 -0.05418946 -0.25730902 0.22232376 -0.05151882 0.13105871 -0.20527485 0.20189196
-0.114831224 0.100884065 -0.23721589 0.16504402 -0.011034278 -0.08950655 -0.17938332 0.08093168
-0.09414024 -0.19020751 -0.1289278 0.10153309 -0.052246645 0.1927939 0.22786167 0.25080568
0.12315591 -0.107451074 0.04657139 -0.12913749 -0.07268378 0.10030364 -0.0097683035 0.10003936
0.113602586 -0.22743122 -0.08067772 0.1896999 -0.072912484 0.13675757 0.25107145 -0.087867156
0.2426524 -0.17112224 0.1285191 -0.058126993 0.0014547936 -0.09024187 0.13981996 0.06733504
0.06732214 0.0036608302 -0.039439525 0.22617908 0.047640413 0.0297829 -0.22003342 -0.17486137
0.16040088 -0.18365563 0.21717307 -0.10337109 -0.011206381 -0.11637779 0.28764525 -0.15832733
-0.27546608 -0.20552613 0.019954022 0.17265697 -0.18894432 0.27584094 -0.13951407 -0.13101886
0.23363021 0.022239242 0.0722975 -0.12726784 -0.17230292 -0.022667892 0.26067835 0.118614346
0.042970713 -0.24299511 -0.19809273 0.1787343 0.160234 -0.26068622 0.03427389 0.10747841
-0.23311749 -0.057576828 -0.15181373 -0.016243186 -0.13641521 0.25432226 0.12816483 0.10520325
0.29418808 0.2074782 0.1794508 -0.08561741 -0.11935578 -0.0299691 0.15679614 -0.1866287
0.14764407 -0.10851133 -0.0023182903 -0.095966704 0.008659563 -0.04774616 0.0808029 0.13321452
0.070843115 -0.011475175 -0.15799531 0.043741982 0.23568863 -0.13219532 -0.20981336 0.30301774
-0.22607677 0.018911008 -0.04912548 0.031096615 -0.27571836 -0.04488724 0.14400715 -0.1095372
-0.11976109 -0.112616085 -0.010441617 -0.008998725 -0.095693804 -0.022910772 0.10622876 -0.1936646
0.17884976 -0.29088295 -0.21187416 0.15646198 0.12201883 0.16306351 -0.05530321 0.18644752
0.2345815 0.07048706 0.23052803 -0.0135096 0.119318 0.13461651 0.1348576 0.0021185337
-0.06923833 0.0656412 -0.16147335 0.1517652 -0.13223329 -0.105717875 0.14499968 -0.023615051
0.21284857 -0.058892243 -0.25084555 -0.20580734 0.21087718 0.10492811 -0.13359803 0.22580528
0.10926207 -0.21962756 -0.14722499 -0.25720736 0.21723111 -0.019267961 0.16685422 -0.25804234
-0.22796002 0.23274118 0.08886065 -0.19501406 0.003805028 0.24997818 0.25069436 -0.14225818
-0.15888907 0.25565782 0.1492658 -0.17113239 -0.057630256 0.07813281 -0.0008450743 0.26490867
00000000: 20f7 1cbe b6d3 16be eca8 303d 548e 3ebe
00000010: 31f0 62bc 78d9 903e e79b 913e be50 2a3e
00000020: 1694 2fbe 4f5f 053e 82ff 323e b53a 383e
00000030: 18eb 403d 928d 893e 4acf 2bbe 85eb 3cbe
00000040: cd12 833d be47 4fbe 9b87 213e 7c5a 6d3e
00000050: 2eb9 b6bc 22f9 8a3e 6ec0 acbd 7a5a d63a
00000060: a7b1 d33d b118 6e3d 678d 16bd 3b02 52be
00000070: a0b9 803e 297b 833e 36a9 ccbd 59aa 4b3e
00000080: 9d71 8c3e 10fd d13d 7fe1 0ebe 3c94 453e
00000090: a2e3 703e 244a e5bd 2bba 93be 612e 40bc
000000a0: 816e 83bd 6efe 1ebe 3e24 763e 848f 843e
000000b0: be4a a4bd cbbd d43d 0662 4fbe 8f51 08bd
000000c0: cb1b 733d 70e7 6d3e 1c10 633e c080 aebc
000000d0: b90b 3ebe a6f3 a03d fad3 7cbc c302 0dbd
000000e0: a5f5 4ebe 47bb 0e3e ecf6 18be 76e7 423e
000000f0: 5cb0 09be ba62 f73c 342c 693e 3510 3bbe
00000100: 888d b6bd c4f5 5dbd 02be 83be d7a8 633e
00000110: 6605 53bd 4134 063e 9233 52be c4bc 4e3e
00000120: a22c ebbd 4e9c ce3d b9e8 72be 4d01 293e
00000130: 1ec9 34bc 364f b7bd 43b0 37be 82bf a53d
00000140: 99cc c0bd c2c5 42be a605 04be 95f0 cf3d
00000150: 9400 56bd c46b 453e 9254 693e 9a69 803e
00000160: 2a39 fc3d 4f0f dcbd a4c1 3e3d 9e3c 04be
00000170: 3cdb 94bd ff6b cd3d 3c0b 20bc 70e1 cc3d
00000180: 79a8 e83d bbe3 68be 5c3a a5bd b140 423e
00000190: 2453 95bd 2d0a 0c3e 708c 803e b2f3 b3bd
000001a0: df79 783e ab3a 2fbe 839a 033e 9216 6ebd
000001b0: c6ae be3a bbd0 b8bd f72c 0f3e f4e6 893d
000001c0: 31e0 893d 8aea 6f3b 578b 21bd 7d9b 673e
000001d0: 9822 433d 45fb f33c 7150 61be dc0e 33be
000001e0: 2140 243e 3910 3cbe 9e62 5e3e 39b4 d3bd
000001f0: f89a 37bc 7b57 eebd 3d46 933e 8f20 22be
00000200: e409 8dbe 7175 52be 9e76 a33c fdcc 303e
00000210: 9f7a 41be 063b 8d3e c7dc 0ebe cf29 06be
00000220: c23c 6f3e 122f b63c b610 943d 8052 02be
00000230: 2d70 30be 04b2 b9bc a277 853e 14ec f23d
00000240: 0f02 303d b6d3 78be d2d8 4abe 2006 373e
00000250: 6214 243e aa78 85be c762 0c3d a41d dc3d
00000260: 5ab6 6ebe aed5 6bbd 0f75 1bbe 6e10 85bc
00000270: 6eb0 0bbe 8736 823e a43d 033e cd74 d73d
00000280: d29f 963e 2a75 543e f3c1 373e 2e58 afbd
00000290: ce70 f4bd c281 f5bc 2b8f 203e 981b 3fbe
000002a0: 0230 173e 303b debd 75ee 17bb 318a c4bd
000002b0: d7e0 0d3c 7a91 43bd fe7b a53d 6369 083e
000002c0: 3216 913d 5f02 3cbc 86c9 21be cb2a 333d
000002d0: 5c58 713e 365e 07be 50d9 56be 2425 9b3e
000002e0: ab80 67be 42eb 9a3c cd37 49bd 54be fe3c
000002f0: f52a 8dbe afdb 37bd 9c76 133e 0a55 e0bd
00000300: 4d45 f5bd 43a3 e6bd 5113 2bbc 636f 13bc
00000310: 1dfb c3bd 5faf bbbc 778e d93d 0350 46be
00000320: 6424 373e 9cee 94be 8af5 58be 9237 203e
00000330: 02e5 f93d 1ffa 263e 9e85 62bd 19ec 3e3e
00000340: 2236 703e 855b 903d 8a0f 6c3e 5f57 5dbc
00000350: ff5c f43d e9d8 093e 1c18 0a3e 19d7 0a3b
00000360: d3cc 8dbd e56e 863d 4559 25be 5668 1b3e
00000370: 2a68 07be 9d82 d8bd cc7a 143e 5a74 c1bc
00000380: faf4 593e fe38 71bd d46e 80be 29bf 52be
00000390: 30f0 573e 8de4 d63d eccd 08be 8039 673e
000003a0: cbc4 df3d 0ce6 60be 26c2 16be afb0 83be
000003b0: d571 5e3e d8d7 9dbc d5db 2a3e 201e 84be
000003c0: 5a6e 69be b453 6e3e 93fc b53d c4b1 47be
000003d0: c75d 793b 48fa 7f3e 035b 803e 21ac 11be
000003e0: d1b3 22be 95e5 823e 22d9 183e 543d 2fbe
000003f0: b40d 6cbd 1804 a03d fa87 5dba 1ca2 873e

item_tower.fc.0.bias f4 [256]
-0.1368916 0.06682785 0.13390902 0.17021023 -0.2236674 -0.2593776 -0.22384827 0.24702753
0.21359223 0.052306578 0.11453782 -0.07767587 0.057650197 -0.06857891 0.23807095 -0.057549857
0.24306713 0.16080678 -0.01772676 -0.11013489 -0.070251435 0.11841627 -0.027601488 0.05657227
0.100108586 0.10666498 0.040429633 0.25756612 -0.03119213 -0.16459909 0.111930035 -0.23853716
0.21980704 0.21083659 0.12495927 0.060068477 0.13398048 0.22265485 0.19607022 0.023801466
-0.2422381 -0.084820665 -0.13759235 0.0430966 0.2657481 0.16151592 0.12201092 -0.1875296
-0.1778521 -0.027372362 -0.26539293 0.2530387 -0.03883925 0.15379845 0.027262969 -0.016662057
-0.07948708 -0.054277606 0.08735078 0.12481949 0.20764036 -0.09803993 0.22361393 -0.09686915
0.16628914 0.25815025 -0.13624524 0.26335785 -0.12764965 -0.23781246 0.18131928 -0.23127578
-0.14129756 -0.049208447 0.001153732 0.09742779 0.16810344 0.043684725 -0.07452785 0.16174589
0.20844734 0.113347575 -0.0081754085 -0.10905416 -0.27283576 0.05943582 0.2337623 -0.00024417392
0.23090596 -0.019686144 0.015835483 -0.14273898 0.22750005 -0.10967039 -0.11710969 -0.27114472
-0.2377043 -0.06699119 -0.1421199 -0.083233856 -0.22773604 0.021159755 -0.09243899 -0.08471903
-0.087338634 -0.08084004 -0.23147498 -0.06835252 0.03202641 0.23619096 -0.18494225 -0.10407216
0.21328764 -0.092101626 -0.088077195 -0.1954809 -0.12926862 0.15472169 0.2865929 -0.16419311
-0.13359068 -0.25304452 0.25316146 -0.10034732 0.0030111212 -0.20036085 -0.21169518 -0.10754571
0.065835536 0.054679427 0.23216413 -0.022619344 -0.28457862 0.2130798 0.12707755 0.22924311
0.015267836 -0.09483866 -0.15695481 0.04547115 -0.2586516 0.20308201 -0.2077262 -0.0626527
0.29218763 -0.037572514 -0.13213147 0.042991877 0.14157286 -0.093840346 -0.051839136 0.007846215
-0.14123093 0.18096116 -0.024737861 -0.26634106 -0.13080055 0.20420103 -0.016193593 -0.13789812
0.23443013 -0.070374206 0.2188205 -0.22762205 -0.0049322364 -0.29636288 0.053534906 0.26091447
0.06287512 0.2302686 -0.09400257 0.24271056 0.159654 -0.026181351 0.08487108 -0.14370668
-0.017430801 -0.12003703 0.23906332 0.21249111 -0.08797767 0.059440628 -0.21772736 0.13377896
-0.1970023 0.124799386 -0.2466259 0.11967188 0.07662787 -0.05957337 -0.06972426 -0.1692271
-0.14752209 -0.027600883 0.09689643 0.19446826 -0.011876886 0.13566099 0.17213708 -0.19134931
0.13306652 -0.065266564 -0.19336891 0.019560676 -0.19231188 0.18729457 -0.07583865 -0.19512768
-0.24972901 0.1701268 0.30968577 -0.272151 -0.111679584 0.2336589 0.11572 -0.28070086
0.012375143 0.07177324 0.08221172 0.032396927 0.026983703 -0.03160339 -0.032771613 -0.0476648
0.2667956 0.24259438 0.156413 -0.14362472 0.1459004 0.15108767 -0.13524716 0.1633908
0.027791971 0.03885498 -0.26446342 0.2640994 0.014708339 0.15263414 -0.22263992 0.19867964
0.116135485 -0.07351112 -0.11004017 -0.16638349 -0.09376842 -0.27122995 -0.17290212 -0.095532455
-0.2008133 0.104977176 0.28887206 -0.0069281 -0.064982094 0.0366115 -0.22670026 -0.16372173
00000000: 502d 0cbe 0add 883d 721f 093e 974b 2e3e
00000010: 1109 65be 24cd 84be 7b38 65be c9f4 7c3e
00000020: ecb7 5a3e 6c3f 563d ce92 ea3d 8714 9fbd
00000030: 9d22 6c3d 1973 8cbd dfc8 733e 66b9 6bbd
00000040: 97e6 783e 88aa 243e b637 91bc 678e e1bd
00000050: fcdf 8fbd 3b84 f23d 841c e2bc 53b8 673d
00000060: bb05 cd3d 2b73 da3d 8b99 253d b5df 833e
00000070: a386 ffbc aa8c 28be 933b e53d 1643 74be
00000080: 1915 613e 8ce5 573e a5ea ff3d 5d0a 763d
00000090: 2e32 093e a2ff 633e a2c6 483e 4bfb c23c
000000a0: 440d 78be 75b6 adbd 02e5 0cbe 0f86 303d
000000b0: 2310 883e 6e64 253e dce0 f93d c207 40be
000000c0: dc1e 36be 013c e0bc 95e1 87be 4a8e 813e
000000d0: e815 1fbd 577d 1d3e 9756 df3c de7e 88bc
000000e0: 1fca a2bd 3252 5ebd f7e4 b23d 5ca1 ff3d
000000f0: ad9f 543e 29c9 c8bd 0dfb 643e 5563 c6bd
00000100: b347 2a3e 452c 843e df83 0bbe d7d6 863e
00000110: 97b6 02be 1c85 73be c3ab 393e 8fd3 6cbe
00000120: 4fb0 10be cc8e 49bd d238 973a 3988 c73d
00000130: 4f23 2c3e c1ee 323d 0fa2 98bd b7a0 253e
00000140: 3873 553e c622 e83d 26f2 05bc ca57 dfbd
00000150: 21b1 8bbe f972 733d 625f 6f3e 7804 80b9
00000160: 9d72 6c3e d644 a1bc 6ab9 813c 2b2a 12be
00000170: c6f5 683e df9a e0bd 35d7 efbd 7bd3 8abe
00000180: c268 73be ad32 89bd e187 11be 8376 aabd
00000190: a333 69be 3957 ad3c a750 bdbd 2c81 adbd
000001a0: 99de b2bd 778f a5bd c707 6dbe 68fc 8bbd
000001b0: 202e 033d 0bdc 713e 8061 3dbe c923 d5bd
000001c0: 1368 5a3e c79f bcbd d161 b4bd 252c 48be
000001d0: fe5e 04be 5d6f 1e3e 4ebc 923e 3d22 28be
000001e0: ffcb 08be 0d8f 81be 619e 813e e582 cdbd
000001f0: 3b56 453b 652b 4dbe 9fc6 58be ed40 dcbd
00000200: c8d4 863d 89f7 5f3d 6fbc 6d3e 344c b9bc
00000210: 4ab4 91be 9731 5a3e 9e20 023e b5be 6a3e
00000220: f225 7a3c c53a c2bd c3b8 20be f53f 3a3d
00000230: fc6d 84be bbf4 4f3e 2db6 54be 0f50 80bd
00000240: 9e99 953e a3e5 19bd 794d 07be 4018 303d
00000250: 7af8 103e 5e2f c0bd 4655 54bd 698d 003c
00000260: d79e 10be e24d 393e 0ea7 cabc db5d 88be
00000270: 94f0 05be 131a 513e 6da8 84bc 2a35 0dbe
00000280: 740e 703e 5a20 90bd 7b12 603e c115 69be
00000290: 999e a1bb e0bc 97be 6b47 5b3d 9596 853e
000002a0: acc4 803d 88cb 6b3e 6b84 c0bd 1e89 783e
000002b0: 577c 233e 467a d6bc e4d0 ad3d d827 13be
000002c0: 0acb 8ebc f9d5 f5bd 04cd 743e 4597 593e
000002d0: a32d b4bd 0478 733d ecf3 5ebe 5afd 083e
000002e0: f9ba 49be d296 ff3d 808b 7cbe 8816 f53d
000002f0: 13ef 9c3d 3503 74bd 98cb 8ebd de49 2dbe
00000300: 0810 17be 3f1b e2bc a371 c63d b022 473e
00000310: 4597 42bc b7ea 0a3e b444 303e 13f1 43be
00000320: 9742 083e 7aaa 85bd 8002 46be b63d a03c
00000330: 68ed 44be 26ca 3f3e 4b51 9bbd 8dcf 47be
00000340: f6b8 7fbe b835 2e3e 228f 9e3e 6057 8bbe
00000350: 44b8 e4bd 4744 6f3e 9bfe ec3d 06b8 8fbe
00000360: 1dc1 4a3c d9fd 923d 9e5e a83d a4b2 043d
00000370: ed0c dd3c 8e72 01bd 873b 06bd 2a3c 43bd
00000380: 6f99 883e a96a 783e bb2a 203e 5c12 13be
00000390: ea66 153e bab6 1a3e 3b7e 0abe eb4f 273e
000003a0: fdab e33c 6626 1f3d c067 87be 0938 873e
000003b0: 3ffb 703c 204c 1c3e b8fb 63be ad72 4b3e
000003c0: 71d8 ed3d 008d 96bd be5c e1bd 6f60 2abe
000003d0: a809 c0bd a7de 8abe 410d 31be 85a6 c3bd
000003e0: 00a2 4dbe 46fe d63d 0ae7 933e 1d05 e3bb
000003f0: 5515 85bd f1f5 153d 1d24 68be aba6 27be

item_tower.fc.3.weight f4 [128, 256]
0.0056380634 0.0398524 -0.06370334 0.0071417107 -0.0044618114 -0.021429863 0.05085717 -0.03490812
0.053308178 -0.015363918 -0.018385114 0.060055744 0.040372945 -0.026095536 -0.053087454 0.07356486
0.03865842 0.060972936 0.031784613 0.0500052 -0.043235946 0.0026300966 -0.050740305 -0.0031760926
-0.05862361 0.05812731 -0.08482584 -0.044427138 0.009079981 0.023575569 0.0038476167 -0.04428863
-0.022972504 0.013285522 -0.032918785 -0.039330043 0.0008180945 -0.03143978 -0.03585958 -0.053434815
-0.033172563 -0.0012325565 -0.023948172 -0.046198156 -0.012541759 -0.019004764 -0.020598028 -0.06875563
-0.043449022 -0.076252215 -0.054828983 0.06654792 0.011636925 0.017728837 0.008710413 0.041060165
0.035497908 -0.029669963 -0.04742588 -0.02161079 -0.0059539783 0.03075063 0.0014086454 0.015261589
-0.013462263 0.078602955 0.004832895 0.043917827 -0.07106256 -0.0484521 -0.039740894 -0.011560923
0.008087702 -0.04197196 0.064561754 -0.012399991 -0.038019184 0.024380904 -0.072779305 0.011956397
0.03703221 0.051193498 -0.059358194 0.062394194 0.016975747 0.017346695 0.050911844 0.018542038
-0.022090383 0.01836003 -0.08607202 0.044121068 -0.0038386923 0.0095799295 -0.018595919 -0.05913156
0.01425844 -0.01151825 0.0010446627 0.06024541 -0.057126332 -0.026053444 -0.05484807 -0.08916278
-0.08379466 0.017732639 0.01602075 -0.029302476 0.038794804 0.07240541 -0.09022064 0.02874269
-0.026763026 -0.0019236209 -0.029009867 -0.055187855 0.056864165 -0.036830846 0.032441434 0.013185558
0.041031543 -0.0037002985 0.06012358 -0.014969596 0.07454214 -0.03689599 0.0055224835 -0.023718873
-0.08535248 0.036042813 0.047568638 -0.02815332 -0.07436847 0.04223394 0.02300984 0.018949922
-0.030855311 0.0327449 0.02050965 -0.016918324 0.03151243 0.010015743 0.05324582 -0.036051124
0.04077549 0.04699469 -0.033332787 -0.08324288 -0.061127122 -0.003166631 -0.047464263 0.0031683922
-0.010153339 -0.036288913 0.057981327 -0.032742813 0.002997887 -0.014407399 0.023695035 -0.033829488
-0.068219736 -0.06981955 0.0031096248 1.7928192e-05 -0.026402064 -0.036866236 0.07649749 0.0067393254
-0.031388003 -0.037417855 -0.042237896 -0.03684349 -0.030615414 0.026465775 0.009515233 -0.06353662
0.004303073 -0.038184658 0.007196923 0.059729315 0.031266615 -0.023743553 0.05071722 -0.02113699
-0.034667138 0.06031789 -0.07237672 -0.06420614 0.05622515 -0.031786747 0.05952974 -0.03604018
0.026582021 -0.0211078 -0.054950953 0.00019333937 0.0070476867 -0.004883585 0.010210651 0.016911276
0.019659396 0.06803025 -0.006318107 0.069497034 0.018432215 0.05527579 0.033816125 0.04699124
-0.053097155 0.056282353 0.053114094 -0.0111295935 0.037507437 0.016983872 -0.04516854 0.0042285044
-0.049632955 0.0565098 -0.033948924 0.069442116 -0.011188264 -0.03092687 -0.02093029 0.06947534
0.01924437 0.030064184 -0.024388937 0.04183785 0.04740857 0.059800178 -0.034086704 0.013768627
0.066942096 -0.06638137 0.02987576 -0.022428218 -0.055529602 0.07360048 -0.056260146 0.0031163844
0.05187772 0.04301347 -0.053353265 -0.044058908 -0.041336153 -0.006524532 0.045066793 -0.050605748
0.027129464 0.04374856 0.08764343 -0.032606382 -0.043116044 0.020510184 0.07582498 0.08272729
00000000: 81bf b83b 453c 233d e676 82bd 0305 ea3b
00000010: 6334 92bb ae8d afbc 9c4f 503d d1fb 0ebd
00000020: ad59 5a3d f1b8 7bbc 619c 96bc 03fd 753d
00000030: 1a5e 253d 4ec6 d5bc 3b72 59bd 2ca9 963d
00000040: 4b58 1e3d c2be 793d 9530 023d 41d2 4c3d
00000050: 2d18 31bd b35d 2c3b 11d5 4fbd fe25 50bb
00000060: 4f1f 70bd e716 6e3d 2cb9 adbd 3bf9 35bd
00000070: 33c4 143c 8d21 c13c 4c28 7c3b ff67 35bd
00000080: d530 bcbc 85ab 593c d9d5 06bd 8a18 21bd
00000090: 6475 563a 00c7 00bd 7fe1 12bd 77de 5abd
000000a0: f4df 07bd bc8d a1ba f52e c4bc 473a 3dbd
000000b0: f37b 4dbc e1af 9bbc 32bd a8bc c0cf 8cbd
000000c0: 9af7 31bd 1f2a 9cbd 5b94 60bd 474a 883d
000000d0: cda8 3e3c 113c 913c 1fb6 0e3c b42e 283d
000000e0: 4166 113d 6c0e f3bc a441 42bd 1d09 b1bc
000000f0: 9719 c3bb bfe8 fb3c 4ca2 b83a be0b 7a3c
00000100: d390 5cbc 96fa a03d 435d 9e3b 2ee3 333d
00000110: 3f89 91bd b675 46bd 59c7 22bd 076a 3dbc
00000120: 4882 043c caea 2bbd f438 843d 5529 4bbc
00000130: 01ba 1bbd 76ba c73c 510d 95bd c4e4 433c
00000140: 16af 173d 46b0 513d 9421 73bd 0e91 7f3d
00000150: b910 8b3c a81a 8e3c f088 503d 79e5 973c
00000160: e4f6 b4bc c667 963c 8746 b0bd 4bb8 343d
00000170: 9292 7bbb 23f5 1c3c 7856 98bc ef33 72bd
00000180: 3b9c 693c 0bb7 3cbc 10ed 883a e4c3 763d
00000190: 4dfd 69bd 086e d5bc 5fa8 60bd fa9a b6bd
000001a0: 899c abbd 0a44 913c f33d 833c bf0b f0bc
000001b0: 4de7 1e3d 4a49 943d 99c5 b8bd ca75 eb3c
000001c0: 223e dbbc 0222 fcba 1aa6 edbc a90c 62bd
000001d0: 66ea 683d f1db 16bd 4fe1 043d 3d08 583c
000001e0: b110 283d b580 72bb 2544 763d 0943 75bc
000001f0: 8da9 983d 4020 17bd f3f5 b43b 154e c2bc
00000200: 48cd aebd a1a1 133d 55d7 423d cba1 e6bc
00000210: 7f4e 98bd 7ffd 2c3d 227f bc3c de3c 9b3c
00000220: 47c4 fcbc 841f 063d db03 a83c 4c98 8abc
00000230: 2e13 013d 1219 243c 4a18 5a3d 58aa 13bd
00000240: 3304 273d 817d 403d f687 08bd 3e7b aabd
00000250: 6f60 7abd 4187 4fbb e369 42bd cda4 4f3b
00000260: 315a 26bc afa3 14bd d47d 6d3d 541d 06bd
00000270: 3378 443b 030d 6cbc 171c c23c ca90 0abd
00000280: cab6 8bbd 8dfd 8ebd d9ca 4b3b 8064 9637
00000290: 2449 d8bc 0d01 17bd b7aa 9c3d 8fd5 dc3b
000002a0: b590 00bd 7743 19bd a501 2dbd 33e9 16bd
000002b0: 2dcd fabc c1ce d83c c8e5 1b3c 7d1f 82bd
000002c0: cb00 8d3b 8467 1cbd 2ad4 eb3b baa6 743d
000002d0: 6c11 003d d781 c2bc dcbc 4f3d 7b27 adbc
000002e0: 21ff 0dbd e40f 773d 3f3a 94bd 827e 83bd
000002f0: 584c 663d d232 02bd 75d5 733d de9e 13bd
00000300: 8ac2 d93c 44ea acbc 4014 61bd 24bb 4a39
00000310: 48f0 e63b 7b06 a0bb 934a 273c 8489 8a3c
00000320: be0c a13c 7253 8b3d 1f08 cfbb 7654 8e3d
00000330: 28ff 963c de68 623d c782 0a3d e379 403d
00000340: 677c 59bd 5388 663d 2a8e 593d e658 36bc
00000350: 66a1 193d c321 8b3c a602 39bd 448f 8a3b
00000360: ed4b 4bbd d276 673d 070e 0bbd ab37 8e3d
00000370: fb4e 37bc 595a fdbc 0076 abbc 1649 8e3d
00000380: 5ea6 9d3c 2a49 f63c 4fcb c7bc 2a5e 2b3d
00000390: 7d2f 423d 08f1 743d 809e 0bbd cf95 613c
000003a0: f018 893d f5f2 87bd 03be f43c 62bb b7bc
000003b0: 0273 63bd d9bb 963d 0a71 66bd 413c 4c3b
000003c0: bb7d 543d e42e 303d f488 5abd 1d77 34bd
000003d0: 1950 29bd becb d5bb f597 383d f947 4fbd
000003e0: 9c3e de3c b131 333d 667e b33d 458e 05bd
000003f0: 739a 30bd f904 a83c 214a 9b3d ed6c a93d
