models/dumps/TwoTowerModelV2_v1.pth (torch, 116898 bytes, 11 tensors)

user_tower.fc.0.weight f4 [128, 11]
0.23551895 0.22905011 -0.034824666 0.25906965 0.05345695 -0.18535168 0.09654313 0.2884901
0.1127983 -0.061256103 -0.21796617 -0.27088368 0.18091553 -0.06321175 -0.06732387 0.27759433
0.2650425 -0.19205497 -0.10829396 0.006768127 0.24956992 0.19989648 0.14465831 -0.09811891
-0.26665977 0.2760366 -0.021836262 -0.13368088 -0.22870076 -0.17973457 -0.27331161 0.17815608
-0.049800362 0.2622089 -0.10876259 -0.029846096 -0.23883846 -0.019379072 -0.21045125 -0.0396195
0.0038463897 0.14194244 -0.10111023 0.043108527 0.14586523 -0.026362477 0.18282072 0.23839429
-0.18408379 -0.07837995 -0.08982188 -0.16931403 0.119526416 0.27086446 0.24371251 0.08794292
0.0816226 -0.09066283 -0.014401336 0.016609134 0.17267321 -0.20128222 -0.21969052 -0.1865665
0.1821055 0.18435524 0.17978007 0.13192888 0.18669787 0.24263377 -0.09307953 -0.22989576
0.2578614 -0.14259829 -0.1093711 0.05179777 0.039893903 -0.11880637 0.044050127 0.012548618
-0.18062639 -0.0029417013 -0.0024101771 0.0034222743 -0.16100876 -0.088482425 -0.080851115 -0.0009532869
0.21783738 -0.05406001 0.035885133 -0.16447064 -0.18817988 0.1242845 -0.06364865 0.01161039
-0.050491624 -0.036049645 -0.06970683 -0.076054186 -0.022429822 0.25779438 -0.2685705 0.05712871
-0.11285675 -0.12172374 0.16672103 -0.15008599 -0.16577889 -0.027071973 -0.27000847 -0.20159309
0.12964967 0.021620987 0.21138172 0.08330005 -0.12703592 0.04725323 -0.2446817 0.042006712
-0.20036179 -0.032703757 0.1478402 0.102583475 0.27718136 0.2875334 0.13290468 -0.08990161
-0.24857533 -0.061064515 -0.26534578 -0.049879894 -0.02954985 0.12817925 0.088214606 -0.2731338
-0.12709953 0.22610965 -0.20368713 0.18914407 0.08725929 -0.17733046 -0.13956228 0.21262507
-0.08176711 0.24249588 0.027551236 0.22725374 0.11918349 -0.128516 -0.16971521 -0.011985025
0.14316109 -0.26154393 0.22577964 -0.066480726 -0.29681194 -0.19314633 0.27139157 -0.16816856
-0.2502251 -0.17173313 -0.017699344 -0.14604998 -0.024151364 0.01012747 0.0010238213 -0.054273814
0.044587 -0.26147372 -0.15484989 0.16018252 -0.12882553 0.08431278 -0.10976281 0.12107402
-0.24295565 -0.2690564 -0.21206434 0.23199303 -0.16517216 0.0036939098 0.19885352 0.22220603
-0.15971532 -0.032752547 0.14084223 -0.20878161 0.22044688 -0.0068974253 0.06956507 -0.19943254
-0.21441141 -0.21664369 -0.0017557367 -0.033290304 -0.24417946 -0.021459917 -0.15454262 -0.0024132975
0.0041932864 -0.052491724 -0.031298805 -0.22406712 -0.08724886 0.10920162 0.04364359 -0.12039556
-0.26078752 -0.21691166 0.24557464 0.136187 0.2373958 0.08597865 0.03692599 0.07395957
0.22362073 -0.1470189 0.18789613 0.26532608 0.21221854 0.22080258 0.25185978 0.065166555
-0.18607363 -0.12654409 0.12167597 -0.02972682 -0.2962554 0.16751102 -0.0020162328 0.2382971
0.24064046 0.06308335 -0.29034838 0.13178374 -0.1977411 -0.04789295 -0.21475768 -0.19921127
-0.18752709 0.0542168 -0.1334978 0.23505856 0.15789546 -0.2429126 -0.1684055 0.0574704
0.25069016 0.19008711 -0.23362556 -0.19055405 0.19357973 0.10905721 0.20847449 -0.24411018
00000000: e12b 713e 1d8c 6a3e 4fa4 0ebd c7a4 843e
00000010: adf5 5a3d d5cc 3dbe 68b8 c53d f9b4 933e
00000020: cc02 e73d aee7 7abd 8632 5fbe 44b1 8abe
00000030: ec41 393e 2975 81bd 19e1 89bd d820 8e3e
00000040: a7b3 873e 0faa 44be 39c9 ddbd 2ac7 dd3b
00000050: 428f 7f3e aab1 4c3e 4f21 143e 91f2 c8bd
00000060: a187 88be ab54 8d3e f6e1 b2bc a4e3 08be
00000070: 8830 6abe 570c 38be 80ef 8bbe 8c6e 363e
00000080: 77fb 4bbd 3f40 863e ecbe debd cd7f f4bc
00000090: 1292 74be dcc0 9ebc 8880 57be 0f48 22bd
000000a0: b613 7c3b 5c59 113e e112 cfbd 9192 303d
000000b0: b25d 153e 1ff6 d7bc 5b35 3b3e a21d 743e
000000c0: 7680 3cbe ab85 a0bd 89f4 b7bd a860 2dbe
000000d0: 44ca f43d bfae 8a3e c68f 793e 6b1b b43d
000000e0: c029 a73d 6fad b9bd 95f3 6bbc e10f 883c
000000f0: 3fd1 303e ed1c 4ebe 8df6 60be 4a0b 3fbe
00000100: dd79 3a3e 9fc7 3c3e 4418 383e 5d18 073e
00000110: ba2d 3f3e fd74 783e 7ba0 bebd cb69 6bbe
00000120: 6906 843e 4905 12be f5fd dfbd e629 543d
00000130: ca67 233d c150 f3bd e86d 343d b898 4d3c
00000140: 20f6 38be 8fc9 40bb 10f4 1dbb 3c48 603b
00000150: 7bdf 24be 4636 b5bd 4595 a5bd 00e6 79ba
00000160: c310 5f3e 076e 5dbd 4afc 123d fe6a 28be
00000170: 3ab2 40be df88 fe3d 395a 82bd 8139 3e3c
00000180: 4ed0 4ebd cba8 13bd 74c2 8ebd 4cc2 9bbd
00000190: bfbe b7bc a0fd 833e 1382 89be cbff 693d
000001a0: 7121 e7bd 4c4a f9bd ebb8 2a3e 24b0 19be
000001b0: f1c1 29be 0bc6 ddbc 8d3e 8abe 6b6e 4ebe
000001c0: e2c2 043e 7f1e b13c 7374 583e 3799 aa3d
000001d0: b415 02be 9a8c 413d d78d 7abe 3b0f 2c3d
000001e0: a42b 4dbe 60f4 05bd 6c63 173e 4917 d23d
000001f0: b7ea 8d3e 9437 933e 2a18 083e 561e b8bd
00000200: 888a 7ebe c91e 7abd 67db 87be dc4e 4cbd
00000210: 8712 f2bc 6c41 033e dca9 b43d 32d8 8bbe
00000220: 6126 02be 4a89 673e 5c93 50be fcae 413e
00000230: 00b5 b23d 1e96 35be 6ae9 0ebe 63ba 593e
00000240: 8475 a7bd d750 783e 21b3 e13c 34b5 683e
00000250: 7916 f43d b399 03be d3c9 2dbe d75c 44bc
00000260: d298 123e 16e9 85be c732 673e 0c27 88bd
00000270: bcf7 97be 27c8 45be d6f3 8a3e 6134 2cbe
00000280: 811d 80be cfda 2fbe 37fe 90bc 208e 15be
00000290: 15d9 c5bc b0ed 253c be31 863a 384e 5ebd
000002a0: dca0 363d e2df 85be f890 1ebe e306 243e
000002b0: d7ea 03be 2eac ac3d 53cb e0bd a8f5 f73d
000002c0: 5ec9 78be c3c1 89be 6527 59be 958f 6d3e
000002d0: e422 29be 8615 723b 42a0 4b3e fa89 633e
000002e0: 6a8c 23be 8927 06bd f238 103e d9ca 55be
000002f0: d4bc 613e cc03 e2bb 2278 8e3d 0b38 4cbe
00000300: aa8e 5bbe d8d7 5dbe bf20 e6ba 6a5b 08bd
00000310: 2e0a 7abe b5cc afbc 6c40 1ebe 6a28 1ebb
00000320: d667 893b 9001 57bd 2d33 00bd da71 65be
00000330: 88af b2bd 19a5 df3d 9fc3 323d f391 f6bd
00000340: f185 85be 171e 5ebe eb77 7b3e 9b74 0b3e
00000350: e217 733e 9315 b03d b53f 173d 1d78 973d
00000360: d5fc 643e 1f8c 16be d867 403e d2d8 873e
00000370: d14f 593e 121a 623e c4f3 803e 0b76 853d
00000380: 168a 3ebe c694 01be 4031 f93d a985 f3bc
00000390: caae 97be 0288 2b3e c622 04bb 2804 743e
000003a0: 746a 763e d831 813d 8ba8 94be 51f2 063e
000003b0: a57c 4abe 662b 44bd 70e9 5bbe 0afe 4bbe
000003c0: 1a07 40be 6f12 5e3d a6b3 08be 31b3 703e
000003d0: 59af 213e 15be 78be 7e72 2cbe 1566 6b3d
000003e0: 765a 803e 32a6 423e 8a3b 6fbe 9a20 43be
000003f0: c439 463e 6359 df3d 567a 553e 05f8 79be

user_tower.fc.0.bias f4 [128]
0.08768924 0.27226895 0.19719926 0.074240044 -0.19356826 -0.29651213 -0.22800271 -0.026667757
0.13081159 -0.06976175 -0.12733658 -0.076636545 -0.23341078 0.018770294 0.2941138 -0.082469605
-0.045369726 -0.037472866 -0.24436517 -0.09697379 0.19010924 0.16186096 -0.015915245 -0.082616
-0.2710132 -0.21047522 -0.27450505 -0.19587347 -0.21216281 -0.25459483 -0.22920956 0.11466183
0.20750189 -0.18943162 0.19900689 -0.22264536 0.09479741 0.2381059 -0.26581436 -0.2513017
0.21258464 -0.061563205 0.04287839 0.20992564 0.19797473 -0.0014025221 0.033419106 0.3123293
-0.22189069 0.25705358 0.25513276 -0.12416347 -0.1728626 0.2593701 0.15626001 0.16817328
0.28471854 0.1646011 -0.106286824 -0.19369186 -0.2517719 0.21495889 -0.021827321 0.2550547
-0.21056758 0.117003195 0.09191614 0.0708164 0.0009097805 0.03594509 -0.13187157 0.091555186
0.2566403 0.07201787 0.1885322 -0.18244809 0.2854653 0.10173262 0.31039026 0.27228805
0.026890762 0.04474169 0.16038467 -0.2636591 0.17072661 0.13672137 0.22190717 -0.17136952
0.26717284 -0.044707127 0.020214941 0.29138088 0.14819272 0.008203639 -0.09316591 0.23467174
0.20872577 -0.0019031959 0.040034767 -0.15422598 0.22572903 -0.14568537 -0.0399881 0.057412054
-0.08109802 -0.028537534 -0.018874975 0.15202416 -0.1988152 0.025651533 -0.047796674 0.2886309
-0.22247429 0.30528697 -0.13575916 0.24871048 -0.2606662 0.091309935 0.08538365 -0.05658899
-0.15762296 -0.023728384 -0.20637509 0.027402341 -0.22202529 -0.21683936 0.046694685 -0.2086907
00000000: 6b96 b33d d666 8b3e 9aee 493e 2a0b 983d
00000010: c236 46be 70d0 97be 8b79 69be 5776 dabc
00000020: 79f3 053e 40df 8ebd 8564 02be 9ff3 9cbd
00000030: 3c03 6fbe 29c4 993c 1696 963e d3e5 a8bd
00000040: 9bd5 39bd 267d 19bd dd3a 7abe 329a c6bd
00000050: ffab 423e e1be 253e b060 82bc 9432 a9bd
00000060: 3ec2 8abe d186 57be ed8b 8cbe 0e93 48be
00000070: 3541 59be 415a 82be e9b5 6abe d2d3 ea3d
00000080: 607b 543e 5dfa 41be 76c8 4b3e 25fd 63be
00000090: 2525 c23d 08d2 733e d218 88be 9eaa 80be
000000a0: caaf 593e b329 7cbd 40a1 2f3d bff6 563e
000000b0: e3b9 4a3e d5d4 b7ba 79e2 083d a0e9 9f3e
000000c0: 5037 63be 879c 833e c3a0 823e 6b49 febd
000000d0: e502 31be 28cc 843e a002 203e 9e35 2c3e
000000e0: a1c6 913e 318d 283e e8ac d9bd 2957 46be
000000f0: 3fe8 80be 2f1e 5c3e 36cf b2bc 8896 823e
00000100: 079f 57be 5f9f ef3d 873e bc3d 3008 913d
00000110: 567e 6e3a 293b 133d 5709 07be 4981 bb3d
00000120: 5b66 833e 1b7e 933d 960e 413e acd3 3abe
00000130: 8228 923e 3159 d03d 79eb 9e3e 5769 8b3e
00000140: 044a dc3c 1043 373d e13b 243e 53fe 86be
00000150: f5d2 2e3e b000 0c3e a23b 633e 7e7b 2fbe
00000160: e1ca 883e d21e 37bd ce99 a53c e02f 953e
00000170: d5bf 173e 8e68 063c c5cd bebd ca4d 703e
00000180: 35bc 553e a874 f9ba 7ffb 233d 6aed 1dbe
00000190: 8325 673e 8c2e 15be 90ca 23bd e728 6b3d
000001a0: b816 a6bd 8cc7 e9bc b19f 9abc 39ac 1b3e
000001b0: 3696 4bbe 2a23 d23c 72c6 43bd 6ec7 933e
000001c0: 4dd0 63be 934e 9c3e 7304 0bbe f6ad 7e3e
000001d0: 0a76 85be b400 bb3d a0dd ae3d dbc9 67bd
000001e0: ea67 21be 0762 c2bc fe53 53be e07a e03c
000001f0: 995a 63be 230b 5ebe ed42 3f3d 04b3 55be

user_tower.fc.3.weight f4 [64, 128]
0.023080904 -0.0037452348 0.08973617 -0.07385932 0.072762795 0.030190159 -0.034584466 0.0144739
-0.013569181 -0.03103705 -0.0855879 -0.02806571 -0.06312094 0.06416821 -0.055145808 -0.035991535
0.042925887 -0.019411642 -0.00035897965 -0.01578753 -0.012487364 0.017416088 -0.06927424 0.0639086
0.00036526358 -0.05405947 -0.019807559 -0.0077511324 0.026147824 -0.035603926 -0.027644657 0.01777193
0.005187276 0.012415754 -0.013529927 -0.074242905 0.05958916 -0.0026189492 0.00014143466 0.02012852
-0.0447595 0.077753246 0.023517365 -0.032944974 -0.05688878 -0.04312181 -0.040937264 0.04107819
0.08460825 -0.016435688 -0.0569516 0.05316134 -0.0087260725 0.040498786 0.08921767 0.07424066
-0.0121501535 -0.028635316 0.02362688 -0.01791966 0.04810331 -0.018461147 -0.037920333 0.09449234
0.031900544 0.00576757 0.037926916 0.09160019 0.05787481 0.012121763 0.059573215 -0.053550843
-0.0713891 -0.0031617691 0.044584516 -0.055038888 0.020789627 -0.04857433 -0.0583068 -0.03144736
-0.025887366 -0.06816056 0.03336898 -0.024859572 -0.034770284 -0.030780947 0.08550649 0.056433886
-0.01914606 0.046897884 -0.039938074 0.027299915 -0.0608126 0.037713185 0.00018207797 -0.05751694
0.039486263 0.025976598 0.027086115 -0.0311535 -0.013392037 0.02522926 -0.022189045 0.059185382
0.007405203 -0.055474848 -0.020450346 0.09280734 -0.070449576 0.057447735 0.033869397 -0.038218103
0.001038129 0.08523048 0.028224664 -0.0002804861 -0.0072334744 -0.036534768 -0.08028086 0.04831949
-0.06305028 -0.042049 -0.06951553 0.021982297 -0.008145387 -0.06061451 -0.018758446 -0.06669926
0.092534706 -0.062239908 -0.01725955 -0.050364997 -0.011832452 -0.0030927772 -0.05324926 0.027814476
0.08498128 0.022559298 -0.03057432 -0.051863126 -0.04773741 -0.0072950763 -0.013926067 -0.026373118
0.010992434 -0.013972983 0.00042428393 0.07889785 0.049453907 -0.000670557 -0.04552585 -0.05269215
0.034349956 0.01729853 -0.023989052 0.05938217 -0.0069784 -0.04920378 0.07561579 0.08875195
0.041083187 0.0011932284 0.06595 0.030454393 -0.07644097 0.076280534 -0.042651277 -0.010485565
0.045234274 0.019794857 0.007867556 -0.03337839 0.0016522841 0.10002477 -0.011701943 0.00289482
0.012400522 0.040989324 -0.03452548 -0.056738004 0.07952727 0.04402295 -0.034885313 -0.057242114
0.008933842 0.06544355 -0.08179748 0.039911795 0.044677053 0.05777245 0.06765885 -0.058687396
-0.03827398 -0.034782965 0.05997383 0.012286675 -0.047433183 0.007110097 -0.055005793 -0.014300572
0.029270133 0.0009726015 0.07940968 -0.0002764951 0.02543778 0.061035894 -0.07440291 0.012778117
-0.06118711 0.020850223 -0.017903956 0.0024486918 0.034302495 0.07483928 0.046188354 -0.08410165
0.0033084757 -0.06360435 -0.059636768 0.028513635 0.048882928 0.07835679 0.014809029 0.019172387
0.04778856 0.04182089 0.016448671 0.07636821 -0.023631763 0.0019415583 -0.035959497 0.025918357
0.06073857 0.08469027 0.05725775 0.056994937 -0.036520988 -0.062397733 -0.051916625 0.021428762
0.048418477 -0.04379836 0.029070552 0.08444614 -0.03671212 0.068703055 -2.0532694e-05 -0.019869018
0.0079252925 0.041118696 -0.022399088 0.041041214 0.051529866 0.014234127 -0.050577886 0.04311582
00000000: 2a14 bd3c 9d72 75bb 99c7 b73d 8e43 97bd
00000010: a904 953d 5a51 f73c 71a8 0dbd f023 6d3c
00000020: 4551 5ebc 6941 febc b548 afbd 0fea e5bc
00000030: 8d45 81bd 9f6a 833d 92e0 61bd dc6b 13bd
00000040: 0ed3 2f3d 2a05 9fbc 6f35 bcb9 da54 81bc
00000050: cd97 4cbc 2fac 8e3c a7df 8dbd 83e2 823d
00000060: d980 bf39 766d 5dbd 7643 a2bc 36fd fdbb
00000070: f633 d63c 6cd5 11bd 0c77 e2bc 7096 913c
00000080: 06fa a93b 726b 4b3c a0ac 5dbc aa0c 98bd
00000090: c313 743d ada2 2bbb 144e 1439 91e4 a43c
000000a0: bd55 37bd 183d 9f3d 7da7 c03c 4ff1 06bd
000000b0: 3604 69bd 7fa0 30bd d5ad 27bd 9b41 283d
000000c0: 1747 ad3d 23a4 86bc 1546 69bd b5bf 593d
000000d0: cdf7 0ebc 0ee2 253d c1b7 b63d 7d0b 983d
000000e0: 7011 47bc 9c94 eabc 298d c13c 40cc 92bc
000000f0: fa07 453d d53b 97bc 5a52 1bbd 3385 c13d
00000100: 25aa 023d e2fd bc3b 4159 1b3d e198 bb3d
00000110: 230e 6d3d 5c9a 463c 0b03 743d 2158 5bbd
00000120: 7334 92bd af35 4fbb 419e 363d 7570 61bd
00000130: 024f aa3c e0f5 46bd 1cd3 6ebd f2ce 00bd
00000140: be11 d4bc c497 8bbd e9ad 083d 4da6 cbbc
00000150: 496b 0ebd 5328 fcbc 071e af3d 3827 673d
00000160: 33d8 9cbc ff17 403d 1b96 23bd 12a4 df3c
00000170: a216 79bd 2479 1a3d 2fec 3e39 e296 6bbd
00000180: 59bc 213d e0cc d43c b3e3 dd3c a035 ffbc
00000190: 466a 5bbc 98ad ce3c cdc5 b5bc 5f6c 723d
000001a0: 58a7 f23b 9839 63bd 7c87 a7bc c611 be3d
000001b0: de47 90bd 514e 6b3d a3ba 0a3d 968a 1cbd
000001c0: d411 883a 518d ae3d 6937 e73c 350e 93b9
000001d0: c806 edbb 7ba5 15bd 4b6a a4bd a8ea 453d
000001e0: 8120 81bd 923b 2cbd 285e 8ebd 3814 b43c
000001f0: 3b74 05bc ec46 78bd 50ab 99bc 9f99 88bd
00000200: d682 bd3d 46ef 7ebd e663 8dbc 874b 4ebd
00000210: e7dc 41bc 31b0 4abb e51b 5abd 2fdb e33c
00000220: aa0a ae3d 47ce b83c ff76 fabc 6e6e 54bd
00000230: 4d88 43bd 890b efbb 292a 64bc 700c d8bc
00000240: 9c19 343c f0ee 64bc 6d72 de39 3295 a13d
00000250: 2e90 4a3d 52c8 2fba 5079 3abd b9d3 57bd
00000260: 8ab2 0c3d a6b5 8d3c b084 c4bc b83a 733d
00000270: 10ab e4bb e789 49bd 74dc 9a3d 95c3 b53d
00000280: d846 283d 1a66 9c3a cb10 873d 7e7b f93c
00000290: 158d 9cbd f838 9c3d 1bb3 2ebd a6cb 2bbc
000002a0: 9347 393d d328 a23c ece6 003c c7b7 08bd
000002b0: 7491 d83a c9d9 cc3d 82b9 3fbc 05b7 3d3b
000002c0: 8f2b 4b3c 6ce4 273d 976a 0dbd 1c66 68bd
000002d0: 31df a23d 6951 343d e7e3 0ebd b576 6abd
000002e0: 405f 123c 4507 863d 7085 a7bd 8d7a 233d
000002f0: 49ff 363d cea2 6c3d b990 8a3d 3262 70bd
00000300: 2dc5 1cbd 9578 0ebd 1ea7 753d 0d4e 493c
00000310: 4c49 42bd d1fb e83b c14d 61bd f24c 6abc
00000320: ebc7 ef3c 2ff6 7e3a 8ba1 a23d 8bf6 90b9
00000330: e462 d03c c600 7a3d 8e60 98bd 4f5b 513c
00000340: 569f 7abd 16ce aa3c 51ab 92bc 3b7a 203b
00000350: c680 0c3d 5645 993d 0030 3d3d 7c3d acbd
00000360: 03d3 583b ff42 82bd af45 74bd 6d95 e93c
00000370: 7739 483d 8679 a03d 92a1 723c 690f 9d3c
00000380: f0bd 433d 624c 2b3d 5dbf 863c f066 9c3d
00000390: 6697 c1bc e37b fe3a 444a 13bd bc52 d43c
000003a0: 02c9 783d 1872 ad3d 1a87 6a3d 8673 693d
000003b0: 0897 15bd c494 7fbd 87a6 54bd 5f8b af3c
000003c0: 7452 463d e965 33bd 5e25 ee3c 19f2 ac3d
000003d0: 735f 16bd 30b4 8c3d a03d acb7 5ac4 a2bc
000003e0: 16d9 013c 146c 283d 4b7e b7bc d51a 283d
000003f0: fb10 533d 4136 693c c22a 4fbd 379a 303d

user_tower.fc.3.bias f4 [64]
-0.043811888 0.09463139 -0.040396232 -0.04673795 0.069768205 0.064523734 -0.00729251 -0.08243321
-0.039610498 0.06033425 0.054332107 -0.01819649 -0.06594773 0.06619551 0.08276082 -0.105686076
0.08399701 0.01762435 0.00019950134 0.011811658 0.037590474 0.04466228 -0.07717732 0.044783924
0.01684149 0.027531305 0.022295145 -0.08379662 -0.06382116 0.06870342 0.06155784 -0.06327068
-0.035754323 0.08217167 -0.006967623 0.041888524 0.027186312 -0.07885745 -0.015171137 -0.031356417
-0.053830013 0.06396481 -0.09453792 -0.060196713 0.055046853 0.0025958498 -0.07274939 -0.08521719
-0.053054065 -0.0022324687 0.029905016 0.012477309 -0.035249345 0.0024622665 0.07077515 0.024796104
-0.01908273 -0.043659076 -0.038214944 0.012677453 0.060101394 0.001514452 -0.060366347 -0.017282963
00000000: 1874 33bd 1ace c13d 8576 25bd 4b70 3fbd
00000010: a2e2 8e3d 0525 843d 02f6 eebb bed2 a8bd
00000020: 9e3e 22bd 0c21 773d 588b 5e3d ce10 95bc
00000030: 9a0f 87bd 8391 873d 817e a93d f171 d8bd
00000040: a006 ac3d f160 903c 3c31 5139 af85 413c
00000050: 78f8 193d cbef 363d 250f 9ebd 596f 373d
00000060: 2af7 893c 5589 e13c 4fa4 b63c 909d abbd
00000070: abb4 82bd 61b4 8c3d 1324 7c3d 0f94 81bd
00000080: 2073 12bd 9f49 a83d a850 e4bb 4d93 2b3d
00000090: d4b5 de3c 0480 a1bd 5c90 78bc 966f 00bd
000000a0: dc7c 5cbd fbff 823d 199d c1bd d490 76bd
000000b0: cf78 613d 221f 2a3b a2fd 94bd 5a86 aebd
000000c0: 384f 59bd 9c4e 12bb 5dfb f43c a16d 4c3c
000000d0: 9e61 10bd fa5d 213b 90f2 903d 3321 cb3c
000000e0: 6353 9cbc dcd3 32bd 4687 1cbd 18b5 4f3c
000000f0: e12c 763d 9480 c63a b442 77bd 0095 8dbc

item_tower.fc.0.weight f4 [128, 12]
-0.15773726 -0.20631471 0.24766292 0.011333195 0.21422647 -0.16016679 -0.043828875 0.25284356
-0.006273913 -0.14282918 0.21901935 -0.25422013 -0.12634632 -5.9167174e-05 0.23577487 0.29894084
-0.2582906 0.28305006 -0.2198546 0.063177906 0.2441192 0.24290867 -0.005365182 -0.22091809
-0.105491176 -0.08655299 -0.20156318 -0.20641284 0.21062462 0.030162133 0.17440817 0.08920602
-0.1839866 0.23428977 0.25679153 0.17430055 -0.14413723 -0.28140748 -0.02886248 0.10683838
-0.0919478 0.28897935 -0.014449172 0.14379832 0.03586045 -0.18621641 0.17841059 0.25516155
-0.023248592 -0.19023521 0.22338264 -0.24232146 -0.12103857 0.14409114 -0.17337629 -0.24211332
0.08944682 -0.26122904 0.25287262 0.21920756 -0.094621874 6.798023e-05 0.02069684 0.03833547
-0.006024801 -0.015439303 0.108621754 -0.16453831 -0.25875443 -0.257016 -0.0416979 -0.049695462
-0.006159951 -0.066311255 0.16754179 0.07317858 -0.22815466 0.05680811 0.12654383 0.08354927
-0.23457037 0.19241367 -0.12547131 0.217023 -0.14728418 0.03512074 0.18575074 -0.032276433
0.104276195 0.08929674 0.31428516 -0.07693585 -0.00047241687 0.19605044 0.19732922 -0.17765605
-0.07932723 0.1519268 -0.06747132 -0.079879425 -0.23360395 0.26189217 -0.17105007 -0.13972427
-0.18986061 0.23238613 -0.059733983 -0.18376748 0.035651263 -0.23669514 0.107573725 0.2523751
0.17921633 0.07659959 -0.12929274 0.16210932 0.12580052 0.2252298 -0.08684163 -0.06910824
0.16547385 -0.16462518 -0.14173833 0.090161055 -0.11845336 -0.07440625 -0.2214183 -0.08002663
0.024834463 0.084652856 0.075149864 0.016538944 0.0027285041 -0.112084314 -0.00025403264 -0.038171515
0.216793 -0.1401001 -0.16661187 0.08271788 0.08812094 0.07219027 -0.21812132 -0.019583093
0.0665977 -0.13277794 -0.06506256 0.23160361 0.055090573 -0.08671215 -0.02184255 0.17136209
-0.19302376 -0.17671458 0.14036195 -0.16918041 0.15094434 -0.17192228 0.24903387 -0.24305585
0.2097663 -0.17886403 0.15554847 -0.015406555 0.32088497 -0.01331449 0.1964218 -0.1934636
-0.20969966 0.27432445 0.23034176 -0.030627515 0.035696078 0.111744784 -0.099899024 -0.11045535
0.12170941 -0.10680873 0.0018537506 -0.18668878 0.16944149 -0.054813787 0.31958273 0.1510292
0.14449602 -0.14831915 0.053457946 -0.008026607 0.15589407 -0.13437459 0.23187707 -0.112601414
-0.18183394 -0.25257105 -0.09472385 -0.3003741 0.21525136 0.110467106 -0.22241645 0.22306888
-0.22267267 0.19193392 0.12629677 0.27920786 0.18345071 -0.06977277 0.27079397 0.04728396
-0.13824849 -0.16394013 0.16621503 -0.061265856 0.006586436 -0.004863254 -0.22206901 0.2519189
-0.019449055 -0.010037286 -0.05887592 0.11639564 -0.0012529965 -0.15174526 -0.053161226 -0.25536573
0.1373155 0.23607093 -0.035698045 -0.23142996 0.1930043 0.24735872 0.2723925 0.017723527
-0.24299413 0.13345589 0.06793476 0.05861233 0.04857225 0.28701237 0.1718745 -0.1408856
-0.09234789 0.251796 0.14760482 -0.18538205 -0.014480947 0.0014463271 0.18660054 -0.2534467
-0.23292997 0.07045727 -0.03029163 0.14087062 -0.014382951 -0.19141859 0.026748447 0.0074554356
00000000: e085 21be 2a44 53be 599b 7d3e ddae 393c
00000010: 2f5e 5b3e c302 24be e885 33bd b674 813e
00000020: 6695 cdbb d041 12be 9c46 603e 2429 82be
00000030: ee60 01be 452a 78b8 f86e 713e c60e 993e
00000040: aa3e 84be f0eb 903e 9021 61be 6b63 813d
00000050: 62fa 793e 0dbd 783e 69ce afbb 5a38 62be
00000060: c20b d8bd b242 b1bd 9466 4ebe e35d 53be
00000070: fbad 573e 9416 f73c 0e98 323e a5b1 b63d
00000080: fc66 3cbe a8e9 6f3e 2e7a 833e d87b 323e
00000090: b698 13be a414 90be 0271 ecbc 15ce da3d
000000a0: 214f bcbd 1af5 933e 38bc 6cbc de3f 133e
000000b0: 68e2 123d 84af 3ebe 44b1 363e 89a4 823e
000000c0: d573 bebc 05cd 42be 6bbe 643e 1e23 78be
000000d0: 12e3 f7bd a18c 133e 8e89 31be 8eec 77be
000000e0: e52f b73d d0bf 85be 8578 813e f277 603e
000000f0: 1dc9 c1bd 9c90 8e38 6b8c a93c a705 1d3d
00000100: b26b c5bb 21f5 7cbc 1575 de3d bb7c 28be
00000110: 767b 84be 9a97 83be 6bcb 2abd 788d 4bbd
00000120: 6ad9 c9bb 32ce 87bd 1390 2b3e a7de 953d
00000130: 60a1 69be 9faf 683d b594 013e e11b ab3d
00000140: 3733 70be 1708 453e 8d7b 00be 473b 5e3e
00000150: aad1 16be c4da 0f3d 7135 3e3e 4b34 04bd
00000160: c28e d53d 36e1 b63d fce9 a03e 8b90 9dbd
00000170: b8ae f7b9 72c1 483e ac10 4a3e 78eb 35be
00000180: 5176 a2bd b392 1b3e 672e 8abd d397 a3bd
00000190: e035 6fbe bb16 863e c027 2fbe e113 0fbe
000001a0: d26a 42be a1f6 6d3e 9fab 74bd 8b2d 3cbe
000001b0: 0f07 123d 3660 72be 9d4f dc3d 4f37 813e
000001c0: 7c84 373e 3fe0 9c3d 5165 04be fcff 253e
000001d0: dad1 003e a4a2 663e 06da b1bd 9f88 8dbd
000001e0: fa71 293e 8193 28be da23 11be 5ca6 b83d
000001f0: ad97 f2bd 4e62 98bd 7bbb 62be 00e5 a3bd
00000200: a571 cb3c 7a5e ad3d 2ce8 993d ae7c 873c
00000210: b4d0 323b 768c e5bd af2f 85b9 bc59 1cbd
00000220: fcfe 5d3e 6776 0fbe 4d9c 2abe fe67 a93d
00000230: c078 b43d 7ed8 933d 325b 5fbe b96c a0bc
00000240: 6064 883d f1f6 07be 853f 85bd 7f29 6d3e
00000250: a7a6 613d 2496 b1bd 26ef b2bc 8b79 2f3e
00000260: 05a8 45be abf4 34be 0bbb 0f3e a13d 2dbe
00000270: 2791 1a3e 650c 30be bc02 7f3e a2e3 78be
00000280: facc 563e 2228 37be 1948 1f3e c66b 7cbc
00000290: 094b a43e 0525 5abc cc22 493e 521b 46be
000002a0: 82bb 56be 4174 8c3e b6de 6b3e 8ee6 fabc
000002b0: 0d36 123d 73da e43d dc97 ccbd 6a36 e2bd
000002c0: c842 f93d 89be dabd 8cf9 f23a 582b 3fbe
000002d0: 1282 2d3e 6c84 60bd 59a0 a33e 66a7 1a3e
000002e0: c4f6 133e fae0 17be b8f6 5a3d 0882 03bc
000002f0: b2a2 1f3e 7e99 09be 2f71 6d3e 929b e6bd
00000300: ad32 3abe fe50 81be 94fe c1bd a2ca 99be
00000310: da6a 5c3e 943c e23d 23c1 63be 2b6c 643e
00000320: 4e04 64be 538a 443e f153 013e 55f4 8e3e
00000330: 81da 3b3e 07e5 8ebd 82a5 8a3e d3ac 413d
00000340: 0391 0dbe ecdf 27be 4634 2a3e e8f1 7abd
00000350: 08d3 d73b ee5b 9fbb 0f66 63be 84fb 803e
00000360: a053 9fbc 6e73 24bc e027 71bd d660 ee3d
00000370: 963b a4ba 1c63 1bbe 96bf 59bd 4cbf 82be
00000380: 6f9c 0c3e 94bc 713e 1d38 12bd fafb 6cbe
00000390: eba2 453e 9b4b 7d3e 0877 8b3e ee30 913c
000003a0: 74d3 78be a9a8 083e 6121 8b3d 7c13 703d
000003b0: b2f3 463d 49f3 923e deff 2f3e 5144 10be
000003c0: e420 bdbd 68eb 803e b825 173e cbd4 3dbe
000003d0: 7e41 6dbc af92 bd3a 3614 3f3e c4c3 81be
000003e0: 3285 6ebe e74b 903d 2726 f8bc 6340 103e
000003f0: 78a6 6bbc 3c03 44be 8f1f db3c ba4c f43b

item_tower.fc.0.bias f4 [128]
0.023833573 -0.24823844 0.2479634 0.05699871 0.2570897 0.20756342 -0.10286392 0.01636989
-0.1372837 0.025954407 0.072779834 -0.14998452 0.06572683 0.15973802 0.01136489 -0.24412735
-0.13453406 -0.11031176 -0.08493328 -0.041825954 0.16975842 -0.16907413 0.24829851 -0.2122515
-0.10799812 0.00013489509 0.15609771 -0.15107054 0.20385762 0.24276096 0.07782343 -0.22597632
0.25881395 -0.11262226 0.23265514 -0.14095363 0.28202325 0.22239672 -0.1422596 -0.19730341
-0.06149487 0.10057155 -0.1876431 0.12545198 -0.14070386 -0.17093056 0.2621926 -0.035505243
-0.1511185 0.25939697 -0.20841476 -0.2238168 -0.091514565 -0.053958185 0.13576932 0.08972756
-0.10022265 -0.06300947 0.1630568 0.12854743 -0.045215838 -0.14135931 -0.112992235 -0.06837502
0.06857321 0.20828207 -0.14095029 0.26209357 0.07106976 0.16157165 0.07755552 0.079529434
0.18981941 -0.10936 0.20595865 -0.05424267 0.2177013 -0.22731864 -0.13087931 0.12518765
0.0902326 -0.0328891 -0.08737423 0.2438428 0.13497181 -0.09158955 0.19953753 -0.21364567
-0.06590718 0.26184762 0.27758232 -0.14836814 0.12098098 0.09655663 -0.05276261 -0.04407651
-0.13935436 0.018159889 0.05895385 -0.21978407 0.034116957 0.12116283 0.14048766 0.17967644
-0.027836462 -0.183728 0.2719791 -0.21656455 0.2587545 0.16070831 -0.0486314 -0.20308681
0.26741076 0.043615606 -0.015307132 -0.051670432 -0.31187752 -0.063894995 0.22328699 -0.15268143
-0.03174656 0.16189903 -0.22042918 -0.21871246 0.1299721 0.0007160863 0.19170994 -0.1164041
00000000: a03e c33c 3832 7ebe 1eea 7d3e 7b77 693d
00000010: 43a1 833e 818b 543e 52aa d2bd 261a 863c
00000020: 1994 0cbe 569e d43c 980d 953d 8b95 19be
00000030: ca9b 863d 5d92 233e ce33 3a3c 85fc 79be
00000040: 4cc3 09be 22eb e1bd 80f1 adbd b151 2bbd
00000050: 27d5 2d3e c521 2dbe f741 7e3e 7558 59be
00000060: 1e2e ddbd a072 0d39 14d8 1f3e 3cb2 1abe
00000070: 0dc0 503e 5496 783e e461 9f3d 5666 67be
00000080: 4383 843e 80a6 e6bd 263d 6e3e 2656 10be
00000090: 5a65 903e f7bb 633e 80ac 11be e809 4abe
000000a0: 0be2 7bbd 75f8 cd3d 8325 40be 7c76 003e
000000b0: ac14 10be 6c08 2fbe 1c3e 863e f26d 11bd
000000c0: cfbe 1abe aecf 843e ae6a 55be 3b30 65be
000000d0: fd6b bbbd 4203 5dbd 1d07 0b3e 15c3 b73d
000000e0: 8841 cdbd 1c0b 81bd 5df8 263e f0a1 033e
000000f0: 3e34 39bd 7fc0 10be 7968 e7bd 3408 8cbd
00000100: 1c70 8c3d e547 553e 4655 10be 2131 863e
00000110: 068d 913d 0a73 253e 6ed5 9e3d 54e0 a23d
00000120: 0560 423e 23f8 dfbd d3e6 523e 902d 5ebd
00000130: 17ed 5e3e 38c6 68be 3a05 06be 3131 003e
00000140: dfcb b83d b9b6 06bd 43f1 b2bd edb1 793e
00000150: 0d36 0a3e 4d93 bbbd 9153 4c3e eec5 5abe
00000160: 58fa 86bd e410 863e 451f 8e3e d1ed 17be
00000170: e0c4 f73d 7cbf c53d 9b1d 58bd 9289 34bd
00000180: e9b2 0ebe 0cc4 943c 9879 713d 130f 61be
00000190: 39be 0b3d 3824 f83d ffdb 0f3e 1afd 373e
000001a0: 4b09 e4bc 3123 3cbe d840 8b3e 19c3 5dbe
000001b0: 787b 843e b890 243e b831 47bd fdf5 4fbe
000001c0: 10ea 883e 47a6 323d c4ca 7abc 60a4 53bd
000001d0: 69ae 9fbe 61db 82bd 58a5 643e 8558 1cbe
000001e0: ae08 02bd dcc8 253e 30b8 61be 29f6 5fbe
000001f0: 6817 053e bdb7 3b3a 9c4f 443e 4665 eebd

item_tower.fc.3.weight f4 [64, 128]
0.080472596 0.08043835 0.048675943 -0.0598456 0.026665874 0.019216783 0.019775037 0.0573653
0.053235237 0.007578289 0.008528729 -0.055157453 -0.095961526 0.02240369 0.06678569 0.080963485
0.060466837 -0.022554295 0.08399568 0.047665633 0.012226798 0.03734875 -0.050758198 -0.0560435
-0.0068096733 0.030507436 0.10644388 0.028716117 0.02946737 0.04739819 0.024231235 0.07562036
-0.07105035 0.02823916 0.023639394 0.085254915 0.08031357 0.07230756 -0.03318346 -0.0639706
-0.021253549 0.023233434 0.08150698 0.052034445 0.104163475 0.025869297 0.041892946 0.010449029
0.09522578 0.0027331645 0.038342465 0.06985588 -0.09982432 -0.0161351 -0.07783071 -0.04929409
0.040804535 -0.041617706 0.07235634 -0.04154803 -0.0018100956 -0.08724372 0.075293526 -0.016224641
0.038777806 -0.037240837 0.03477769 0.039158467 0.03216384 -0.03206844 0.105371945 0.060035914
-0.038237322 0.045519967 -0.06668748 0.0652641 0.042192806 0.014544845 0.040813144 0.053035818
-0.05688502 0.03370904 -0.020208856 -0.0458088 0.11190042 -0.048416052 -0.047051124 -0.06191106
-0.016786331 -0.04604962 0.04876526 0.053033922 0.013188253 -0.026338581 0.009388518 -0.070288725
-0.019877445 -0.035804622 0.016918095 -0.028538516 0.0941896 -0.030431194 -0.04537357 0.027371246
0.087528795 0.039346635 0.009037782 0.08739263 0.093092084 0.012342128 0.11778385 -0.054478686
-0.021414854 0.044908304 -0.040380694 0.013818134 -0.0548537 -0.0073533216 0.016514784 -0.00092390587
0.0357381 0.112547696 -0.05512182 -0.0075602047 0.016287867 -0.03737157 0.01764344 0.0007041348
-0.03386981 0.0153779285 0.050310105 -0.087234624 -0.07484268 -0.025046322 0.0027901186 -0.010408459
0.044823483 0.065418296 -0.08754275 0.029938364 -0.01417153 -0.0567352 0.11061101 0.025841685
-0.057601918 -0.06092187 0.0932486 0.08970289 0.06692205 0.039709 0.10452438 -0.105473
0.00037010096 -0.01976553 -0.0037544414 -0.048694596 -0.043947365 -0.03630608 0.039856486 0.09647554
0.0082955565 0.08670158 0.015630186 -0.040475074 -0.07768919 0.09373422 -0.055106044 0.057483964
0.0005144901 0.09026057 0.07339876 -0.050957926 0.048802562 0.10572226 -0.020693574 -0.040668085
0.055103738 0.053479128 0.05792408 0.027505998 0.027373647 -0.047692217 -0.025489895 0.07504508
0.027645908 0.002471539 -0.0071536154 0.06305638 0.10410005 -0.048996147 0.111738 -0.044145048
0.062263712 0.11168566 0.06283206 -0.0787133 -0.032275163 0.02690868 -0.04864939 0.012139946
0.039756615 0.08804636 -0.038073752 0.014313151 0.044655398 -0.0034417512 0.025509031 0.054106895
0.010097084 0.01595951 0.09290637 0.0586358 0.06020698 0.102299936 0.052296527 -0.085461415
0.089663215 -0.0025975762 -0.0013234551 0.055376936 0.049127646 -0.06085029 0.057131708 -0.07036749
-0.026653884 -0.034978285 0.04984081 -0.045817647 0.07844612 -0.014071731 0.006500498 0.013410338
0.0688874 0.05163311 0.018889643 0.038065054 -0.026594168 0.00068827206 -0.014315577 0.011586931
0.02276631 -0.07309986 0.10218704 -0.0023987917 0.022593295 0.102719344 0.03371902 0.007426922
0.031837564 0.0089247115 0.0027463222 0.10541505 -0.054631338 0.035719715 0.06899155 -0.039198548
00000000: d1ce a43d ddbc a43d 6d60 473d a920 75bd
00000010: 6472 da3c 846c 9d3c 42ff a13c e0f7 6a3d
00000020: 310d 5a3d 4c53 f83b 15bc 0b3c c8ec 61bd
00000030: 7a87 c4bd f187 b73c f0c6 883d 2fd0 a53d
00000040: 13ac 773d c9c3 b8bc ed05 ac3d 0a3d 433d
00000050: e852 483c 01fb 183d d4e7 4fbd de8d 65bd
00000060: ae23 dfbb bbea f93c 40ff d93d 103e eb3c
00000070: 8e65 f13c 9b24 423d 9580 c63c d9de 9a3d
00000080: d982 91bd d055 e73c 67a7 c13c 219a ae3d
00000090: 717b a43d fc15 943d 61eb 07bd 0503 83bd
000000a0: ec1b aebc 0b54 be3c 22ed a63d 1222 553d
000000b0: a953 d53d d9eb d33c f097 2b3d 6732 2b3c
000000c0: bc05 c33d e41e 333b fd0c 1d3d 9a10 8f3d
000000d0: b170 ccbd c22d 84bc b565 9fbd 9ae8 49bd
000000e0: a822 273d 5477 2abd 902f 943d 442e 2abd
000000f0: bb40 edba d6ac b2bd 7e33 9a3d 8ae9 84bc
00000100: 7ad5 1e3d d989 18bd 0d73 0e3d a164 203d
00000110: 3bbe 033d 325a 03bd 3fcd d73d 38e8 753d
00000120: bd9e 1cbd 2573 3a3d 7293 88bd 2fa9 853d
00000130: 5dd2 2c3d 804d 6e3c af2b 273d 163c 593d
00000140: 4400 69bd 7e12 0a3d 0b8d a5bc 02a2 3bbd
00000150: 0c2c e53d e94f 46bd aeb8 40bd 7496 7dbd
00000160: 7d83 89bc 879e 3cbd 15be 473d 193a 593d
00000170: 8b13 583c 02c4 d7bc 4cd2 193c 89f3 8fbd
00000180: 06d6 a2bc dea7 12bd d197 8a3c 9bc9 e9bc
00000190: 7ae6 c03d d74a f9bc a3d9 39bd aa39 e03c
000001a0: 4c42 b33d f029 213d 3513 143c e8fa b23d
000001b0: 10a7 be3d a336 4a3c a938 f13d 0b25 5fbd
000001c0: 346e afbc c5f1 373d 3a66 25bd 7465 623c
000001d0: 46ae 60bd 22f4 f0bb 034a 873c 4632 72ba
000001e0: 1d62 123d 687f e63d 6bc7 61bd 98bb f7bb
000001f0: 226e 853c ee12 19bd fa88 903c b095 383a
00000200: 12bb 0abd b5f3 7b3c f811 4e3d 11a8 b2bd
00000210: 1e47 99bd f22d cdbc 6cda 363b 3e88 2abc
00000220: d498 373d 07fa 853d 9d49 b3bd 4d41 f53c
00000230: b42f 68bc 2b63 68bd 0688 e23d f1b1 d33c
00000240: fdef 6bbd 3689 79bd 1ff9 be3d 26b6 b73d
00000250: 6e0e 893d e8a5 223d e110 d63d 3a02 d8bd
00000260: 1c0a c239 52eb a1bc 130d 76bb fc73 47bd
00000270: 2702 34bd afb5 14bd 8e40 233d f894 c53d
00000280: 16ea 073c 9990 b13d e00a 803c 31c9 25bd
00000290: 831b 9fbd baf7 bf3d e0b6 61bd 4e74 6b3d
000002a0: d9de 063a 89da b83d 1752 963d 42b9 50bd
000002b0: 32e5 473d ea84 d83d 9285 a9bc 9493 26bd
000002c0: 75b4 613d ee0c 5b3d cd41 6d3d 4254 e13c
000002d0: b33e e03c ea58 43bd 2fd0 d0bc 3cb1 993d
000002e0: ac79 e23c 8bf9 213b e068 eabb b423 813d
000002f0: 6832 d53d 2fb0 48bd e4d6 e43d 70d1 34bd
00000300: 3c08 7f3d 74bb e43d 18ae 803d 7034 a1bd
00000310: f632 04bd 986f dc3c 9544 47bd a0e6 463c
00000320: d5d7 223d a651 b43d 39f3 1bbd b581 6a3c
00000330: 94e8 363d 018f 61bb 51f8 d03c 319f 5d3d
00000340: 3d6e 253c 85bd 823c b245 be3d 182c 703d
00000350: 989b 763d a182 d13d e234 563d 6506 afbd
00000360: 59a1 b73d 193c 2abb c977 adba edd2 623d
00000370: 123a 493d 273e 79bd f002 6a3d d51c 90bd
00000380: 3f59 dabc 6445 0fbd e125 4c3d 49ab 3bbd
00000390: 5ca8 a03d 1e8d 66bc 2102 d53b 09b7 5b3c
000003a0: d614 8d3d 3d7d 533d 74be 9a3c 1aea 1b3d
000003b0: 03dc d9bc 286d 343a e28b 6abc 1cd7 3d3c
000003c0: 6a80 ba3c 61b5 95bd 7047 d13d 0c35 1dbb
000003d0: 9315 b93c 855e d23d f51c 0a3d 8a5d f33b
000003e0: 1b68 023d f438 123c a4fb 333b d9e3 d73d
000003f0: 1cc5 5fbd d64e 123d 714b 8d3d a88e 20bd

item_tower.fc.3.bias f4 [64]
0.062989525 0.031562492 0.088522606 0.03966305 -0.021446832 0.026451232 -0.06866778 0.012840376
0.0637051 0.0025079981 -0.008360943 0.046633404 0.041403 -2.7347327e-05 -0.0860908 -0.04269346
-0.08364329 -0.063449405 0.022818906 0.07473493 -0.011625317 0.065467045 0.04750462 -0.08938887
-0.05257267 0.06778446 -0.0032068135 -0.0039057473 0.035286583 -0.020359524 -0.051772565 -0.029921558
0.04393535 0.040948436 -0.06928711 0.00476764 0.06826126 -0.004322555 -0.0060352986 0.055107493
0.035702776 0.046477214 0.040262725 0.019547334 0.0806017 -0.01953957 -0.09485721 0.035523586
0.010659683 -0.0029341038 0.010176808 0.04929457 0.004826507 -0.06678195 0.038296487 0.08545834
-0.049955197 0.05844417 0.032390453 -0.069504485 0.060648438 -0.01020384 -0.0067559723 0.046014305
00000000: a700 813d ac47 013d 574b b53d b975 223d
00000010: 44b1 afbc 41b0 d83c b1a1 8cbd 7160 523c
00000020: d277 823d 3a5d 243b 56fc 08bc ab02 3f3d
00000030: 3196 293d f067 e5b7 6050 b0bd 56df 2ebd
00000040: 2c4d abbd c3f1 81bd b7ee ba3c a10e 993d
00000050: 1d78 3ebc 9613 863d 3494 423d 8311 b7bd
00000060: 7156 57bd 94d2 8a3d 6729 52bb 91f7 7fbb
00000070: aa88 103d 04c9 a6bc 780f 54bd 0e1e f5bc
00000080: 8ef5 333d 8cb9 273d 66e6 8dbd dd39 9c3b
00000090: 8fcc 8b3d 38a4 8dbb c1c3 c5bb 65b8 613d
000000a0: 133d 123d e45e 3e3d 87ea 243d bb21 a03c
000000b0: 8112 a53d 7311 a0bc 7f44 c2bd 2e81 113d
000000c0: f3a5 2e3c 184a 40bb a0bc 263c 1ae9 493d
000000d0: ad27 9e3b fac4 88bd c7dc 1c3d c804 af3d
000000e0: d29d 4cbd 2763 6f3d daab 043d 5e58 8ebd
000000f0: 7f6a 783d 022e 27bc 3461 ddbb 7f79 3c3d

fc.0.weight f4 [64, 128]
0.01507652 -0.023757806 0.051400296 -0.017862802 0.029341977 0.0089803375 -0.0011488413 -0.057319507
0.0053884718 0.033151027 0.022710208 -0.016491981 -0.008958619 -0.029863212 0.027686318 0.024602942
0.004353054 0.004292196 -0.038463347 0.016134694 -0.038503166 0.003444176 -0.036281005 -0.0195466
-0.028852832 -0.0025094822 0.053322017 0.012830752 -0.05093772 -0.047863293 0.012289705 0.0029385579
-0.07473472 0.003289634 -0.034726504 0.026193522 0.033366278 0.054384325 0.00018250316 -0.056150652
0.025737807 -0.06418635 -0.018100228 -0.042663656 4.2964384e-05 0.02484839 0.067487374 0.026822168
0.018738128 0.016762566 -0.047817513 -0.07164932 -0.038632117 0.036596734 -0.025623715 -0.050413854
0.073805995 -0.040607348 -0.014515583 0.073636055 0.010286538 -0.008892662 0.016962958 0.05855951
0.024658972 -0.003226655 -0.036412504 0.0005145408 -0.06132604 0.00164352 -0.022406267 -0.062019918
-0.05216394 0.0996393 0.032151576 -0.018994471 0.0055316887 -0.0065545086 -0.05263174 -0.07590353
0.08588868 -0.06951517 -0.053850945 0.045387253 0.044760734 -0.0058577848 0.007370306 -0.0085013015
0.030301988 -0.04533853 -0.05901278 -0.045759756 0.04010121 -0.06346174 0.0022334256 -0.09858257
-0.037999112 0.054540772 0.020660412 -0.034036625 0.024657752 0.0018343036 0.024395978 0.051588856
0.06355594 -0.0041317246 -0.062093403 0.05437615 0.08912847 0.030341517 -0.0054621515 0.056702215
-0.018198017 0.015475092 0.011221845 0.051654357 0.015557879 0.007974258 0.089001656 -0.03904211
0.009529967 0.03225363 0.029515054 0.018970007 0.036961094 0.040142797 -0.015238091 -0.041058887
0.0011921055 0.049436502 -0.0895304 0.047999863 0.039495572 0.005384977 -0.0042763567 0.012673574
-0.014412008 0.071708195 0.07744194 -0.02762257 0.02450899 -0.007974621 0.075639375 -0.011098878
-0.02137203 0.05235365 0.03181451 -0.038159445 -0.09704741 -0.030406334 0.063258156 -0.038608547
0.023181975 0.023497505 -0.07856537 0.045697458 -0.039439272 -0.020390054 -0.05640366 -0.00076479954
0.07507097 0.0684145 -0.009904207 0.09788336 0.0057714446 0.057619642 0.039063625 -0.0855577
-0.022293145 -0.021156466 0.07778865 -0.061123826 0.051636882 -0.034756586 -0.015791755 -0.064018704
0.029704692 0.030571995 -0.06387144 0.04069766 -0.032669943 0.007142338 -0.047281712 -0.021471554
0.05434907 -0.018175567 -0.005146016 -0.048470438 0.015837666 0.08932408 0.0093884235 -0.036328368
0.045220908 -0.0493737 0.034767434 -0.09579057 0.009771438 0.05204069 -0.06758805 0.1144234
0.072998606 0.08335315 0.05747211 -0.021647671 0.02935393 -0.07222919 -0.00044647604 -0.079640724
0.028026853 -0.032252032 -0.07178712 0.022135485 -0.011641868 0.023052765 0.015497003 -0.055672087
-0.01187467 -0.0135321915 -0.020598054 0.011282652 -0.097275235 -0.0911551 -0.03551806 -0.097191185
-0.034975376 -0.037350677 -0.114119455 0.05449398 -0.0735739 0.03770782 0.026166897 -0.032424238
-0.10078241 0.0065631373 0.0070385383 -0.11061297 0.044640955 0.023280388 -0.03871448 -0.090657525
0.11269902 0.10849988 -0.05681395 0.063228026 0.036169667 0.041394267 -0.04082267 0.0074987635
-0.10105474 0.005398465 0.10938489 0.0008555617 -0.04502679 0.025270803 0.024658771 -0.037696537
00000000: 8203 773c bb9f c2bc 1e89 523d 0355 92bc
00000010: 965e f03c 4422 133c b894 96ba dcc7 6abd
00000020: c791 b03b 5fc9 073d c20a ba3c 311a 87bc
00000030: 2cc7 12bc b2a3 f4bc 6bce e23c 1c8c c93c
00000040: 10a4 8e3b 8da5 8c3b be8b 1dbd e82c 843c
00000050: 7fb5 1dbd afb7 613b 649b 14bd 3120 a0bc
00000060: c65c ecbc 2076 24bb 3068 5a3d 1338 523c
00000070: 12a4 50bd 4d0c 44bd c25a 493c d294 403b
00000080: 840e 99bd e696 573b 613d 0ebd cc93 d63c
00000090: 14ab 083d 19c2 5e3d 525e 3f39 3afe 65bd
000000a0: 18d8 d23c 2274 83bd ee46 94bc 16c0 2ebd
000000b0: a834 3438 da8e cb3c d236 8a3d 2aba db3c
000000c0: b480 993c a651 893c 4cdc 43bd e1bc 92bd
000000d0: b63c 1ebd 75e6 153d d3e8 d1bc c27e 4ebd
000000e0: 9927 973d e453 26bd c5d2 6dbc 80ce 963d
000000f0: de88 283c 87b2 11bc e7f5 8a3c 19dc 6f3d
00000100: 9d01 ca3c 4a76 53bb 4725 15bd 40e2 063a
00000110: 0431 7bbd 616b d73a 598d b7bc 9908 7ebd
00000120: dba9 55bd b00f cc3d 5fb1 033d 4b9a 9bbc
00000130: 2b43 b53b 34c7 d6bb 6194 57bd 4f73 9bbd
00000140: 67e6 af3d f85d 8ebd cf92 5cbd fce7 393d
00000150: 0857 373d a9f2 bfbb 9c82 f13b 0b49 0bbc
00000160: e03b f83c e5b4 39bd 63b7 71bd 956e 3bbd
00000170: 2b41 243d 3bf8 81bd aa5e 123b a9e5 c9bd
00000180: f5a4 1bbd 2566 5f3d 0640 a93c fd69 0bbd
00000190: 0eff c93c 046d f03a 13da c73c d64e 533d
000001a0: 9e29 823d 6b63 87bb a755 7ebd 87b9 5e3d
000001b0: fd88 b63d c68e f83c d9fb b2bb 9540 683d
000001c0: 0214 95bc 3e8b 7d3c d4db 373c 8593 533d
000001d0: 79e6 7e3c 76a6 023c 8046 b63d 9fea 1fbd
000001e0: 9423 1c3c 621c 043d 8ec9 f13c fd66 9b3c
000001f0: 8464 173d c66c 243d 30a9 79bc 5d2d 28bd
00000200: 6c40 9c3a ee7d 4a3d b75b b7bd 819b 443d
00000210: 1cc6 213d 7674 b03b ae20 8cbb d2a4 4f3c
00000220: 5820 6cbc bfdb 923d e199 9e3d ba48 e2bc
00000230: 14c7 c83c fca7 02bc d1e8 9a3d 12d8 35bc
00000240: 6514 afbc c870 563d ee4f 023d 144d 1cbd
00000250: cbc0 c6bd b416 f9bc 7e8d 813d ff23 1ebd
00000260: 20e8 bd3c d77d c03c e1e6 a0bd 422d 3b3d
00000270: 138b 21bd 0b09 a7bc 8607 67bd d47c 48ba
00000280: cfbe 993d e71c 8c3d 4145 22bc 1277 c83d
00000290: 631e bd3b 9302 6c3d 2e01 203d e038 afbd
000002a0: 1da0 b6bc 5350 adbc a84f 9f3d fa5c 7abd
000002b0: 3281 533d ec5c 0ebd b65d 81bc 3d1c 83bd
000002c0: 4157 f33c 1f72 fa3c 08cf 82bd 97b2 263d
000002d0: ebd0 05bd 460a ea3b 78aa 41bd 1de5 afbc
000002e0: 219d 5e3d ede4 94bc e99f a8bb f088 46bd
000002f0: febd 813c 8bef b63d e7d1 193c 0ecd 14bd
00000300: 8f39 393d 143c 4abd 4c68 0e3d d92d c4bd
00000310: 6218 203c 9e28 553d 9b6b 8abd d156 ea3d
00000320: 4b80 953d 0eb5 aa3d e067 6b3d 7556 b1bc
00000330: a777 f03c e6ec 93bd 0015 eab9 ad1a a3bd
00000340: 9298 e53c b51a 04bd 2005 93bd 7a55 b53c
00000350: 89bd 3ebc 27d9 bc3c 24e7 7d3c 6a08 64bd
00000360: fa8d 42bc 20b6 5dbc 40bd a8bc dfda 383c
00000370: 3d38 c7bd 86af babd 637b 11bd 2c0c c7bd
00000380: 5742 0fbd 06fd 18bd 76b7 e9bd 1435 5f3d
00000390: eaad 96bd 8473 1a3d f65b d63c 47cf 04bd
000003a0: 0267 cebd 960f d73b 8aa3 e63b 0e89 e2bd
000003b0: 6fd9 363d 83b6 be3c 1393 1ebd a7aa b9bd
000003c0: bece e63d 2f35 de3d bfb5 68bd b27d 813d
000003d0: a526 143d 098d 293d ac35 27bd 30b8 f53b
000003e0: caf5 cebd 9be5 b03b 2f05 e03d c647 603a
000003f0: 036e 38bd b704 cf3c 3101 ca3c af67 1abd

fc.0.bias f4 [64]
-0.07500913 0.021436451 -0.078827865 0.012384847 0.007842876 -0.0678767 -0.0007122664 0.09676787
-0.059151918 0.0021847663 0.009530201 -0.056656554 -0.010872667 0.025177727 0.010625625 -0.067377724
-0.04567462 0.06005933 -0.067956895 0.06074376 -0.07007742 -0.049953353 0.092972055 -0.09084087
0.023238195 0.075742655 -0.045130324 0.04672116 -0.005250831 -0.08040248 0.031755146 -0.05894063
0.0116989855 -0.030232728 -0.05274461 -0.050025657 0.07287133 0.04737064 -0.0311557 0.07012162
-0.028043717 -0.056006193 -0.043469455 0.033437762 0.040840574 0.05381941 0.031997755 -0.005226014
0.04827168 -0.0012314429 0.068573914 -0.02309778 0.012311182 -0.051448762 -0.030351616 0.0155266635
-0.054710124 0.0824351 0.07630601 0.04040939 -0.014829675 0.07249195 -0.049084693 -0.060546856
00000000: 639e 99bd 7f9b af3c 8170 a1bd d0e9 4a3c
00000010: 687f 003c f002 8bbd 64b7 3aba 3c2e c63d
00000020: 4849 72bd 4c2e 0f3b 8f24 1c3c b410 68bd
00000030: 4523 32bc 8541 ce3c 1a17 2e3c 55fd 89bd
00000040: 4f15 3bbd c600 763d fc2c 8bbd 73ce 783d
00000050: c084 8fbd e39b 4cbd 2268 be3d c70a babd
00000060: 075e be3c f71e 9b3d 93da 38bd b05e 3f3d
00000070: 2a0f acbb 0eaa a4bd af11 023d bb6b 71bd
00000080: 1aad 3f3c a0aa f7bc bb0a 58bd b4e7 4cbd
00000090: 903d 953d b707 423d 3d3a ffbc ed9b 8f3d
000000a0: f0bb e5bc c066 65bd 070d 32bd 09f6 083d
000000b0: 7248 273d be71 5c3d 1410 033d fc3e abbb
000000c0: 86b8 453d 5e68 a1ba 7b70 8c3d 8e37 bdbc
000000d0: d7b4 493c f0bb 52bd f4a3 f8bc 8c63 7e3c
000000e0: b917 60bd bcd3 a83d 5346 9c3d 5184 253d
000000f0: 2af8 72bc a976 943d 080d 49bd fbff 77bd

fc.3.weight f4 [1, 64]
0.001743242 -0.096914716 0.108698525 0.06440675 -0.09206031 -0.084156774 0.0072349664 -0.03121343
0.0921909 -0.057619922 -0.06788926 -0.1048386 0.013267488 0.084213726 0.080086045 0.11005887
0.024462275 0.10913372 0.030273255 -0.1063297 -0.09782204 0.012094205 -0.09675358 0.024183918
0.09295899 -0.017157316 0.0921127 0.07604834 -0.012367442 0.100171864 0.058693692 -0.03252498
-0.11593558 -0.08387183 0.020287922 -0.06487732 -0.04890729 -0.10580423 0.10477409 0.121855035
-0.11314114 -0.030930841 0.044607196 0.112050466 -0.058286782 0.056225732 0.11017431 0.06458359
0.0023605868 -0.06558234 -0.04871793 -0.048264235 -0.13047922 0.03440683 -0.06416943 -0.13578442
-0.113066696 -0.083904535 -0.10815638 -0.14064166 -0.028308194 -0.10844396 0.01589473 -0.11865141
00000000: 7f7d e43a 397b c6bd 559d de3d b0e7 833d
00000010: 1e8a bcbd 635a acbd 4c13 ed3b 4fb3 ffbc
00000020: 95ce bc3d de02 6cbd 8609 8bbd 9fb5 d6bd
00000030: e15f 593c 3f78 ac3d 2704 a43d 8b66 e13d
00000040: 1c65 c83c 8081 df3d 9eff f73c 63c3 d9bd
00000050: ec56 c8bd c626 463c be26 c6bd 5a1d c63c
00000060: 4861 be3d 808d 8cbc 95a5 bc3d 3bbf 9b3d
00000070: d0a0 4abc e826 cd3d cc68 703d ea38 05bd
00000080: a26f edbd fec4 abbd db32 a63c 66de 84bd
00000090: 0353 48bd e3af d8bd cc93 d63d 228f f93d
000000a0: 8bb6 e7bd ad62 fdbc 09b6 363d b77a e53d
000000b0: 1fbe 6ebd f44c 663d 12a3 e13d 6744 843d
000000c0: 13b4 1a3b 0950 86bd 748c 47bd b8b0 45bd
000000d0: 589c 05be 2dee 0c3d 436b 83bd 120b 0bbe
000000e0: 838f e7bd 24d6 abbd 1881 ddbd 5e04 10be
000000f0: 96e6 e7bc de17 debd aa35 823c 83ff f2bd
